MODELS/REWARD COMPARISON/SAC 10X20 MODELS/11_1_critic_target_2_local_network_20.pt (torch, 513799 bytes, 6 tensors)

hidden_layers.0.weight f4 [256, 201]
0	0xbe0bb67d	-0.13643833
1	0x3e61576a	0.22006002
2	0x3ec2bb27	0.3803341
3	0x3e1eafc3	0.15496735
4	0xbdc70f2f	-0.09719693
5	0xbd738b7b	-0.05945919
6	0xbe6e820b	-0.23291795
7	0xbe722c80	-0.23649788
8	0x3e3642f5	0.1779898
9	0xbcbff5bf	-0.02343261
10	0x3e35558c	0.17708415
11	0x3d75e83e	0.060035937
12	0x3d9e9642	0.07743503
13	0xbe9dac41	-0.30795482
14	0xbe1a3dbb	-0.15062611
15	0x3d82b4af	0.06382119
16	0x3def4149	0.11682374
17	0x3eb957ae	0.36199707
18	0xbd8d3c37	-0.06896251
19	0xbe3c15fb	-0.1836776
20	0x3d9e8da8	0.077418625
21	0x3e0db2a4	0.13837677
22	0x3f1ebeb5	0.62009746
23	0x3e459281	0.19294168
24	0x3dc39b55	0.095511116
25	0x3dd4e664	0.10395506
26	0xbd9cfd57	-0.07665508
27	0xbb44e5bb	-0.0030044157
28	0x3d623791	0.055228774
29	0x3ee79495	0.45230547
30	0x3dd87df1	0.105708964
31	0x3e8b5943	0.2721654
32	0x3e884479	0.2661474
33	0xbe3b3486	-0.18281755
34	0x3e3d146b	0.1846482
35	0x3e38da75	0.18052085
36	0x3e051fcd	0.13000412
37	0x3eaa41b2	0.33253247
38	0x3d6978b0	0.056999862
39	0xbc177187	-0.009243376
40	0xbe608777	-0.21926676
41	0x3dbcecbe	0.092248425
42	0x3e654664	0.22390133
43	0x3e407cc4	0.18797594
44	0x3ec9497d	0.3931388
45	0x3dbdd81f	0.092697375
46	0x3d84766a	0.06467898
47	0x3c8d25c0	0.017229915
48	0xbe25276a	-0.16128317
49	0x3db0078b	0.08595189
50	0x3dafa2ec	0.08575997
51	0x3d8cccf9	0.06875033
52	0x3deaa2df	0.114568464
53	0x3f27108c	0.65259624
54	0x3d8dab09	0.06917388
55	0x3e5d2cd0	0.21599126
56	0x3e0cd683	0.13753705
57	0xb9f38199	-0.0004644513
58	0xbe440208	-0.191414
59	0xbeb5af44	-0.3548528
60	0xbdbb523d	-0.09146545
61	0x3e15e30d	0.14637394
62	0x3e7da03c	0.24768156
63	0x3edc618e	0.43043178
64	0x3e0e2d87	0.13884555
65	0x3eba7ffb	0.36425766
66	0x3db032b3	0.0860342
67	0x3e29b40d	0.1657259
68	0x3e8ea85f	0.27862832
69	0x3e03334d	0.12812538
70	0xbdb29e03	-0.087215446
71	0x3dcae1ce	0.0990635
72	0x3dc19de7	0.094539456
73	0x3e3f8205	0.18701942
74	0x3bb6506a	0.0055637853
75	0x3de67d26	0.11254339
76	0xbbc9a190	-0.006153293
77	0xbec45948	-0.38349366
78	0xbd774456	-0.060367905
79	0x3e7129df	0.23551129
80	0x3d7d1584	0.061788097
81	0x3e3bdbdf	0.18345593
82	0xbe278ebd	-0.16363044
83	0xbcee6d83	-0.029104954
84	0x3e35040f	0.1767733
85	0x3e208f4e	0.15679666
86	0x3eb6e2ed	0.35720006
87	0x3e4fee3d	0.20305724
88	0x3e5347d2	0.20632866
89	0x3e05ba31	0.13059308
90	0x3b5c6d09	0.0033634326
91	0xbc28269e	-0.010263113
92	0x3e76bf2e	0.24096367
93	0x3e1c93fb	0.15290825
94	0xbe4042ef	-0.18775533
95	0x3d8fb549	0.07016999
96	0xbe72b995	-0.23703606
97	0xbe60ac21	-0.21940662
98	0xbe96c4d3	-0.2944704
99	0x3b86c84a	0.004113232
100	0xbcd42072	-0.025894377
101	0x3d614276	0.054995023
102	0xbd65ed26	-0.056134365
103	0xbe4f9dc1	-0.20275022
104	0xbe914a48	-0.28376985
105	0xbe1fa9de	-0.15592143
106	0x3da9edf8	0.08297342
107	0x3d6dfb6a	0.058101095
108	0xbdf2af30	-0.118498206
109	0xbe4e849d	-0.20167775
110	0xbe8c07cc	-0.273497
111	0xbe93e30e	-0.28884166
112	0x3d5aa872	0.0533833
113	0x3db31690	0.08744538
114	0xbe8c51ee	-0.27406257
115	0xbc29badc	-0.010359492
116	0xbdb37a21	-0.087635286
117	0x3e09173f	0.13387774
118	0xbe470ab1	-0.19437672
119	0x3e1c2fec	0.15252656
120	0x3d09c236	0.03363248
121	0x3d13cf95	0.036086638
122	0xbdf7a5b1	-0.1209215
123	0x3eb45efc	0.35228717
124	0xbda4cfe5	-0.08047465
125	0xbd337be8	-0.043819338
126	0xbd0e88c6	-0.034798406
127	0xbde043d6	-0.10950439
128	0xbea7d119	-0.32776716
129	0xbe7b554d	-0.24544258
130	0xbe229375	-0.15876563
131	0xbdbc428b	-0.091923796
132	0xbe2f41f4	-0.17115003
133	0x3cacb420	0.021081984
134	0xbe8e3a6e	-0.27778953
135	0xbc915fe8	-0.017745927
136	0xbc23f3c6	-0.010006851
137	0xbe94aab8	-0.29036498
138	0x3d863c13	0.06554427
139	0xbe708922	-0.23489812
140	0xbc83eb49	-0.016103404
141	0x3deb4660	0.11488032
142	0x3d04caa1	0.032419804
143	0x3ecc7ecd	0.3994049
144	0xbd88bd8f	-0.066767804
145	0x3e449b54	0.19199878
146	0x3df70210	0.1206094
147	0x3eb6157c	0.35563266
148	0x3e5f3e88	0.21801198
149	0x3dd5b5dc	0.104350775
150	0x3d60f889	0.05492452
151	0xbc7a298a	-0.015268693
152	0x3ef23550	0.473063
153	0xbde954f7	-0.11393159
154	0xbda791a4	-0.081820756
155	0x3dcf1bfe	0.10112761
156	0x3dca8db1	0.09890307
157	0x3e9a6c70	0.30160856
158	0xbe96b215	-0.2943274
159	0x3e876fbd	0.26452437
160	0x3e3ae88e	0.18252775
161	0x3dee5349	0.11636979
162	0x3e8bfc06	0.27340716
163	0x3eddb8b9	0.43304995
164	0x3e75c195	0.23999627
165	0x3e9481a4	0.29005158
166	0x3ddd89c2	0.10817291
167	0xbd8ebaa4	-0.069691926
168	0x3da22fe9	0.079192944
169	0x3dacd234	0.084385306
170	0x3e6e1bf2	0.23252848
171	0x3e1b7eaf	0.15185045
172	0x3eba09ee	0.363357
173	0x3e81911e	0.25306028
174	0x3e225b30	0.15855098
175	0x3e9fff60	0.31249523
176	0x3e085d59	0.1331686
177	0x3eebf5f9	0.460861
178	0x3f15328b	0.5828025
179	0x3f19570b	0.5989844
180	0xbd27140a	-0.040790595
181	0x3c80621b	0.01567178
182	0x3e8aae52	0.2708612
183	0x3ed84d04	0.42246258
184	0x3de40cfe	0.111352906
185	0x3e9a3e56	0.30125684
186	0xbe972801	-0.29522708
187	0xbe0ed5fc	-0.13948816
188	0x3ddf980e	0.10917674
189	0x3dca354e	0.09873448
190	0x3ebab3d4	0.36465323
191	0x3e13acba	0.14421359
192	0x3e42d92c	0.19028157
193	0x3e2ba4ce	0.16762087
194	0x3eb593c7	0.35464308
195	0x3f1a74c4	0.6033442
196	0x3edd0095	0.43164507
197	0xbd80ce67	-0.06289368
198	0x3ebb23d4	0.36550772
199	0x3e9a60c9	0.30151966
200	0xbe225b00	-0.15855026
201	0x3d1809cd	0.03711872
202	0x3c7f4ae3	0.015581819
203	0x3e4b3901	0.19845964
204	0x3e89d12b	0.26917395
205	0xbe053c74	-0.13011342
206	0xbe4ba080	-0.19885445
207	0x3e99253e	0.29911226
208	0xbdbbc9d8	-0.09169358
209	0xbec6e60c	-0.38847387
210	0x3cf19481	0.029489757
211	0xbe4ff9d5	-0.20310147
212	0xbd94a41c	-0.07257864
213	0x3e79775f	0.24361943
214	0xbec3dad6	-0.38252896
215	0x3e987930	0.2977996
216	0xbe4ed3f6	-0.20198044
217	0x3de76142	0.11297847
218	0x3dbde9ab	0.09273084
219	0x3e389588	0.18025792
220	0xbd6a429f	-0.05719244
221	0x3e047f49	0.1293918
222	0xbc1a5559	-0.0094197625
223	0x3e4d23a9	0.20033135
224	0x3e8a7241	0.27040294
225	0x3ed1d034	0.4097916
226	0x3e5a3335	0.21308596
227	0x3ec29d60	0.38010693
228	0xbd818621	-0.06324411
229	0x3dac0c71	0.084008105
230	0x3e59b546	0.21260557
231	0xbe00994c	-0.12558478
232	0x3efed39c	0.4977082
233	0x3e146b62	0.14494088
234	0x3d5aa7cf	0.05338269
235	0x3de66efc	0.11251637
236	0xbe19692e	-0.14981529
237	0xbdc38c0b	-0.095481955
238	0xbe62d844	-0.22152811
239	0x3dd31e67	0.10308533
240	0x3d2ee44e	0.042698197
241	0xbc18ef3f	-0.009334384
242	0x3e6976b5	0.2279919
243	0xbda8b013	-0.082367085
244	0xbcdd2c96	-0.0269988
245	0x3d7707ca	0.060310163
246	0x3e909013	0.2823492
247	0x3e410538	0.18849647
248	0x3e499b82	0.19688228
249	0x3e454853	0.19265871
250	0x3dc59f87	0.09649568
251	0xbdb079d1	-0.08616985
252	0xbc2067c0	-0.009790361
253	0x3e737143	0.23773675
254	0x3c5f8656	0.013642868
255	0x3e8ed897	0.2789962

hidden_layers.0.bias f4 [256]
0	0xbc9d9684	-0.01923681
1	0xbe45600a	-0.19274917
2	0xbdebb8c1	-0.115098484
3	0x3ca1e2e7	0.019761516
4	0xbe62bf18	-0.22143209
5	0xbd23b0dd	-0.03996359
6	0xbedf2600	-0.4358368
7	0xbd8d600b	-0.06903084
8	0x3d72ac0b	0.059246104
9	0xbe653680	-0.22384071
10	0xbd82bcda	-0.06383677
11	0xbe454a11	-0.19266535
12	0xbd88f903	-0.0668812
13	0x3baec9ed	0.00533413
14	0x3e3af13e	0.18256089
15	0xbc115628	-0.008870639
16	0xbdd46937	-0.10371631
17	0xbe1c48b8	-0.15262115
18	0xbd987b2b	-0.074453674
19	0xbdc434ab	-0.09580358
20	0xbe796602	-0.24355319
21	0x3e5ac642	0.21364692
22	0x3dd97669	0.10618288
23	0xbecd5eb4	-0.40111315
24	0xbdb61156	-0.08890025
25	0x3d12bd00	0.035824776
26	0x3dbffb3f	0.09374093
27	0x3dcf4e9a	0.10122414
28	0x3d4e029f	0.05029547
29	0xbbe84443	-0.0070882156
30	0xbdeb382f	-0.114853255
31	0xbe0f8309	-0.1401483
32	0x3e41f9be	0.18942925
33	0x3e055d08	0.1302377
34	0xbd26f5b5	-0.04076167
35	0xbe3001a0	-0.1718812
36	0xbe916b11	-0.28401998
37	0xbda3bc75	-0.0799493
38	0x3db53e1c	0.08849737
39	0xbe2f0c6c	-0.17094582
40	0x3e600d13	0.21879987
41	0xbdffcbbd	-0.12490032
42	0x3d89c13a	0.06726308
43	0xbd0ef259	-0.03489909
44	0xbe2f969b	-0.17147295
45	0xbe1fc729	-0.15603317
46	0xbe39daed	-0.1814992
47	0x3d331dac	0.04372947
48	0x3ead5caf	0.33859774
49	0x3db1ef31	0.086882
50	0xbe363cc4	-0.17796618
51	0xbdf696c0	-0.12040472
52	0x3cdbbfb8	0.026824817
53	0xbe8f1fae	-0.27953857
54	0xbc487f6c	-0.012237411
55	0x3bc01fab	0.00586315
56	0x3e0a95fb	0.13533776
57	0xbe345015	-0.17608674
58	0xbd823b3c	-0.06358954
59	0xbe853f46	-0.26024836
60	0xbea71573	-0.32633552
61	0x3dadd193	0.08487239
62	0xbe43314c	-0.19061774
63	0xbdd395bd	-0.10331295
64	0xbdfa247b	-0.12213989
65	0x3d3a6000	0.04550171
66	0x3b90e02f	0.004421256
67	0xbde3d2f7	-0.11124223
68	0x3e5d764d	0.2162716
69	0xbd8765e6	-0.066112325
70	0xbe73fa74	-0.23826009
71	0x3d7ab0e6	0.06120386
72	0xbe320a9a	-0.17386857
73	0x3cb35528	0.021891192
74	0xbdc663d3	-0.09687009
75	0xbd9fb6c0	-0.07798529
76	0xbdbebac2	-0.09312965
77	0xbe205e86	-0.15661058
78	0xbe825b15	-0.25460115
79	0x3aa3bb7e	0.001249179
80	0x3deb26fc	0.11482045
81	0x3b8abcd0	0.004233934
82	0xbc8493eb	-0.016183814
83	0xbe5b6266	-0.21424255
84	0x3dcbe62b	0.099560104
85	0x3d6045b1	0.054753963
86	0xbe37c90f	-0.17947792
87	0xbe054d7c	-0.13017839
88	0xbdbd1080	-0.09231663
89	0xbd6e5aa9	-0.05819193
90	0xbd270439	-0.04077551
91	0x3d722e5a	0.059126236
92	0xbe13160a	-0.14363876
93	0xbe8adaa3	-0.27119932
94	0xbe5d2fd4	-0.21600276
95	0xbe886817	-0.26641914
96	0x3cfcb6cf	0.030848889
97	0xbe772601	-0.24135591
98	0x3e365c24	0.17808586
99	0x3e061c89	0.13096823
100	0xbd740760	-0.059577346
101	0xbebbd369	-0.3668473
102	0xbe69fafa	-0.22849646
103	0xbd99875f	-0.07496523
104	0xbdfc1217	-0.12308138
105	0xbcf906b8	-0.030398712
106	0xbcd9e2fc	-0.026597492
107	0xbe95c0d6	-0.29248685
108	0xbba27964	-0.0049583185
109	0xbc6bb81b	-0.014387156
110	0xbb2b346e	-0.002612378
111	0xbdb78b69	-0.08962137
112	0xbe83bafb	-0.25728592
113	0x3e09f0d1	0.1347077
114	0xbd82d8dd	-0.0638902
115	0xbd05a6d2	-0.032629795
116	0xbe696488	-0.22792256
117	0xbda07e32	-0.0783657
118	0xbe1dcdde	-0.15410563
119	0x3c2262d8	0.0099112615
120	0xbdcda046	-0.10040335
121	0xbdbe83fe	-0.09302519
122	0xbbe52377	-0.006992753
123	0x3d00569e	0.031332605
124	0xbe4e24a3	-0.20131163
125	0xbe814d5f	-0.25254342
126	0x3dfc94e5	0.12333087
127	0x3d5d427f	0.054018494
128	0xbe059304	-0.13044363
129	0xbe1286e0	-0.14309263
130	0xbe1ca229	-0.15296234
131	0xbb982c1c	-0.00464393
132	0xbb6bf6dd	-0.0036005296
133	0x3dcb1174	0.09915438
134	0x3e39c806	0.18142709
135	0xbda68b1f	-0.08132004
136	0xbd807d51	-0.06273902
137	0xbe503d63	-0.20335917
138	0xbdd66c09	-0.10469825
139	0xbda4b0f5	-0.080415644
140	0x3d9c659f	0.0763657
141	0xbe2da3b7	-0.16956984
142	0x3d9dcf61	0.0770557
143	0xbdbf27e0	-0.093337774
144	0x3e0b84aa	0.13624826
145	0xbe82ccb9	-0.25546816
146	0xbd3a312b	-0.045457046
147	0xbe247103	-0.16058736
148	0x3e346d6e	0.17619869
149	0xbe2b7bb5	-0.16746409
150	0xbdde30e2	-0.108491674
151	0xbd9fc358	-0.07800931
152	0xbde20293	-0.11035647
153	0xbe23aa93	-0.15983038
154	0xbe791ed5	-0.24328168
155	0x3dc1b915	0.0945913
156	0xbe1b0fe5	-0.15142782
157	0xbc3cd4a8	-0.011525311
158	0xbd918aad	-0.071065284
159	0x3dbbc315	0.09168068
160	0x3ce8ca02	0.028416637
161	0xbe6c15ec	-0.23055238
162	0xbd5040d7	-0.050843086
163	0x3e1bb0b3	0.15204124
164	0x3e20fe7e	0.15722081
165	0xbd8a6a1b	-0.06758519
166	0xbe005ead	-0.12536116
167	0xbe343ec7	-0.17602073
168	0xbe2d6e3f	-0.16936587
169	0xbcde7a43	-0.027157908
170	0xbe02d886	-0.1277791
171	0xbda081a2	-0.078372255
172	0xbe2d76fa	-0.16939917
173	0xbcfa4d90	-0.030554563
174	0x3dffdb6e	0.12493025
175	0xbe836e05	-0.25669876
176	0x3d167198	0.036729425
177	0xbe3ad7de	-0.1824641
178	0xbe40091d	-0.18753476
179	0x3d16f27e	0.036852352
180	0xbe94f263	-0.29091176
181	0xbe26adf1	-0.16277291
182	0xbd806492	-0.06269182
183	0x3dce6ee4	0.100797445
184	0xbdb3e7e9	-0.08784468
185	0xbe217c25	-0.15770014
186	0xbdf12b4d	-0.11775837
187	0xbd34402f	-0.044006523
188	0x3d739686	0.059469722
189	0xbd6e8627	-0.058233406
190	0xbe1e0536	-0.15431675
191	0xbe3a6e66	-0.18206176
192	0x3c29342f	0.010327383
193	0x3e5e758f	0.21724533
194	0x3dd52924	0.104082376
195	0xbd95c30b	-0.07312592
196	0x3d8ddd22	0.06926943
197	0xbec313df	-0.38101098
198	0xbdce4e18	-0.10073489
199	0x3d405f5a	0.046965934
200	0xbd03acca	-0.032147206
201	0x3c307693	0.010770458
202	0x3e18be5e	0.1491637
203	0xbe6e0d8c	-0.23247355
204	0xbdd71419	-0.1050188
205	0xbec3382a	-0.38128787
206	0x3d989555	0.07450358
207	0x3ca482b3	0.020081853
208	0x3e3b7793	0.18307333
209	0xbd6548e9	-0.055977736
210	0x3dafbd3b	0.08581015
211	0x3da88839	0.082291074
212	0xbe0512ab	-0.12995403
213	0xbe996a06	-0.29963702
214	0xbd8cfb60	-0.068838835
215	0xbb8f4664	-0.004372405
216	0xbe964ed6	-0.29357022
217	0xbe170479	-0.147478
218	0xbe74c01e	-0.23901412
219	0xbd923e46	-0.07140784
220	0xbd967645	-0.07346777
221	0xbe31b4e4	-0.1735416
222	0x3dc1b9d0	0.09459269
223	0x3d750e01	0.05982781
224	0x3e2ee47c	0.17079347
225	0xbe3a255b	-0.18178312
226	0xbdbfe205	-0.09369282
227	0xbe1880e2	-0.14892915
228	0x3e0300d0	0.12793279
229	0xbdcd58fa	-0.100267366
230	0x3c583310	0.013195768
231	0xbe3f0248	-0.18653214
232	0xbe86c15a	-0.2631939
233	0xbd0f6947	-0.03501251
234	0x3d700b35	0.058604438
235	0x38f381d0	0.000116113224
236	0xbdb2e16d	-0.08734403
237	0xbe0fed16	-0.14055285
238	0xbd738178	-0.059449643
239	0x3b4da7a4	0.003138044
240	0x3e03d22d	0.12873144
241	0xbe1a06f8	-0.15041721
242	0xbe7c19c5	-0.24619205
243	0xbded61e2	-0.11590935
244	0xbe118aaf	-0.1421306
245	0xbe3bb8d5	-0.18332227
246	0xbe53b6c8	-0.20675194
247	0x3db45366	0.088049695
248	0xbe35a2ce	-0.17737886
249	0xbd79dcdf	-0.061001655
250	0xbe439d33	-0.19102935
251	0xbe39689a	-0.18106309
252	0xbe43d8c6	-0.19125661
253	0x3e39232b	0.18079822
254	0x3dd34d20	0.10317445
255	0x3de8a165	0.113589086

hidden_layers.1.weight f4 [256, 256]
0	0xbcd9df4d	-0.026595736
1	0xbd917027	-0.071014695
2	0xbe25b851	-0.16183592
3	0xbe4125f9	-0.18862142
4	0xbec8bcbd	-0.39206496
5	0xbe0949b4	-0.13407022
6	0x3e2b98ea	0.16757551
7	0xbe9d97b0	-0.3077979
8	0xbd1aa9ae	-0.037759475
9	0xbe9c4918	-0.30524516
10	0xbd2c0d95	-0.04200514
11	0xbe4e374d	-0.20138283
12	0x3d5a712f	0.053330597
13	0xbdf07ec7	-0.11742931
14	0xbdc8ff04	-0.09814265
15	0x3d41fa66	0.04735794
16	0x3e262c5e	0.16227862
17	0xbb23665d	-0.002493284
18	0xbe7ad74f	-0.24496196
19	0x3d979387	0.074011855
20	0x3cbb8f03	0.022895342
21	0x3d628e15	0.05531128
22	0xbd92106a	-0.07132037
23	0xbd240e7a	-0.04005287
24	0xbe1663d8	-0.14686525
25	0x3e3402d0	0.17579198
26	0x3de78e32	0.113064185
27	0xbda01b45	-0.07817701
28	0x3d0ae3c3	0.033908617
29	0x3c80c258	0.01571767
30	0xbd132a1d	-0.035928834
31	0xbe3f3754	-0.1867345
32	0xbe4451f0	-0.19171882
33	0x3e15c5a3	0.14626174
34	0xbe119ba3	-0.14219527
35	0x3ebe0a7f	0.37117383
36	0x3e083362	0.13300851
37	0xbd4ecff1	-0.050491277
38	0xbd9a7d99	-0.07543487
39	0x3d251d33	0.04031105
40	0x3da23008	0.079193175
41	0xbd37892e	-0.04480856
42	0xbe0f688a	-0.14004722
43	0xbc162201	-0.009163381
44	0xbe392ce8	-0.18083537
45	0x3c3c9788	0.011510737
46	0xbd1967a9	-0.037452374
47	0xbd38afb0	-0.045089424
48	0x3db2bfdb	0.08728
49	0xbdc42f8a	-0.0957938
50	0x3ddfeb36	0.10933535
51	0x39ce295e	0.00039322203
52	0xbd9c7a26	-0.076404855
53	0xbe11b646	-0.14229688
54	0x3e3c4de2	0.18389085
55	0xbdb7092b	-0.089372955
56	0xbe0d5f0c	-0.13805789
57	0x3d11db81	0.035609726
58	0xbe21efa0	-0.15814066
59	0x3d95fc59	0.07323522
60	0xbd92e9ce	-0.07173501
61	0xbd575ea1	-0.05258048
62	0xbd55268f	-0.052038725
63	0x3b99ec47	0.004697356
64	0xbd4dfa59	-0.05028758
65	0xbd390f08	-0.04518035
66	0xbe0367df	-0.12832592
67	0x3d5200ab	0.05127017
68	0x3c4fb985	0.012678509
69	0x3e0746b0	0.13210559
70	0xbd1ea43b	-0.03873084
71	0xbd79e718	-0.061011404
72	0xbdd2cddc	-0.10293171
73	0x3c54b43d	0.012982425
74	0xbb72fe7f	-0.003707796
75	0x3c8a3c1a	0.016874362
76	0xbe214e3e	-0.15752503
77	0x3e104320	0.14088106
78	0xbd3c2cdf	-0.04594123
79	0xbe1e1ad4	-0.15439922
80	0x3e501a3e	0.2032251
81	0x3db0336a	0.086035565
82	0xbe42cd9f	-0.1902375
83	0xbdc9619b	-0.0983307
84	0x3d3e4593	0.04645307
85	0x3e2ea9f7	0.17057024
86	0x3e0e789b	0.13913195
87	0xbd128700	-0.035773277
88	0xbe5a8ab6	-0.21341977
89	0x3e19805e	0.14990374
90	0x3e1faa28	0.15592253
91	0xbdbf419d	-0.093386866
92	0xbd867f3f	-0.06567239
93	0xbddb8fdb	-0.10720798
94	0x3ea41f86	0.320553
95	0xbd19fdbe	-0.037595503
96	0xbdc46972	-0.095904246
97	0x3bd9ef90	0.0066508725
98	0x3c35882f	0.011079832
99	0xbacb8f97	-0.0015530464
100	0xbe57cd91	-0.21074511
101	0xbde28eec	-0.110624164
102	0xbe3259d8	-0.17417085
103	0xbc9919aa	-0.018688995
104	0xbdb4ba13	-0.08824553
105	0x3d847b42	0.06468822
106	0x3e9aebce	0.3025803
107	0xbda96d1c	-0.08272764
108	0xbe0471d5	-0.12934048
109	0x3e54f038	0.20794761
110	0xbe3a71e9	-0.18207516
111	0xbca71a77	-0.020398362
112	0xbe10c90a	-0.1413919
113	0x3e05acf7	0.13054262
114	0x3dde3f7b	0.10851952
115	0xbd61c580	-0.05511999
116	0xbdc30a6e	-0.09523474
117	0x3ce40771	0.02783558
118	0xbe3eba57	-0.1862577
119	0xbe28179a	-0.16415253
120	0x3d10a77d	0.03531598
121	0xbdb376ca	-0.087628916
122	0x3e699d24	0.2281385
123	0xbce12be3	-0.027486747
124	0xbd5b3343	-0.053515684
125	0xbd282b73	-0.04105706
126	0x3d558954	0.05213292
127	0xbbcc6c14	-0.00623847
128	0xbd1077ec	-0.035270616
129	0xbaa7a4bd	-0.0012790185
130	0xbd9b928d	-0.07596312
131	0xbe1f1b89	-0.15537848
132	0x3e3650b0	0.17804217
133	0xbe50ca5a	-0.20389691
134	0xbe7e8b9a	-0.24857941
135	0xbddc40d0	-0.107545495
136	0x3dea0ed7	0.11428612
137	0xbe27a4d8	-0.16371477
138	0x3c1f8820	0.009737045
139	0xbc3ea75c	-0.011636581
140	0x3c878230	0.01654157
141	0xbd396467	-0.045261767
142	0xbd99bf16	-0.0750715
143	0x3eadeb82	0.3396874
144	0x3e169154	0.14703876
145	0xbce23d1b	-0.027617028
146	0xbd32df5a	-0.043670036
147	0x3c7a4702	0.015275719
148	0x3d7ecf5b	0.06220947
149	0xbc77a113	-0.015114087
150	0xbd149ab4	-0.03628035
151	0xbcad623a	-0.021165002
152	0x3d2f1992	0.042748995
153	0x3d38b0bd	0.045090426
154	0xbdba24ba	-0.09089036
155	0xbe4d96f2	-0.20077112
156	0xbeb21450	-0.34781122
157	0xbd084d83	-0.033277046
158	0xbdcb8a71	-0.09938515
159	0x3e773ef1	0.24145104
160	0x3cc0d1ba	0.023537505
161	0xbdcaaa2f	-0.09895741
162	0xbe0844c7	-0.13307486
163	0xbe5414aa	-0.20711008
164	0x3eea4fd7	0.45764038
165	0xbc373204	-0.011181358
166	0xbdfac487	-0.12244516
167	0xbb073036	-0.0020628101
168	0xbc8b9265	-0.01703758
169	0xbea73fe3	-0.3266593
170	0xbdaac4e1	-0.08338333
171	0xbda06498	-0.07831687
172	0x3dad0fb6	0.08450262
173	0xbb3ecee7	-0.0029115023
174	0x3d04cd99	0.032422636
175	0xbdad058b	-0.08448323
176	0x3d8a8153	0.06762948
177	0xbde23b1f	-0.11046433
178	0x3e133ca1	0.14378597
179	0xbdcfaa56	-0.10139911
180	0xbe1315da	-0.14363804
181	0xbda2c226	-0.07947187
182	0xbd9e78f5	-0.077379145
183	0xbde268b0	-0.11055124
184	0x3d3bcd0e	0.045849852
185	0xbe01f6ee	-0.12691852
186	0xbe054676	-0.1301516
187	0x3d2f1bbf	0.04275107
188	0xbe121d2e	-0.14268944
189	0x3c10dba1	0.008841426
190	0xbd7a9e77	-0.06118628
191	0xbd841a9d	-0.064503886
192	0xbb336fa1	-0.0027379768
193	0xbd970a86	-0.07375054
194	0x3dbc7b13	0.09203162
195	0xbde3bb12	-0.11119665
196	0xbdd2bfdd	-0.10290501
197	0x3d9a5d78	0.07537359
198	0x3e23cc0d	0.15995808
199	0x3dcf8e65	0.101345815
200	0xbd6c36ca	-0.05766944
201	0x3d8f98e8	0.070115864
202	0x3d002785	0.03128769
203	0xbdb3813b	-0.08764883
204	0xbc38b081	-0.011272551
205	0xbda8db27	-0.08244925
206	0xbdc88d6f	-0.09792601
207	0x3daf2114	0.08551231
208	0xbbf9e318	-0.0076259486
209	0xbe239456	-0.15974554
210	0x3d81e16a	0.063418224
211	0xbd2ebef3	-0.042662572
212	0x3dccd99e	0.10002445
213	0xbde71615	-0.11283509
214	0x3daadec4	0.083432704
215	0x3e6ef4fb	0.2333564
216	0xbd96eb82	-0.07369138
217	0xbe03c68a	-0.12868705
218	0xbe7d3d70	-0.24730468
219	0xbe46c6b0	-0.19411731
220	0xb9a12ee9	-0.00030743264
221	0xbe2ce9ec	-0.16886109
222	0x3e8de95a	0.27717096
223	0xbcc5ca61	-0.024144353
224	0x3e934738	0.28765273
225	0xbdab5791	-0.08366311
226	0xbd9280de	-0.07153486
227	0xbd05cedc	-0.03266798
228	0xbe07156e	-0.13191769
229	0x3e03df11	0.12878062
230	0xbd411a0c	-0.04714398
231	0xbd54001f	-0.051757928
232	0xbe8721a7	-0.26392862
233	0xbddfce2d	-0.10927997
234	0xbdc1f981	-0.09471417
235	0x3daa04cb	0.083016954
236	0xbc5e9602	-0.013585569
237	0xbe163713	-0.14669447
238	0x3e0902e8	0.13380015
239	0x3da5c1f1	0.08093632
240	0x3ecf047e	0.40433115
241	0x3c22d3ab	0.009938161
242	0xbe116ff9	-0.1420287
243	0x3ca40a6a	0.020024497
244	0x3d06f726	0.032950543
245	0xbe82ee95	-0.2557265
246	0xbd7f1e39	-0.062284682
247	0x3b6c6b93	0.0036074861
248	0xbe5dc7c5	-0.21658237
249	0xbd5c45af	-0.053777393
250	0xbdb5c95c	-0.08876297
251	0xbde7fb53	-0.11327233
252	0x3e098c45	0.13432415
253	0xbe299670	-0.16561294
254	0xbd747c20	-0.059688687
255	0x3e1538f2	0.14572504

hidden_layers.1.bias f4 [256]
0	0xbef5ac66	-0.47983092
1	0xbe88da42	-0.26729017
2	0xbe3691eb	-0.17829101
3	0xbe48a962	-0.19595864
4	0xbe90aa9c	-0.28255165
5	0xbe9e8b9b	-0.30965886
6	0xbe1d1329	-0.1533934
7	0xbf6e6e3b	-0.9313695
8	0xbdf47ba4	-0.11937645
9	0xbe06d03c	-0.13165373
10	0xbf536d0e	-0.8258828
11	0xbe6873bf	-0.22700404
12	0xbf824a49	-1.017892
13	0xbe42a6be	-0.1900892
14	0xbdf1908e	-0.1179515
15	0xbe8f16a0	-0.2794695
16	0xbe847e2d	-0.25877514
17	0xbe80306c	-0.25036943
18	0xbe530f14	-0.2061122
19	0xbe4ed2b3	-0.20197563
20	0xbe83335a	-0.25625116
21	0xbe2e2bd1	-0.17008902
22	0xbf603af5	-0.8758996
23	0xbe716636	-0.23574147
24	0xbf000b35	-0.500171
25	0xbe30bfa6	-0.17260608
26	0xbe948a55	-0.2901179
27	0xbe93d076	-0.2886998
28	0xbea3e4b5	-0.32010427
29	0xbea18317	-0.31545326
30	0xbe47b2c6	-0.1950179
31	0xbe6be0b0	-0.2303493
32	0xbf5f4778	-0.8721843
33	0xbea73caf	-0.32663485
34	0xbe2dae23	-0.16960959
35	0xbdcd8448	-0.10034996
36	0xbe87811e	-0.26465696
37	0xbe5c086d	-0.21487589
38	0xbe92e1e3	-0.28687963
39	0xbe82d8de	-0.25556082
40	0xbf5d1ba4	-0.863703
41	0xbee0dbca	-0.43917686
42	0xbe7021ff	-0.23450468
43	0xbe858e38	-0.26085067
44	0xbe657b86	-0.22410402
45	0xbe83d62b	-0.25749335
46	0xbe4d7882	-0.20065501
47	0xbe396ea3	-0.18108611
48	0xbe5924c1	-0.21205427
49	0xbeb4aa84	-0.35286343
50	0xbe095543	-0.13411431
51	0xbe66562f	-0.22493814
52	0xbe4f7a2c	-0.20261449
53	0xbe87e102	-0.26538855
54	0xbf79535b	-0.97392815
55	0xbf762186	-0.961449
56	0xbe294786	-0.1653119
57	0xbe303788	-0.17208683
58	0xbeeb7a31	-0.45991662
59	0xbe944486	-0.2895853
60	0xbe459b3f	-0.19297503
61	0xbea1fc98	-0.31638026
62	0xbf877a46	-1.058419
63	0xbe98b003	-0.29821786
64	0xbe0d4afe	-0.13798138
65	0xbec5816f	-0.38575312
66	0xbf827a22	-1.0193522
67	0xbefa5d18	-0.4889915
68	0xbd29d8b4	-0.04146643
69	0xbe91c2e2	-0.28468996
70	0xbe9331b4	-0.28748858
71	0xbe3a0820	-0.18167162
72	0xbe6b91b0	-0.23004794
73	0xbe10b77f	-0.14132498
74	0xbe4f1782	-0.20223811
75	0xbea1b055	-0.31579843
76	0xbe7654eb	-0.24055831
77	0xbe2e56ec	-0.17025346
78	0xbe560901	-0.20901872
79	0xbe8ea9e8	-0.27864003
80	0xbe5cd675	-0.21566184
81	0xbe81312e	-0.25232834
82	0xbe6576d7	-0.22408615
83	0xbe6cbd81	-0.23119165
84	0xbe5d9e0b	-0.2164232
85	0xbe72e61e	-0.23720595
86	0xbe85340c	-0.2601627
87	0xbf48467b	-0.78232545
88	0xbef79a73	-0.48360023
89	0xbe963c62	-0.29342943
90	0xbe89514b	-0.26819834
91	0xbe29fc1a	-0.16600075
92	0xbe57b4be	-0.21065041
93	0xbe7162a1	-0.2357278
94	0xbe243d0f	-0.16038917
95	0xbe7e3791	-0.24825884
96	0xbe2b3eb3	-0.16723137
97	0xbdb01358	-0.085974395
98	0xbe824b8d	-0.25448266
99	0xbe283afc	-0.16428751
100	0xbe3b1647	-0.18270217
101	0xbebc1a89	-0.36738995
102	0xbe87c94a	-0.2652076
103	0xbe89a82a	-0.26886111
104	0xbee954fd	-0.45572653
105	0xbde32799	-0.11091537
106	0xbe17785f	-0.14792012
107	0xbf0aba80	-0.54190826
108	0xbe809185	-0.25111023
109	0xbe350e2c	-0.17681187
110	0xbf6579ed	-0.8963917
111	0xbdd0509d	-0.10171626
112	0xbe301d45	-0.17198665
113	0xbe1da9f2	-0.1539686
114	0xbe3adc86	-0.18248186
115	0xbe5204a3	-0.20509581
116	0xbe899fda	-0.2687977
117	0xbf481828	-0.7816186
118	0xbe532251	-0.2061856
119	0xbe7aaf44	-0.24480921
120	0xbe85c6e8	-0.26128316
121	0xbf016fa1	-0.5056096
122	0xbeaaa59b	-0.33329472
123	0xbe707287	-0.23481189
124	0xbe17462e	-0.14772865
125	0xbe68c1f1	-0.22730233
126	0xbdb1b5c0	-0.08677244
127	0xbd93055f	-0.07178759
128	0xbdfedc66	-0.124443814
129	0xbe623444	-0.2209025
130	0xbee2c0aa	-0.44287616
131	0xbe4db185	-0.2008725
132	0xbe4c5c7c	-0.19957155
133	0xbe4f909a	-0.20270005
134	0xbe0a283f	-0.13491915
135	0xbedb8a66	-0.42879027
136	0xbe3b7e44	-0.18309885
137	0xbf603cc4	-0.8759272
138	0xbe029c3f	-0.12754916
139	0xbf046353	-0.51714057
140	0xbe7a17fe	-0.24423215
141	0xbe1881cc	-0.14893264
142	0xbe870e50	-0.26378107
143	0xbdae8f7e	-0.08523463
144	0xbe0fb200	-0.14032745
145	0xbe33a606	-0.17543802
146	0xbe893db4	-0.26804888
147	0xbe92bccf	-0.28659675
148	0xbe37d86e	-0.17953655
149	0xbe295b77	-0.16538797
150	0xbcb308bd	-0.021854753
151	0xbdbc7e5f	-0.09203791
152	0xbf132268	-0.57474375
153	0xbeb018de	-0.34393972
154	0xbdab4520	-0.08362794
155	0xbe8b214a	-0.27173835
156	0xbe5c1ed8	-0.21496141
157	0xbe5ff9f9	-0.21872701
158	0xbda59c0c	-0.08086404
159	0xbe87db51	-0.26534513
160	0xbd9436f0	-0.07237041
161	0xbe23d263	-0.15998225
162	0xbf5af4f5	-0.85530025
163	0xbeabed9c	-0.3357972
164	0xbe6acdc2	-0.22930053
165	0xbf55004e	-0.8320359
166	0xbe9999b3	-0.30000076
167	0xbe83397b	-0.25629792
168	0xbf5d144f	-0.86359113
169	0xbe26bd8b	-0.16283242
170	0xbdef4804	-0.11683658
171	0xbe80931b	-0.25112233
172	0xbe5ca1d1	-0.21546103
173	0xbe4fb78b	-0.2028486
174	0xbe8c4b55	-0.27401224
175	0xbe52ccbf	-0.20585917
176	0xbe2c0c60	-0.16801596
177	0xbe86fc95	-0.2636458
178	0xbe128883	-0.14309888
179	0xbe90977e	-0.2824058
180	0xbf6da1ca	-0.92824996
181	0xbea0f80a	-0.3143924
182	0xbe7a6bed	-0.24455233
183	0xbe3dca4b	-0.185342
184	0xbe6f0ce8	-0.23344767
185	0xbe6b20df	-0.22961758
186	0xbeaa8044	-0.33300984
187	0xbeb7eb8f	-0.35921904
188	0xbea13d39	-0.31492022
189	0xbe771018	-0.24127233
190	0xbdaa07ac	-0.083022445
191	0xbe92d692	-0.2867933
192	0xbe822cbb	-0.25424752
193	0xbe48e5b7	-0.1961888
194	0xbe51c765	-0.20486219
195	0xbea64280	-0.3247261
196	0xbeefa930	-0.46808767
197	0xbe31f0b3	-0.17376976
198	0xbf1cda4d	-0.612706
199	0xbe8fe5b2	-0.2810493
200	0xbead1e66	-0.33812255
201	0xbe6dcc95	-0.23222573
202	0xbf204bed	-0.62615854
203	0xbdbdea4f	-0.092732064
204	0xbea6d5ad	-0.32584897
205	0xbe9e19e3	-0.30879125
206	0xbe76c324	-0.24097878
207	0xbe8b9886	-0.27264804
208	0xbe01f894	-0.12692481
209	0xbef1908b	-0.4718059
210	0xbe85d927	-0.26142237
211	0xbe5391c2	-0.20661071
212	0xbe01a2f6	-0.12659821
213	0xbe219284	-0.15778548
214	0xbe9cd6d5	-0.30632654
215	0xbf83c7e8	-1.0295382
216	0xbe881e43	-0.26585588
217	0xbe8307a1	-0.25591758
218	0xbf6001ef	-0.8750295
219	0xbe2dbe67	-0.16967164
220	0xbd9c5cba	-0.07634874
221	0xbe4b2553	-0.19838457
222	0xbe120f3d	-0.14263625
223	0xbe42de6a	-0.19030157
224	0xbeba091f	-0.36335084
225	0xbe18b359	-0.14912166
226	0xbdeeb0bc	-0.11654803
227	0xbe6f4cad	-0.23369093
228	0xbe7b650e	-0.24550268
229	0xbe78faa5	-0.24314363
230	0xbe551965	-0.20810468
231	0xbe59034c	-0.21192664
232	0xbe38b2e4	-0.18036991
233	0xbe18206f	-0.14856122
234	0xbf7c3be9	-0.98528916
235	0xbddfc907	-0.10927015
236	0xbe002203	-0.12512974
237	0xbe8560ae	-0.26050323
238	0xbdf315d9	-0.118694015
239	0xbe8f7d6c	-0.28025377
240	0xbec8d56f	-0.39225337
241	0xbea45733	-0.32097778
242	0xbe93adec	-0.2884363
243	0xbe18f596	-0.14937434
244	0xbe6d2192	-0.23157337
245	0xbf5a2291	-0.85208994
246	0xbea32588	-0.31864572
247	0xbe57bc9d	-0.21068044
248	0xbe853390	-0.26015902
249	0xbe8967cd	-0.26837006
250	0xbf5e39a3	-0.86806697
251	0xbe421b20	-0.1895566
252	0xbe819245	-0.25306907
253	0xbf63c451	-0.8897143
254	0xbe898d16	-0.26865453
255	0xbe79ba77	-0.24387537

output_layers.0.weight f4 [40, 256]
0	0xbe3b842a	-0.18312135
1	0xbcee8001	-0.029113771
2	0x3d1d08cb	0.038338464
3	0x3e6e9a91	0.2330115
4	0x3b161998	0.0022903439
5	0xb8bb0be5	-8.9190704e-05
6	0x3e9d5728	0.30730557
7	0xbd3a3263	-0.04545821
8	0xbe25fc54	-0.16209537
9	0xbe1e1e75	-0.15441306
10	0x3b7df1be	0.0038748826
11	0xb9074be9	-0.00012902882
12	0xbd8678c2	-0.065660015
13	0xbe8ae7e7	-0.27130052
14	0x3e2ca951	0.16861464
15	0x3d4f0dfa	0.05055044
16	0xbe0ff166	-0.1405693
17	0x3b785688	0.0037893374
18	0x3c5fc3c2	0.013657512
19	0x3eadc144	0.33936512
20	0x3cf49a58	0.029858753
21	0x3d938f28	0.07205039
22	0xbdce9124	-0.10086277
23	0x3d38d052	0.045120545
24	0xbcb4f20b	-0.022088071
25	0x3ecf2d9a	0.4046448
26	0x3e27821a	0.16358224
27	0x3cd6bda8	0.026213482
28	0x3d58f38c	0.05296664
29	0x3e1d8773	0.15383701
30	0xbe41d36b	-0.18928306
31	0x3e70acf5	0.23503478
32	0x3c826c6e	0.015920844
33	0x3d3e287d	0.04642533
34	0x3db7a886	0.0896769
35	0x3e281a07	0.16416179
36	0xbdaaa6a3	-0.08332565
37	0xbb9d872b	-0.004807373
38	0x3d3cbecf	0.046080407
39	0x3c6d5999	0.014486694
40	0xbd4c201f	-0.04983532
41	0xbe5a3603	-0.21309666
42	0x3cc8852b	0.024477562
43	0xbc7f36d1	-0.015577034
44	0x3c0d6496	0.008629939
45	0x3bb5c9c7	0.0055477354
46	0x3d9fd635	0.078045286
47	0x3e8c790e	0.27436107
48	0x3d7d1865	0.061790843
49	0xbe340509	-0.17580046
50	0xbd20f1fe	-0.03929328
51	0xbc343f95	-0.011001487
52	0x3cdfad2e	0.027304258
53	0x3d327605	0.043569583
54	0xbdb14aa0	-0.08656812
55	0xbabc0130	-0.0014343616
56	0xbe38edde	-0.18059489
57	0x3c920bab	0.01782783
58	0xbce5eae4	-0.028066106
59	0x3bafe8da	0.0053683342
60	0x3dbd31ca	0.09238012
61	0xbdc6339c	-0.096778125
62	0xbdc6e236	-0.09711115
63	0x3e3665ab	0.17812221
64	0x3e8f1143	0.27942857
65	0x3c19d547	0.009389228
66	0xbc9beaf8	-0.01903294
67	0xbb9744f3	-0.0046163737
68	0xbe64143a	-0.22273341
69	0x3c4bd4d6	0.012440881
70	0x3e737188	0.23773777
71	0x3de1dc81	0.11028386
72	0xbda97015	-0.08273331
73	0x3e17b877	0.14816462
74	0xbe5e0a6a	-0.2168366
75	0x3d02222e	0.031770878
76	0x3c591ed1	0.013251976
77	0x3e78563e	0.24251649
78	0xbd897a23	-0.06712749
79	0x3d7b201f	0.06130993
80	0xbdc6d04c	-0.09707698
81	0xbce683f9	-0.028139101
82	0xbec04fe8	-0.37560964
83	0x3d3c7329	0.046008263
84	0x3dd267b5	0.10273687
85	0x3e227641	0.15865423
86	0x3d66e6d5	0.056372482
87	0xbdb599a4	-0.08867195
88	0x3ca61090	0.02027157
89	0x3db138e0	0.08653426
90	0x3d91311e	0.070894465
91	0x3e0563ab	0.13026302
92	0xbd126e23	-0.035749566
93	0x3d9ca54e	0.07648717
94	0xbe3c3358	-0.18378961
95	0xbdbfebe6	-0.09371166
96	0x3bbafe67	0.0057065967
97	0x3ec5e810	0.38653612
98	0x3dbf60eb	0.093446575
99	0x3e528bcd	0.20561142
100	0xbe9522dc	-0.29128158
101	0xbda444d7	-0.08020943
102	0xbc1517fd	-0.0090999575
103	0x3e0ccd30	0.13750148
104	0xbcd12be3	-0.025533622
105	0x3e12bd14	0.1432994
106	0x3e9d84a6	0.30765265
107	0xbc029ff1	-0.007972703
108	0x3e422180	0.18958092
109	0x3dee1658	0.116253555
110	0xbd72abef	-0.059246
111	0x3e2c95a2	0.16853955
112	0xbdc3c8fc	-0.09559819
113	0xbcc8351f	-0.024439393
114	0x3cc34b71	0.023839684
115	0x3e9160eb	0.28394255
116	0x3e0fef99	0.14056243
117	0x3c9d14d6	0.019174974
118	0xbd23850f	-0.039921816
119	0x3e1f39d8	0.1554941
120	0x3e50aace	0.20377657
121	0x3a4705c0	0.00075921044
122	0x3e2ef611	0.17086054
123	0x3dc37dae	0.09545456
124	0x3d988b19	0.07448406
125	0xbe10ff07	-0.14159785
126	0xbe1e9918	-0.15488088
127	0xbe280e3e	-0.16411683
128	0x3ea8fd63	0.3300582
129	0x3e04fcc9	0.12987055
130	0xbd6f710c	-0.05845742
131	0xbcd1736a	-0.025567729
132	0x3c246d4d	0.010035825
133	0x3e106f97	0.14105068
134	0x3d81d757	0.06339901
135	0xbdf9e35b	-0.12201568
136	0xbe5e9e41	-0.21740057
137	0x3d294663	0.04132689
138	0x3e246bfe	0.16056821
139	0x3c0dc57c	0.008653041
140	0xbe206d2b	-0.15666644
141	0x3c97dd05	0.018538008
142	0x3d4e42c9	0.05035666
143	0xbd730b34	-0.059336856
144	0xbe33ab85	-0.17545898
145	0x3e958995	0.2920653
146	0x3e6f56c2	0.23372939
147	0xbd181c3b	-0.037136298
148	0x3e76c9cc	0.24100417
149	0x3e197d32	0.14989164
150	0xbe51b24b	-0.2047817
151	0xbe128264	-0.14307553
152	0xbdba1b1c	-0.09087202
153	0xbc66877e	-0.01407039
154	0xbe30eb0f	-0.17277168
155	0xbbe5020d	-0.00698877
156	0x3d2dd7e5	0.04244222
157	0x3e6379c1	0.22214414
158	0x3c9f1536	0.019419294
159	0x3db2d070	0.087311625
160	0xbea11c2e	-0.31466812
161	0x3d307b57	0.043086376
162	0xbcd73a59	-0.02627294
163	0x3deeafa7	0.11654597
164	0x3ba8fd34	0.0051571373
165	0xbd1e2a64	-0.038614646
166	0xbd4a2c5f	-0.04935872
167	0xbe5f5875	-0.21811087
168	0xbd815321	-0.06314684
169	0x3e2c100f	0.16803001
170	0x3d29ac50	0.041424096
171	0xbd9b6e5f	-0.07589411
172	0x3c7fd3d2	0.015614467
173	0xbdb69290	-0.08914673
174	0xbd6a773c	-0.057242617
175	0xbd793682	-0.060843
176	0x3e8e738e	0.27822536
177	0x3d996e24	0.07491711
178	0x3b708a69	0.0036703593
179	0xbd4fdb08	-0.050745994
180	0xbcc19b64	-0.023633666
181	0xbd517d90	-0.051145136
182	0x3e5028f6	0.20328125
183	0x3e87247c	0.26395023
184	0x3d678762	0.056525595
185	0xbe0f086e	-0.1396806
186	0x3e0eb691	0.13936831
187	0xbe03e3a9	-0.12879814
188	0xbd72121e	-0.05909931
189	0xbddbf984	-0.10740951
190	0xbd46fcb0	-0.048580825
191	0x3e95f411	0.2928777
192	0xbe80ddf6	-0.25169343
193	0xbe319acf	-0.17344211
194	0xbd494d4e	-0.04914599
195	0x3e0f5a3e	0.13999268
196	0x3c006d87	0.007838613
197	0x3d993121	0.07480074
198	0x3c71ae18	0.01475098
199	0xbd8fb525	-0.070169725
200	0xbdb5c0f7	-0.08874696
201	0x3e39e482	0.18153575
202	0xbd416bcc	-0.047221944
203	0x3e8fc730	0.28081656
204	0xbe293f73	-0.1652811
205	0xbc7a3bee	-0.015273077
206	0xbe09a250	-0.13440824
207	0xbdd400d2	-0.10351719
208	0x3e29f2bc	0.16596502
209	0x3c4122a8	0.011788048
210	0xbcccadc4	-0.024985202
211	0x3c949ed5	0.018142143
212	0x3e431020	0.1904912
213	0x3d8cc1d5	0.06872908
214	0x3e1994ce	0.1499817
215	0xbdf33a18	-0.11876315
216	0x3e9182a3	0.2841998
217	0x3dd298b1	0.1028303
218	0xbc553c98	-0.013014935
219	0xbeccfb8a	-0.4003566
220	0xbdf2be4e	-0.11852704
221	0x3e4508b6	0.19241604
222	0xbe4d6e01	-0.20061494
223	0x3d819d66	0.063288495
224	0xbd0804b8	-0.033207625
225	0xbcf4f9d6	-0.029904287
226	0x3e1aec8b	0.15129296
227	0x3d193753	0.037406277
228	0x3ca28ece	0.019843485
229	0x3d411a7d	0.0471444
230	0xbe233665	-0.15938719
231	0xbd89e9cb	-0.067340456
232	0x3e103594	0.14082938
233	0x3e71b8d1	0.23605658
234	0xbd532662	-0.051550277
235	0x3c9fb45c	0.019495182
236	0x3d31d29c	0.043413743
237	0x3c1832a5	0.009289418
238	0x3e8cf669	0.27531746
239	0x3e137811	0.1440127
240	0xbd619301	-0.055071834
241	0x3d155086	0.036453746
242	0xbdcb6fe6	-0.09933452
243	0x3d627d2f	0.055295166
244	0xbd195511	-0.03743464
245	0xbd661c54	-0.05617936
246	0xbca76bc4	-0.020437129
247	0x3dbf1393	0.09329905
248	0xbd986f3b	-0.074430905
249	0x3cba4b86	0.02274109
250	0xbd1fb5de	-0.0389918
251	0xbd3ab49a	-0.04558239
252	0x3e97d57d	0.29655066
253	0xbd5a5afd	-0.05330943
254	0x3d81ace5	0.06331805
255	0xbdc3e52b	-0.09565195

output_layers.0.bias f4 [40]
0	0xbf50af14	-0.8151715
1	0xbf4ee284	-0.80814385
2	0xbf602b61	-0.8756619
3	0xbf79c17e	-0.9756087
4	0xbf5298fe	-0.822647
5	0xbf4fbc06	-0.81146276
6	0xbf4f599c	-0.8099611
7	0xbf5c995c	-0.8617151
8	0xbf4e2201	-0.80520636
9	0xbf4b86b6	-0.7950243
10	0xbf56a0c9	-0.8383909
11	0xbf50879e	-0.81456935
12	0xbf512fd5	-0.8171361
13	0xbf603e8d	-0.87595445
14	0xbf4de4b4	-0.804271
15	0xbf5023ca	-0.8130461
16	0xbf4e5971	-0.80605227
17	0xbf4beda3	-0.7965948
18	0xbf4deae8	-0.80436563
19	0xbf4cb5ea	-0.7996508
20	0xbf524635	-0.8213838
21	0xbf4a54f9	-0.7903591
22	0xbf4f6e97	-0.8102812
23	0xbf4d9a9e	-0.8031405
24	0xbf4b9317	-0.79521316
25	0xbf4eef78	-0.8083415
26	0xbf4f39b5	-0.8094743
27	0xbf4e2cf9	-0.8053737
28	0xbf534219	-0.8252273
29	0xbf53bbc1	-0.82708365
30	0xbf4ed23f	-0.8078956
31	0xbf5baca9	-0.85810333
32	0xbf4e160c	-0.8050239
33	0xbf51c219	-0.81936795
34	0xbf5304b5	-0.8242906
35	0xbf508431	-0.8145171
36	0xbf6e3e83	-0.93064135
37	0xbf74b82a	-0.9559351
38	0xbf70657a	-0.9390484
39	0xbf50a488	-0.81501055
