MODELS/REWARD COMPARISON/SAC 10X20 MODELS/2_1_critic_local_2_network_20.pt (torch, 513735 bytes, 6 tensors)

hidden_layers.0.weight f4 [256, 201]
00000000: caee d83c 37f7 453e 2e27 f8bc 79c2 4bbd
00000010: 87b6 963e 5120 2d3e e5ce 223e d943 113c
00000020: 276b 4abe b56a 7b3d 5e37 1c3d 6a68 623e
00000030: 5117 9dbc 548d 563e c128 b0bc a8cc 0ebe
00000040: c1a5 923d 2979 733e 462d 42b8 5683 63bd
00000050: 6c41 2fbe e3eb 913e b4d3 813e 7828 833e
00000060: f5ed 803e 1886 bb3c d721 913d 8db9 493e
00000070: 7a8b 9cbb 7303 2e3e 9c21 a83d 97f9 3c3d
00000080: 8e67 a4bd 23e8 153c 03a3 7b3d 92db febd
00000090: 6434 4a3e e9d2 25be 25de 653d b0bf 87bd
000000a0: 9296 a3bd 4a2e 213d 140b 833e e378 343e
000000b0: 78a7 6f3d 91a3 c5bd 4a31 803d bae5 553e
000000c0: 5305 b03d 37c1 033e bd72 d63d 5e11 3d3e
000000d0: 027d febd dd3c c43c ca73 4dbd bc9a c53b
000000e0: c1db fe3d 14b5 dc3d ff3b ce3b 6e6e 193b
000000f0: 74d1 d83c 7d70 843e 4201 af3e 0376 9e3e
00000100: 26d1 863e 574e 2e3e c637 173d 7817 123e
00000110: 1881 ca3e 83dc 823d 1e84 b03d 2779 093d
00000120: 8ab9 4d3d 4c30 e53c f6cd 4c3d d2c6 e73d
00000130: 3653 2e3e 525b ab3c 5e61 c33d 9062 0ebc
00000140: 3c88 27bc 7c67 1e3e d8ea 673e ac05 853e
00000150: ef6f 9b3e 6c8d 973e eeff b93e a70d 643e
00000160: 89a0 1a3e f540 b93d dee8 4c3e 2388 29bd
00000170: c486 f43d c29d 963d 9e4f 75bd 4067 023e
00000180: a985 cf3d 4730 25be 823d 4cbe 8832 a9bd
00000190: b3f5 a5bd 6a2a 0b3e 3c4b 823e b527 8f3e
000001a0: 6b39 d73e 4de2 32bd 9293 913e a001 fd3d
000001b0: 02ef 143c f129 053e 54a0 73be a1cf 9abc
000001c0: d327 743e 2e95 e9bd bf58 69be a19a 1e3e
000001d0: 9ed7 7abd 1364 a3bd a67e 1ebc b6bd 203e
000001e0: 1ab3 66bc 8c0a e1bd 0998 07bd 6c98 2b3e
000001f0: edac bb3e dd7b 903e 8efb 2e3e fb73 2a3d
00000200: 516b 713e e18c 823d 83da 2ebd 1025 b93c
00000210: e906 533e d2f8 c6bd fc85 e13d 13ad 323d
00000220: bbc9 84be 935a 58bd 7522 3dbe 6b23 993d
00000230: 23cf e53c 47b7 143e 4861 bc3e 2bdc 9d3d
00000240: ca21 ce3e b9f3 9a3d e5f6 553d 0ded 963d
00000250: 3c0a e6bc 8804 b4bd 9bdc f83d ccd5 cabb
00000260: aac5 163e 8b5c d1bd c833 d53c f3de ef3b
00000270: 38d3 b53d d625 583e e344 3abd 6f15 1ebd
00000280: fc18 3e3e c8ca 1f3e b6fd 143e fb86 fbbc
00000290: a515 173e a14a 80bd a91c ac3c 6408 b2bc
000002a0: baff 5cbe 7f87 43bd 8acb 313e be62 dc3d
000002b0: 4cf5 ffbc 900f 14be 5968 52bc c111 b0bd
000002c0: 7fb8 143e bf7f 493c 11d9 883e 9482 3abe
000002d0: 496f 423c aa07 05be 7564 b83c 12d5 fcbd
000002e0: 4b4a 90bd 04b4 23be 137e 133e 43a5 4b3e
000002f0: a80a ed3d 3fd5 8e3d 3ee9 eabb 93a3 ba3c
00000300: dc6a d13d eeb2 0abe 6d6e efbd 7c50 173d
00000310: 2915 de3d 1754 1c3e 5a0e 8fbd 3e15 6e3d
00000320: 4c03 333d fd06 89bd 6f22 99bc 9de2 063e
00000330: 771c 923e 2f61 223e 3557 833e 6680 76bd
00000340: 7733 a43d be0b 203e cd70 a8bd 247f e83d
00000350: d252 823e 1346 eebd 1925 8abe acda 6bbe
00000360: 9352 523e 0cd7 0dbc 0c79 cc3d c78b bfbd
00000370: ce06 b13e f641 773d 0a3a 873e 2737 3e3e
00000380: a955 553d b5d1 263d b4d9 0d3b 9971 e6bd
00000390: 6567 623e 8e5d 163e 76c6 a83d d63e 113d
000003a0: 6030 123e 11eb 4ebd fbde eebd c111 b13c
000003b0: 4523 b9bd 54da 4bbc 81fe 103e 803e 5bbc
000003c0: 805f e43d 06af 4d3d a7db b43d 2469 293e
000003d0: 0853 77bd 5ac7 2a3d 5dde 3f3e a207 613e
000003e0: 5ce3 503e 0c3c d23e 818a 913e c366 323e
000003f0: 793f 413d 3366 60bd 8033 73bd 4e36 d03d
0.026481051 0.19332586 -0.03029212 -0.04974601 0.29436132 0.16906859 0.15899237 0.008866274
-0.19767438 0.06138106 0.03813874 0.22110143 -0.019176157 0.2095235 -0.021503808 -0.13945258
0.07160521 0.23776688 -4.629537e-05 -0.055545174 -0.171148 0.2850028 0.2535683 0.25616813
0.25181547 0.02289109 0.070865326 0.19699688 -0.004777369 0.16993503 0.082095355 0.046136465
-0.08027564 0.009149584 0.061434757 -0.124442235 0.19746548 -0.16193737 0.056120057 -0.06628358
-0.079877034 0.039350785 0.2559439 0.1762424 0.05850932 -0.096503384 0.06259401 0.20888415
0.085947655 0.12866674 0.10471103 0.18463656 -0.12426187 0.023954803 -0.050159253 0.0060304087
0.124442585 0.107767254 0.006293773 0.0023411768 0.026467063 0.25867072 0.34180647 0.3094941
0.26331443 0.17022072 0.036918424 0.14266765 0.39551616 0.063897155 0.08618949 0.033562806
0.050225772 0.027977131 0.050001107 0.11317219 0.1702393 0.020917568 0.09540056 -0.008690491
-0.010225352 0.15469164 0.2264818 0.2598089 0.30358836 0.29600084 0.3632807 0.22270833
0.15100302 0.09045593 0.20010707 -0.041389596 0.11939767 0.07354309 -0.059890382 0.12734699
0.101329155 -0.16131698 -0.19945338 -0.08261591 -0.08103504 0.13590398 0.25448024 0.27959982
0.42035994 -0.04367285 0.284329 0.123538256 0.009090187 0.1300428 -0.23791629 -0.018897833
0.23843317 -0.11405407 -0.2278776 0.15488674 -0.061240785 -0.07978072 -0.00967375 0.15697369
-0.014080787 -0.1098834 -0.033103976 0.16757363 0.3665537 0.282195 0.17088148 0.041614514
0.23576094 0.06374527 -0.042688858 0.02260068 0.20608105 -0.097154275 0.110118836 0.043622088
-0.25935158 -0.052820753 -0.18470176 0.074774586 0.028052872 0.1452304 0.3679297 0.07708009
0.40260154 0.07566018 0.05223741 0.073694326 -0.028081052 -0.08789927 0.12151452 -0.0061900374
0.1472384 -0.10222729 0.026025668 0.007320279 0.088781774 0.21108183 -0.04547585 -0.03859466
0.18564218 0.15604699 0.14549908 -0.030704012 0.1475435 -0.06264234 0.02100976 -0.021732517
-0.21581927 -0.04773664 0.173628 0.10761021 -0.031244896 -0.14459062 -0.012842261 -0.08597136
0.14523505 0.012298523 0.2672811 -0.18213874 0.011867353 -0.12991205 0.02250884 -0.123453274
-0.0704542 -0.1598664 0.14403562 0.19887261 0.11574298 0.06974267 -0.007168918 0.022783076
0.1022546 -0.13544819 -0.11690984 0.03694199 0.1084388 0.15266453 -0.06985159 0.058125727
0.043704316 -0.06690786 -0.018693177 0.13172384 0.28537342 0.15857385 0.2565247 -0.060181044
0.08017629 0.1562948 -0.0822464 0.11352375 0.25453812 -0.11634459 -0.26981428 -0.23032635
0.20539312 -0.008657228 0.09984025 -0.09352832 0.34575504 0.06036564 0.26411468 0.18575726
0.052083645 0.040727336 0.0021644654 -0.11252136 0.22109754 0.14684126 0.082409784 0.035460316
0.14276266 -0.050517146 -0.11663624 0.021614911 -0.0903993 -0.01244219 0.14159586 -0.0133816
0.11151028 0.050215743 0.08830958 0.16544014 -0.06038192 0.041694023 0.18737169 0.21975568
0.2039923 0.41061437 0.28425983 0.17422013 0.047179673 -0.054784965 -0.059375286 0.10166608

hidden_layers.0.bias f4 [256]
00000000: fe5a b2bd cd5e e33b e6da a43b dd54 03be
00000010: 9621 9dbd a630 8ebd 7cfc 0dbc 6305 a9be
00000020: e523 b33d 73aa fbbc 1fd2 8abc 0454 263d
00000030: cf80 133d ee0a 00bd 8cbd aabd 258e c6bd
00000040: 1f28 163d af05 7a3b 9930 8bbb 1b3c e7bc
00000050: a58e e6bd 65f7 6ebd 0d7a 48bd a823 9dbd
00000060: cb2b 84bc e065 b63d a9b9 183d 3639 e33d
00000070: 6a21 7f3c 9960 2fbd 1b60 fabd 6420 d7bd
00000080: 25ed e23d ea11 a93d adc2 b13a 3160 83be
00000090: b2b1 febd 1331 0c3d 77f5 24be aa11 213d
000000a0: 573b 04be e8b5 60be 32bf 373d f6f8 c03d
000000b0: 9b27 8abc 2432 8fbd 13db 8fbd dc06 e6bb
000000c0: 6218 11be c498 c93c aac0 1bbe b2a0 85bd
000000d0: 0c25 bcbd 934a 46be 1a07 f4bd 6838 f43d
000000e0: 5e34 2bbe df77 4e3d 5ec8 a03d 389d 27be
000000f0: 5771 42be b527 e13d b129 debd 3c44 92bd
00000100: 8f01 ffbd 56cb 263c fa5c 22be d091 ef3c
00000110: b5ad 07be 69a8 dabc 66fd 713d 4ade e6bd
00000120: 7e3d 1b3e f8cb 18be 66e5 fb3d 3902 30be
00000130: 487e cfbd bf69 083c 2c7c febd 0097 c2bd
00000140: 8267 c8bd b741 2d3c 2a0c 9dbd 752a 24bd
00000150: d507 ffbd 9b26 fcbd 3baf 243c 9b63 c4bc
00000160: c575 e5bc 22be b33d 7f84 d63c 5a05 8abc
00000170: 7858 66bd 17fb a43b a709 4c3d d445 523d
00000180: c608 d33d 145f c9bd 8fbb 59bd 0220 9d3c
00000190: 513a 70bd c1d7 93bd 9895 6abd ad0a 4ebd
000001a0: 13ef 583d 8fe9 7bbd 1445 89bd 3ff5 42bd
000001b0: 5d86 cabd 6294 b73c d0a1 4e3d 2362 49bc
000001c0: 846e 3abd 5599 3dbe 7c29 ef3c 555d 90bc
000001d0: 0446 cf3d 75ff 00bc fec6 e0bd 6f69 ecbd
000001e0: eea0 033d a13c 38bc 55e7 503e cb02 cdbd
000001f0: 6595 333d 9348 4f3d 5a09 dcbd 3f43 17bd
00000200: 957e efbd d938 0cbd 3627 69bd 56b2 d53d
00000210: 0398 6f3a a7c1 a1bd a346 9dbc c3d0 1bbe
00000220: 3c5a aebd 2ef1 f5be 9d82 a0bd 5caa 293d
00000230: a8a6 2f3c 82bf ddbc 6a7e f23d cbe2 78bd
00000240: b50a 4bbe 008e a6bd 1c87 793d 7799 c4b9
00000250: aaca 9d3c 425e eabd 0668 603d f302 e9bd
00000260: 3715 aabd c815 dd3d 0ddf 8bbd 1d23 77bc
00000270: 41b6 b5bc ed69 8fbd f933 de3d 3447 303d
00000280: 72dc b93d 9704 463d fc4b c93d 1ff7 aebc
00000290: 91c2 903b 0aef a43c efe6 70bd e7a3 6039
000002a0: 386e 10bd ed27 e33d eb6b 1cbe 8cc9 a9ba
000002b0: 8fab 903d 8edf 1abd b858 bb3b 1b8e d1bd
000002c0: b21c 2cbb 1873 bfbc 264b 7abd b542 8bbc
000002d0: 9526 23bd 6b4a 1e3d 57db 59bd c876 123c
000002e0: f9ce 0d3e 9f2a 84be 4e74 e23c 23e6 e5bd
000002f0: aa24 2cbe 9ca8 053d af29 133d b8c7 b63c
00000300: e0ad cabd d34e a13d 0471 d2bd dd44 d83b
00000310: 17c6 94ba 51e7 7cbd 04cb 033c 7ce0 50bd
00000320: b4ed 1d3d 680d e5bd 434c f6bc 2fd8 993d
00000330: cc58 13be d879 0d3d 1b0a b03d 0198 b7bc
00000340: 5630 c0bc 5816 8fbb 225f 43bd 068d 023a
00000350: e51c c8bc 99e7 0f3d 1bfc 063d b539 85bb
00000360: e151 323d 433a e3bd 1c3b 37bd 9115 85bd
00000370: 2c5a 98bd 5f3f 5ebd 402e d53d 2f13 753d
00000380: 520d b13b 834e 0c3d d61a 433d d4a5 adbd
00000390: a10e cfbc c4d9 213d c58f 403e 61c5 6cbb
000003a0: f8b6 c33b 594d 98bd bd0f e2bc 76fb 17bb
000003b0: d688 973d 1f2a 92bd 2936 9a3d c830 0fbe
000003c0: 6553 b7bd dd51 173d c1b6 6abd 6a4a 93bd
000003d0: 1cc3 c6bd 7521 303e ae42 a23d 37c8 57be
000003e0: 9ce7 0d3d 6df7 493b 7382 93bd 594c debd
000003f0: 9a03 163d cd8f f5bd 690e db3d 3565 3cbe
-0.08708762 0.0069387914 0.0050309775 -0.12825342 -0.07672422 -0.06942873 -0.008666154 -0.33011922
0.08747081 -0.030720925 -0.016945897 0.040607467 0.036011513 -0.031260423 -0.083369344 -0.09695081
0.036659356 0.003815036 -0.0042477367 -0.028226903 -0.11257676 -0.058341403 -0.04894452 -0.076728165
-0.016134163 0.0890615 0.037286434 0.110948965 0.015571931 -0.042816732 -0.12225362 -0.10504225
0.11080388 0.0825537 0.0013562046 -0.25659326 -0.124362364 0.03422649 -0.16109262 0.039323486
-0.12913261 -0.21944392 0.044860072 0.094224855 -0.016864588 -0.069919854 -0.07024207 -0.0070198607
-0.14169458 0.024608977 -0.15210214 -0.06524791 -0.09186754 -0.19364385 -0.11915417 0.11924821
-0.16719195 0.050407287 0.07850717 -0.16368568 -0.18988548 0.10993902 -0.10847796 -0.07141921
-0.12451469 0.010180315 -0.1585578 0.029244334 -0.13249858 -0.026691632 0.05907955 -0.11272867
0.15160176 -0.14921558 0.12299614 -0.17188348 -0.10131508 0.008325993 -0.12426028 -0.09501457
-0.097853675 0.01057475 -0.07668336 -0.040079553 -0.12452666 -0.12312051 0.010051544 -0.023973277
-0.028010258 0.08776499 0.026186226 -0.016848255 -0.056236714 0.005034815 0.049813893 0.051336125
0.10304408 -0.09832588 -0.053157385 0.019180302 -0.058649365 -0.07218886 -0.05727157 -0.05030315
0.052962374 -0.061502036 -0.06702629 -0.047597166 -0.09888909 0.022409622 0.050447285 -0.012291464
-0.045515552 -0.18515523 0.029194586 -0.01762263 0.10120776 -0.007873406 -0.10975455 -0.11543547
0.032135896 -0.011244924 0.20400746 -0.10010298 0.043843646 0.05060632 -0.10743971 -0.036929365
-0.116940655 -0.0342339 -0.05692216 0.104344055 0.0009139778 -0.078982644 -0.019198721 -0.15216355
-0.085133046 -0.48035568 -0.078374125 0.041422233 0.010720886 -0.027068857 0.11840518 -0.06076316
-0.19828303 -0.08132553 0.060919866 -0.00037498373 0.019261677 -0.114437595 0.054786704 -0.11377516
-0.08304828 0.1079517 -0.06829653 -0.015084055 -0.022181632 -0.070026256 0.10849757 0.043036655
0.0907525 0.04834422 0.09828946 -0.02135807 0.0044177254 0.020133514 -0.058813985 0.00021423363
-0.035261363 0.110915996 -0.15275542 -0.0012953742 0.07063972 -0.037810855 0.005717363 -0.102321826
-0.002626222 -0.02337031 -0.061106823 -0.016999582 -0.039831717 0.03864519 -0.053187694 0.0089394525
0.13848485 -0.25813767 0.027643349 -0.11225536 -0.16810861 0.0326315 0.035928424 0.02231203
-0.09896445 0.07876363 -0.10275462 0.006600006 -0.0011350539 -0.061744038 0.008044008 -0.050995335
0.03855677 -0.11184198 -0.030065661 0.07511937 -0.14389342 0.034540027 0.085956775 -0.022411348
-0.023460548 -0.0043666773 -0.047698148 0.00049801206 -0.02442784 0.035132978 0.03295527 -0.004065717
0.043535117 -0.11095097 -0.044734105 -0.06498254 -0.07439074 -0.054259654 0.10409212 0.059832748
0.0054031992 0.034254562 0.047633015 -0.08478895 -0.02527553 0.039514318 0.18804844 -0.003612839
0.0059727393 -0.07436628 -0.027595395 -0.0023190654 0.07399146 -0.0713694 0.075298615 -0.13983452
-0.08951453 0.036943305 -0.057303194 -0.07191928 -0.09705183 0.17200263 0.079228744 -0.2107247
0.034644708 0.0030817643 -0.072026156 -0.10854406 0.03662453 -0.119903184 0.10696108 -0.18397982

hidden_layers.1.weight f4 [256, 256]
00000000: 4a56 1cbe 5a59 333c 2030 d13d 64d5 ed3c
00000010: 22eb 0bbe b88b 3abe 1360 98bc 99ae 4f3e
00000020: 7f86 873d c5c0 793d 5893 413e 87b5 803d
00000030: 6183 0d3b 0da9 ea3d 12e7 743d fe85 fbbd
00000040: 6c41 103e b8ea c03a 7546 0ebe acf7 6d3c
00000050: 93c7 7d3d e399 4d3e 2ca5 f4bc dddd 5f3e
00000060: 9223 82bd d03f af3c 587d 1c3e 189b 7e3d
00000070: 1576 d3bc 26f2 24bd 1e82 78be ddc1 8d3c
00000080: 1c1d eabd f884 6ebc 41c7 2abe 96f4 893e
00000090: c69c 6f3e 3ba6 59bd 987b 043e 7561 59be
000000a0: 1030 97bd 82be e43d 4b0a 9a3e 58bf 0d3d
000000b0: 6d28 48bd bd8c b93a 9b74 2dbe b4e4 9a3c
000000c0: da11 0dbe 4461 c8bd dca8 b1bb a3aa dbbd
000000d0: ceff f5bc f17d c8bd 14a7 89bd 76bf edbd
000000e0: 4daf 6e3e 08ac c33d caaa cabc cf31 9b3c
000000f0: 5994 ef3d cc33 55be 9975 b6bd 7b65 bbbd
00000100: c496 143e 43cb 1d3e 8fd1 f2bd f0ba ca3c
00000110: 226c c9bc 3482 cb3e cf83 913d 9903 89bd
00000120: d0bb 223e fc19 e33d c5ab 3bbe bfb9 0d3e
00000130: a78e 7abd 87e8 2dbe 2e62 8abc 8e66 29bd
00000140: 2fa2 25bd 9378 043e 005f eb3c c787 45be
00000150: 2415 143e 2370 953d 47df 023e 7ee2 453e
00000160: 4e74 0ebe 3706 f1bd 2934 a43d 68ba b3bd
00000170: a97a 9e3d 075c 143e 4b14 58be 6362 113e
00000180: 7b00 7dbd fbc9 323e 6151 093e bc0a 8d3d
00000190: 7ab8 1d3d 6058 863b f4e7 393e 8a6a d73d
000001a0: 3888 4c3e 61b4 623c 1f05 8e3d 612c 083e
000001b0: 000f 41bc 84af 1f3e a6bb 66be 10bc d03d
000001c0: ae95 7e3d 57f2 9c3d ff6a c53d 453f b4bd
000001d0: 4b42 3e3e e76a dbbd 7fec 7d3d 46fe eebc
000001e0: 4dfb 8fbd 1406 f73d 7ae8 fa3d d668 f43d
000001f0: c315 febd 5067 2abc 653c 00bc e02c 87be
00000200: 6fae 71bb daaa 643d d1da bc3c 5aef 9dbd
00000210: ba5d 243d b7d1 29be f7c8 01be 9a1c 223d
00000220: 95fd fabc fef2 9dbd c9c7 24bd 5073 71bd
00000230: 67a6 a63c a3e9 c93d 67d3 f7bd 1704 b03d
00000240: dd18 ec3d 70b6 36be b104 7e3d 2c96 d6bd
00000250: 255f 943d 41a9 083e 7917 ad3d 8802 a6bd
00000260: 1c41 30bc bee2 0c3e 26b6 eb3c 1607 b4bd
00000270: 5b57 27be cd62 0c3e f08d 143e dc41 13bd
00000280: 662e 16bd f8e9 fe3c a50d 32bd 05f8 91bb
00000290: 7195 de3c 7e51 8b3d 4ecd df3c 880f 1e3e
000002a0: aaa3 52be 2ce6 81bd 0431 893d ded8 c33c
000002b0: 93c6 d93c c801 16be ef05 7b3d cb9b e6bd
000002c0: f17b ab3c 613c 5b3c 4201 1bbd 2828 6abc
000002d0: a865 3a3e dbc1 d23d 3d04 d6bd 6fd5 b8bd
000002e0: 2d82 b93d 93a2 903e c6b4 a2bd afff e93d
000002f0: 1086 543d b7bb 0fbe a5d4 f33a aa4c ad3b
00000300: 8e8b 76be b839 ca3d cb1d 963b c7dc 96bb
00000310: 4606 a0bd c535 5b3c 496e d13c 1794 8d3e
00000320: 83f4 0fbd 93a6 98bc 290b ec3d 49ee 41bc
00000330: dd8b 613d 0da0 483d 1d26 83bd 256a dc3d
00000340: d0ed e1bd 386b f7bb e434 a23d 32eb b33a
00000350: 4f9f 87bd 1d7c 833d f23b debd 0e7d cfbd
00000360: 6e7d e5bd 12b0 b9bd e27e 3dbc 07f2 b23d
00000370: 6e8f 183e c1a5 bcbb 703b 0c3d ff54 3e3e
00000380: 3578 dc3c 616c 07be 731d af3d 4f38 05bd
00000390: 25ce 5c3e c4da c5bd da02 483e ec46 b93d
000003a0: 6d5d 8dbd ec2b 813d 994e dfbd 49da 31be
000003b0: cf61 19bd f4b5 873d a821 08bd 9ba0 c9bd
000003c0: 9b37 a2bd ac5c 9abd 2d83 783d b917 d5bb
000003d0: d601 393e 1724 583e 46ff bc3d fdf8 0b3e
000003e0: 8dc3 95bc aa51 34be 06e4 76be dc12 8fbd
000003f0: a3c0 523e bac5 97bd ae9a 4ebd 10d0 233e
-0.15267292 0.010946596 0.10214257 0.029032417 -0.13663915 -0.18217361 -0.0186005 0.20281447
0.0661745 0.060974855 0.18903863 0.062846236 0.00215932 0.11458025 0.05979068 -0.12281416
0.14087456 0.0014718389 -0.13894065 0.014524382 0.061957907 0.20078234 -0.029863916 0.21861978
-0.06354441 0.021392733 0.1528219 0.062159628 -0.025813142 -0.040269993 -0.24268386 0.017304355
-0.114313334 -0.014558069 -0.16677572 0.26944417 0.23399648 -0.053137045 0.12937772 -0.21228583
-0.07382214 0.11169149 0.30085978 0.034606308 -0.048866678 0.0014156323 -0.16939013 0.018907882
-0.13776341 -0.09784177 -0.005421741 -0.10725906 -0.030029204 -0.097896464 -0.06721321 -0.11608784
0.2330906 0.09554297 -0.024739642 0.018944649 0.11698217 -0.2082054 -0.08909149 -0.09150215
0.14510638 0.1540957 -0.118563764 0.024747342 -0.024587695 0.39747775 0.071052186 -0.06690139
0.15891957 0.110889405 -0.18327244 0.13840388 -0.0611712 -0.16983233 -0.016892519 -0.04135757
-0.040437873 0.1293662 0.028731823 -0.19290076 0.1446119 0.07296779 0.12780486 0.19324681
-0.13911554 -0.117687635 0.08017761 -0.087757885 0.07738239 0.1448823 -0.21101491 0.14197688
-0.061768036 0.17459862 0.1340995 0.06886813 0.03850601 0.0040998906 0.1815489 0.105183676
0.19973838 0.013836951 0.069345705 0.13298179 -0.011783361 0.15594298 -0.2253252 0.1019212
0.062154464 0.0766341 0.096395485 -0.0880113 0.18579976 -0.107137494 0.06199312 -0.029173981
-0.07030354 0.12061706 0.12251373 0.11934058 -0.124064945 -0.010400608 -0.007826899 -0.26401424
-0.0036877652 0.055827 0.023053559 -0.07711668 0.040128447 -0.16583906 -0.12674318 0.039578058
-0.030638495 -0.07712363 -0.040229592 -0.05894786 0.020343019 0.09859016 -0.12100869 0.0859453
0.1152818 -0.17843032 0.062016193 -0.10477862 0.0724471 0.13345815 0.08451743 -0.081059515
-0.010757711 0.1375837 0.028773379 -0.08790414 -0.16341917 0.13709565 0.1450727 -0.03595148
-0.036665343 0.031117424 -0.043470044 -0.004454615 0.027170869 0.06802653 0.027319577 0.15435612
-0.20570245 -0.0634273 0.06698802 0.023907121 0.026583945 -0.14649117 0.061284956 -0.11260184
0.020933123 0.013381095 -0.037842996 -0.014291801 0.18202841 0.10290881 -0.10450027 -0.09025084
0.09058032 0.28249034 -0.07944636 0.11425721 0.051885664 -0.14036451 0.0018602802 0.00528868
-0.24076673 0.0987429 0.0045811883 -0.0046039554 -0.078136966 0.013379519 0.025565283 0.27652046
-0.035145294 -0.018634116 0.11525566 -0.011836597 0.055065025 0.04898076 -0.06403754 0.10762433
-0.11031687 -0.0075506233 0.07920244 0.001372671 -0.066221826 0.06420157 -0.108512774 -0.10131274
-0.112055644 -0.09066786 -0.011565896 0.08737569 0.14898464 -0.005757064 0.03423637 0.18587111
0.026912788 -0.13224937 0.08550539 -0.032524403 0.21563013 -0.09660867 0.19532338 0.090467304
-0.06902585 0.063072056 -0.10903663 -0.17368425 -0.037446793 0.06626502 -0.033235222 -0.09845086
-0.07920762 -0.07537207 0.060671974 -0.006503072 0.18067107 0.21107517 0.09228377 0.136692
-0.018281722 -0.17609277 -0.24110422 -0.06986019 0.20581298 -0.0741076 -0.050440483 0.15997338

hidden_layers.1.bias f4 [256]
00000000: 61c4 7e3b 446f ffbc aac0 6bbd 29c8 8fbd
00000010: 8a06 d0bd 21aa 07bd 62b0 bb3b 040e e9bd
00000020: 6100 e6bd 24b7 6abd 0c02 4e3d 1f38 31be
00000030: 77b3 99bd 9811 9ebd f5b0 f2bc 284d 03be
00000040: bb03 19be 26c8 17bd d30f 95bd a4c5 c9bd
00000050: dc64 d4bd 266c 14be 15aa 07be 659d 63bd
00000060: eddd 1ebe eb35 1dbd 8ad3 20be fac7 05be
00000070: 8830 93bd 8485 05be 8c9d febd 629c fabd
00000080: 03dd ddbd 7b61 91bd 104f afbd a3de acbd
00000090: cd78 f3bd faad fd3b 4f90 d5bd eaf1 03bd
000000a0: 37d4 ffbd dd14 95bd 75b2 04be a0b0 cebd
000000b0: 51fc e6bd f7f6 f9bd 81da e0bd a8e9 bebd
000000c0: 2a39 03be c276 99bd d61c d6bd 176f 87bd
000000d0: fc81 d13a fbfa ecbd a33b babd 092c 74bd
000000e0: 694b b0bd 863b b4bd 3360 45bd b754 d0bc
000000f0: a2ea 15bd cd12 e0bd cb14 013d 992d 6dbd
00000100: 8914 36bd 6a1e dbbd 3ac4 c7bc b47f 40be
00000110: 8d2e 7a3c 0d76 39bd 7afe 05be a4e0 d0bc
00000120: 2b4a 96bd e6fb f1bd c4b8 b4bd e0cc 1dbd
00000130: 3510 d6bd 3d34 04be 6cd5 23be 1e27 fabd
00000140: 23ac 0dbe 3990 d6bd 3ab3 fdbd 9b47 81bd
00000150: ce64 ccbd 6fc6 a1bd 4a6e c2bd 1216 c5bd
00000160: 82d5 0abd 6e7d 07be 90c6 1dbc 5007 e8bd
00000170: 1dbe c53d 9b39 33be c986 68bd c49e d0bd
00000180: 4e1b a43c 58ef f5bd d81b eabd 2f27 cbbd
00000190: 0bdf 9dbd 42cc 0dbd af8d f4bc 7dbe 17be
000001a0: df88 f2bc ee9d f63d c964 263c 527d 0abe
000001b0: ca9b d1bd 2bfa 3abd 9d7c d3bd 9373 1dbe
000001c0: 209a 2dbe ac93 10be 6806 69bd af18 18be
000001d0: 7157 ad3d f121 4b3c 6c9e 97bd 1b1b ffbd
000001e0: 3191 e53d 6ceb 9cbd a735 89bc b986 e6bd
000001f0: 7f93 a6bd 4ab9 13bd d169 9fbd 5a5e a3bd
00000200: fdc1 b5bd 4cbd a3bc b8cb b1bc 6d8b 10be
00000210: 586a efbb 1366 dbbc ff64 0dbd 5c2e dfbd
00000220: 0625 e1bd 7a58 babc 5f7b dc3d b25a 833d
00000230: 5f33 c4bd feba 70bd 4f2d 2dbd d004 11be
00000240: ed34 1cbe 73e1 94bd fb71 3cbd 2f58 20bd
00000250: 8dcc f6bd 5675 a0bd fcd5 81bd be8e 94bc
00000260: ba07 7fbd c802 9fbd 918b a5bd 0fd8 07be
00000270: 2e59 1dbe 81fa bdbc 1dab 083d 0cca 36bd
00000280: 18ac 94bd 3a63 44bc e55b 1fbe a720 fabd
00000290: 554d 7fbd 3182 77bd b7d1 23be f5a8 c6bc
000002a0: 72bd 08be 0354 eabd 2da8 6abd da67 f8bd
000002b0: 1222 313d 1351 153e 2d15 22be 528b 57bd
000002c0: acde c9bd aa49 ffbd e771 c1bb bad8 6bbc
000002d0: 4372 09be 73e7 7bbd 5b43 22be 14b6 34bd
000002e0: 37e1 4cbd 3e3c c7bd 1fa8 f1bd 99dc 1dbd
000002f0: e911 c6bd e779 7a3c 2fe5 bbbd 3af2 7abd
00000300: d7c9 f7bb 617c eabd 9844 0cbe 9d6f babc
00000310: b6e7 01be a415 13be 5533 fd3d 6e28 1fbd
00000320: b9f9 b43d 6a2e 5ebd 12ca 3bbd 0ffd 0abe
00000330: 0ab5 e1bd 32d4 37bd eca0 23be e07c bcbd
00000340: 40b9 923c 488c 75bd d95b 2cbe f33b 753d
00000350: b119 2d3a 2c0d 11bd d944 5cbd 796e 73bd
00000360: b173 9ebd bc8c 01be 5fff 18be df1a 26bc
00000370: 9840 cdbd 6c67 bdbd 3240 72bd 3b66 53bd
00000380: 2c49 a8bd 72b6 f4bc 87ed d6bd eab7 b33a
00000390: 074e 0bbe a3ba c4bd 94f1 9bbd aff0 a6bd
000003a0: 5e79 eabd 629e 21bd 6fa7 433d 6ca3 11be
000003b0: 6bd0 20be 92e1 a7bd 2533 babd ad77 0fbe
000003c0: bc8a 04be ca6d 22be 9cd4 a6bc ef99 90bd
000003d0: f372 2ebe b0dd 1e3d cbae 13be 69a6 ab3c
000003e0: b11e a8bd 2c90 f4bd dfcc b7bd 9d5d 0dbd
000003f0: d9bb eabd e949 d5bd 9693 9bbd bba9 20be
0.0038874375 -0.031180985 -0.057556786 -0.070205994 -0.10157497 -0.033121232 0.0057278136 -0.113796264
-0.11230541 -0.057303563 0.05029492 -0.17306565 -0.07504933 -0.077181995 -0.029625395 -0.12822402
-0.1494283 -0.03705611 -0.07278409 -0.0985215 -0.103708 -0.1449438 -0.13248475 -0.055570025
-0.15514345 -0.0383815 -0.15705696 -0.13064566 -0.07186991 -0.13039213 -0.124323934 -0.12236859
-0.1083317 -0.07098671 -0.08560002 -0.08440902 -0.11888275 0.007741687 -0.10427915 -0.03221313
-0.12491649 -0.0727937 -0.12958701 -0.10092282 -0.11278594 -0.12205308 -0.10979176 -0.0932191
-0.12814775 -0.074933544 -0.10454719 -0.066129856 0.0015984173 -0.11571308 -0.09093406 -0.059612308
-0.08608133 -0.08800416 -0.048187446 -0.02543102 -0.036600716 -0.10941086 0.03151397 -0.057904813
-0.044453178 -0.106991604 -0.02438556 -0.18798715 0.015269888 -0.045278598 -0.13085356 -0.025497742
-0.07338365 -0.11815624 -0.08824304 -0.038525462 -0.1045231 -0.12910552 -0.15999383 -0.12214492
-0.13835196 -0.10476727 -0.123877004 -0.06312486 -0.099801645 -0.07899176 -0.09493692 -0.0962335
-0.033895023 -0.13231441 -0.0096298605 -0.1132952 0.09655402 -0.17502443 -0.056769166 -0.10186532
0.020032551 -0.12008542 -0.11431092 -0.09919583 -0.07708558 -0.034618624 -0.029852716 -0.1481876
-0.02960628 0.120418414 0.010155865 -0.13524368 -0.102347925 -0.045648735 -0.103265025 -0.1537612
-0.16953325 -0.14118832 -0.056890875 -0.14853166 0.08463944 0.012398229 -0.074032634 -0.12456342
0.11209334 -0.07662091 -0.016749216 -0.11256165 -0.081336014 -0.036065377 -0.07783855 -0.079769805
-0.08874891 -0.019987725 -0.021703586 -0.14115687 -0.0073063783 -0.026782071 -0.034520146 -0.10897514
-0.1099339 -0.022747267 0.10765719 0.06413783 -0.09580111 -0.05877208 -0.042279538 -0.14161992
-0.15254565 -0.072695635 -0.046007138 -0.0391466 -0.12050734 -0.0783488 -0.063396424 -0.018134471
-0.062263228 -0.07764202 -0.08083261 -0.13266014 -0.1536605 -0.023190739 0.03336631 -0.04462628
-0.07259387 -0.011986548 -0.15562399 -0.12213259 -0.06232961 -0.060426895 -0.15997969 -0.024250487
-0.13353518 -0.11441805 -0.05728929 -0.12129183 0.043245383 0.14581709 -0.1582839 -0.0526231
-0.098569244 -0.12465222 -0.005903471 -0.014394933 -0.13422494 -0.061500024 -0.15846007 -0.044118956
-0.05001947 -0.09728287 -0.11799645 -0.038540456 -0.09671385 0.015287853 -0.09174573 -0.06126616
-0.007561903 -0.11449505 -0.13698041 -0.0227583 -0.12686047 -0.14363724 0.123633064 -0.038856916
0.08836693 -0.054243483 -0.045847006 -0.13573097 -0.110208586 -0.0448801 -0.15979356 -0.092035055
0.0179106 -0.059948236 -0.16831912 0.059871625 0.00066032546 -0.035412952 -0.053776596 -0.059431527
-0.0773691 -0.12651342 -0.14941166 -0.0101382425 -0.10022086 -0.09248242 -0.059143253 -0.051611166
-0.082170814 -0.029872153 -0.104945235 0.0013711427 -0.13603984 -0.09605911 -0.07614437 -0.081513755
-0.1144893 -0.039457686 0.0477671 -0.14222497 -0.15704505 -0.08197321 -0.09091786 -0.14010496
-0.12943548 -0.15862194 -0.020365052 -0.070606105 -0.17036037 0.038785636 -0.14422147 0.020953374
-0.08208979 -0.11941561 -0.08974623 -0.034513105 -0.1146161 -0.10414488 -0.07596509 -0.15689747

output_layers.0.weight f4 [40, 256]
00000000: f620 febc 2081 e53d f7b5 c9bb c765 fdbc
00000010: b1f2 493e 7ad2 693c 5129 81bc 8b9e f33d
00000020: a6ed c9bc cdab bcbc b68e c1bc 0ec1 4abe
00000030: 12ee b83d b9b1 f73c a1a4 013e 7c94 223e
00000040: 081c be3b bbe5 e63c ad0a 413e fc6b 04be
00000050: 78b4 4ebd dd95 1cbd f147 c8bb 44a1 e43c
00000060: ae0a 223d 0521 413e acc2 1c3e 3b6a d13d
00000070: 5411 39bd 675c 963c 269a a6be 84d3 b53c
00000080: 8e42 993d e3e3 3c3c a752 54bd 0dd6 013e
00000090: dd0f 9b3c 9d4a 3bbd 9bb5 4e3d 667c 273e
000000a0: 26b2 753c 23c6 d0bc b50f 4f3d d220 9dbc
000000b0: f0a9 9d3e b938 ddbd a67a 803e 1936 0fbe
000000c0: 2554 9abc 47e9 423d f749 153d d396 64be
000000d0: cf9d a5bd 36e2 d83c 08b2 62bd 556f e83d
000000e0: 7ddd 08be 4a1d 1bbd 9b45 5dbe 48a6 c6bd
000000f0: 5754 123e 8578 26be 10c9 d5bc 4a60 143e
00000100: 4536 b2bd d77c b9bd 3144 183e c191 e93c
00000110: 557f 9c3c 8986 6bbe 8b72 dd3d 9fe1 b1be
00000120: 7b10 c13d a377 a63d b55b 953d ae79 82bc
00000130: 23e9 48be 0582 1d3e 4a73 ca3d bc55 0abe
00000140: 9695 76be 712c fabd 4880 12be 73d1 9a3d
00000150: c82d c33d 4c73 17be 11f5 2d3e 2c71 703c
00000160: 0984 713c 9195 2bbe 7800 f8bc 5d72 273e
00000170: cbdf 42bc 5897 ae3c 581c 5bbd 8b5a b33d
00000180: ac20 17be 553f 8c3c b4c8 8dbb 59d5 a0bd
00000190: 6b35 d9bd 7bed 9cbe 6b28 abbd 0800 0f3e
000001a0: ad42 ea3d 14f1 d0bc 33ee 7bbd 54fc 583d
000001b0: 746f 61be bf92 623e 66ad 413d d2c1 57be
000001c0: 2e6a a03d 72a5 a739 2884 c1bc 73a9 c83d
000001d0: 16f8 a3bc 1cef 2bbd 7e19 9b3c 79e2 f93d
000001e0: 166b 0dbd 110f 533c 35e0 c2bb 5832 563d
000001f0: 6dab 43be adee d3bc 80a5 91bd be77 303e
00000200: 86c5 483d c722 53bd e9bd 02bd ea07 b23c
00000210: fd8e 69bd eee8 6f3e 0208 f8bc 8eda 34be
00000220: 51af 02be cd69 26be ba3d cfbc 8288 07bd
00000230: a5ee e1bb b1c8 503b 8703 f13d 185e f13d
00000240: 0351 953d 040b 35be e7ed ad3d 9f7e f23d
00000250: 42ec 043e 985d de3d b83c 223a 6362 933e
00000260: 4162 cb3b b7b4 bcbd cd8f 81bd 42cd 8cbd
00000270: 12dd d8b9 2bdc 28bd 5dc0 eabc f519 8cbe
00000280: 20e6 d5bc d50e 893e 8374 06bd 0893 1fbe
00000290: f559 1a3d 8a8d 19be 6ed9 0c3e 9be4 56be
000002a0: cafd 22bd a0fa 86bd b2c5 0abd 50d3 ca3c
000002b0: 556a bbbc d0f3 d6bc 5ba7 82bd 8179 25be
000002c0: eb34 803d 9dcf 59be e3d8 39bc 66a7 07bd
000002d0: 28b0 9a3d 3680 c83d 6799 30bd de1b 9a3c
000002e0: 1c76 1e3e 6586 23bd d95a 903d 084d 5abd
000002f0: d06d 2ebd 42b6 febc 5a21 b3be 8c75 65be
00000300: 4201 82be d3f8 0d3e 86c2 673e 2393 8bbd
00000310: e4f8 bc3c 707e 3bbe e406 aebc c114 11bd
00000320: 3b59 9cbc de4c c93d f876 353e 6782 bc3d
00000330: a1cd af3d 5d88 c9bd d4b5 0f3e bedd a5bd
00000340: 8a65 83bc a27c 57bc 5368 e5bd 607f 0fbd
00000350: 7b1c bebc b748 d83d 97ce 7dbd 4088 133e
00000360: e493 533e c3f3 3fbd 3176 773d bc46 573e
00000370: 128e 0c3d 2609 9e3d 182f 28be 9ad0 3f3e
00000380: 3779 0cbd eeeb d93b 6f9b 16bd 7e54 473e
00000390: 40a7 07bb 5b32 353d b72e 7ebd 6006 e2bd
000003a0: 1d47 aabd b8ab 8039 49bd 94bc 931c 423d
000003b0: 4143 1c3e 917d a23d 7bea 25be c9b2 b63c
000003c0: 7041 8b3d 5062 fb3d e54a 2ebe 8801 a1bc
000003d0: a224 67bd 6577 f4bd 8085 bd3d 1eec d5bc
000003e0: 67ce cebd 491e afbd 8313 4e3c 9e5b d83d
000003f0: 6d62 b53d f16d 0bbe ded3 8bbd 9724 78be
-0.031021576 0.11206269 -0.006155725 -0.03093232 0.19721486 0.014271373 -0.015766772 0.11895474
-0.024649452 -0.02303114 -0.02362762 -0.19800207 0.09029783 0.030236112 0.12660457 0.15876955
0.0058016814 0.028185716 0.18851729 -0.12931818 -0.050465077 -0.03822886 -0.0061120917 0.027908929
0.039560966 0.18860252 0.15308636 0.1022534 -0.04518254 0.018354608 -0.3253948 0.022195585
0.074833974 0.011528942 -0.051836636 0.1267931 0.018928463 -0.045725454 0.05046616 0.16356048
0.014996087 -0.025485104 0.05055209 -0.019180689 0.30793715 -0.108018346 0.25093573 -0.1398548
-0.018838951 0.04758575 0.03644749 -0.2232316 -0.0808674 0.026475053 -0.055345565 0.1134936
-0.13365741 -0.03786973 -0.21608584 -0.096996844 0.14289986 -0.16256912 -0.02609685 0.14489856
-0.08701757 -0.090570144 0.14869763 0.028511884 0.019103685 -0.2300054 0.10812863 -0.34742448
0.094269715 0.08128288 0.07292882 -0.015927162 -0.19620185 0.1538163 0.09885271 -0.13509268
-0.240805 -0.12215508 -0.14306748 0.075594805 0.095302165 -0.14790076 0.16988017 0.01467542
0.014740952 -0.16756274 -0.030273661 0.1635222 -0.011894177 0.0213124 -0.053493828 0.08757504
-0.14758557 0.017120043 -0.004326904 -0.07853193 -0.10605892 -0.30649933 -0.083573185 0.13964856
0.11438499 -0.02550558 -0.06150646 0.052975014 -0.22015172 0.22126292 0.047284506 -0.2107003
0.07832752 0.00031975989 -0.023622587 0.09797945 -0.020015758 -0.04197608 0.018933054 0.12201399
-0.034525953 0.01288201 -0.0059471377 0.052294105 -0.19108362 -0.025870645 -0.07111645 0.17233178
0.049016498 -0.051546838 -0.031919394 0.02173229 -0.05702113 0.234287 -0.030277256 -0.17661497
-0.1276219 -0.16251297 -0.025297988 -0.03308917 -0.0068949037 0.0031857903 0.11768251 0.11785525
0.072908424 -0.17679983 0.08492642 0.11840557 0.1298075 0.10857695 0.00061888574 0.28786
0.006206781 -0.09214156 -0.06326256 -0.06875087 -0.0004136344 -0.041225594 -0.02865618 -0.27363554
-0.026110709 0.26769128 -0.032825958 -0.15583432 0.037683446 -0.14995399 0.13754818 -0.20985644
-0.039792813 -0.06590772 -0.033879943 0.024758965 -0.022877852 -0.026239306 -0.06379577 -0.16159631
0.06260093 -0.21270604 -0.011343214 -0.033118628 0.075531304 0.09790079 -0.043115046 0.018812116
0.15474743 -0.03992309 0.07048578 -0.05329612 -0.042585194 -0.031092767 -0.34986383 -0.22408122
-0.25391585 0.1386445 0.22632799 -0.068151735 0.023067899 -0.18309951 -0.02124352 -0.035420183
-0.019085517 0.098291144 0.17721164 0.0920456 0.085841425 -0.09840462 0.14034206 -0.080989346
-0.016039629 -0.013152273 -0.11201539 -0.035033584 -0.02320694 0.10560744 -0.061964598 0.14407444
0.20661885 -0.04686333 0.06041545 0.21023077 0.034315176 0.07716589 -0.16424215 0.18731919
-0.034295287 0.0066504395 -0.036769327 0.19465825 -0.0020699054 0.044237476 -0.06205627 -0.11036372
-0.08314345 0.00024542003 -0.018156664 0.04739053 0.1526003 0.07934106 -0.16202728 0.022302048
0.067995906 0.12274611 -0.17020757 -0.01965405 -0.05643142 -0.11936835 0.09253979 -0.026113566
-0.10097962 -0.08550698 0.012577894 0.105643496 0.08856664 -0.13616158 -0.0682752 -0.24232708

output_layers.0.bias f4 [40]
00000000: 69df 78be a240 05bf 9c4b 70be 9f1f 79bf
00000010: 9e42 ebbe 722b c8be c807 04bf 5154 3abe
00000020: b256 eebe 251f dcbe d115 9dbe ad8a 69be
00000030: c65c c7be e9ae 04bf 05d4 c0be e737 d1be
00000040: ba41 d0be c60b e4be 0070 c0be ec78 d2be
00000050: 8940 c6be 4b10 cabe eff3 debe 57d1 e2be
00000060: fd1f a2be 3abe b4be a15e bebe 2f0d b8be
00000070: 6231 dabe 0a01 98be 42a1 e3be 2f75 b4be
00000080: c70f dbbe 4455 44be 0f64 fcbe 163b f5be
00000090: f3be 37be f148 7abf 6fe7 99be c7fc e0be
-0.24303974 -0.52051747 -0.23466343 -0.97313875 -0.45949262 -0.39095646 -0.51574373 -0.18196227
-0.46550518 -0.4299251 -0.30680707 -0.22806807 -0.38937968 -0.5182939 -0.37661758 -0.40862963
-0.40675145 -0.44540232 -0.3758545 -0.4110788 -0.3872111 -0.39465556 -0.43545482 -0.4430034
-0.3166503 -0.3530138 -0.3718157 -0.35947558 -0.426158 -0.29688293 -0.44458967 -0.35245654
-0.42785475 -0.19173151 -0.4929509 -0.47896641 -0.17943935 -0.9776755 -0.30059382 -0.43942854
