MODELS/REWARD COMPARISON/SAC 10X20 MODELS/6_1_critic_local_2_network_20.pt (torch, 513735 bytes, 6 tensors)

hidden_layers.0.weight f4 [256, 201]
0	0xbd9e5199	-0.07730407
1	0xbec09ba1	-0.37618735
2	0xbf507f05	-0.81443816
3	0x3e285988	0.16440403
4	0x3f17cda2	0.59298146
5	0x3e9ca22c	0.30592477
6	0x3f230ff6	0.6369623
7	0x3ea63d23	0.3246852
8	0xbf6d813d	-0.92775327
9	0x3f0f60fd	0.5600737
10	0xbf4ab572	-0.79183114
11	0xbe517d66	-0.20457992
12	0x3ce3a071	0.027786465
13	0x3e7bf80f	0.24606346
14	0xbe8dc8d6	-0.27692288
15	0x3d222b75	0.039592225
16	0xbece7fa4	-0.40331757
17	0x3e5e5306	0.21711358
18	0x3f62ed38	0.8864322
19	0x3da8a130	0.08233869
20	0x3e08dcae	0.13365433
21	0x3f730464	0.94928575
22	0xbccd1578	-0.025034651
23	0x3ee5f8a9	0.44916275
24	0x3ea0a17c	0.31373203
25	0xbe73b839	-0.23800744
26	0x3c9cbfa1	0.019134345
27	0xbb077a66	-0.002067232
28	0x3bfb8ef6	0.0076769544
29	0xbf3eda5b	-0.74551934
30	0xbe42e422	-0.19032338
31	0x3f20b227	0.6277184
32	0xbf563974	-0.83681417
33	0xbefe418e	-0.4965939
34	0xbe9adc74	-0.30246317
35	0xbe81a0c0	-0.25317955
36	0xbf016527	-0.5054497
37	0xbf2bbe81	-0.6708756
38	0xbea439a6	-0.32075232
39	0x3e62b921	0.22140934
40	0xbc1681b7	-0.0091862
41	0xbdcaf81c	-0.09910604
42	0x3ee67a2d	0.45015088
43	0xbd3fc3cd	-0.04681759
44	0xbfd8f612	-1.6950095
45	0xbef8a30f	-0.48561904
46	0xbec350a7	-0.3814747
47	0x3f0e1b40	0.5551033
48	0xbd81d422	-0.06339289
49	0xbea4960a	-0.3214572
50	0x3ed3a8df	0.41339776
51	0xbfb46b63	-1.4095272
52	0xbf3e5d3c	-0.74361014
53	0xbe9846c8	-0.29741502
54	0xbf325541	-0.6966134
55	0xbf0a6eeb	-0.540755
56	0xbd27ecbf	-0.040997263
57	0x3e14d0e7	0.14532815
58	0xbebc65fc	-0.36796558
59	0x3ec24f51	0.3795114
60	0xbda48b30	-0.080343604
61	0xbf37b51e	-0.7176074
62	0xbf770403	-0.96490496
63	0x3e1b26e5	0.15151556
64	0xbf84eff5	-1.0385729
65	0xbfcc3d13	-1.5956138
66	0xbf991637	-1.1959904
67	0xbf1edbc5	-0.6205409
68	0xbf641fc1	-0.8911095
69	0xbdf6e449	-0.12055261
70	0xc0170d90	-2.3602028
71	0xbf83588c	-1.0261397
72	0xbf3ca86e	-0.73694503
73	0xbccd80df	-0.025085865
74	0x3edbdbea	0.4294122
75	0xbed746ff	-0.42046353
76	0xbe050a9f	-0.12992333
77	0xbd01fe2b	-0.031736534
78	0x398486fb	0.0002527757
79	0x3c01b6c7	0.007917113
80	0xbda799e8	-0.08183652
81	0xbe9f26ac	-0.31084192
82	0xbfa0fa33	-1.2576355
83	0x3e8c2d46	0.2737829
84	0xbd762f75	-0.060103852
85	0x3d9a8e96	0.07546727
86	0xbd9695ac	-0.073527664
87	0x3db740b9	0.08947892
88	0x3f3f8a52	0.74820435
89	0x3d4606e3	0.04834641
90	0x3f4cf7fb	0.8006589
91	0x3d1b9dc4	0.037992254
92	0xbf586b04	-0.8453829
93	0xbfd04b50	-1.6272984
94	0xbf451a4a	-0.7699324
95	0xbeeb1b50	-0.45919275
96	0x3dccf0ad	0.10006843
97	0xbcbc1876	-0.022960883
98	0x3f2826fb	0.6568448
99	0x3e7b00a6	0.24511966
100	0xbdc1617a	-0.0944242
101	0xbf8d4e70	-1.1039562
102	0xbfbe131c	-1.4849582
103	0xbfc50fe7	-1.5395478
104	0x3f290259	0.6601921
105	0xbdc46c73	-0.095909975
106	0x3f230e59	0.6369377
107	0xbeae4253	-0.34034976
108	0xbf5902fe	-0.8477019
109	0xbf0f858d	-0.5606316
110	0xbeedfb95	-0.46481004
111	0xbf81cbb2	-1.0140288
112	0xbe7e7fa6	-0.24853382
113	0xbecdc2e0	-0.4018774
114	0xbf3d2124	-0.73878694
115	0xbdd69c33	-0.104790114
116	0xbc2ebebf	-0.010665595
117	0x3e85d660	0.26140118
118	0x3daa4de7	0.0831564
119	0xbd937f60	-0.07202029
120	0xbe103764	-0.1408363
121	0xbeee3660	-0.4652586
122	0xbe7939bf	-0.24338435
123	0xbda1e63f	-0.07905244
124	0x3dd7ec3c	0.10543105
125	0x3e5b8456	0.21437201
126	0x3de9b43a	0.114113286
127	0x3f255feb	0.64599484
128	0x3f866920	1.0500832
129	0xbf446f94	-0.76732755
130	0xbec3a9b6	-0.38215417
131	0xbec63ce1	-0.38718322
132	0xbf90b4ce	-1.1305177
133	0xbe1d364c	-0.15352744
134	0x3eea6297	0.45778343
135	0x3db6a62c	0.089184135
136	0xbe05cc6d	-0.13066263
137	0x3e742ab2	0.23844412
138	0x3d1dc5ac	0.038518593
139	0x3c83468d	0.016024852
140	0xbe09ee18	-0.13469732
141	0xbebe3610	-0.3715062
142	0xbe97b8c8	-0.29633164
143	0xbc4335da	-0.011914695
144	0x3ecd7fa0	0.40136433
145	0x3f67849b	0.90436715
146	0x3f95fa9b	1.1717104
147	0xbe9d981a	-0.30780107
148	0x3f331152	0.69948304
149	0xbe8457e2	-0.258483
150	0xbe675e06	-0.22594461
151	0x3f2a1651	0.664403
152	0x3e6d1a45	0.23154552
153	0x3e9da527	0.30790064
154	0xbea48a8d	-0.32136956
155	0x3eee5e6b	0.4655641
156	0x3f24a5b0	0.6431532
157	0xbeecdb3f	-0.46261021
158	0xbecdbbd0	-0.40182352
159	0x3d6e78ef	0.0582208
160	0xbe3305d9	-0.174827
161	0xbec966ff	-0.39336392
162	0x3ee4f653	0.4471918
163	0x3f02fc3f	0.51166147
164	0xbe043de2	-0.12914231
165	0x3ec9b0c1	0.39392665
166	0x3f17b1eb	0.59255856
167	0xbe4138ca	-0.1886932
168	0x3e9630be	0.29334062
169	0x3e803609	0.25041226
170	0xbf176477	-0.5913767
171	0xbe55ea13	-0.20890073
172	0xbeb9964e	-0.36247486
173	0x3dc82c9e	0.09774135
174	0x3ea16dee	0.31529182
175	0xbdda48a3	-0.106583856
176	0xba4fb032	-0.00079226785
177	0x3e8f152c	0.2794584
178	0xbea41cf3	-0.32053337
179	0xbe6b3571	-0.22969605
180	0xbc94f6f4	-0.018184163
181	0xbe785056	-0.24249396
182	0xbf13bb4b	-0.5770766
183	0xbe833db8	-0.25633025
184	0x3e467e85	0.19384201
185	0xbf2be9a5	-0.6715339
186	0xbd8d4cb5	-0.06899396
187	0x3f4a00d1	0.78907496
188	0xbd1c493e	-0.038155787
189	0x3e4137a5	0.18868883
190	0xbe03a9a2	-0.12857679
191	0x3f4907d1	0.7852755
192	0x3da41456	0.08011691
193	0xbb67f625	-0.0035394516
194	0xbe41b6d3	-0.18917398
195	0x3ea6f75f	0.32610604
196	0x3ee0279d	0.43780223
197	0x3e5b9485	0.21443374
198	0xbe23fd50	-0.160146
199	0x3f88d8eb	1.0691198
200	0x3d5c2b3a	0.05375216
201	0x3d602504	0.0547228
202	0xbf78fc73	-0.97260207
203	0xc034de86	-2.8260818
204	0xbfb087f9	-1.3791496
205	0x3f9de62c	1.2335868
206	0xbf1f41ba	-0.62209666
207	0xbf135273	-0.5754768
208	0xbdde6e32	-0.10860862
209	0x3f5085b8	0.8145404
210	0xbfde71f3	-1.7378525
211	0xbef9d0f8	-0.48792243
212	0xbea37fd0	-0.3193345
213	0xbf08ad4f	-0.5338945
214	0xbfb97b4a	-1.449075
215	0xbf30825f	-0.6894893
216	0xbf05fda7	-0.5234017
217	0xbe6025d8	-0.21889436
218	0xbf645383	-0.8918993
219	0xbf95dfed	-1.1708962
220	0xbe49e78e	-0.19717237
221	0x3e328f78	0.17437541
222	0xbf382711	-0.7193461
223	0xc016cfa2	-2.356423
224	0xbf817445	-1.0113608
225	0xbd11898f	-0.035531577
226	0xbd1beb2a	-0.038066067
227	0xbf6b5ca7	-0.9193825
228	0xbeee4597	-0.46537468
229	0xbddfec01	-0.10933686
230	0xbfd09bb6	-1.6297519
231	0xbd8be7f3	-0.0683135
232	0xbe4720c4	-0.19446093
233	0xbe827f87	-0.2548792
234	0x3d2afaa6	0.041742943
235	0x3e0208c1	0.12698652
236	0x3edb5758	0.42840075
237	0xbf1bd4eb	-0.6087176
238	0xbf343763	-0.70397013
239	0xbddf6a71	-0.10908974
240	0x3ee49460	0.4464445
241	0x3c58e162	0.013237329
242	0xc0441769	-3.0639288
243	0xbfae9213	-1.3638328
244	0xbc0e82ed	-0.008698207
245	0x3d77c466	0.060490035
246	0xbbaabfa9	-0.005210836
247	0xbf99d8ca	-1.2019284
248	0xbf4f7ef4	-0.8105309
249	0x3d8d4005	0.068969764
250	0xbfb06e5b	-1.3783678
251	0xbe42f92a	-0.19040361
252	0x3ecfbc56	0.40573376
253	0xbec76a87	-0.3894846
254	0xbf20642b	-0.62652844
255	0xbb8df8ad	-0.004332623

hidden_layers.0.bias f4 [256]
0	0xbf59b092	-0.8503505
1	0xbe95543f	-0.29165837
2	0xc046462d	-3.0980332
3	0xbf590fcb	-0.84789723
4	0xbed5f614	-0.41789305
5	0xbd6f8a38	-0.058481425
6	0x3f2c8ac4	0.6739924
7	0x3e531b26	0.20615825
8	0xbf4bd1b8	-0.7961688
9	0xbfa153b7	-1.2603673
10	0xbdb143d3	-0.086555146
11	0xbf884d49	-1.0648586
12	0xbd6963cb	-0.056979936
13	0xc00c427e	-2.1915584
14	0xc02d7ec7	-2.7108629
15	0xbecbc9ad	-0.39802304
16	0xc0037b7d	-2.0544121
17	0xbe05f80e	-0.13082907
18	0xbea543a1	-0.3227816
19	0xbf6a9b25	-0.9164298
20	0xbf8d1eab	-1.1024984
21	0xbe1161b7	-0.14197432
22	0xc015a432	-2.3381467
23	0xbfb44879	-1.4084617
24	0x3e83ee52	0.2576776
25	0xbd33acee	-0.04386609
26	0xbf3179c3	-0.6932642
27	0xbf64e073	-0.8940498
28	0xbe4efcc0	-0.20213604
29	0xbfa73097	-1.3061703
30	0xbf0149d9	-0.5050331
31	0xc0053b9b	-2.081763
32	0xbf5707a3	-0.8399603
33	0xbf841a20	-1.0320473
34	0xbf0e4dfa	-0.5558773
35	0xbe801f19	-0.25023726
36	0xbf78d720	-0.97203255
37	0xbee153b1	-0.44009164
38	0x3f08fe43	0.5351297
39	0xc018e9bb	-2.3892658
40	0xc00be8ac	-2.1860762
41	0xbfc26869	-1.5188113
42	0xbf44d59f	-0.7688846
43	0x3f10403f	0.5634803
44	0x3f546f44	0.8298228
45	0x3e423d62	0.18968728
46	0xc0216b89	-2.5221884
47	0xbed7f82e	-0.42181534
48	0xbf3eed6b	-0.7458102
49	0xbd17bc7c	-0.037044987
50	0xc024b452	-2.5735059
51	0xbf090bb5	-0.5353349
52	0xc00fa014	-2.2441454
53	0xbd99bfcb	-0.07507285
54	0xbf0084cf	-0.5020265
55	0x3e70ed8f	0.23528121
56	0x3f18194f	0.5941362
57	0x3ea06283	0.31325158
58	0xbf2403f5	-0.6406854
59	0xbf892558	-1.0714521
60	0xc03cc4e2	-2.9495168
61	0x3e4e1800	0.20126343
62	0xc0245515	-2.567693
63	0xbff29ea9	-1.8954669
64	0xbcc5a27e	-0.024125334
65	0xbf28442c	-0.6572902
66	0xc028be26	-2.6366057
67	0xbfdf5333	-1.7447265
68	0xbe7fd455	-0.24983342
69	0xc0289425	-2.634042
70	0xc031e1b7	-2.7794015
71	0xbe265e83	-0.16246991
72	0xc048ff96	-3.1405997
73	0xbe6d9e7d	-0.2320499
74	0xbf7f010e	-0.99610984
75	0xc0194338	-2.3947277
76	0xbf9a1079	-1.2036277
77	0xbef13455	-0.4711024
78	0xbf62cfb3	-0.88598174
79	0xbf5ba91d	-0.8580492
80	0x3d2537bf	0.040336367
81	0xbe993c84	-0.29928982
82	0xc014524e	-2.3175235
83	0xbf43a15a	-0.7641808
84	0xc02775c6	-2.6165633
85	0xbf8cb72b	-1.0993398
86	0xc01641ee	-2.347774
87	0xbe30a11e	-0.17248961
88	0xc0282bbb	-2.627669
89	0xc0043cae	-2.0662036
90	0xbf4e00a6	-0.8046974
91	0xbf613582	-0.8797227
92	0xc047f659	-3.1244109
93	0xbfcdd1d3	-1.6079658
94	0xbf7ce4e7	-0.9878678
95	0xc02a3546	-2.6595016
96	0xbf5edcf2	-0.87055886
97	0xbf861d9b	-1.0477785
98	0xbf11fd2d	-0.5702694
99	0xbff76343	-1.9327167
100	0x3d0e44ae	0.034733467
101	0xbf0d52db	-0.5520455
102	0x3e495c90	0.19664216
103	0xbf652221	-0.895052
104	0xc01d9617	-2.4622858
105	0xc04c11e9	-3.1885931
106	0xc004f8a4	-2.0776758
107	0xbf4b89ac	-0.79506946
108	0x3e133a46	0.14377698
109	0xbf6d01f5	-0.9258111
110	0xc012c3b3	-2.2931945
111	0xbf5f812c	-0.87306476
112	0xc028a367	-2.6349733
113	0xbea2f74f	-0.31829306
114	0xbf213c0c	-0.6298225
115	0xbf0f464b	-0.55966634
116	0xc0337569	-2.8040411
117	0xc0028308	-2.0392475
118	0xc014b0d3	-2.3232925
119	0xbe62c7fd	-0.22146602
120	0xbd489b71	-0.048976365
121	0xc0432cc7	-3.049608
122	0xbf165de5	-0.5873702
123	0xc02adc6d	-2.6697037
124	0x3d213285	0.03935482
125	0xc00e0913	-2.2193038
126	0x3dae261c	0.085033625
127	0xbf2c1887	-0.67224926
128	0xc035a551	-2.838215
129	0xbf5c3169	-0.86012894
130	0xbe890af2	-0.26766163
131	0xc001652f	-2.0218008
132	0xc0529df6	-3.2908912
133	0xbfc9b18b	-1.5757307
134	0xbf8352ca	-1.025964
135	0xbe535748	-0.20638764
136	0xbf5adb6f	-0.8549108
137	0xbdea226f	-0.11432349
138	0xbc1a2668	-0.009408571
139	0xc0192e82	-2.3934636
140	0xbf903926	-1.126744
141	0x3d8b6532	0.06806411
142	0xbf8d9766	-1.1061828
143	0xbf7b790a	-0.98231566
144	0xbe8d0147	-0.27540037
145	0xc00fc81b	-2.2465885
146	0xbefc83a5	-0.49319187
147	0xbf8e75db	-1.1129717
148	0xbf92e416	-1.1475856
149	0xbfab9f9e	-1.3408086
150	0xbd4d35b7	-0.050100055
151	0xbeff613c	-0.4987887
152	0xbe180aad	-0.14847822
153	0x3f0ba768	0.54552317
154	0x3d6e1a7f	0.058130737
155	0xc054fce3	-3.327935
156	0xbfb6decb	-1.4286741
157	0xbf25ab6b	-0.6471469
158	0xbf5a8188	-0.853539
159	0xbe99de9d	-0.30052653
160	0xbef5179b	-0.47869572
161	0xc03f3de2	-2.988152
162	0x3f1e8137	0.61915916
163	0xc02c5834	-2.6928835
164	0x3ece65f3	0.40312156
165	0xbc7355ab	-0.014851968
166	0x3db4903a	0.088165715
167	0xbfb07a94	-1.3787408
168	0xbea08181	-0.31348804
169	0xbfa1cd81	-1.264084
170	0xc029aadc	-2.6510534
171	0xbf73ab1a	-0.95182955
172	0xbe707783	-0.2348309
173	0xbea192b5	-0.3155724
174	0x3e8b1025	0.27160755
175	0xc015508e	-2.3330417
176	0xbdf3928a	-0.118931845
177	0x3f442e66	0.766333
178	0xc02d380d	-2.706546
179	0xbf416451	-0.75543696
180	0xbfaa0c3e	-1.3284986
181	0xbe56771b	-0.20943873
182	0xbf0416e1	-0.5159741
183	0xbf4105aa	-0.7539927
184	0x3e9d394e	0.30707783
185	0xbeae8885	-0.3408853
186	0xbf1daf98	-0.6159606
187	0xbf484639	-0.7823215
188	0xbf3b8584	-0.73250604
189	0xbed0dc2b	-0.40792975
190	0xc02d43b8	-2.7072582
191	0x3d05feb3	0.032713603
192	0xbf1ed742	-0.6204721
193	0xc035d635	-2.8411992
194	0x3f060e52	0.523656
195	0xbfb66f4e	-1.4252717
196	0xc05411e6	-3.3135924
197	0xc0242d55	-2.5652668
198	0xbf3fe713	-0.74961966
199	0x3e32137a	0.17390242
200	0xbf2035f6	-0.6258234
201	0x3e31cd83	0.17363553
202	0xc008e07e	-2.138702
203	0x3cf013dd	0.029306347
204	0xbf26a244	-0.6509135
205	0xbdc62ff0	-0.09677112
206	0x3e9070c3	0.2821103
207	0xbee234c9	-0.44180897
208	0xbfdce233	-1.725653
209	0xc0233ba5	-2.5505154
210	0xbf5b771f	-0.8572864
211	0xbff63e73	-1.9237808
212	0xbebdb94f	-0.37055442
213	0xbd48e425	-0.0490457
214	0xbecc6d77	-0.39927265
215	0xbe0ef4cf	-0.13960575
216	0xc04e5545	-3.2239544
217	0xbeed3cd1	-0.46335462
218	0xbfa36709	-1.2765819
219	0xbf1af98a	-0.60537016
220	0x3ed73f79	0.42040613
221	0xc04f5041	-3.2392733
222	0xbf3066b1	-0.68906695
223	0xbf85cd37	-1.0453252
224	0xbf0b36cf	-0.54380506
225	0xc00ac497	-2.168249
226	0xbfaff62c	-1.3747001
227	0xbf4b8a7b	-0.7950818
228	0xbddf012b	-0.10888895
229	0xc03ba642	-2.9320226
230	0xc00aca2c	-2.1685896
231	0xbf28b08b	-0.65894383
232	0xbd85afe2	-0.065276876
233	0x3eb43ed9	0.352042
234	0xbef81caf	-0.48459384
235	0xbe98e425	-0.2986156
236	0xbe9bb5fa	-0.30412275
237	0xbf331e53	-0.69968146
238	0xbfa1097c	-1.2581019
239	0xbfd31dfa	-1.6493523
240	0xc03eba1b	-2.980109
241	0xbf8bbe2d	-1.0917412
242	0xc049310e	-3.143619
243	0xc0397b5b	-2.898154
244	0xbf8ec3e2	-1.1153529
245	0xc0264346	-2.597856
246	0x3e2ea463	0.17054896
247	0xbe823d6b	-0.25437483
248	0xc012c2eb	-2.2931468
249	0xbf043985	-0.5165027
250	0xc0324343	-2.7853553
251	0xbf2acb50	-0.6671648
252	0xbf7496b5	-0.9554246
253	0xc002c6dc	-2.0433874
254	0xbf1f6779	-0.6226726
255	0xbf8f3839	-1.1189033

hidden_layers.1.weight f4 [256, 256]
0	0xbe93750e	-0.28800243
1	0xbe676d19	-0.22600211
2	0xbfcfec37	-1.6243962
3	0xb9934c04	-0.0002809466
4	0xbc34bcb7	-0.011031321
5	0x3f12fb3a	0.5741459
6	0x3f1facdd	0.62373143
7	0x3f325338	0.6965823
8	0x3e9e579b	0.30926213
9	0xbdd3fd47	-0.10351043
10	0x3f9e03f2	1.2344954
11	0x3e0f7739	0.14010324
12	0xbe217921	-0.15768863
13	0x3de3800b	0.11108407
14	0x3e5e7ede	0.21728083
15	0x3c634af7	0.0138728535
16	0xbec39e6c	-0.38206804
17	0x3fa4d1de	1.2876546
18	0xbe9311fc	-0.28724658
19	0x3cfddded	0.030989612
20	0xbf3a319f	-0.72731966
21	0x3ddf3e43	0.10900547
22	0xbf5345d1	-0.82528406
23	0x3cb3d285	0.02195097
24	0x3e7f0d92	0.2490752
25	0x3d2399be	0.03994154
26	0xbe103898	-0.14084089
27	0x3f1b1e5f	0.6059322
28	0xbdac4213	-0.0841104
29	0x3e4ccf6d	0.20001002
30	0xbf351ed6	-0.70750177
31	0xbdbc55be	-0.091960415
32	0xbf486ae6	-0.78288114
33	0x3c796512	0.015221851
34	0x3f0dbf02	0.5536958
35	0xbebdb586	-0.37052554
36	0x3ce670cf	0.028129963
37	0xbe8f6d9e	-0.2801332
38	0x3f4035d7	0.75082153
39	0xbf47a1ce	-0.7798127
40	0xbf82eca3	-1.0228466
41	0xbf846060	-1.0341911
42	0xbe230a0b	-0.159218
43	0x3f67b880	0.905159
44	0x3eb5b71a	0.35491258
45	0x3f320508	0.6953893
46	0xbd53d6f6	-0.051718675
47	0x3f676e03	0.9040224
48	0x3f640af5	0.8907922
49	0x3e22a087	0.15881549
50	0xbe07517d	-0.13214679
51	0x3ef928b8	0.48663878
52	0xbf11ad7e	-0.56905353
53	0xbd4e5722	-0.050376065
54	0x3e4e6ce5	0.20158727
55	0x3ee34237	0.44386455
56	0x3f5db9a4	0.8661139
57	0x3f4d90a6	0.8029884
58	0x3f130ad8	0.5743842
59	0xbd1ebd4f	-0.038754757
60	0xbfe85077	-1.8149556
61	0x3ef54f97	0.47912285
62	0xbf1dfe4b	-0.61716145
63	0xbf5bd9e2	-0.8587934
64	0x3f1ee841	0.6207314
65	0x3e0d7c33	0.1381691
66	0x3c6afafa	0.014342064
67	0xbe3dae79	-0.18523587
68	0xbe996935	-0.2996308
69	0x3d902874	0.07038966
70	0xbfde59af	-1.7371119
71	0x3ef407f3	0.47662315
72	0xbfb0cd42	-1.381264
73	0x3f0fdc8a	0.5619589
74	0xbe3f83b4	-0.18702585
75	0x3dcfca82	0.10146047
76	0x3c81f0e4	0.015861936
77	0xbdf2366b	-0.11826786
78	0xbe6f4286	-0.2336522
79	0x3edaac92	0.42709786
80	0x3f0e9ea2	0.55710804
81	0x3f69eec8	0.91379976
82	0xbe8ea9d4	-0.27863944
83	0xbdaa41b5	-0.08313314
84	0x3dbb6f09	0.09152038
85	0x3e89cfbb	0.26916298
86	0xbe87f1d4	-0.26551688
87	0x3e921ffb	0.28540024
88	0xbe083132	-0.13300017
89	0x3d534800	0.051582336
90	0x3f8ff39f	1.1246222
91	0x3cf3fbd3	0.029783165
92	0xbf565736	-0.83726823
93	0x3e15ef9a	0.14642182
94	0x3eb3d6af	0.35124728
95	0x3b1b2062	0.0023670425
96	0x3e3430b0	0.17596698
97	0xbc2799ed	-0.01022957
98	0xbef84c36	-0.48495644
99	0x3e672ff9	0.22576894
100	0xbe586d8c	-0.21135539
101	0x3e5734d8	0.21016252
102	0xbeb05008	-0.3443606
103	0x3da257be	0.07926892
104	0x3de5e0b4	0.11224499
105	0xbe8c539f	-0.27407548
106	0x3ea1ba8a	0.3158763
107	0xbd21d8f0	-0.03951353
108	0x3f837434	1.0269837
109	0x3d927d4c	0.07152805
110	0x3e20e11a	0.1571087
111	0xbe54bd5e	-0.20775363
112	0xbee419a8	-0.44550824
113	0x3f3f07cb	0.74621266
114	0x3f1f8fc2	0.6232873
115	0x3cd4b96a	0.025967319
116	0xbf73a54c	-0.951741
117	0xbfa9961a	-1.3248932
118	0xbf097441	-0.53693014
119	0xbec88b55	-0.39168802
120	0xbeadf51e	-0.33976072
121	0xbf731dfe	-0.9496764
122	0xbdd4433e	-0.10364388
123	0x3e4e7fff	0.20166014
124	0x3f63302f	0.887454
125	0x3cec10c4	0.028816588
126	0x3ded8b47	0.11598831
127	0x3ec27019	0.3797615
128	0xbee63781	-0.4496422
129	0x3e58b0b5	0.21161158
130	0x3ea67109	0.32508114
131	0xbe6fbd0b	-0.23411958
132	0xbeb6ae94	-0.35680068
133	0xbf118a38	-0.5685153
134	0xbf122491	-0.57087046
135	0xbe3f0c07	-0.18656932
136	0x3eabe2c4	0.33571446
137	0xbf63fe87	-0.8906025
138	0xbe9f6058	-0.31128192
139	0xbfa7b311	-1.3101522
140	0x3e10712d	0.14105673
141	0x3d2157b0	0.039390266
142	0x3b2e2398	0.0026571508
143	0x3ddcaabb	0.10774752
144	0xbf005b07	-0.50138897
145	0xbed5d338	-0.4176271
146	0xbd368389	-0.044559035
147	0x3e3ffaea	0.1874806
148	0x3ef1ab20	0.4720087
149	0x3e92f2c6	0.28700846
150	0xbe6bce07	-0.23027812
151	0x3d46941f	0.048481103
152	0xbebb1a11	-0.36543325
153	0x3f0982d8	0.53715277
154	0x3f19941b	0.59991616
155	0xbecb56f5	-0.3971478
156	0xbef9d61e	-0.4879617
157	0x3ebe3ffe	0.37158197
158	0xbd7c9795	-0.061667997
159	0x3ea11249	0.31459263
160	0x3f5855ca	0.84505904
161	0xbefd428d	-0.49464837
162	0x3f44c485	0.76862365
163	0xbe03d8f2	-0.12875727
164	0x3f0511d4	0.5198033
165	0x3f6bc0f7	0.92091316
166	0x3ec66ee7	0.38756487
167	0xbe921c8b	-0.28537402
168	0x3f33a955	0.70180255
169	0x3e4cde4a	0.20006672
170	0xbcd47180	-0.025933027
171	0xbd932efd	-0.07186697
172	0x3d3227d1	0.043495003
173	0xbea40d58	-0.3204143
174	0x3fb40f38	1.4067144
175	0x3e0b7e6c	0.13622445
176	0x3eeed50d	0.4664692
177	0xbd918d81	-0.07107068
178	0xbf80ca15	-1.006167
179	0xbe684554	-0.22682697
180	0xbb58cb2c	-0.0033080084
181	0x3f5d8e01	0.86544806
182	0x3d8aa233	0.06769218
183	0x3f8d282c	1.1027884
184	0x3f3e8b80	0.7443161
185	0xbe2075a7	-0.15669881
186	0x3da8d401	0.082435615
187	0x3dacf6c3	0.084455036
188	0x3f98fb55	1.19517
189	0xbe22804c	-0.15869254
190	0xbe3ecbd9	-0.18632449
191	0xbe28b873	-0.16476612
192	0xbe078781	-0.13235284
193	0xbd3fa993	-0.046792578
194	0x3f295b46	0.661549
195	0xbf29903c	-0.6623571
196	0xbf703ef3	-0.9384605
197	0xbf505cbc	-0.813915
198	0x3f1764d0	0.591382
199	0x3f1c608d	0.61084825
200	0xbcb5bb6a	-0.022184093
201	0x3df2ff95	0.11865155
202	0xbf1d2da4	-0.6139777
203	0x3f16ef42	0.5895883
204	0xbea83447	-0.32852384
205	0x3e0bde66	0.13659057
206	0x3f2bcbd4	0.6710789
207	0xbf5695b2	-0.83822167
208	0x3cdc4a44	0.026890881
209	0x3df4b33a	0.11948247
210	0x3d11a2c4	0.035555616
211	0x3d95c873	0.07313623
212	0xbdba8fab	-0.09109434
213	0x3ebc8933	0.36823425
214	0x3f793c60	0.9735775
215	0x3f8d5012	1.104006
216	0xbf713ed0	-0.9423647
217	0x3f732a0e	0.94986045
218	0xbdc2a5a8	-0.09504253
219	0x3f12d7fc	0.57360816
220	0x3df7eb00	0.121053696
221	0xbf03c6a7	-0.51474994
222	0x3ed1f074	0.41003764
223	0x3f81e359	1.0147506
224	0xbe1d8d6d	-0.15385981
225	0xbf0a0772	-0.5391761
226	0x3e372188	0.17883885
227	0x3f267ef6	0.65037477
228	0xbe83328d	-0.25624505
229	0xbf13a7c0	-0.5767784
230	0xbf8db6a5	-1.1071364
231	0x3f5785f2	0.8418876
232	0x3f530187	0.82424206
233	0x3f2a0fac	0.66430163
234	0x3e599efa	0.21252051
235	0x3e04edf6	0.129814
236	0x3f6d73fb	0.927551
237	0xbe3a6d4e	-0.18205759
238	0xbc9f67ec	-0.019458733
239	0xbd32fb4c	-0.043696687
240	0xbe9048c2	-0.2818051
241	0x3ec229bd	0.3792247
242	0x3e2afd6e	0.16698238
243	0xbf5fb45d	-0.8738459
244	0xbf30f139	-0.69118077
245	0xbd2b7b39	-0.04186556
246	0xbdbb3bd7	-0.09142273
247	0x3f7246c8	0.94639254
248	0xbf049062	-0.5178281
249	0xbec653ec	-0.38735902
250	0xbc846a2f	-0.016163914
251	0x3d31f587	0.043447044
252	0x3f9a74cd	1.2066895
253	0xbfa72d3f	-1.3060683
254	0xbf8bdc8d	-1.0926682
255	0x3d528d36	0.0514042

hidden_layers.1.bias f4 [256]
0	0xbe4f529e	-0.2024636
1	0xbe0ddace	-0.13852999
2	0x3e847566	0.25870818
3	0xbfb1feb8	-1.3905859
4	0x3e7bc023	0.24585013
5	0xbb7421ab	-0.0037251513
6	0xbed609da	-0.4180439
7	0xbd2ed192	-0.04268033
8	0xbeb854ad	-0.36002102
9	0x3f2f247c	0.68415046
10	0xbd878fa6	-0.06619196
11	0x3ec13898	0.3773849
12	0xc000290d	-2.0025055
13	0x3f56767f	0.8377456
14	0xbf509975	-0.81484157
15	0xbf67b3d4	-0.9050877
16	0xc003ec98	-2.0613155
17	0xbe349dbb	-0.17638294
18	0xbed4eba2	-0.41586024
19	0xbe2b6f42	-0.1674166
20	0xbe897896	-0.26849812
21	0xbfb44a24	-1.4085126
22	0xbdf0386a	-0.1172951
23	0xbe4ecc6c	-0.20195168
24	0xbd43ea59	-0.047830913
25	0xbfb33fc7	-1.4003838
26	0x3ee18e06	0.44053668
27	0xbde5796c	-0.112048
28	0xbfe19027	-1.7622117
29	0xbe557777	-0.20846353
30	0xbf86aefb	-1.052215
31	0xbe96ab63	-0.29427633
32	0xbfc37f5d	-1.5273243
33	0xbf3ecbcb	-0.74529713
34	0xbf235399	-0.63799435
35	0xbe31b114	-0.17352706
36	0xbf01e8f2	-0.5074607
37	0xbf7dc323	-0.9912588
38	0xbe95635b	-0.29177365
39	0xbe316a9c	-0.17325824
40	0xbf10131b	-0.5627915
41	0xbea2a49d	-0.31766215
42	0xbf90fc2a	-1.1326954
43	0xbea98b1f	-0.33113953
44	0xbe8ae9b3	-0.27131423
45	0xbe2dfe07	-0.16991435
46	0xbeba063a	-0.36332875
47	0xbf68bfc7	-0.9091763
48	0x3e76e9b4	0.24112588
49	0xbf760f8b	-0.96117467
50	0xbd61a8fe	-0.055092804
51	0xbeb697d0	-0.356627
52	0xbe28c457	-0.16481148
53	0xbea78a16	-0.3272254
54	0xbe61a8bf	-0.22037028
55	0x3e05f471	0.13081528
56	0x3e3bd232	0.18341902
57	0x3e645e93	0.22301702
58	0xbe166ac9	-0.14689173
59	0xbff6a30e	-1.926851
60	0xbc0b4262	-0.008499714
61	0xbebcfd32	-0.36911923
62	0x3e8298bd	0.25507155
63	0xbdc009a5	-0.093768395
64	0xbe7bbbd9	-0.24583377
65	0x3dc10446	0.09424643
66	0xbfaec164	-1.3652768
67	0xbf91f60b	-1.1403211
68	0xbf902064	-1.1259885
69	0xbebda004	-0.37036145
70	0xbf873187	-1.056199
71	0xbee21438	-0.4415605
72	0xbea2b560	-0.31779003
73	0x3cd6581c	0.02616506
74	0xbe69c050	-0.22827268
75	0xbdb31c8b	-0.087456785
76	0xbfaf80a3	-1.3711132
77	0xbe98dd00	-0.2985611
78	0xbe9922b8	-0.299093
79	0xbe8bea0c	-0.27327
80	0xbcd67c0a	-0.026182193
81	0xbe9c9dde	-0.30589193
82	0xbf064590	-0.52449894
83	0xbf45a16e	-0.7719945
84	0xbf2302c0	-0.6367607
85	0xbf8d503a	-1.1040108
86	0x3e1e30d7	0.15448318
87	0xbe91138d	-0.2833523
88	0x3dba0166	0.09082298
89	0xbe901583	-0.28141412
90	0xbe8b075c	-0.27154052
91	0xbe99dbce	-0.3005051
92	0xbfeeaee4	-1.8647122
93	0xbeab664e	-0.3347649
94	0xbf5e8748	-0.8692517
95	0xbe40fbc5	-0.18846042
96	0xbfdfae16	-1.7475002
97	0x3d1543f0	0.036441743
98	0x3e7e435d	0.24830385
99	0xbf364deb	-0.71212643
100	0xbf28f315	-0.65995914
101	0x3cd10d55	0.025519053
102	0x3efadc26	0.48996085
103	0x3e6ae366	0.22938308
104	0xbe901be4	-0.2814628
105	0x3e82763e	0.25480837
106	0xbe5dc376	-0.21656594
107	0x3e696355	0.22791798
108	0xbf00dbe0	-0.503355
109	0xbfdc89fe	-1.7229612
110	0xbdecf443	-0.11570027
111	0xbebb7ea7	-0.36620066
112	0xbd1dc965	-0.038522143
113	0xbea1863f	-0.31547734
114	0xbed19b42	-0.40938765
115	0xbee4c146	-0.44678706
116	0x3e732eea	0.23748365
117	0xbe601d29	-0.21886124
118	0xbfda1cbb	-1.7040018
119	0xbf97b07a	-1.1850731
120	0x3daad48f	0.083413236
121	0xbe99084e	-0.29889148
122	0xc0070333	-2.1095703
123	0x3f483b28	0.78215265
124	0xbf457902	-0.7713777
125	0xbdb8110d	-0.08987627
126	0xbe45e084	-0.19323927
127	0xbf070e73	-0.5275642
128	0xbf094072	-0.5361396
129	0xbeb35964	-0.35029137
130	0xbf08a5db	-0.53378075
131	0xbf109fdc	-0.56493926
132	0xbecc1fcb	-0.39868006
133	0xbeb480c2	-0.35254484
134	0xbf619b32	-0.88127434
135	0xbf0bab8f	-0.5455865
136	0xbe779c5a	-0.24180737
137	0xbdd027d8	-0.101638496
138	0xbd3d0628	-0.04614845
139	0xbe1da412	-0.15394619
140	0xbe6f395b	-0.23361723
141	0xbf36acf4	-0.71357656
142	0xbe8733e0	-0.26406765
143	0x3bb62ef7	0.005559798
144	0x3e6942b2	0.22779348
145	0xbf0b8dd3	-0.5451328
146	0xbeb36a04	-0.3504182
147	0xbe9cdd07	-0.3063738
148	0xbe772e88	-0.24138844
149	0xbf0e34e1	-0.55549437
150	0xbfed5b57	-1.85435
151	0xbf4fb9d5	-0.8114293
152	0xbea3cfab	-0.31994376
153	0xbf1fbb98	-0.6239562
154	0xbe966066	-0.2937042
155	0xbed84c33	-0.42245635
156	0xbed7b500	-0.4213028
157	0xbea3beb9	-0.31981447
158	0xbede9ac2	-0.43477446
159	0x3dc04c00	0.09389496
160	0xbc68ce9c	-0.014209416
161	0xbdc50474	-0.0961999
162	0xbe891528	-0.26773953
163	0xbf948993	-1.1604484
164	0xbef63909	-0.4809039
165	0x3f2afd01	0.66792303
166	0xbdcfa5a3	-0.101390146
167	0xbdb77610	-0.089580655
168	0xbe5367e9	-0.20645107
169	0xbf1f172a	-0.6214472
170	0xbf39c6f0	-0.7256918
171	0xbdf5d534	-0.12003556
172	0x3f2e26b0	0.6802778
173	0x3d7f1150	0.06227237
174	0xbd598865	-0.05310859
175	0xbc80eddb	-0.015738418
176	0xbecd5a4e	-0.4010796
177	0x3f59c0eb	0.85059994
178	0x3e962c89	0.29330853
179	0xbdacc0f8	-0.08435243
180	0xbe260dd0	-0.16216207
181	0xbf932475	-1.1495501
182	0xbf40fa85	-0.7538226
183	0x3ea43d83	0.3207818
184	0xbddc2bc2	-0.10750534
185	0xbf341c92	-0.70356095
186	0xbebf2bfd	-0.37338248
187	0x3d05b284	0.03264095
188	0xbde42073	-0.11139002
189	0xbf6aa4b7	-0.91657585
190	0xbf25ac26	-0.647158
191	0xbef69ad6	-0.48165005
192	0xbdf90650	-0.12159407
193	0x3d085c7f	0.033291336
194	0xbe9246e4	-0.2856971
195	0x3e8f8756	0.2803294
196	0x3e281e59	0.16417827
197	0x3f408dfa	0.7521664
198	0xbf4dc594	-0.80379605
199	0xbe6cce1e	-0.23125502
200	0xbf15c829	-0.58508545
201	0xc00a6796	-2.1625724
202	0xbf49b88b	-0.78797215
203	0xbedd4879	-0.43219355
204	0xbf01fb09	-0.50773674
205	0xbe2b4b6f	-0.16727994
206	0xbeda7b7a	-0.4267233
207	0xbebe7472	-0.37198216
208	0x3dfbd43e	0.12296341
209	0xbe9ed743	-0.31023607
210	0xbe890bb1	-0.26766732
211	0xbff3d459	-1.9049178
212	0xbf4b7c9d	-0.7948702
213	0xbdc46777	-0.09590047
214	0xbec14d1c	-0.37754142
215	0xbdd18179	-0.10229773
216	0xbefcce68	-0.49376225
217	0x3e9c8301	0.30568698
218	0x3e282316	0.16419634
219	0xbe0fd157	-0.140447
220	0xbf23f874	-0.64050984
221	0xbff3bb16	-1.9041469
222	0xbe1b3b7c	-0.1515941
223	0xbf0a3998	-0.5399413
224	0x3d907b13	0.070547245
225	0xbf064952	-0.5245563
226	0xbe81d71a	-0.25359422
227	0xc0059c6c	-2.0876722
228	0xc0000d38	-2.0008068
229	0xbfceec0b	-1.6165785
230	0xbe344244	-0.17603403
231	0xbf8e8078	-1.1132956
232	0xc00017d1	-2.0014536
233	0x3efc2124	0.49244034
234	0xbf2c75f1	-0.67367464
235	0xb9e7044d	-0.00044062958
236	0xbe41a3d4	-0.18910152
237	0xbeeaa817	-0.45831367
238	0x3e026c52	0.12736633
239	0xbebe99a5	-0.37226596
240	0xbec34f36	-0.3814637
241	0xbe26a010	-0.16271996
242	0xbf47f636	-0.78110063
243	0xbe9e9ac4	-0.30977452
244	0x3b8aa86b	0.004231503
245	0xbfa52364	-1.2901425
246	0xbfcd0f6a	-1.6020329
247	0xbfba2812	-1.4543478
248	0xbf1ad3a7	-0.60479206
249	0xbf425261	-0.7590695
250	0x3f2d6137	0.67726463
251	0xbf24d2f5	-0.64384395
252	0xbf1a0e5d	-0.60178167
253	0xbebf6ca0	-0.37387562
254	0xbf11dd88	-0.56978655
255	0xbc677d2f	-0.014128967

output_layers.0.weight f4 [40, 256]
0	0x3e9c0de7	0.30479357
1	0x3f0a6fdd	0.5407694
2	0xbe58f127	-0.21185742
3	0x3d152a7c	0.03641747
4	0xbdc0ef96	-0.094206974
5	0xbda2c6e0	-0.07948089
6	0x3e21d2e5	0.15803106
7	0x3dada268	0.08478242
8	0xbf0ba3d3	-0.5454685
9	0x3dbe2b5f	0.09285616
10	0xba576096	-0.00082159915
11	0xbebae80b	-0.3650516
12	0x3c91e4dd	0.017809326
13	0xbcf63e5a	-0.030059028
14	0xbdad0f88	-0.08450228
15	0xbe208d5e	-0.15678927
16	0xbc7fbd91	-0.015609161
17	0x3ec8f5f6	0.39250153
18	0x3bb45525	0.005503314
19	0x3e93b1d4	0.2884661
20	0x3e152cec	0.14567918
21	0xbc4081de	-0.011749713
22	0x3ef69740	0.4816227
23	0x3e5726fd	0.21010967
24	0x3f1f1088	0.621346
25	0x3ea2fc96	0.31833333
26	0x3e510638	0.20412529
27	0x3f2cd18c	0.67507243
28	0xbddb2b47	-0.10701614
29	0x3e88484e	0.26617664
30	0x3e20e6f7	0.15713106
31	0xbe5859fc	-0.21128076
32	0x3c8d2f86	0.017234575
33	0x3e9070d4	0.2821108
34	0xbcc80858	-0.024418041
35	0x3ec71c26	0.38888663
36	0xbf303e4a	-0.68845046
37	0x3de67d7f	0.11254405
38	0xbfade968	-1.3586855
39	0x3e636acc	0.22208709
40	0x3e216631	0.15761639
41	0x3f30871e	0.6895617
42	0x3f9ae655	1.2101542
43	0xbf4bdfa9	-0.79638153
44	0x3f111980	0.56679535
45	0xbf7cc088	-0.9873128
46	0x3f23485f	0.63782305
47	0x3c1964ee	0.009362442
48	0x3f414e47	0.75510067
49	0x3e672682	0.22573283
50	0xbe47f8e4	-0.19528538
51	0xbd3c2c72	-0.045940824
52	0xbe29dbff	-0.16587828
53	0xbdb028de	-0.08601545
54	0x3d9a6274	0.0753831
55	0x3f79193c	0.9730413
56	0x3e97b6ed	0.2963175
57	0x3ee05bd0	0.43820047
58	0xbe387547	-0.18013488
59	0x3e006cba	0.12541476
60	0x3c892ad9	0.016744064
61	0x3e058d83	0.13042264
62	0x3d8dc715	0.069227375
63	0xbdaea8cc	-0.08528289
64	0xbd93261e	-0.07185005
65	0xbe1de1b3	-0.15418129
66	0x3d9d9ac1	0.076955326
67	0x3e9d0923	0.30671033
68	0xbdad1d86	-0.08452897
69	0xbcfb9a65	-0.03071327
70	0xbfb186ce	-1.3869264
71	0x3ee9f745	0.45696464
72	0x3e264164	0.16235882
73	0x3eef5a02	0.46748358
74	0x3cef14ff	0.029184816
75	0xbe08d80b	-0.13363664
76	0x3d8d9bec	0.06914505
77	0xbf14cf8a	-0.5812918
78	0xbd435755	-0.04769071
79	0xbde97cf6	-0.114007875
80	0x3e63c1eb	0.22241943
81	0xbd72d4dc	-0.05928503
82	0x3f3df702	0.7420503
83	0x3d78d5d0	0.060750782
84	0xbe1585fd	-0.14601894
85	0xbc0e6531	-0.008691118
86	0x3d6ad9f4	0.057336763
87	0x3f274e6d	0.65354043
88	0x3dea2f20	0.1143477
89	0x3e8dec6e	0.27719444
90	0xbed7a5c8	-0.4211867
91	0xbebcc082	-0.36865622
92	0xbd3764f5	-0.044774015
93	0x3e5ba4de	0.2144961
94	0xbe521815	-0.20516999
95	0xbe3f9585	-0.18709381
96	0x3c511436	0.012761166
97	0x3ca43c73	0.020048356
98	0x3f0697c6	0.5257534
99	0x3ebb795e	0.36616033
100	0xbd9a568d	-0.075360395
101	0x3f17c029	0.5927759
102	0xbe4eecb8	-0.20207489
103	0xbe92f9ec	-0.287063
104	0xbd869d0a	-0.065729216
105	0x3f06c656	0.52646387
106	0xbec580d3	-0.38574848
107	0x3eb0fb41	0.34566692
108	0xbde6c900	-0.112688065
109	0xbdd70032	-0.10498084
110	0x3d99ce67	0.07510071
111	0x3e421815	0.18954499
112	0xbf73b6ca	-0.9520079
113	0x3f075a3f	0.5287208
114	0x3c82b9b7	0.015957696
115	0xbf4ab02e	-0.7917508
116	0xbe3fffb7	-0.18749891
117	0xbd3ff49f	-0.04686415
118	0xbe6c4d7a	-0.2307643
119	0x3c3af0d4	0.011409957
120	0x3f2ce54b	0.67537373
121	0x3cc8aa88	0.024495378
122	0xbf92972b	-1.1452383
123	0x3e7e9875	0.24862845
124	0x3f1ab337	0.6042971
125	0x3e66b98d	0.2253172
126	0xbeca6b82	-0.39535147
127	0xbf34946f	-0.7053899
128	0xbeb8e0ef	-0.3610911
129	0x3e2a61e1	0.166389
130	0x3e980c9b	0.29697117
131	0xbe84e3f4	-0.25955164
132	0xbee7e0a5	-0.45288578
133	0x3f3f1464	0.7464049
134	0xbe5fa926	-0.21841869
135	0x3e07b566	0.13252792
136	0xbf3d442a	-0.73932135
137	0xbdc584a9	-0.096444435
138	0xbdffbdfa	-0.12487407
139	0x3d870eaf	0.065945975
140	0xbe476fe4	-0.19476277
141	0xbf050f41	-0.519764
142	0x3de20ec1	0.1103797
143	0x3f15cf09	0.58519036
144	0xbed4d586	-0.41569155
145	0xbdaf75be	-0.085673794
146	0x3e3268a6	0.17422733
147	0x3edc7364	0.43056786
148	0x3ed0f0b8	0.40808654
149	0x3f798442	0.97467434
150	0x3d98f852	0.07469238
151	0xbcf53a55	-0.029935041
152	0x3ebf36e5	0.3734657
153	0xbb7b4da8	-0.0038345847
154	0x3e99ffea	0.3007806
155	0xbd030176	-0.031983815
156	0xbed5dd89	-0.4177058
157	0x3e67d938	0.22641456
158	0x3e20ca3d	0.15702148
159	0x3e07707b	0.13226502
160	0x3bdd3e07	0.006751779
161	0x3e72207a	0.23645201
162	0x3e201954	0.15634662
163	0x3e77ea34	0.24210435
164	0x3e2f3df9	0.17113484
165	0xbd84996f	-0.06474578
166	0x3e0e6692	0.13906315
167	0xbe19ed21	-0.15031864
168	0xbebbe7b0	-0.367002
169	0xbf0c6739	-0.54845005
170	0xbde7db52	-0.11321129
171	0x3e3a32f2	0.18183497
172	0x3e011aad	0.12607832
173	0xbe57a064	-0.21057278
174	0x3e9aa8c2	0.30206877
175	0x3e58a0ac	0.21155041
176	0x3e93030b	0.2871326
177	0xbe1ee678	-0.15517604
178	0xbdd93bd6	-0.10607116
179	0xbb83c459	-0.004021209
180	0x3d10f71c	0.035391912
181	0x3f32ff2c	0.6992061
182	0xbe802ec1	-0.2503567
183	0xbddd88dd	-0.1081712
184	0x3d980802	0.07423402
185	0xbd2768bb	-0.040871363
186	0x3e80e05d	0.25171176
187	0x3ecd3d14	0.4008566
188	0xbd263a0c	-0.0405827
189	0x3f3ed980	0.7455063
190	0x3ec02a95	0.37532488
191	0x3e39aa90	0.1813147
192	0x3e9f16c8	0.31072068
193	0x3ea64cb6	0.324804
194	0x3eb91fe2	0.36157137
195	0x3c4b81bf	0.012421071
196	0x3df724b4	0.120675474
197	0xbd26529c	-0.040606126
198	0x3f131c81	0.5746537
199	0x3dc7dcf7	0.097589426
200	0x3bf380d5	0.0074311295
201	0x3cd21c60	0.025648296
202	0xbe78484b	-0.24246328
203	0xbbce1d4d	-0.006290114
204	0x3e09ace0	0.13444853
205	0x3f3c1557	0.7347006
206	0x3f2b52ab	0.66923016
207	0xbf6f69c8	-0.93520784
208	0x3def6cc7	0.116906695
209	0xbdce1afe	-0.10063742
210	0x3d917f22	0.07104327
211	0x3e6ad602	0.229332
212	0x3d8f19a9	0.06987316
213	0xbcdefe3d	-0.02722084
214	0x3effbb81	0.49947742
215	0x3f3e48b9	0.74329716
216	0x3e21c44a	0.15797535
217	0xbee721b7	-0.4514291
218	0xbf496649	-0.786717
219	0x3edbad72	0.42905766
220	0x3ddb0326	0.1069396
221	0x3d86951d	0.0657141
222	0x3e0c5775	0.13705237
223	0xbdfa83ab	-0.12232145
224	0xbf769007	-0.9631352
225	0x3f6672eb	0.900191
226	0x3f52a87c	0.82288337
227	0x3e1b64c3	0.15175156
228	0xbcd8cc4e	-0.026464608
229	0x3e011f7d	0.12609668
230	0x3c3cbe4e	0.011519982
231	0x3e3c7cf8	0.18407047
232	0x3e333f51	0.17504622
233	0xbd96953f	-0.07352685
234	0x3f1e2ee8	0.61790323
235	0x3e4ff7b9	0.20309342
236	0xbceccc54	-0.028906025
237	0xbe2b92c7	-0.1675521
238	0xbe95a668	-0.2922852
239	0x3cbe6e14	0.023245849
240	0xbe6b0171	-0.22949769
241	0x3df8d7a8	0.12150508
242	0x3e9ae60b	0.30253634
243	0xbe15a6f6	-0.14614472
244	0xbd0e76d9	-0.03478131
245	0x3dde93f2	0.10868062
246	0x3e160875	0.14651664
247	0x3c48179b	0.012212659
248	0x3da521d5	0.080630936
249	0x3ee54a81	0.44783404
250	0x3dc06bd6	0.09395568
251	0x3f0c6b08	0.54850817
252	0xbeadcc2b	-0.3394483
253	0xbd90be7c	-0.07067582
254	0x3eabfcb6	0.3359124
255	0xbef78517	-0.48343727

output_layers.0.bias f4 [40]
0	0x3e8dedd5	0.27720514
1	0x404b7cfc	3.1795034
2	0xbf1e1a9f	-0.6175937
3	0xbd2eecc0	-0.04270625
4	0x404f4186	3.2383742
5	0x4027f6de	2.6244426
6	0x40398447	2.8986986
7	0x3f029f7d	0.5102461
8	0x4045fd5e	3.0935893
9	0x40505a0c	3.255496
10	0x404c3244	3.190568
11	0x3e85819c	0.26075447
12	0x405095db	3.2591465
13	0x403a50d4	2.9111834
14	0x402d78f3	2.7105072
15	0x4038484f	2.8794134
16	0x40377b2f	2.8668935
17	0x4042b3d2	3.0422254
18	0x403edacf	2.982105
19	0x4026c7bb	2.6059406
20	0x40426f87	3.038057
21	0x403ab1d9	2.917105
22	0x40379dee	2.8690143
23	0x403c7a30	2.9449577
24	0x404308c2	3.0474095
25	0x4043df18	3.0604916
26	0x40286b90	2.631565
27	0x40261bf1	2.5954554
28	0x404ce231	3.2013056
29	0x3ed4dd69	0.41575173
30	0x404151f1	3.0206263
31	0x40394b5e	2.895225
32	0x403f53e9	2.9894965
33	0xbd571c2f	-0.052517112
34	0x403c4d7e	2.9422297
35	0x402fb8c9	2.7456534
36	0xbd230049	-0.039795194
37	0xbd391e2c	-0.04519479
38	0x3f06eba5	0.52703315
39	0x404351b7	3.0518625
