MODELS/REWARD COMPARISON/SAC 10X20 MODELS/9_1_critic_target_2_local_network_20.pt (torch, 513791 bytes, 6 tensors)

hidden_layers.0.weight f4 [256, 201]
-0.22070877 0.19827047 -0.30105868 0.042384483 -0.18462099 0.2024572 0.64236313 0.68526566
0.20734768 0.04035215 -0.5991705 -0.37109426 -0.21953014 0.314331 -0.11376512 -0.41929248
-0.025334338 0.03563319 0.73087305 -0.98074317 0.124110065 0.2266421 -0.29061708 -0.07657788
-0.98336643 -0.6918074 0.13509227 0.2530722 0.8858633 0.45905834 -0.034042995 -0.44694448
-0.25860107 0.10270794 -0.2676818 0.13658771 -0.101556376 -0.48358592 0.10858842 0.16525629
-0.10900895 -0.26602995 0.05340456 -0.2667402 -0.004605719 0.54447454 0.48701903 0.06125668
0.71384686 0.12110819 -1.0756371 -0.042698663 0.30445695 0.7065854 -0.6301244 -0.13079914
-0.121668644 0.6206544 -0.53495806 -0.33738938 -0.075391755 -0.34884748 -0.11613584 -0.13071011
-0.035984065 -0.51378155 -0.59639907 -0.7673527 0.09039967 -0.24823986 -0.0141629325 0.20186248
-0.3230407 0.10115993 0.1939864 0.66002923 0.39106834 0.1414451 0.27154893 -0.46809387
-0.005464215 -0.14107417 0.12421823 0.16577317 0.008519268 0.021960799 0.2101302 -0.36091173
0.3818867 0.5174787 0.26616463 0.112512805 0.3943484 -0.8792013 0.6464289 0.35141876
0.33200288 -0.479849 -0.13185894 -0.5296213 0.11468332 -0.14928316 -0.33206856 0.37367094
-0.62945634 -0.8415683 0.18444611 -0.1640194 0.017946044 -0.041732162 -0.5956897 -0.39707047
0.12930427 0.92823774 0.7559444 1.0093182 -0.15618779 0.21167278 0.28904164 -0.9107582
0.107662916 -0.21594262 -0.3353788 0.2867857 -0.077011876 -0.08320723 -1.2822014 -0.5070648
0.036471345 -0.17364822 -0.33399767 -0.6164318 -0.34980586 -0.60598975 0.08260823 -0.018741831
-0.4239002 -0.5708524 -0.019918429 -0.28535673 -0.0075614033 -0.2301383 -0.6012185 -0.15287939
-0.30031237 -0.10706346 -0.42177778 -0.17242442 -0.43074936 -0.7591746 -0.060853112 -2.3848603
-0.6597526 -1.8470705 -0.7587823 -0.03533222 -0.34597227 0.55577695 0.2887783 -0.8033031
0.11798677 -0.36210015 0.15211241 -0.20569062 -0.358431 -0.22438261 0.14086565 0.045000583
-0.17384525 -1.1215553 -0.5540507 -0.8420739 -1.1421627 -2.8658578 -0.95070386 -1.7035413
0.3489901 -0.003575734 -0.5141094 0.17790343 0.034045987 -0.3098955 -0.14095803 -0.19967958
-0.3053425 -0.05376188 -0.0575681 0.48902974 0.12675785 0.1678171 0.64963675 -1.0478168
-0.4169264 -1.7448324 -0.879346 -0.76051575 -0.79322374 -0.3312845 0.20426713 -0.6738736
-0.31449813 0.011897631 -0.027529828 -0.024678072 -0.63789874 -0.28324333 -1.048795 -0.8708
-1.4623806 -1.0006732 0.044266135 -0.4153504 -0.46972227 -0.55180377 0.1134275 0.10754679
0.08931218 0.91987 -0.049347434 -0.3024285 -0.04598639 -0.04346731 -0.5622739 0.39311135
0.23940319 -0.03754899 -1.1844642 -1.4897743 -2.2669306 0.044319905 -0.4673416 -1.2972823
-0.9110387 -0.43020487 -0.38615286 0.43536696 0.6764006 -0.30473408 0.09952573 0.30428547
0.0768757 -0.10968863 -0.27185124 -0.122181594 0.02705758 -2.4283202 -1.5666286 -1.3299981
-2.3271186 -1.8038646 -0.2804837 -1.5730767 -0.3837478 -0.14691359 0.28259242 -0.23652406
00000000: 7b01 62be 6a07 4b3e 5d24 9abe 5a9b 2d3d
00000010: 490d 3dbe f150 4f3e e971 243f 926d 2f3f
00000020: f352 543e 4c48 253d 3d63 19bf 1100 bebe
00000030: 82cc 60be feef a03e b0fd e8bd 81ad d6be
00000040: f589 cfbc 1cf4 113d 7f1a 3b3f fc11 7bbf
00000050: 6b2d fe3d de14 683e c3cb 94be ddd4 9cbd
00000060: e7bd 7bbf 4a1a 31bf a155 0a3e ae92 813e
00000070: f0c7 623f b209 eb3e ab70 0bbd e8d5 e4be
00000080: 5c67 84be 8a58 d23d 970d 89be a6dd 0b3e
00000090: cafc cfbd 9398 f7be 9b63 de3d f238 293e
000000a0: 1640 dfbd 1435 88be bdbe 5a3d 2c92 88be
000000b0: 92eb 96bb af62 0b3f 8f5a f93e 49e8 7a3d
000000c0: abbe 363f 9207 f83d 7aae 89bf cbe4 2ebd
000000d0: c8e1 9b3e c8e2 343f d54f 21bf 36f0 05be
000000e0: 692d f9bd 35e3 1e3f 03f3 08bf 4dbe acbe
000000f0: fe66 9abd 239c b2be a1d8 edbd dfd8 05be
00000100: 0764 13bd 3087 03bf 9cad 18bf 3a71 44bf
00000110: 7623 b93d 9732 7ebe a50b 68bc 0ab5 4e3e
00000120: 9765 a5be f02c cf3d 5fa4 463e adf7 283f
00000130: 1c3a c83e fcd6 103e 7608 8b3e 00aa efbe
00000140: 280d b3bb bf75 10be 2166 fe3d 71c0 293e
00000150: 6694 0b3c 22e7 b33c 5f2c 573e 6cc9 b8be
00000160: a786 c33e 7c79 043f bb46 883e 1d6d e63d
00000170: 09e8 c93e 5613 61bf 5d7c 253f 29ed b33e
00000180: 48fc a93e c5ae f5be 0806 07be 4395 07bf
00000190: 17df ea3d afdd 18be e404 aabe cc51 bf3e
000001a0: 0d24 21bf 0571 57bf 71df 3c3e b4f4 27be
000001b0: 9503 933c 58ef 2abd 1f7f 18bf d24c cbbe
000001c0: 5768 043e fda0 6d3f 9285 413f 5731 813f
000001d0: b1ef 1fbe c0c0 583e 44fd 933e 7327 69bf
000001e0: 607e dc3d 1020 5dbe c5b6 abbe 93d5 923e
000001f0: 67b8 9dbd 8d68 aabd 2d1f a4bf 00cf 01bf
00000200: fa62 153d d7d0 31be be01 abbe 79ce 1dbf
00000210: c119 b3be 2522 1bbf 812e a93d 7888 99bc
00000220: 7209 d9be 6223 12bf f92b a3bc 471a 92be
00000230: a6c5 f7bb 60a9 6bbe 75e9 19bf 6a8c 1cbe
00000240: 8bc2 99be 1644 dbbd 42f3 d7be 0790 30be
00000250: 2e8b dcbe 4459 42bf 1d41 79bd 8da1 18c0
00000260: 8ce5 28bf ce6c ecbf 8f3f 42bf 85b8 10bd
00000270: 4723 b1be 6647 0e3f c0da 933e 46a5 4dbf
00000280: 0ca3 f13d 3165 b9be 5bc3 1b3e 90a0 52be
00000290: 4584 b7be 8ec4 65be 163f 103e 8852 383d
000002a0: 7d04 32be 208f 8fbf 44d6 0dbf 2892 57bf
000002b0: 6332 92bf 376a 37c0 5461 73bf a40d dabf
000002c0: d5ae b23e dd56 6abb ac9c 03bf 512c 363e
000002d0: ce73 0b3d 9faa 9ebe 4d57 10be ce78 4cbe
000002e0: da55 9cbe 6b35 5cbd 87cc 6bbd 1b62 fa3e
000002f0: cfcc 013e 3fd8 2b3e 984e 263f dc1e 86bf
00000300: 6177 d5be ab56 dfbf d21c 61bf 29b1 42bf
00000310: b610 4bbf 1f9e a9be 672b 513e fb82 2cbf
00000320: e605 a1be 48ee 423c 3c86 e1bc ab29 cabc
00000330: 554d 23bf 4505 91be ea3e 86bf c0ec 5ebf
00000340: 4a2f bbbf 0f16 80bf 6850 353d cfa8 d4be
00000350: 707f f0be 0343 0dbf ad4c e83d 7e41 dc3d
00000360: 4ee9 b63d 9a7c 6b3f 8920 4abd e9d7 9abe
00000370: 3a5c 3cbd c70a 32bd 2ff1 0fbf e445 c93e
00000380: 1c26 753e f8cc 19bd 869c 97bf edb0 bebf
00000390: 6415 11c0 ca88 353d 6647 efbe 590d a6bf
000003a0: d539 69bf d043 dcbe d4b5 c5be 6be8 de3e
000003b0: 9728 2d3f 1b06 9cbe 25d4 cb3d 4ecb 9b3e
000003c0: 0271 9d3d 6fa4 e0bd 1630 8bbe 583a fabd
000003d0: dca7 dd3c 9969 1bc0 4987 c8bf 613d aabf
000003e0: 83ef 14c0 09e5 e6bf 8f9b 8fbe 945a c9bf
000003f0: 977a c4be 8470 16be f4af 903e 5d33 72be

hidden_layers.0.bias f4 [256]
-0.24110104 -0.9391104 -0.18255101 -0.5364171 -0.23977122 0.11073012 -2.572279 -0.9556158
0.077897444 -1.2583966 0.013274694 0.592472 -2.527293 -0.42440215 -1.4213591 -0.7496519
-0.32216835 -0.099034876 0.75446326 -0.12633494 -1.6394244 -0.39261094 -2.7993608 0.3639572
-0.5411804 -1.1761767 0.4575283 0.3747488 -0.3104117 -0.8002507 -0.8410306 -0.57112306
-2.5384123 -0.88483584 -0.55084246 -2.3618453 -0.3324731 -0.9001293 0.1949282 -0.0565732
-0.970652 -0.48554137 -1.835371 0.36265585 -2.7625988 0.24598962 -0.6093884 -0.11604465
0.42551386 -0.24898493 -0.81938386 -2.0896544 -2.7877436 -2.920563 -1.2603387 -0.8182013
-1.2193533 -0.9910587 0.29051238 -1.1011325 -1.8221593 -2.7139153 -0.7061998 -1.0153487
0.80020803 -1.574609 -0.34200537 -0.4126881 -2.7695642 0.65529287 -0.5366965 -2.5520868
-0.8239148 -2.6659732 -0.36302686 -2.688738 -2.8486857 -1.0793858 0.027353054 -0.13218886
-0.60229456 -2.3641222 -2.9073095 0.39330885 0.19985503 -2.7771385 -0.5991793 -0.21280298
-2.709381 -0.9195504 -0.48702884 -0.030341106 0.034606133 -0.26280418 -3.1992574 -3.0044057
-2.5724154 -1.1862608 -0.55351573 -1.1380059 -2.6801646 -1.5586579 -0.9965377 -0.6770512
-0.16470192 -1.6695281 -0.37312526 -2.2287495 -0.32401416 -0.6514027 -0.67283666 -2.677638
-0.7534672 -0.22839034 -0.2859201 0.114789 -1.3378347 0.31422144 -1.0537485 -0.9465186
-0.24458753 -1.1753823 -2.8673353 0.12772195 -0.13097107 -2.8895955 -0.21094327 -0.32252508
-2.4173896 -2.3113744 -0.12580892 0.15989405 -0.8371156 0.26925522 0.17543094 -0.90561867
-2.7324166 -1.4766432 -2.3741257 -0.2940977 0.090241104 0.39354908 -0.23236492 -2.0914555
-3.0370932 -2.6985211 -0.63529986 -1.5423487 -0.6916204 -0.2367207 -3.003425 -1.6831636
0.23794508 -1.0916764 -0.14362104 -0.5859723 -1.0186661 -0.36795452 -1.147664 -0.17692882
-2.4303832 -0.65157515 -3.0267556 -0.1931543 -0.43984804 -0.9204078 -0.38569638 -2.1290119
-1.2112335 -0.5127634 -0.10953627 -0.6930234 0.13152783 0.40391254 -1.8016232 -2.510127
-1.9113035 -0.15878707 -0.4046693 -0.6939097 -1.0034758 0.053086538 -0.15139222 0.35425243
-2.8523004 -1.86394 -1.20653 -1.2100128 -0.5705225 -2.0468018 -0.88919514 -0.9678509
-2.7051008 -2.9967542 -1.8244772 -0.2721486 -0.5130119 0.29547623 0.27461872 -0.4139968
-2.340435 -2.2847228 -3.103557 -0.264345 -0.07937032 -0.68588907 -3.1025279 -0.58755744
-1.0544877 -0.19728334 -0.0064517423 -0.67342144 -0.5261486 -0.30585736 0.5733717 -0.74986863
-0.71520245 -1.7290449 -3.178503 -0.9725508 -0.27610898 -0.78309965 -0.27603668 0.63719374
-0.9714433 -0.8311015 -0.39479333 -2.5738502 -2.2155368 -2.069888 -2.1298118 -0.5576211
0.248707 -2.5224493 -0.46266443 -0.37603167 0.53164876 -1.7357714 -2.0293229 -3.0386713
0.34871048 0.7214307 -1.8044441 -3.1004186 -3.0944815 -2.1789038 -0.2579009 -2.6527574
-0.21722089 -2.392865 -2.376677 -0.9849901 -0.17742987 -2.4970899 0.19996448 -0.0070883953
00000000: 31e3 76be 8a69 70bf a7ee 3abe a252 09bf
00000010: 9686 75be 79c6 e23d 38a0 24c0 3da3 74bf
00000020: b288 9f3d 2413 a1bf 1a7e 593c 3fac 173f
00000030: 2bbf 21c0 3d4b d9be 18ef b5bf 30e9 3fbf
00000040: 40f3 a4be ccd2 cabd 8124 413f f25d 01be
00000050: a9d8 d1bf 4d04 c9be ba28 33c0 9958 ba3e
00000060: cc8a 0abf f58c 96bf 2641 ea3e 13df bf3e
00000070: 48ee 9ebe 3bdd 4cbf c84d 57bf 1f35 12bf
00000080: 5975 22c0 9a84 62bf 0304 0dbf 7928 17c0
00000090: ea39 aabe e06e 66bf 429b 473e 4db9 67bd
000000a0: a67c 78bf e198 f8be 70ed eabf 07ae b93e
000000b0: 6bce 30c0 b4e4 7b3e e100 1cbf d1a8 edbd
000000c0: f4dc d93e e8f5 7ebe 24c3 51bf e6bc 05c0
000000d0: 646a 32c0 81ea 3ac0 c752 a1bf a475 51bf
000000e0: c513 9cbf 06b6 7dbf 0abe 943e e9f1 8cbf
000000f0: 843c e9bf cab0 2dc0 83c9 34bf f2f6 81bf
00000100: 6fda 4c3f ca8c c9bf 541b afbe db4b d3be
00000110: 8a40 31c0 46c1 273f f164 09bf 6455 23c0
00000120: 15ec 52bf 4e9f 2ac0 a8de b9be 4914 2cc0
00000130: de50 36c0 5029 8abf 8313 e03c 845c 07be
00000140: fa2f 1abf c74d 17c0 5c11 3ac0 c75f c93e
00000150: cca6 4c3e a3bc 31c0 d163 19bf 06e9 59be
00000160: 8066 2dc0 a867 6bbf d85b f9be e98d f8bc
00000170: 29bf 0d3d 458e 86be a2c0 4cc0 2f48 40c0
00000180: 74a2 24c0 65d7 97bf 35b3 0dbf 2daa 91bf
00000190: d187 2bc0 1a82 c7bf 181d 7fbf 3a53 2dbf
000001a0: 9fa7 28be 19b3 d5bf 460a bfbe d5a3 0ec0
000001b0: 2fe5 a5be 54c2 26bf 063f 2cbf 6c5e 2bc0
000001c0: 3ae3 40bf 28df 69be 1f64 92be 7f16 eb3d
000001d0: 2b3e abbf a2e1 a03e 3be1 86bf 0b4f 72bf
000001e0: 2775 7abe ed72 96bf 6c82 37c0 8bc9 023e
000001f0: 481d 06be 22ef 38c0 8301 58be 0222 a5be
00000200: 83b6 1ac0 8fed 13c0 0ed4 00be 44bb 233e
00000210: 354d 56bf d2db 893e 2ba4 333e a0d6 67bf
00000220: eadf 2ec0 a502 bdbf adf1 17c0 f993 96be
00000230: 54d0 b83d 447f c93e 12f1 6dbe 68da 05c0
00000240: bc5f 42c0 92b4 2cc0 03a3 22bf af6b c5bf
00000250: 090e 31bf e966 72be 1d38 40c0 e871 d7bf
00000260: e0a7 733e 0dbc 8bbf 6511 13be 4802 16bf
00000270: a763 82bf 8964 bcbe a7e6 92bf d42c 35be
00000280: 668b 1bc0 a1cd 26bf 5db6 41c0 3eca 45be
00000290: c333 e1be d89f 6bbf ff79 c5be bb41 08c0
000002a0: b309 9bbf 7644 03bf 8d54 e0bd fb69 31bf
000002b0: 3baf 063e a0cd ce3e 979b e6bf eca5 20c0
000002c0: 98a5 f4bf 1499 22be d130 cfbe 11a4 31bf
000002d0: e571 80bf 4571 593d 9006 1bbe 9360 b53e
000002e0: 178c 36c0 9695 eebf 936f 9abf b3e1 9abf
000002f0: c30d 12bf cdfe 02c0 4ba2 63bf 14c5 77bf
00000300: 5f20 2dc0 d2ca 3fc0 7888 e9bf 1057 8bbe
00000310: bf54 03bf a948 973e d39a 8c3e 63f7 d3be
00000320: b0c9 15c0 e638 12c0 aea0 46c0 3a58 87be
00000330: e88c a2bd 6d96 2fbf d18f 46c0 2a6a 16bf
00000340: 74f9 86bf a504 4abe 2369 d3bb 5965 2cbf
00000350: adb1 06bf 5699 9cbe 7dc8 123f 64f7 3fbf
00000360: 8217 37bf 5851 ddbf 986c 4bc0 17f9 78bf
00000370: 285e 8dbe 3879 48bf ae54 8dbe 211f 233f
00000380: 82b0 78bf 11c3 54bf 5a22 cabe f6b9 24c0
00000390: 5bcb 0dc0 0c79 04c0 d64e 08c0 42c0 0ebf
000003a0: 0cad 7e3e cf6f 21c0 5ae2 ecbe 3987 c0be
000003b0: 221a 083f c22d debf 6de0 01c0 9779 42c0
000003c0: 2e8a b23e afaf 383f 06f8 e6bf 426d 46c0
000003d0: fc0b 46c0 2973 0bc0 960b 84be c7c6 29c0
000003e0: 276f 5ebe b324 19c0 7a1b 18c0 5028 7cbf
000003f0: 2db0 35be 52d0 1fc0 7dc3 4c3e c545 e8bb

hidden_layers.1.weight f4 [256, 256]
-0.37489098 0.12734248 -0.42381305 0.4379383 -0.26705295 -0.4028056 0.59694976 0.103787854
0.07295424 -0.06417495 -0.24732167 0.22953409 0.015141322 -0.04526695 -0.10189731 0.068733215
0.037837807 0.005121369 0.09831716 0.32130474 0.15399665 -0.33634725 -0.060274806 0.41846687
-0.16121757 0.362581 0.05070446 -0.1631344 -0.3234045 0.24676475 0.45164344 0.17288855
-0.057933066 -0.2277375 0.19407518 -0.5147735 0.15073802 -0.063321434 0.2823259 0.059797905
-0.093812935 0.042176545 -0.21878907 0.31352276 -0.10797561 -0.32913992 -0.3270012 -0.03789439
0.8490881 -0.16519664 0.06398575 -0.11296108 -0.037843067 -0.2132814 0.120398976 0.1016234
-0.89055043 -0.3010637 0.31834897 -0.33535638 -0.51375175 0.23294353 0.28902078 0.019507376
-0.27157006 0.122059315 0.1675328 -0.28972888 -0.7920502 -0.20076853 0.152205 0.45234704
0.10177993 -0.0069948887 -0.18737167 0.11335538 -0.019883059 0.337509 -0.06665591 0.14131138
-0.018413682 -0.18820965 0.038490422 -0.007465993 0.4644652 -0.13031535 0.09173077 0.86472493
-0.86379343 -0.06219454 0.113603756 -0.17437719 -0.16666414 -0.12643288 0.20766985 -0.01719491
-0.057153787 -0.3847265 -0.10611422 -0.022456149 0.047088586 0.055343684 0.25827655 0.4580685
0.5167232 -0.40101162 -0.015050375 -0.35392308 -0.15839398 0.1493862 -0.15923522 0.09456101
-0.21171279 0.18847555 -0.20463581 0.36762345 0.0048814025 0.04398393 0.09731721 -0.037248913
0.38897178 0.30326018 -0.30362213 0.084273666 0.41018197 -0.05282364 -0.0060374723 0.21958491
-0.41398096 0.0022617707 -0.26037994 0.7006537 -0.13930692 0.21575281 -0.029199336 -0.38359612
-0.0149421245 0.15606247 -0.09550252 0.71233773 -0.34400597 0.5665634 -0.087427974 -0.024862831
-0.098382674 0.057511568 0.1858806 0.12202983 0.032937035 0.13691299 0.05123644 0.24455509
0.57816917 0.35130262 0.6963045 -0.28774208 -0.1757757 -0.02118201 0.19666223 -0.30473793
-0.33603862 0.11046233 -1.0443469 -0.48857072 0.29234698 -0.03715277 -0.33293617 0.17809267
-0.5188792 0.060709942 0.109871514 0.102353886 0.5611232 0.38498786 -0.11956483 -0.030040575
-0.03495416 0.432628 -0.28604767 0.24315189 -0.23076116 0.021564387 -0.11808447 -0.16399647
-0.5599287 -0.2280403 -0.20633614 -0.10088454 0.016576812 -0.016116003 0.028728938 0.17405652
-0.0452525 -0.28628385 0.1745059 0.00589053 0.25224018 0.6452709 0.41590977 -0.13123788
-0.048488993 -0.061044138 -0.19321606 0.486553 0.10644601 -0.0011952578 -0.4745344 -0.26425332
0.5678161 0.31439334 0.0811668 0.086646326 0.530829 0.37371927 -0.30663788 0.045238722
0.22368486 0.5845977 -0.28197715 -0.12864871 0.2703559 -0.80806774 0.59053516 0.29520917
0.3053699 -0.3021853 0.21345194 0.17926186 -0.010112765 0.025649248 -0.76793826 0.40457428
0.028012715 -1.2496201 0.2015545 0.33876982 -0.13298847 0.39300534 -0.2876446 0.29467916
0.041305076 0.51130396 -0.032436393 0.09665986 -0.035842843 -0.074576944 0.7135729 -0.08553223
0.15725069 0.08037571 -0.1336955 0.07221772 -0.0030258768 -0.53810006 -0.1021247 -0.5333131
00000000: b6f1 bfbe 1166 023e 06fe d8be 7339 e03e
00000010: 2abb 88be 893c cebe b3d1 183f ba8e d43d
00000020: 0869 953d 286e 83bd e441 7dbe fc0a 6b3e
00000030: 4f13 783c d669 39bd 89af d0bd 00c4 8c3d
00000040: d1fb 1a3d 28d1 a73b 825a c93d 0e82 a43e
00000050: 4cb1 1d3e b535 acbe b7e2 76bd 4a41 d63e
00000060: 3816 25be 38a4 b93e 7baf 4f3d b40c 27be
00000070: 4695 a5be e6af 7c3e cf3d e73e b209 313e
00000080: 394b 6dbd 0534 69be a5bb 463e 32c8 03bf
00000090: 115b 1a3e abae 81bd 058d 903e a6ee 743d
000000a0: ff20 c0bd 50c1 2c3d 3e0a 60be 0e86 a03e
000000b0: 5122 ddbd 0785 a8be b46c a7be 2637 1bbd
000000c0: d65d 593f 4f29 29be f60a 833d 2458 e7bd
000000d0: 5501 1bbd 7066 5abe bd93 f63d ee1f d03d
000000e0: 1dfb 63bf 0525 9abe a3fe a23e d5b3 abbe
000000f0: 3c85 03bf c088 6e3e 88fa 933e efcd 9f3c
00000100: 3b0b 8bbe 3cfa f93d b88d 2b3e 5857 94be
00000110: cdc3 4abf 4496 4dbe a1db 1b3e 089a e73e
00000120: ff71 d03d 6135 e5bb 5cde 3fbe de26 e83d
00000130: cce1 a2bc fbcd ac3e e582 88bd eeb3 103e
00000140: 4ad8 96bc 08ba 40be 22a8 1d3d 4aa5 f4bb
00000150: 62ce ed3e 6371 05be 58dd bb3d 9d5e 5d3f
00000160: 9121 5dbf b4bf 7ebd 16a9 e83d ef8f 32be
00000170: 01aa 2abe 9f77 01be 68a7 543e 57dc 8cbc
00000180: 171a 6abd dffa c4be 6a52 d9bd f5f5 b7bc
00000190: f6df 403d 0fb0 623d d33c 843e f487 ea3e
000001a0: f947 043f 6551 cdbe d995 76bc 6835 b5be
000001b0: 0832 22be b2f8 183e 8f0e 23be 34a9 c13d
000001c0: 3dcb 58be bcff 403e 0d8c 51be 2439 bc3e
000001d0: 2cf4 9f3b 7e28 343d 3f4e c73d 5192 18bd
000001e0: 4f27 c73e eb44 9b3e 5c74 9bbe ac97 ac3d
000001f0: 5f03 d23e 9a5d 58bd fdd5 c5bb deda 603e
00000200: 50f5 d3be 373a 143b 8550 85be 0a5e 333f
00000210: 79a6 0ebe 4eee 5c3e 7233 efbc b666 c4be
00000220: d0cf 74bc d7ce 1f3e d396 c3bd c45b 363f
00000230: 8d21 b0be 4d0a 113f 700d b3bd 23ad cbbc
00000240: db7c c9bd 4091 6b3d 7c57 3e3e c7ea f93d
00000250: fce8 063d eb32 0c3e 4ddd 513d a66c 7a3e
00000260: e502 143f f0dd b33e 0341 323f ee52 93be
00000270: 8cfe 33be e585 adbc d361 493e 9c06 9cbe
00000280: 410d acbe 133a e23d 29ad 85bf f125 fabe
00000290: 81ae 953e 812d 18bd 9c76 aabe ed5d 363e
000002a0: 44d5 04bf fdaa 783d 5104 e13d ea9e d13d
000002b0: c5a5 0f3f 211d c53e 68de f4bd a717 f6bc
000002c0: 182c 0fbd 6b81 dd3e d774 92be cffc 783e
000002d0: a74c 6cbe cca7 b03c 45d6 f1bd b1ee 27be
000002e0: 7d57 0fbf 6583 69be c849 53be 8e9c cebd
000002f0: 18cc 873c b505 84bc f358 eb3c df3b 323e
00000300: af5a 39bd cc93 92be adb1 323e 5905 c13b
00000310: a025 813e 7930 253f 20f2 d43e 3963 06be
00000320: 659c 46bd 6b09 7abd 6eda 45be 7a1d f93e
00000330: 5e00 da3d 32aa 9cba 2cf6 f2be 364c 87be
00000340: 655c 113f 2af8 a03e c73a a63d a173 b13d
00000350: 69e4 073f 2258 bf3e a4ff 9cbe 3d4c 393d
00000360: a50d 653e 32a8 153f 4f5f 90be 7dbc 03be
00000370: 176c 8a3e 87dd 4ebf 502d 173f a825 973e
00000380: 7259 9c3e 08b8 9abe 2593 5a3e 6c90 373e
00000390: 03b0 25bc 5f1e d23c 9a97 44bf 5c24 cf3e
000003a0: ec7a e53c 8df3 9fbf 4e64 4e3e 3d73 ad3e
000003b0: 212e 08be ff37 c93e 2746 93be 30e0 963e
000003c0: 832f 293d d1e4 023f 06dc 04bd 9bf5 c53d
000003d0: f2cf 12bd ccbb 98bd b7ac 363f 862b afbd
000003e0: 5306 213e 059c a43d 79e7 08be e2e6 933d
000003f0: ca4d 46bb edc0 09bf c126 d1bd 3587 08bf

hidden_layers.1.bias f4 [256]
-0.13713637 -0.217413 -0.9899856 -0.23574768 -1.6611959 -1.6676356 -0.006070832 -0.44875652
-0.39847368 0.55581135 -0.44331813 -0.27773008 -1.0505792 0.04507041 0.7481424 -1.6573077
0.083208784 -0.47434527 -0.30585498 -0.17238837 -0.17628236 -0.54705536 -0.2046708 -0.4516344
-0.3189662 -0.0148490295 0.033376895 -0.16855691 -0.35315678 0.17544034 0.27006826 -0.7407062
-1.2773705 -0.024409886 0.24901682 -0.6477508 -0.55384505 -0.26371792 -1.3487284 -0.27660912
-1.6349314 -0.35264015 -0.56512755 -0.7225024 -0.090258785 -0.08420298 -0.3151648 -0.06468234
-1.2998378 0.5455055 -0.053068835 -0.7790747 -0.47056583 -0.1435566 -0.8170956 0.19186844
0.57505363 -0.6246043 0.2964238 -0.1306964 0.018067528 -0.2703581 -0.048685204 -0.56196207
-1.6420143 -0.05758297 0.09858798 0.08500356 -1.6160748 -1.9940721 -1.0213594 0.3888679
-0.29182202 -0.31306997 -1.0909477 -1.2716383 -1.5359509 0.061507702 -0.15627348 -0.7633574
-0.11560442 -1.0449859 -0.36358035 -0.4712055 -0.4091202 -0.22534747 -1.796144 -0.033284284
-1.7635496 -1.2150459 0.119232915 -0.071940966 -1.258598 -0.16571727 -0.7971414 -0.66356504
-0.67918134 -0.99469125 -0.1264785 -0.5153183 -0.036327966 0.5340051 -0.9452359 -1.0779977
-0.6383918 -0.28787187 0.022832226 -0.26979017 -0.116534285 0.13616386 -0.03917565 -0.12317945
-0.42891735 -0.14305423 -0.17043616 -1.8485479 -1.0375003 -0.59391195 -1.3654158 0.9085466
-0.46985555 0.09967734 0.3347989 -0.12151321 -1.6879203 -0.39002377 -0.9985643 -0.23646136
-0.11146804 -0.23548158 -0.7029785 -0.4726158 -0.4815206 -0.70346206 0.94844186 0.6519853
0.052740704 -0.27794784 0.12901235 -0.5004446 -0.29287136 0.36747652 -1.4598781 0.13512212
-1.4918412 -0.008615663 -0.7363092 -0.16413577 -0.1374675 -0.43958092 -0.20384741 -0.29411748
0.069120824 -0.33939558 -0.25292173 -0.21093519 -0.4221794 0.8939819 0.11505914 -0.6186213
-0.34887385 -0.63241017 -0.39195126 -0.38164094 -0.06314477 -0.7470079 -0.43974963 -0.044409305
-0.0496805 -0.7495972 -0.45555836 -0.036326777 -0.43419912 -0.024857402 -0.15997052 -1.7775558
0.021915654 -0.24978183 -0.153812 -0.60586554 -0.70418376 -0.15913865 0.11728943 0.27994943
-0.36901772 0.76046747 -0.15033448 -0.4233329 0.19190043 -1.2455196 -1.2638329 -0.2803498
-0.42499426 -0.757668 0.3866215 0.2321713 -0.27879757 -1.3118784 -0.0632374 -1.7283816
-0.5383642 -0.6661723 -0.057184886 -0.28313905 0.042267088 -0.5241371 -0.58088243 -0.07540496
-0.01389695 -0.5252865 -0.6469023 -0.09916391 -0.65619445 0.51883924 0.31142452 -0.37252587
0.4178266 -0.10880476 -0.088546254 -0.43747488 -0.06475815 -0.23358995 -0.4250808 -1.3975027
-0.5471776 0.07190803 0.01287675 -1.3664355 -0.4334243 0.889473 -0.5717489 -0.6171255
-0.35775575 -0.34202328 -0.041705806 -0.85446304 0.18041208 -0.4313716 -0.5515701 -0.09070103
-0.31775928 -0.43591478 0.2253388 0.11641557 -0.2451388 -0.4271598 0.69347984 -0.32798582
-0.13925296 -0.45523956 -0.1514943 0.085656375 -0.7951486 -0.3876693 -0.13866428 -0.40801236
00000000: 7a6d 0cbe 83a1 5ebe b26f 7dbf d767 71be
00000010: 11a2 d4bf 1575 d5bf d4ed c6bb 6ac3 e5be
00000020: be04 ccbe a749 0e3f 98fa e2be a332 8ebe
00000030: 6179 86bf c09b 383d 4386 3f3f a922 d4bf
00000040: 5e69 aa3d 62dd f2be 0699 9cbe 9486 30be
00000050: 5d83 34be d20b 0cbf 3995 51be a03c e7be
00000060: 8a4f a3be 5849 73bc 36b6 083d 2f9a 2cbe
00000070: f7d0 b4be a2a6 333e 6346 8a3e ec9e 3dbf
00000080: e080 a3bf 3ef7 c7bc 44fe 7e3e ffd2 25bf
00000090: cac8 0dbf 0906 87be 22a3 acbf b69f 8dbe
000000a0: 6f45 d1bf 408d b4be 33ac 10bf ebf5 38bf
000000b0: 99d9 b8bd 9d72 acbd 485d a1be 2d78 84bd
000000c0: 1661 a6bf 40a6 0b3f b55e 59bd 7171 47bf
000000d0: 01ee f0be 8000 13be 2d2d 51bf 2979 443e
000000e0: b736 133f 11e6 1fbf dcc4 973e 47d5 05be
000000f0: 5a02 943c 606c 8abe 236a 47bd bfdc 0fbf
00000100: 862d d2bf 1fdc 6bbd 7fe8 c93d 5916 ae3d
00000110: 8adb cebf c13d ffbf e8bb 82bf b219 c73e
00000120: b269 95be b54a a0be 2da4 8bbf 0bc5 a2bf
00000130: 0a9a c4bf 80ef 7b3d 2806 20be 646b 43bf
00000140: 03c2 ecbd 19c2 85bf 3427 babe d941 f1be
00000150: 3478 d1be 7dc1 66be 0ce8 e5bf 1a55 08bd
00000160: febb e1bf a086 9bbf 6330 f43d c955 93bd
00000170: bd19 a1bf cab1 29be 7511 4cbf 66df 29bf
00000180: d4de 2dbf 16a4 7ebf 9483 01be e6eb 03bf
00000190: a2cc 14bd 8fb4 083f fbfa 71bf d4fb 89bf
000001a0: a56d 23bf f163 93be a60a bb3c f021 8abe
000001b0: 87a9 eebd 8a6e 0b3e a576 20bd 8245 fcbd
000001c0: 0e9b dbbe cf7c 12be d186 2ebe 389d ecbf
000001d0: cfcc 84bf 9d0a 18bf f2c5 aebf 8396 683f
000001e0: e890 f0be a223 cc3d c36a ab3e ebdb f8bd
000001f0: c60d d8bf 32b1 c7be e9a1 7fbf ed22 72be
00000200: 5b49 e4bd 1522 71be 66f6 33bf b3fa f1be
00000210: de89 f6be 1716 34bf 16cd 723f 82e8 263f
00000220: a306 583d 2e4f 8ebe d01b 043e 231d 00bf
00000230: 3cf3 95be e225 bc3e 49dd babf 745d 0a3e
00000240: a7f4 bebf b628 0dbc c27e 3cbf 3513 28be
00000250: 48c4 0cbe c010 e1be 60bd 50be 9196 96be
00000260: 388f 8d3d 42c5 adbe f57e 81be 65ff 57be
00000270: e627 d8be ffdb 643f 20a4 eb3d f75d 1ebf
00000280: 989f b2be a2e5 21bf d6ad c8be 7166 c3be
00000290: 0c52 81bd e93b 3fbf dd26 e1be 88e6 35bd
000002a0: c87d 4bbd 9ae5 3fbf f23e e9be 63cb 14bd
000002b0: 594f debe c0a1 cbbc 50cf 23be f386 e3bf
000002c0: 7588 b33c cfc6 7fbe e580 1dbe 011a 1bbf
000002d0: 6345 34bf 3ef5 22be 7135 f03d 8855 8f3e
000002e0: e4ef bcbe ffad 423f 48f1 19be 17bf d8be
000002f0: 8c81 443e 306d 9fbf 47c5 a1bf 028a 8fbe
00000300: d998 d9be 88f6 41bf 41f3 c53e 50be 6d3e
00000310: 8ebe 8ebe a2eb a7bf 9c82 81bd 9c3b ddbf
00000320: 3cd2 09bf 458a 2abf b33a 6abd 9af7 90be
00000330: 4120 2d3d d92d 06bf b6b4 14bf ea6d 9abd
00000340: 08b0 63bc 2d79 06bf 649b 25bf 7316 cbbd
00000350: 5cfc 27bf a6d2 043f 0973 9f3e b6bb bebe
00000360: 5eed d53e 08d5 debd bd57 b5bd b5fc dfbe
00000370: ec9f 84bd 3432 6fbe 31a4 d9be 5ee1 b2bf
00000380: d513 0cbf 8444 933d 01f9 523c 5ce7 aebf
00000390: cae9 ddbe 81b4 633f 235e 12bf f0fb 1dbf
000003a0: c32b b7be ad1d afbe b5d3 2abd 17be 5abf
000003b0: f2bd 383e bddc dcbe b333 0dbf 76c1 b9bd
000003c0: 58b1 a2be 3930 dfbe 37bf 663e 496b ee3d
000003d0: aa05 7bbe b0b4 dabe e587 313f c2ed a7be
000003e0: 5498 0ebe 2915 e9be 5221 1bbe 9c6c af3d
000003f0: dc8e 4bbf 977c c6be 02fe 0dbe ffe6 d0be

output_layers.0.weight f4 [40, 256]
0.7046457 0.32286668 -0.20260452 0.24203824 -0.055116322 -0.031553555 0.20433626 -0.4732802
0.7838868 0.21035764 0.011438853 0.28880858 -0.08619088 -0.001967298 0.42756426 0.1878889
0.43694988 0.24441136 0.31276038 0.14204732 0.16443479 -0.0046049575 0.20277545 -0.3709951
0.036626544 0.09266696 0.19802834 0.966307 0.39374375 -0.48507974 -0.09965522 -0.15529875
0.23954912 -0.1772471 0.5704945 -0.27124146 -0.05648733 -0.16191354 0.088900566 -0.15640622
-0.09144987 0.7747546 0.4037185 -0.0073259226 -0.34222293 0.21978214 -0.016122844 -0.069353744
0.107783385 0.15730445 0.28992933 -0.05931407 -0.7005887 0.10938337 -0.04241707 0.091747105
0.22256096 -0.055472054 0.20048271 -0.17462654 0.7912175 0.090461135 0.023096625 -0.019987848
0.19643511 0.16967043 0.47523147 0.18259004 -0.0129539855 -0.037630208 0.065898485 0.10730355
0.1241773 -0.19510368 0.0011942555 0.07612164 0.86841124 0.22512637 -0.069415286 -0.58036464
0.0759633 0.08313777 -0.055659648 0.30521798 0.109787345 0.124414615 -0.073056065 0.5241532
0.017655306 -0.10346199 0.14995766 -0.016617773 0.36591452 0.85339475 0.35232395 0.19421084
-0.6724116 0.407055 -0.20813905 -0.4104488 0.16492282 0.057515547 -0.56313425 0.8446523
-0.021461723 0.5359877 0.73440284 0.23477319 0.28875 0.30017266 0.76379544 0.44323808
-0.1309247 -0.21353222 0.058174353 -0.0044798926 0.5477255 -0.075073674 0.08888975 0.20990989
-0.023613816 0.34612334 0.1863545 -1.0505443 0.06968075 -0.13399008 0.29186335 0.14011897
-0.075089425 -0.24941564 0.025729278 -0.8253981 -0.24715227 0.4489786 0.16435367 0.22209765
0.03252959 0.35942605 0.54883045 0.15347932 0.033993505 0.26745832 0.21677405 0.48058063
-0.12634946 0.4011974 -0.3980364 0.054515947 0.2632025 -0.3388848 -1.2663587 -0.043510515
0.2663725 0.098256394 0.10263143 0.49507642 0.38409415 0.27724615 0.7369356 -0.005186803
0.8893433 -0.7018609 -0.026432091 0.44632575 0.49708214 0.045428813 -0.044281363 1.44503
-0.06265511 -0.51128125 0.0047919583 0.5138622 -0.072798364 -0.13120265 0.035395928 0.14995956
0.03024833 -0.45169485 0.15220836 -0.1770743 0.077078424 -0.06599772 0.02324887 0.07400968
-0.31527695 0.33234486 0.036528837 0.78764194 -0.09247586 0.30737644 0.016508864 -0.49298376
-0.18807352 0.060271718 1.0313159 -0.15672585 -0.09700127 0.030412806 -0.263441 -0.02601506
-0.982267 0.07114517 0.10007761 -0.32737923 -0.16567974 -0.8347202 0.24096408 -0.2385404
0.0309464 -0.13896418 -0.11467332 -0.05230972 -0.014855091 0.56960505 0.53618157 0.48670334
0.027263245 0.1251038 -0.2044281 0.8822504 0.79168487 0.38508824 -0.13381937 0.1677859
0.23601942 0.26028293 0.52482635 -0.06869646 -0.17516321 0.1151915 0.23405047 0.079160415
-0.09881131 0.18109863 -0.2357599 -0.007813091 0.7976035 -0.8236938 -0.042741872 0.30401233
-0.07614166 0.1687001 0.18478537 0.32771733 -0.011301774 -0.11884945 0.15404463 -0.13239482
0.64345753 0.7781931 0.57936937 0.1887957 1.2648603 -0.58547676 0.08452801 -0.06248578
00000000: a963 343f c84e a53e 8f77 4fbe dfd8 773e
00000010: a7c1 61bd 4d3e 01bd 863d 513e c851 f2be
00000020: ceac 483f fe67 573e 076a 3b3c b8de 933e
00000030: d884 b0bd c9ed 00bb b4e9 da3e f365 403e
00000040: e5b7 df3e f946 7a3e 2122 a03e da74 113e
00000050: 9861 283e 2fe5 96bb 5ea4 4f3e 12f3 bdbe
00000060: b705 163d 2dc8 bd3d f1c7 4a3e e55f 773f
00000070: c898 c93e 5f5c f8be 0918 ccbd a306 1fbe
00000080: 5d4c 753e 4480 35be ed0b 123f 29e0 8abe
00000090: 425f 67bd aacc 25be 8011 b63d f428 20be
000000a0: 124a bbbd 5156 463f 31b4 ce3e 4b0e f0bb
000000b0: d837 afbe 920e 613e 0e14 84bc 5609 8ebd
000000c0: 89bd dc3d 6b14 213e 9e71 943e 4ff3 72bd
000000d0: c859 33bf 6304 e03d 86bd 2dbd e8e5 bb3d
000000e0: 05e7 633e aa36 63bd 574b 4d3e 4dd1 32be
000000f0: 3b8d 4a3f b043 b93d 2235 bd3c 8ebd a3bc
00000100: 4926 493e 16be 2d3e 8a51 f33e e2f8 3a3e
00000110: f43c 54bc 2222 1abd c9f5 863d f7c1 db3d
00000120: ab50 fe3d 42c9 47be 9188 9c3a aae5 9b3d
00000130: 3350 5e3f 8787 663e 9a29 8ebd c792 14bf
00000140: a692 9b3d 2344 aa3d 5ffb 63bd 8845 9c3e
00000150: 30d8 e03d 17cd fe3d 6b9e 95bd e72e 063f
00000160: dca1 903c e1e3 d3bd 808e 193e ff21 88bc
00000170: 2659 bb3e 1478 5a3f ce63 b43e 35df 463e
00000180: 2b23 2cbf 8369 d03e 6722 55be 5826 d2be
00000190: 87e1 283e 6c95 6b3d 9129 10bf 223b 583f
000001a0: 7fd0 afbc 7d36 093f d301 3c3f 6268 703e
000001b0: 0ad7 933e 3bb0 993e 1988 433f 1af0 e23e
000001c0: 2011 06be 31a8 5abe 3b48 6e3d 10cc 92bb
000001d0: bd37 0c3f 3ac0 99bd d40b b63d 9ef2 563e
000001e0: c371 c1bc 1437 b13e b7d3 3e3e 3c78 86bf
000001f0: c8b4 8e3d b234 09be 1d6f 953e 597b 0f3e
00000200: 7cc8 99bd d066 7fbe 35c6 d23c 4a4d 53bf
00000210: 7c15 7dbe 86e0 e53e 544c 283e 916d 633e
00000220: bf3d 053d b106 b83e 2780 0c3f af29 1d3e
00000230: c63c 0b3d 4cf0 883e 04fa 5d3e aa0e f63e
00000240: c161 01be bf69 cd3e 6dcb cbbe 1d4c 5f3d
00000250: 7ac2 863e 4f82 adbe 0b18 a2bf 1538 32bd
00000260: fa61 883e a63a c93d 6d30 d23d a87a fd3e
00000270: fda7 c43e 35f3 8d3e d0a7 3c3f 0ff6 a9bb
00000280: 01ac 633f 28ad 33bf 1d88 d8bc cf84 e43e
00000290: 8d81 fe3e 9013 3a3d 6060 35bd bef6 b83f
000002a0: 5351 80bd 54e3 02bf dc05 9d3b 798c 033f
000002b0: 4f17 95bd fd59 06be 52fb 103d 008f 193e
000002c0: 59cb f73c 8c44 e7be 82dc 1b3e f752 35be
000002d0: 4bdb 9d3d d029 87bd 6a74 be3c 6392 973d
000002e0: fb6b a1be 1b29 aa3e 439f 153d e7a2 493f
000002f0: fc63 bdbd 7260 9d3e 993d 873c 5e68 fcbe
00000300: 5896 40be 7adf 763d 2902 843f be7c 20be
00000310: 9aa8 c6bd 4724 f93c bde1 86be 891d d5bc
00000320: da75 7bbf 8fb4 913d 7df5 cc3d 409e a7be
00000330: f3a7 29be 39b0 55bf 4abf 763e ef43 74be
00000340: 4e83 fd3c a04c 0ebe d8d9 eabd b842 56bd
00000350: c562 73bc a3d1 113f 3243 093f 2e31 f93e
00000360: 2b57 df3c 361b 003e 9a55 51be 2adb 613f
00000370: dcab 4a3f 492a c53e f207 09be 11d0 2b3e
00000380: 13af 713e ce43 853e 055b 063f bbb0 8cbd
00000390: fc5d 33be 85e9 eb3d edaa 6f3e db1e a23d
000003a0: 965d cabd eb71 393e 0b6b 71be 7b02 00bc
000003b0: be2f 4c3f 99dd 52bf 1a12 2fbd 81a7 9b3e
000003c0: 29f0 9bbd b8bf 2c3e 6038 3d3e 91ca a73e
000003d0: 132b 39bc 5767 f3bd e0bd 1d3e 8292 07be
000003e0: a2b9 243f aa37 473f 8d51 143f a953 413e
000003f0: f1e6 a13f cee1 15bf 051d ad3d 17f1 7fbd

output_layers.0.bias f4 [40]
0.06745846 3.4463732 0.52628815 -0.06189166 3.3012118 2.354671 3.0733726 0.39801842
3.210498 3.1720173 2.467873 0.69406676 3.3426285 2.7654798 3.2084622 2.8680837
3.318824 2.5326812 3.173558 3.183076 3.1393285 2.669354 3.040013 3.055592
3.4536228 3.0741782 3.128187 3.1457772 2.8562992 0.6858086 2.9300623 3.1889763
3.4203756 0.18783197 3.0275342 2.995396 -0.086565696 -0.028494269 0.45255068 3.578358
00000000: a927 8a3d 6191 5c40 d2ba 063f 1c82 7dbd
00000010: 0e47 5340 eeb2 1640 23b2 4440 12c9 cb3e
00000020: cd78 4d40 5502 4b40 a2f1 1d40 5cae 313f
00000030: a0ed 5540 9ffd 3040 7257 4d40 af8e 3740
00000040: 9d67 5440 7317 2240 931b 4b40 84b7 4b40
00000050: c2ea 4840 b2d6 2a40 938f 4240 d28e 4340
00000060: 2808 5d40 56bf 4440 3734 4840 6a54 4940
00000070: 9bcd 3640 2791 2f3f 2486 3b40 3018 4c40
00000080: 6fe7 5a40 0657 403e 1fc3 4140 91b4 3f40
00000090: 5b49 b1bd d06c e9bc b9b4 e73e d103 6540
