MODELS/REWARD COMPARISON/SAC UNMASKED MODELS/11_1_critic_target_2_local_network_un.pt (torch, 411399 bytes, 6 tensors)

hidden_layers.0.weight f4 [256, 101]
000000 0c f3 8f 3c cc e0 38 be c1 dd 29 3e 4d c4 08 3f
       0.017571948 -0.18054503 0.16588499 0.5342453
000010 35 95 0d be 5d 06 1b bf 2e b5 2d bf 1f 44 79 be
       -0.13826449 -0.60556585 -0.67854583 -0.24342392
000020 c2 cd 60 be 0a 52 2e be 96 bb df bd 2e 29 a0 be
       -0.2195349 -0.17023483 -0.10924451 -0.31281418
000030 c5 a3 58 be 84 f2 1c be 3a a6 90 bd 5f 9e 99 bd
       -0.21156223 -0.15326887 -0.07062955 -0.0750091
000040 13 17 12 bf 82 27 0a bd 4b d3 60 be 79 ff 17 be
       -0.5706646 -0.033729084 -0.21955602 -0.14843549
000050 df 10 83 bd 36 db 7c be 1a ed a3 be 5c 98 40 bd
       -0.06399702 -0.24692997 -0.32016832 -0.0470203
000060 cb de 04 be 34 ed 92 be 94 c2 c9 bd 9f 6c 65 be
       -0.12975614 -0.28696597 -0.09851566 -0.22404717
000070 6a 77 ab be 65 d3 3e bf 4c 44 2b 3c d9 de d3 be
       -0.33489543 -0.7454131 0.010453295 -0.41380957
000080 8b 6a ac be 46 24 9d be 86 ef 7d bc 26 89 1a be
       -0.33675036 -0.30691737 -0.015499001 -0.1509138
000090 67 87 04 be 9a 8b 1f be 5a af d9 3d 47 61 8e be
       -0.12942277 -0.15580598 0.10629149 -0.27808592
0000a0 3b ae 27 3e 66 ad 1a be 37 e0 d9 bd aa d4 41 be
       0.16375057 -0.15105209 -0.10638469 -0.18928781
0000b0 15 4c be be 0e 1d e6 be 94 2b a7 bd b6 1c fe be
       -0.3716742 -0.44944042 -0.08162609 -0.4963128
0000c0 2c bc 94 bd 11 ee 06 bd ce e9 96 bd 17 29 73 be
       -0.072624534 -0.03294188 -0.073688135 -0.23746143
0000d0 1a b8 1a bf c6 bb 56 be fd 06 96 be 81 ac d7 be
       -0.60437167 -0.20970067 -0.29302207 -0.42123798
0000e0 c7 9a 2c 3e 1c cc 08 be 82 e0 d2 bd d7 84 44 3e
       0.16855918 -0.13359112 -0.10296728 0.191913
0000f0 67 66 4c 3e 86 fd 42 be cf 15 32 be 59 17 7a be
       0.19960938 -0.19042024 -0.17391132 -0.24422969
000100 a3 5a 2b 3e 6c 94 33 3e 62 70 97 be ed 5b e6 be
       0.16733794 0.17537087 -0.2957793 -0.4499201
000110 c6 d3 8d 3c aa 72 34 3e b4 d5 84 be bf ec a4 be
       0.017312896 0.17621866 -0.25944293 -0.32211873
000120 53 4d 90 be a5 22 65 be 6e ee 0b be de dd 41 be
       -0.28183994 -0.22376497 -0.13665172 -0.18932292
000130 c0 f5 6f be ea 2c 7f bd c3 8b 56 3d 92 47 fb 3e
       -0.2343359 -0.062298693 0.05237938 0.4907804
000140 e7 a8 46 3e 68 7b 6c be 32 48 61 be 53 80 ff bd
       0.19400369 -0.23093951 -0.22000197 -0.12475648
000150 e6 48 f5 3d 86 3a fc be e9 a4 8b be 6e d1 0f 3d
       0.11976795 -0.492634 -0.27274254 0.035111837
000160 6c ed dd be c0 04 30 be ce f5 1d 3c ef 3e a0 3d
       -0.433452 -0.17189312 0.009641124 0.07824504
000170 8e 20 9a be 05 ab 03 be 39 a4 f6 bd 7e 99 65 be
       -0.30102962 -0.12858208 -0.12043042 -0.22421834
000180 85 00 81 3c 1c a3 dc 3e 2e dc 00 bb 99 6b 6c be
       0.015747318 0.43093193 -0.0019662487 -0.2308792
000190 30 00 f8 bb 7f a4 8c 3e 45 28 16 3f 48 e1 b9 bd
       -0.0075683817 0.2746925 0.58655196 -0.09076172
0001a0 78 c9 05 3e 5a 86 00 be 5b 85 ea 3e 0a 5a ad 3c
       0.13065135 -0.12551251 0.45804867 0.021161098
0001b0 21 a9 5b 3e 16 79 b0 3d 4e 38 90 3e 79 12 3e 3e
       0.21451236 0.08616845 0.28167957 0.18561734
0001c0 26 12 09 3e 92 5f 1f bd c4 59 9a be fa b2 4d bd
       0.1338583 -0.038909502 -0.3014661 -0.050219513
0001d0 42 21 89 3d 2c ce 42 3c 07 ed 08 bc 0d b6 93 bd
       0.066957965 0.0118899755 -0.008357293 -0.07212458
0001e0 1b 58 6c be ea e2 b4 bc b9 7c 5d 3e fa cf 9a 3e
       -0.23080485 -0.022080857 0.21629609 0.302368
0001f0 3f b8 c1 3e 1c b1 99 3d 9f a6 ce 3c f3 40 c1 bc
       0.3783588 0.07504484 0.025225936 -0.02359054
000200 f7 d6 ee 3d aa fc 39 be 5a 67 83 3e a5 2f ca 3d
       0.11662095 -0.1816279 0.25664788 0.09872369
000210 e4 d7 0c 3f ea 3e e4 3e 4e 5a 99 3e bf 77 cd 3e
       0.5501692 0.4457925 0.2995171 0.40130422
000220 be 27 61 3e 64 00 0f 3e ac ed 53 3e cd c5 16 bd
       0.21987817 0.13964993 0.20696133 -0.03680973
000230 0f 97 44 be 80 7c 6c 3d 47 10 87 3e b1 50 77 3d
       -0.1919825 0.05773592 0.26379606 0.060379688
000240 0b 30 e3 3e f1 7d bd 3e 3c 32 ac 3e 6c d3 41 3e
       0.4437259 0.37010148 0.33632076 0.18928307
000250 2d 6c 17 3e 1f bd d0 3d ea 24 e5 3c 40 ad e2 ba
       0.1478736 0.10192322 0.027971704 -0.0017294064
000260 2c 44 0b 3f 96 7b 8e 3e fb d2 02 3e 4c ca f1 bd
       0.544009 0.27828664 0.12775795 -0.11806163
000270 f5 19 3a 3e bb 4a 90 3e 05 75 76 be e0 20 15 be
       0.18173964 0.28182015 -0.24068077 -0.14563322
000280 ba ff c7 3e 3a 74 7a 3c 8c be 73 3e e6 28 d1 3e
       0.3906229 0.0152865 0.23803157 0.40851516
000290 1c 02 0a 3f dc 1e 3d 3d 28 67 45 3e 69 a3 67 3d
       0.5390947 0.046172008 0.19277632 0.056552324
0002a0 ab 8b dd 3d 9d b6 6e 3d 01 40 47 bd 93 d5 83 bd
       0.10817655 0.058279622 -0.048645023 -0.064372204
0002b0 f7 72 b4 3e f7 2a ce 3e 0f 6a 03 be 73 ad 08 3f
       0.3524396 0.40267155 -0.12833427 0.5338966
0002c0 d6 b2 fd 3d 62 6a c6 3d b8 5b ef 3e 6c d5 41 bd
       0.12387626 0.0968826 0.46749663 -0.047322676
0002d0 ed 38 80 be c8 74 16 3e fe cf a5 3e f4 41 06 3f
       -0.2504343 0.14692986 0.32385248 0.52444386
0002e0 4b cb 0a 3f 87 cc bb bd d8 8a c3 3e ed 06 6d 3c
       0.5421645 -0.0916987 0.38191867 0.014466983
0002f0 72 79 36 be 80 09 bc be 07 20 09 3f 07 b1 b2 bc
       -0.17819765 -0.36725998 0.53564495 -0.021812929
000300 aa 4d d0 3e e8 0e ba 3e bf cd 30 3e 81 bb 15 bb
       0.40684253 0.36339498 0.17265986 -0.0022847357
000310 29 0c 59 3d 23 fe 79 be 2d a0 97 3d 1f 32 d3 3e
       0.052990112 -0.24413352 0.07403598 0.41249177
000320 e3 cf 7a 3e 8e 5a 22 3e c9 05 8c 3e af d7 e4 3d
       0.24493365 0.15854856 0.27348164 0.11173951
000330 0d 16 f0 3c 06 08 b9 3d 6f 78 40 be e7 4d 0a 3d
       0.02930739 0.090347335 -0.18795942 0.0337657
000340 22 b3 48 3e 51 3a f2 3e b0 26 a3 3d 37 3f bd 3e
       0.19599584 0.47310117 0.079663634 0.36962292
000350 bb bc 1e 3e 08 b9 e7 3e 59 61 be 3d 08 65 0e 3f
       0.15501682 0.45258355 0.09295911 0.5562291
000360 1f 23 0f 3e 26 5e e3 3e df 54 a0 3e 73 aa be 3e
       0.13978241 0.44407767 0.31314752 0.37239417
000370 29 67 16 3e 83 88 1d 3d c8 70 c9 bc cc 04 2b 3e
       0.1468779 0.038460266 -0.024589911 0.16701049
000380 d1 c3 b7 3e ce 0f e8 3e f1 fa fd bd 53 3b 5d 3d
       0.35891584 0.45324558 -0.12401379 0.054011654
000390 9e d3 84 3d a3 0f 1e 3c 87 4a 63 be 27 4e 2d bd
       0.06485675 0.009647283 -0.22196399 -0.04231086
0003a0 ce 8d bc bd d1 f0 d6 3e 39 b6 2e 3f ff c5 11 be
       -0.092067346 0.41980603 0.682468 -0.14235686
0003b0 16 71 38 bc 55 e2 81 3e 2f 36 26 be 1a 1c 71 3d
       -0.011257431 0.2536799 -0.16231607 0.05886469
0003c0 1c 33 d7 3e ad d7 60 3e 1f d6 21 be f1 5c ca 3d
       0.4203118 0.21957274 -0.15804337 0.098810084
0003d0 c4 ab 21 3d 60 12 aa bd 63 59 ed 3a 45 67 0e 3f
       0.03947045 -0.08304286 0.0018108304 0.55626327
0003e0 2b 34 16 3f 40 dc 2b be aa 74 c2 be f7 ca 62 be
       0.5867335 -0.16783237 -0.37979633 -0.22147737
0003f0 e3 8a c2 bd 82 74 8e 3e 51 f3 05 3d e7 65 d5 3d
       -0.09499147 0.27823263 0.032702748 0.10419827

hidden_layers.0.bias f4 [256]
000000 f3 7b 11 3c ec 74 80 be 62 a4 d6 bd e6 cd 08 bd
       0.008879649 -0.25089204 -0.10480572 -0.033399485
000010 1f 78 60 be 18 fa 43 bd 8a fa 03 3e 5a 0d 1b be
       -0.21920823 -0.04784593 0.12888542 -0.15141812
000020 f9 a0 05 be 53 8f 22 bd e5 be ee bd 6c 4f 1c be
       -0.13049687 -0.039687466 -0.11657504 -0.15264672
000030 29 c0 ae bc 06 b5 98 3c 6a 21 53 bd 79 ca 7d be
       -0.021331863 0.018641006 -0.051545538 -0.24784268
000040 5a b7 b1 bc fc 44 20 be 72 b4 07 3d c9 15 70 be
       -0.021693874 -0.15651315 0.03313107 -0.2344581
000050 92 fe db bd f9 61 a7 3c ff ae 0d 3e 14 26 39 3d
       -0.10741915 0.02043246 0.13836287 0.04520233
000060 77 5b 6f bd e7 fa 5e be 18 55 cc bc fc bb ad 3c
       -0.058436837 -0.21775399 -0.02494292 0.021207802
000070 a1 65 7f bc 00 d6 86 be cf 13 c6 ba b7 ac 97 bd
       -0.015588195 -0.26335144 -0.0015112105 -0.074059896
000080 f6 50 8c 3c ed 75 f1 3d ea bb 0d be e9 37 f7 bd
       0.017128449 0.11790071 -0.13841215 -0.12071211
000090 22 b5 80 3d dc 9f 19 3d 89 36 99 3d 54 ca 16 bc
       0.06284548 0.03750597 0.07481105 -0.009203512
0000a0 e1 cf 11 bd 1a db 15 bd 2f 6e 90 3e fe cf da be
       -0.03559864 -0.036585905 0.28209063 -0.4273681
0000b0 6a 61 23 3c 46 33 17 bd b3 86 27 bb 2a f0 03 3e
       0.009971956 -0.036914133 -0.0025562465 0.12884584
0000c0 30 c3 bb 3d 73 6a 15 be 09 f4 f9 3d 3f 1f d9 bc
       0.091680884 -0.14591388 0.12204749 -0.026504157
0000d0 a2 96 80 bd 3b bc 5f be fa cd f7 bd d4 ac 81 3c
       -0.06278731 -0.21849148 -0.12099834 0.015829481
0000e0 42 31 b3 3d 44 1a af be 86 1c 99 3b 70 7d df 3d
       0.087496296 -0.34199727 0.0046725897 0.10912597
0000f0 2e 63 9a bd c8 c5 97 3d 2f 57 d0 bc 27 59 7b ba
       -0.07538448 0.07410771 -0.025432197 -0.0009588175
000100 a7 02 92 be c3 c6 c0 bd 8b f9 c1 bd 36 e1 d7 3d
       -0.2851765 -0.09412911 -0.09471425 0.105410025
000110 f7 b7 6a be 04 ef 2e be d2 14 e9 3b 08 bd 8a bd
       -0.2292174 -0.17083365 0.0071130777 -0.06774336
000120 5a 1c 15 3d 9d 24 4a be 21 a2 72 3d 2f 7e d5 bd
       0.03640399 -0.1974053 0.05923665 -0.10424458
000130 ae fc f1 3d bc fe 9f bc 9b 32 91 be 78 fc b1 bd
       0.11815773 -0.019530647 -0.2835892 -0.08690733
000140 fe 6e af be 13 ef f7 3d b4 a4 8c bd 8d 46 56 3d
       -0.34264368 0.12106147 -0.06867352 0.052313376
000150 d1 de b5 bc e6 ad 92 3d a2 45 f1 bd 43 f1 ad bc
       -0.022200974 0.07162075 -0.117808595 -0.021233207
000160 a8 7d d6 bd 21 63 82 3d 5b 0f 92 3d 77 e2 4b 3e
       -0.10473186 0.063665636 0.07131835 0.19910608
000170 15 98 29 3d e6 c2 52 bd b7 e8 74 3e 82 7c 21 3d
       0.041404802 -0.0514554 0.23916899 0.03942538
000180 84 38 c4 3d f8 7f 42 bd 51 d5 66 bd 6f ca 08 bd
       0.09581092 -0.04748532 -0.056355778 -0.03339618
000190 a4 0a 39 3b 11 42 dd 3c 0b 83 9e be 0e ce 8c be
       0.0028235102 0.027009042 -0.30959353 -0.27500957
0001a0 b0 e5 d9 bc 5e 2f 93 be 72 0f 0f 3e fc 1f 3c be
       -0.026598781 -0.28747076 0.13970736 -0.18371576
0001b0 04 ca f7 3d 52 5c 9d 3d e0 f2 00 3d 6d 46 b2 be
       0.12099078 0.07683624 0.031481624 -0.34819356
0001c0 d0 70 01 3e 25 52 5b be 25 73 2f 3d 80 4d 76 be
       0.12640691 -0.21418054 0.04283442 -0.24053001
0001d0 d0 4e 28 be 56 b0 49 be c5 ae 01 3e 36 25 b9 bd
       -0.16436315 -0.19696173 0.12664326 -0.090403005
0001e0 59 9b 83 be 56 f4 61 3c 02 72 b7 3d 32 e7 48 3c
       -0.25704458 0.013791164 0.08957292 0.0122621525
0001f0 eb 5c c4 bd 74 58 47 be d2 b7 03 3d 28 3e ad 3b
       -0.09588035 -0.19467336 0.032157727 0.0052869506
000200 8a fe 4c bb 5e 77 bc 3d d9 12 8c 3d 4b da 85 bd
       -0.0031279647 0.09202455 0.068395324 -0.06535777
000210 b3 e3 0d 3e 9e 4f df 3d d7 fd 16 be 45 ed 11 bd
       0.13856392 0.10903858 -0.1474527 -0.03562667
000220 72 14 9f 3d 8e 12 df be fc 56 81 bd 28 83 ed bd
       0.077675715 -0.43568844 -0.06315419 -0.11597282
000230 d2 04 6b be 19 09 4e bd 1b 84 0d bd 8b e6 04 be
       -0.22951058 -0.050301645 -0.034549814 -0.1297857
000240 65 99 83 be 88 dd 99 bd b8 9f e1 bd 58 f0 37 bd
       -0.25702968 -0.07512957 -0.11016792 -0.044906944
000250 34 ea 76 3c 02 ad b0 3d 4d 81 2a bd 67 d0 80 3d
       0.015070487 0.086267486 -0.041627217 0.062897496
000260 4c ec bc bd 63 cd 91 bd 60 68 1c be bb c7 b1 3d
       -0.092247576 -0.071192525 -0.15274191 0.08680674
000270 49 2b 4a be 74 e4 44 be c4 18 b1 3b 7b 7b 04 bc
       -0.19743074 -0.19227773 0.0054045636 -0.008086081
000280 ba da 62 bd c3 02 5c 3c 58 74 63 3d d4 5d 03 3d
       -0.055384375 0.013428393 0.055530876 0.032071903
000290 c1 17 df bd 64 5e 08 3d 7a 72 86 bd 93 bf b1 be
       -0.108932026 0.033293143 -0.065648034 -0.34716472
0002a0 56 a7 ab 3d 9e fa b8 bd 69 f0 26 3d 21 6c 2b be
       0.08381526 -0.090321764 0.040756617 -0.16740467
0002b0 4d ee 85 bd 38 2b 25 bd 66 84 12 be 65 57 e3 bb
       -0.06539593 -0.04032442 -0.14308318 -0.0069379085
0002c0 b3 e0 01 be cc 5d 02 3e 55 8e 10 bd a0 bf 74 3d
       -0.12683372 0.12731093 -0.03529199 0.05975306
0002d0 9f 14 11 be 4d e3 10 be 45 fe 10 be 81 b1 ec 3c
       -0.14168023 -0.14149208 -0.14159496 0.028893234
0002e0 db 42 1b be 38 a6 86 3d be be 30 be 66 e5 ac bd
       -0.15162222 0.065746725 -0.17260262 -0.08442192
0002f0 cc 64 e0 be a7 a3 4f 3e 21 b4 9f bd c7 51 85 be
       -0.43826902 0.20277272 -0.07798029 -0.26038954
000300 5b e2 82 bc 0a c4 19 be be 35 6f be 95 82 cb bc
       -0.015977075 -0.15016189 -0.23360345 -0.02484254
000310 05 e1 07 be 16 4c c5 be e8 8c da 3d 11 ae 37 be
       -0.13269432 -0.3853461 0.10671407 -0.17937495
000320 0d 39 b8 3c bc 7d 5a 3e 86 4c f9 3d 8c 9b ab bd
       0.022488141 0.21337026 0.12172799 -0.083792776
000330 42 ab dc bd 7f 25 92 bd fe 59 13 3e 34 9a bd 3d
       -0.10774852 -0.07136058 0.14389798 0.092579275
000340 94 e6 79 3d f5 43 39 3d 35 53 c3 bd 8e 04 26 3d
       0.061010912 0.045230825 -0.09537355 0.040531687
000350 9d 62 51 3b 55 0a c0 bd d4 78 5e bd 0a d6 92 bd
       0.0031949647 -0.09376971 -0.05431445 -0.07169731
000360 98 72 00 3e 99 03 67 bd 81 45 82 3c 36 b0 e3 bd
       0.12543714 -0.056399915 0.015902283 -0.11117594
000370 97 2a a5 3d 10 b3 6b bc 59 b9 05 be 15 98 ab bd
       0.08064764 -0.014385954 -0.13058986 -0.08378617
000380 ab b0 9e bc 7a b9 a0 bc 72 80 13 be 72 f0 d1 be
       -0.019371351 -0.019619692 -0.14404467 -0.41003758
000390 8f f1 c4 3b 6a 02 90 3d 86 4c 8d bc 09 8f 25 be
       0.0060102413 0.070317104 -0.017248403 -0.16167845
0003a0 93 dc 2b be 34 2d 2c be 7c cf 25 3c c4 1f 98 3c
       -0.16783361 -0.16814119 0.010120269 0.018569835
0003b0 2e 7a 12 be d6 4d 03 be 25 e7 cf bd 34 8d 5d bd
       -0.1430442 -0.12822661 -0.10151509 -0.05408974
0003c0 aa 80 5e be db 9a 46 bc 88 4a 3d be 6c cb aa bd
       -0.21728769 -0.012121881 -0.18485463 -0.08339581
0003d0 af 7b a4 be 43 54 98 be 43 4e 41 3e 3a e1 99 3e
       -0.32125613 -0.29751787 0.1887751 0.30054647
0003e0 d6 cc 93 bc 43 51 3b be 38 5a 9a be 0b a0 eb 3b
       -0.01804201 -0.18292718 -0.30146956 0.0071907095
0003f0 a4 0d f1 bd e4 eb 38 3e b9 be 02 be 3a 1a b4 bd
       -0.1177018 0.18058735 -0.12768067 -0.08794065

hidden_layers.1.weight f4 [256, 256]
000000 3a f9 68 3d 1a 9d 08 be 36 f5 34 bd b3 bf 96 bd
       0.056878306 -0.1334118 -0.044179164 -0.073607825
000010 1e de 7b bd 02 17 a4 3d 84 66 80 bd f0 e4 78 be
       -0.061491124 0.08012201 -0.06269553 -0.24306083
000020 1d 7a 41 3e 96 ea 0d be aa 42 b7 bc b2 87 82 bd
       0.18894239 -0.13859019 -0.022370655 -0.06373538
000030 21 6b a7 3d 9a a1 78 bd 80 fc 81 be 90 8f df ba
       0.0817473 -0.06070099 -0.25387955 -0.0017056335
000040 dc f6 db 3d ca 0f 39 bd 25 53 59 be c9 fd 65 be
       0.10740444 -0.045181073 -0.21223123 -0.22460093
000050 b5 b6 a0 be 1d 18 ce ba 19 ce f1 bd 4a 62 4a 3d
       -0.31389394 -0.0015723739 -0.11806888 0.049410142
000060 c6 0c 80 be 93 a2 4c bd 19 0e 39 be 28 32 87 3c
       -0.25009745 -0.04995973 -0.18071784 0.016503409
000070 ba 12 a4 bd 12 5a f9 be 87 4d 46 be 7a 62 68 be
       -0.08011384 -0.4870153 -0.19365512 -0.22693816
000080 42 6d 95 3e 4a a1 e7 3d 3f 34 e0 bc 13 cd 47 be
       0.2918492 0.1131006 -0.027368663 -0.19511823
000090 6a 20 d4 3d 54 af a3 3c 10 50 67 bb 9d 2c 6c be
       0.10357745 0.019981064 -0.0035295524 -0.23063894
0000a0 6d 16 e2 bd 1d 25 2b bd 78 7e da bd 38 61 45 be
       -0.11039434 -0.04178344 -0.10668653 -0.19275367
0000b0 39 4d 46 3a df 9f de bd e1 1d 3e be 30 c7 4e 3d
       0.00075646077 -0.10870337 -0.18566085 0.05048293
0000c0 85 39 6e bd 71 df 47 bd 6d ed ec 3d 17 1e 42 be
       -0.058160324 -0.048797075 0.11568723 -0.18956791
0000d0 8d 92 b9 3d fa 2f 11 be 8f fb a1 bb 9e 61 a6 bd
       0.090611555 -0.14178458 -0.004943318 -0.08124088
0000e0 80 91 2f 3d c8 2f 23 bd e0 5e 01 be fc 79 ac bd
       0.04286337 -0.03984049 -0.12633848 -0.08421704
0000f0 a0 4c 9c 3d 86 d8 79 3e 1e d5 2d be eb 85 32 be
       0.076318026 0.24399003 -0.16975829 -0.17433898
000100 5a f2 40 be b4 27 b0 3c 77 3c cd 3d 75 ad bf 3c
       -0.1884245 0.021503307 0.100212984 0.02339814
000110 e6 82 87 be c9 e1 1a be ce 33 71 be 23 9b f2 bd
       -0.26467055 -0.15125193 -0.23554918 -0.11845996
000120 0c 0e 5f be 9c c4 ac bd 3e 41 63 bd fb 32 51 be
       -0.21782702 -0.08435938 -0.05548214 -0.20429604
000130 a6 d8 36 be 53 14 d1 bd b1 21 46 be 84 eb 97 be
       -0.17856082 -0.10208955 -0.1934879 -0.29671872
000140 e3 c3 cd bd d3 c9 a8 bd 6b 66 ee 3c 72 7c 4c bc
       -0.10047128 -0.0824162 0.029101571 -0.012480842
000150 9c d1 c1 bd db 91 b8 3d 96 08 8f be e7 16 80 3e
       -0.09463808 0.09012195 -0.27936238 0.25017473
000160 ea 0e 32 bd 56 72 bf bc 18 7d ff bd d0 94 84 3d
       -0.043471254 -0.02336995 -0.124750316 0.06473696
000170 fa d9 14 3e fc b3 ab bc 14 b8 be 3d 49 ef a0 3d
       0.14536276 -0.020959847 0.09312454 0.0785814
000180 32 d8 55 be 65 3c b7 bd ca ee f2 3d 15 f8 d7 bc
       -0.20883253 -0.08947066 0.11861952 -0.026363412
000190 ea 5d 1d 3e 10 b1 3e 3e 83 1b e5 bd 5c 28 0e be
       0.15367857 0.18622231 -0.11186888 -0.13882583
0001a0 8b 66 1a 3e ca 06 89 bd 87 87 1d bd ab ab 64 bd
       0.1507818 -0.06690748 -0.038459327 -0.055827778
0001b0 d2 b7 c7 bd af 75 b3 3c b3 a0 a3 bd f0 d6 a7 be
       -0.09751858 0.021906702 -0.07989635 -0.32781172
0001c0 cd e1 8c bd 19 65 05 ba 46 c0 c5 bc c8 01 56 be
       -0.068790056 -0.0005088612 -0.024139535 -0.20899117
0001d0 45 d0 06 3a bf 45 2d 3d 58 01 54 bd 01 d6 45 bd
       0.0005142729 0.042302843 -0.051759094 -0.048299793
0001e0 1a 77 a0 bd 87 74 86 3d 39 dd f9 bc 21 b9 23 3d
       -0.07835217 0.065651946 -0.030500995 0.039971475
0001f0 c6 90 55 3d d4 60 aa be 81 be 14 3d f9 8d 04 3e
       0.05214002 -0.33277 0.03631449 0.12944783
000200 f6 11 e1 3c ea 71 0e bc ba 96 53 bc ff dd ca bd
       0.027474385 -0.008694151 -0.012914354 -0.09905624
000210 5b d2 20 be d1 0f 84 be 77 7d 68 3d 65 52 21 bc
       -0.15705244 -0.25793317 0.056760278 -0.009846305
000220 39 41 09 3e cc ec 2d 3d a7 00 5a be 1b c4 a0 bc
       0.13403787 0.042462155 -0.21289311 -0.01962476
000230 f0 e9 c9 3d b3 f7 e2 3d eb 57 00 be 19 bb 84 be
       0.09859073 0.11082401 -0.12533538 -0.25923994
000240 e6 08 4a be 98 95 37 be 90 a9 3e 3e 57 a4 1a bd
       -0.19729957 -0.17928159 0.1861937 -0.037754383
000250 93 b7 86 bb c0 f3 8b 3d 9f 66 28 be 8a d1 2e 3e
       -0.004111239 0.06833601 -0.16445397 0.1707212
000260 86 7d 52 3e 6c 7d 17 be ce b5 cc bc 19 f3 c4 bd
       0.20555696 -0.14793938 -0.024989035 -0.0961668
000270 ac 73 a8 3d 9d a2 7e be 97 db 50 be ca 85 06 3e
       0.08225188 -0.2486672 -0.20396267 0.13136974
000280 f7 71 c4 bd 43 83 4a 3d 0f 1d 4f 3d bc 9f 80 be
       -0.095920496 0.049441587 0.05056482 -0.25121868
000290 13 49 6c bc 7b d8 b6 3d 92 5a b2 bd 33 66 9c bd
       -0.014421719 0.08928009 -0.08708681 -0.076366805
0002a0 e2 83 a4 bc 10 b0 b5 bd 81 bd d2 3d 12 b5 fc bc
       -0.020082418 -0.08871472 0.10290051 -0.03084806
0002b0 7c a1 7f be 8c 8d 93 be ce 10 04 3e 6b ca 83 be
       -0.24963945 -0.2881893 0.12897035 -0.2574037
0002c0 61 f7 9f bd 40 dd 81 bd 69 e6 d7 bd c4 6e 9a 3d
       -0.07810856 -0.06341028 -0.10541994 0.07540658
0002d0 1d da 47 be 18 29 bc 3e fd 48 71 be 80 cb 91 be
       -0.19516797 0.36750102 -0.23562999 -0.2847557
0002e0 80 68 09 3a c6 3c 45 be 5e 43 c9 3d 64 1b f1 bd
       0.0005241707 -0.19261464 0.098273024 -0.117728025
0002f0 26 ec 20 bd d7 21 8a 3d 7c c0 ea 3d 2f 46 d9 bc
       -0.03928771 0.06744736 0.11462495 -0.026522724
000300 f3 84 af bd 34 9c 09 3e 00 fa 5d 3d ca cb 12 3d
       -0.0857028 0.13438493 0.054193497 0.03583888
000310 c1 26 c7 bd a6 17 3c 3d 50 7b 60 3d 1e 3f 41 be
       -0.097241886 0.04592099 0.0548051 -0.18871734
000320 e5 61 79 3e c1 30 86 3e 8f 1a 91 3d db a3 ba 3d
       0.2435375 0.2620907 0.07085144 0.09113284
000330 b6 52 3d 3c a2 a5 19 be 63 4f 10 be 30 0d a8 bd
       0.011555364 -0.1500459 -0.14092784 -0.0820564
000340 15 fa 45 be 6b 25 d7 bd 33 e1 32 be 40 f5 63 3d
       -0.1933368 -0.10505184 -0.17468719 0.05565381
000350 96 45 8f bd 63 8f a8 bd be 54 da 3d 9a ae 8d 3e
       -0.06995694 -0.08230474 0.106606945 0.27672273
000360 e4 d3 2c 3c 7f da 01 be d2 31 c8 bd ea 67 c7 ba
       0.010548566 -0.12681006 -0.097751275 -0.0015213464
000370 f8 a0 21 3d 30 0b b7 3c 32 21 2c be 94 59 09 be
       0.039460152 0.022344202 -0.16809538 -0.13413078
000380 6f b2 92 bd a2 c5 16 be 29 05 32 be 99 41 20 be
       -0.0716294 -0.14723828 -0.17384781 -0.15650024
000390 89 19 0a be 03 76 7b be 07 d8 f8 bd bf 79 ca 3a
       -0.13486303 -0.24556737 -0.12150579 0.001544766
0003a0 33 60 d7 bc d7 0f 80 bd dc 42 31 3e 10 24 eb bd
       -0.026290989 -0.06253021 0.17310661 -0.11481488
0003b0 e3 28 57 be c1 64 68 be b4 2c 16 3d 5a ce 60 3d
       -0.21011691 -0.22694685 0.036663726 0.054884292
0003c0 41 b0 6a be 81 6e fd bd 33 f4 78 be 73 d6 9e 3e
       -0.22918798 -0.123745926 -0.24311905 0.31022987
0003d0 c6 4f 45 bd 18 6a a2 3b 35 a6 0f be 66 d4 62 be
       -0.04817178 0.004956495 -0.14028247 -0.22151336
0003e0 2f 89 dc 3c 17 98 02 3e d7 12 68 3d 79 06 9a bd
       0.026920883 0.1275333 0.056658592 -0.07520766
0003f0 54 39 89 3d 39 86 9d 3c 32 08 b0 3d 3f 67 99 bc
       0.067003876 0.019229041 0.08595313 -0.01872599

hidden_layers.1.bias f4 [256]
000000 d4 bf db bd e5 96 cc be 05 e7 da bd 92 a1 13 be
       -0.10729948 -0.39958873 -0.10688595 -0.14417103
000010 71 a0 f8 be 10 91 2f be a9 e0 bf bd a4 07 e3 bd
       -0.48559907 -0.1714518 -0.093690224 -0.11085442
000020 db 28 0e be ec cc dc be 8f a3 cf be cb 67 8b bd
       -0.13882773 -0.43125093 -0.40554473 -0.06806906
000030 d2 06 3e be 04 9b 6d be d3 57 0b be 6b f0 91 be
       -0.18557289 -0.23203665 -0.13607721 -0.28503737
000040 d3 f6 de bd ce 57 07 be 5a 02 68 bd a7 5e d3 be
       -0.10886922 -0.13217089 -0.056642868 -0.41283152
000050 6c b3 dc bd f9 33 02 be 1f 48 e5 be bc 7f 91 be
       -0.107764095 -0.12715138 -0.44781587 -0.28417766
000060 de 21 01 be 0f 3b 70 bd 4d 07 07 bd 03 c4 f3 bd
       -0.12610576 -0.058650073 -0.032965947 -0.11902621
000070 83 75 1e be b6 b7 8d bd f7 d7 1c be 7a 04 d7 bc
       -0.15474515 -0.06919806 -0.15316759 -0.026247252
000080 c1 5a d6 bd 22 47 2c be 22 a7 11 be 5b fa 37 be
       -0.10466529 -0.1682401 -0.14223912 -0.17966597
000090 47 81 fe bd 62 42 a1 bd 3b e9 3b be b5 f1 ca bd
       -0.124270014 -0.0787399 -0.18350689 -0.09909383
0000a0 a6 e9 a2 bd 40 1a bb bd 43 68 b5 bd 37 d2 e3 bd
       -0.07954721 -0.09135866 -0.08857777 -0.1112408
0000b0 c5 98 19 be b4 ff 42 be 9a 47 d9 bd d9 49 3d be
       -0.14999683 -0.19042856 -0.1060936 -0.18485202
0000c0 20 9b a2 be 4b 26 4b be d9 98 34 be ce 0a c5 bd
       -0.31758976 -0.19838826 -0.17636432 -0.096212015
0000d0 30 9d a3 bd bb 09 26 be c9 ee ff bd 47 35 63 be
       -0.079889655 -0.1621465 -0.124967165 -0.22188292
0000e0 0d cd 4c bd 0c 02 ae bd 88 fb 04 be c5 b7 32 be
       -0.05000024 -0.08496484 -0.12986577 -0.17452915
0000f0 ac 8e 31 be 74 00 e8 bd 94 d5 19 be 55 4a 3c be
       -0.17339581 -0.113282114 -0.1502288 -0.1838773
000100 49 c0 15 be 3f 0a ef bd a5 b1 cb bd 30 3e 07 be
       -0.14624132 -0.11671876 -0.099459924 -0.13207316
000110 dc 1f 49 be 04 d2 e6 bd dd 1c 42 be 18 e4 eb be
       -0.1964106 -0.11270526 -0.18956323 -0.4607246
000120 f9 07 49 be 2e 70 1a be 27 79 16 be 68 35 3e be
       -0.19631948 -0.15081856 -0.14694653 -0.1857506
000130 d8 df 43 be c2 79 b8 be 9d 4e ed bd 41 df 0c be
       -0.19128358 -0.36030394 -0.1158726 -0.1375704
000140 bf 28 af be 9c fa 1a be c0 ae 21 be 80 95 fd be
       -0.34210774 -0.15134662 -0.15789318 -0.49528122
000150 f5 4e db bd 38 ee 0e be 22 16 d0 bd db 2c 26 be
       -0.10708419 -0.1395806 -0.101604715 -0.16228049
000160 50 4f 0b be e6 3d 35 bd 76 8b 37 be 61 2f f5 bd
       -0.13604474 -0.044248484 -0.17924294 -0.119719274
000170 7c ed db bd 22 fb 94 bd ba 4e 12 be 7d 8c 16 be
       -0.10738656 -0.07274462 -0.14287844 -0.1470203
000180 51 4a 52 be 85 fe e1 bc 8a b1 40 be b2 be 05 be
       -0.20536162 -0.027587185 -0.18817726 -0.13061026
000190 bc 33 ad be 61 b1 8a be c9 a7 34 be fd f7 4a be
       -0.33828533 -0.27088454 -0.1764213 -0.19821163
0001a0 d2 ec 23 be 5e 60 47 be 70 bf 43 be ab 1c dc bd
       -0.16008309 -0.19470355 -0.19115996 -0.107476555
0001b0 ac 80 0a be 75 29 42 be 9b 77 10 be 37 99 f0 bd
       -0.13525647 -0.18961127 -0.14108126 -0.117479734
0001c0 c6 0a 41 bd 7c 1a 29 be af de 04 be ed ac 17 be
       -0.047129415 -0.16514009 -0.12975572 -0.1481206
0001d0 6d 23 91 be 7b 04 be be 05 a2 41 be 1a 42 05 be
       -0.2834734 -0.37112793 -0.18909462 -0.13013497
0001e0 b4 4d 30 be 70 ed ee bd 06 b7 1b be df ca 08 be
       -0.17217141 -0.11666381 -0.15206537 -0.13358639
0001f0 d3 7c 23 be ac 2f d8 bd 1e 94 11 be a1 3c d2 bd
       -0.15965585 -0.10555968 -0.14216658 -0.1026547
000200 3b 1f 09 be 99 0b 3b be 92 f8 b6 bc d0 18 27 be
       -0.1339082 -0.18266143 -0.022335324 -0.16318059
000210 b9 dd 2d bd 0e c2 52 be 68 34 96 bd 25 a5 69 be
       -0.04244778 -0.20581838 -0.073342144 -0.22816904
000220 55 d2 88 be a5 85 ab bd 4d 27 10 be ed 58 fe bd
       -0.2672297 -0.083751 -0.14077492 -0.12419305
000230 0d 61 f8 bd 9f 10 af bd 42 a5 41 bd 27 0f cd be
       -0.12127886 -0.08548092 -0.047276743 -0.40050623
000240 66 16 2b be e4 e9 ec be ee 80 be be 0c 23 89 bd
       -0.16707763 -0.46272194 -0.3720774 -0.06696138
000250 cb 15 d8 bd 4c eb 35 be 75 94 0e be 86 45 8c be
       -0.10551032 -0.1776554 -0.1392382 -0.27396792
000260 4d 14 31 be 19 31 0e be 48 a8 de bd 61 d3 23 be
       -0.172929 -0.13885917 -0.10871941 -0.15998603
000270 1d 2b d6 bd 1c e1 0e be f1 4b 84 bd 5c 92 07 be
       -0.10457442 -0.1395306 -0.06459797 -0.13239425
000280 67 fe f5 bd a2 dd ba bd b3 97 39 be 02 54 58 be
       -0.12011414 -0.09124304 -0.18124275 -0.21125796
000290 eb 53 e1 be 00 16 cb be f1 7a c9 bd 7d 2f 04 be
       -0.44009337 -0.39665222 -0.09837902 -0.1290874
0002a0 d1 d0 00 bf ef 19 93 bd 2c 95 d7 be 9d b7 20 be
       -0.5031863 -0.07182681 -0.42105997 -0.15695043
0002b0 54 93 45 be 3a 2c 83 bd 44 9a d1 be 97 ad ee bd
       -0.19294482 -0.0640492 -0.40938008 -0.116542034
0002c0 d7 0b e8 bd be 55 37 be d2 f9 f0 bd 15 f4 95 bd
       -0.11330383 -0.17903802 -0.117663994 -0.073219456
0002d0 c9 f1 66 be c9 2d 00 bf c0 a2 0d be 3f 45 a5 bd
       -0.22553171 -0.5006986 -0.13831615 -0.08069848
0002e0 c4 33 e9 bd b3 12 87 bd 36 21 37 bd a4 3c bd be
       -0.11386827 -0.065953635 -0.044709407 -0.36960328
0002f0 03 29 49 be 2a 2d 30 be 92 75 fb bd 07 24 50 be
       -0.19644551 -0.17204729 -0.12278284 -0.20326243
000300 de 18 db bd c2 2d 57 bd fe f5 d8 bd 15 02 dc bd
       -0.106981024 -0.052533872 -0.10593794 -0.107425846
000310 1d c7 65 be 0a 66 89 bd 54 f2 72 bd 6d a7 41 be
       -0.22439237 -0.067089155 -0.059313133 -0.18911524
000320 87 90 13 be 91 81 72 be 0e a8 49 be a1 e1 06 be
       -0.14410602 -0.23682238 -0.19693014 -0.13172008
000330 dd 79 cb bd fa 6a 54 be 7a 6e c4 bd bc b8 47 be
       -0.09935353 -0.20743933 -0.09591384 -0.19504064
000340 15 ac 1b bd d8 79 4e be de 14 0f be 73 6e 42 be
       -0.038005907 -0.20163667 -0.13972804 -0.18987446
000350 c9 f0 b7 bd e8 8f 88 bd b0 f6 1f be 1f 41 cc bd
       -0.08981473 -0.06668073 -0.15621448 -0.09973358
000360 d0 5d fa bd 29 7c a2 bc b7 2b ef be cd a6 16 be
       -0.122249246 -0.019834595 -0.4671304 -0.14712067
000370 64 56 f8 bd f2 73 3f be 59 f8 90 be db 8e 2b be
       -0.12125853 -0.18696573 -0.28314474 -0.16753714
000380 ad d5 34 be f4 c5 09 be 7e a8 91 bc e5 86 c5 bd
       -0.17659636 -0.1345442 -0.017780539 -0.0964487
000390 1d 04 3e bd 7b ca 47 be a9 34 9c be 2e fa ef bd
       -0.04639064 -0.19510834 -0.30508927 -0.1171764
0003a0 dd c7 95 bd f0 1e ef bd b9 30 4f bd 15 6e 72 be
       -0.073135115 -0.11675823 -0.050583575 -0.23674805
0003b0 0d f5 b2 be 78 42 11 be 2a 0b e3 bd 7d 43 de bd
       -0.34952584 -0.14185512 -0.11086114 -0.10852716
0003c0 d1 02 b8 bd f8 1e ae be 3c 83 cc be 34 87 fe bd
       -0.08984912 -0.34008002 -0.39943874 -0.12428132
0003d0 58 66 0f be e4 97 4f be 1e f2 ac be 89 56 6c bc
       -0.14003885 -0.20272785 -0.3377847 -0.014424928
0003e0 71 14 4f be 4f 6d 19 be 6e 18 06 be 93 94 dd be
       -0.20222642 -0.14983104 -0.13095257 -0.43277416
0003f0 0c 0c 01 be 67 93 e6 bd e9 70 85 bd 9f 6f 0c bd
       -0.12602252 -0.112585835 -0.065156765 -0.034286138

output_layers.0.weight f4 [40, 256]
000000 7a f4 99 bd db 47 a2 ba 1c 7e 49 3d a6 10 0b be
       -0.07517333 -0.0012381034 0.049192533 -0.1358057
000010 0e 8a a2 bd ae 6f e7 bc f2 2b 8e 3c 33 ba 1d bd
       -0.07936488 -0.028251495 0.01735494 -0.03850765
000020 31 a6 3e 3d 1c e2 af 3c ea bc 22 be c2 aa 3c 3e
       0.04654521 0.021470122 -0.15892377 0.18424514
000030 bd 4b 6e bd bd 2d 75 bd 51 61 43 3d f1 8b 16 be
       -0.0581777 -0.059858073 0.04770023 -0.14701821
000040 c7 14 76 bc ff 39 28 3e db 65 18 3e 94 63 e9 bb
       -0.015019602 0.16428374 0.14882605 -0.0071224663
000050 c3 da 11 3e ec fb 30 3e 20 cf 09 be 90 6f 54 be
       0.14243607 0.172836 -0.13457918 -0.20745683
000060 c2 61 a4 bd 14 3c 46 be e9 c8 88 bd 04 3e 89 be
       -0.08026458 -0.19358855 -0.066789456 -0.26805127
000070 83 06 5a 3d 2f 96 40 be 14 67 af 3d 5b c0 99 3e
       0.053228866 -0.1880729 0.085645825 0.30029568
000080 ca bc 79 3d f4 32 00 3e a4 f5 f0 3b ea 56 b2 3c
       0.06097106 0.12519437 0.0073535014 0.02176996
000090 8f cb 2f be 6d aa 9c bd 9c b0 85 3d f4 79 c1 3d
       -0.17167495 -0.07649694 0.06527826 0.09447089
0000a0 9e 56 b0 3d 83 39 75 be cc a5 1d 3d f4 d4 e5 3c
       0.08610271 -0.2394772 0.038488194 0.028055646
0000b0 f3 86 01 3e 86 b5 22 3d a4 b1 16 3e 56 ba 84 bd
       0.12649135 0.039723895 0.14716202 -0.06480853
0000c0 f5 4d d5 bc 79 f1 75 be f2 69 d4 bd 7d 16 e2 bd
       -0.02603815 -0.24017896 -0.1037177 -0.110394455
0000d0 fc e5 8b 3d 30 2d 90 3e 5e 28 97 3d 53 5b 8c 3d
       0.068309754 0.28159475 0.07380746 0.06853356
0000e0 35 59 cf 3c f4 a1 06 3e 67 b2 d5 3d c0 5b 0b 3d
       0.025311092 0.13147718 0.10434418 0.034023046
0000f0 f7 ce d8 bc b4 b3 e3 bd 04 60 0c be 2a c6 77 bd
       -0.026465876 -0.1111826 -0.13708502 -0.06049172
000100 cc 66 f5 3d 76 d7 1d be 39 dc 07 3c b5 24 b2 bd
       0.119824976 -0.15414223 0.008292251 -0.086984076
000110 de 0e d4 bd 54 90 3c be 09 71 a8 3c 9d 10 35 3d
       -0.10354398 -0.18414432 0.020561712 0.044205297
000120 67 57 41 bd 85 96 d1 3d 71 84 76 3d 34 f1 08 ba
       -0.047202494 0.102337874 0.0601849 -0.00052239303
000130 3a 69 e4 bc 22 92 2a be b5 ed 88 bb 20 36 88 3d
       -0.027882207 -0.16657308 -0.0041787275 0.066509485
000140 df 40 00 bd 1e ec 82 be 08 d3 31 3e 08 57 ff bc
       -0.031311866 -0.25570768 0.17365658 -0.03116943
000150 45 a9 99 be d4 db 89 3d 70 e8 e8 bc 69 78 88 3c
       -0.30011955 0.06731382 -0.028431147 0.016658979
000160 a0 34 be 3e 20 6f d0 3d 99 ab 88 bd 81 80 18 bd
       0.37149525 0.101774454 -0.06673355 -0.037231926
000170 33 d4 9c be 58 ae a6 3d c6 13 d1 bd 7c f7 8c 3c
       -0.30630645 0.08138722 -0.102088496 0.017207853
000180 cb eb 92 3d 03 11 8c 3e 93 c3 89 3c 46 72 04 bd
       0.0717388 0.2735673 0.01681689 -0.032335542
000190 da 3f 98 bd a9 e3 3f be 95 01 a5 3d 06 43 51 3d
       -0.07434054 -0.18739189 0.080569424 0.05108931
0001a0 cd 67 15 bd f3 5b 8f 3d 89 67 a0 bd 12 73 a0 3d
       -0.036475945 0.0699996 -0.07832248 0.07834448
0001b0 3a f4 3b 3e 94 93 cc 3d 07 84 dd 3c 1e 8f 73 3d
       0.18354884 0.09989086 0.027040495 0.05946266
0001c0 ff 78 90 be 9a 5b 17 3e 40 85 8a be f3 bb 97 bd
       -0.28217313 0.14781037 -0.27054787 -0.07408895
0001d0 13 c0 27 be 6d 8f 0f be c4 16 20 3e 6b fc 42 3e
       -0.16381864 -0.14019556 0.15633684 0.19041602
0001e0 fb d2 06 bd 94 f2 08 3e 5b d8 01 3d 61 dd 06 be
       -0.03291605 0.13373786 0.031700473 -0.13170387
0001f0 46 b1 0c be 6e 61 ad bc ba 10 34 bd b8 f4 fe 3d
       -0.137395 -0.021164622 -0.043961264 0.1244902
000200 3f 0a ad be 43 f9 59 3d 14 c0 99 be ea bf 88 bc
       -0.3379688 0.05321623 -0.30029356 -0.016693074
000210 53 d5 24 bc 5f 04 40 3d 8f f3 0e 3e df e2 65 bc
       -0.010060626 0.04687917 0.13960098 -0.014031141
000220 c4 d0 ab bc c2 93 09 be cf 80 44 3e d4 17 29 bd
       -0.02097357 -0.13435271 0.19189762 -0.04128249
000230 52 c6 98 ba 25 84 82 be f3 1d 3b be 4f 26 6c bd
       -0.0011655784 -0.25491443 -0.18273143 -0.05765372
000240 68 d7 92 3c f2 8a 96 bd b7 31 c7 bd 15 62 d1 bd
       0.01792498 -0.073507205 -0.09726279 -0.10223786
000250 37 e5 16 be 85 41 1c bc ec 33 15 3d 9b 7c f2 bd
       -0.14735876 -0.009537105 0.03642647 -0.11840173
000260 a3 2f bc bd 2d 2d e5 3c 2e 3e f2 3d a5 a1 f7 bc
       -0.091887735 0.027975643 0.11828266 -0.030228445
000270 00 64 ef 3d 87 9a 01 bd 22 84 8f be 72 05 2e 3e
       0.11688995 -0.03164151 -0.28030497 0.16994265
000280 59 ae ca bd 7b 10 ce bd 6e bb 98 3d d1 dc 2c 3d
       -0.098965354 -0.10061737 0.074576244 0.042202774
000290 20 83 07 3c ab 4d 8a bd 96 2b 34 be 09 d4 ad 3d
       0.008271009 -0.06753095 -0.17594752 0.08487708
0002a0 b8 7a ea bd b6 66 20 be bf c4 e0 bc 9a 45 b1 3d
       -0.11449188 -0.15664181 -0.027437566 0.086558536
0002b0 0a fb 04 3e 0b 70 f7 3d 1d 27 e9 bd 2c c0 78 3e
       0.12986389 0.120819174 -0.113844134 0.24292058
0002c0 40 53 d2 bd a8 5c 0f be 6a a3 f6 3c d2 59 c0 bb
       -0.10269785 -0.1400019 0.030107219 -0.0058700824
0002d0 bf e0 dd 3d f2 3f 97 bc b2 bf 3e 3e 73 c6 fe bd
       0.108338825 -0.018463109 0.18627813 -0.12440195
0002e0 5c 43 8d 3c ec c3 0f be 8a 6a cc 3c 32 d7 11 be
       0.017244034 -0.14039582 0.024953146 -0.14242247
0002f0 86 5e de 3d 6a ef 6a 3d 56 cc 0d be e6 62 ac 3a
       0.10857873 0.05735723 -0.13847479 0.0013152033
000300 4b a6 85 bd 22 32 05 be 54 a9 c4 bd bc 3c a9 3b
       -0.065258585 -0.13007405 -0.09602609 0.005164711
000310 cb 8c ab bd ac a1 b5 bd e3 cb 05 bc 3a 40 e6 3d
       -0.083764635 -0.08868727 -0.008166286 0.11242719
000320 af cd dc bc 5a 03 7d 3e af d5 80 3e 4b f7 d1 3c
       -0.026953546 0.2470831 0.25163028 0.025630614
000330 4f b0 5a bd 70 3c b0 3d 23 5b 47 3e 41 16 a7 3d
       -0.053390797 0.086052775 0.1946836 0.081585415
000340 7d 0f 0b be b8 82 01 3d 44 75 84 bc b7 5e 5a 3d
       -0.13580127 0.031618804 -0.016169198 0.053312983
000350 ea 8e 77 3e dc 9f f9 3d 73 66 19 be 74 83 ab bd
       0.24175611 0.12188694 -0.14980488 -0.08374682
000360 93 ff 58 bd 67 b1 85 3d 77 eb f4 bd a7 f4 a3 bc
       -0.05297811 0.065279774 -0.11958974 -0.02001412
000370 1e f9 00 be f9 c6 c4 bc d8 32 56 be bf f8 6d 3d
       -0.1259503 -0.024020659 -0.20917833 0.05809855
000380 71 b4 e5 3d e5 fd 89 bd bc ca 20 be 31 ce 5a 3c
       0.11216057 -0.0673788 -0.15702337 0.013354824
000390 0f ac 81 be a6 37 fc bd 78 cf c5 bd 75 9c e4 3e
       -0.25326583 -0.123153016 -0.09658712 0.44650617
0003a0 e1 5b 8f 3e e6 fb 3a 3d c6 f8 e4 3d e9 82 3e bc
       0.27999786 0.045650385 0.11180262 -0.011627891
0003b0 06 8c 44 be a5 6f 00 3e a7 09 23 3c 2d ab 4b bc
       -0.1919404 0.12542589 0.009951032 -0.012430948
0003c0 70 72 83 3d d2 98 05 be c7 c2 19 be 5b e8 dc bd
       0.064183116 -0.13046578 -0.15015708 -0.10786506
0003d0 82 52 6b 3c 35 0d b2 39 76 df 41 be 7c 2d 72 3d
       0.014362933 0.00033960646 -0.189329 0.05912541
0003e0 c3 5f b2 3d 21 22 a6 3d e8 3d 06 bd e6 a2 0c bd
       0.08709671 0.08111978 -0.032773882 -0.03433504
0003f0 82 f4 f0 bd 26 ef 2c 3d ea c6 51 3d 79 17 09 3e
       -0.11765386 0.042220257 0.05121509 0.1338786

output_layers.0.bias f4 [40]
000000 d3 84 5e bf 38 b8 65 bf 49 44 75 bf 75 b2 72 bf
       -0.86921424 -0.8973422 -0.9580732 -0.94803554
000010 c8 17 61 bf 0e 6d 5f bf aa a0 61 bf 7d a2 56 bf
       -0.8792691 -0.8727578 -0.8813578 -0.8384169
000020 07 42 66 bf 99 7b 5f bf ae f0 66 bf 02 aa 6a bf
       -0.899445 -0.8729797 -0.90211 -0.9166566
000030 c2 03 5a bf 82 27 61 bf 86 79 5a bf b5 3a 60 bf
       -0.85161984 -0.8795091 -0.8534168 -0.8758958
000040 3d b7 60 bf 5c 2b 69 bf 93 0c 61 bf 61 03 60 bf
       -0.877796 -0.91081786 -0.8790981 -0.87505156
000050 5e e7 5a bf df be 69 bf ba f6 62 bf 70 64 5f bf
       -0.8550929 -0.9130687 -0.88657725 -0.8726263
000060 6f 19 66 bf d9 a5 63 bf 1a 6a 59 bf dd e5 5d bf
       -0.8988256 -0.8892494 -0.84927523 -0.8667887
000070 14 63 5d bf e3 e9 63 bf 40 01 64 bf d1 02 60 bf
       -0.86479306 -0.8902876 -0.8906441 -0.875043
000080 b6 3d 64 bf b4 98 6f bf 81 18 65 bf d2 36 63 bf
       -0.89156663 -0.9359238 -0.89490515 -0.88755524
000090 b7 68 6b bf 8d 1a 6f bf 1a c2 64 bf 20 ef 61 bf
       -0.9195666 -0.9339989 -0.89358675 -0.882555
