MODELS/REWARD COMPARISON/SAC UNMASKED MODELS/11_2_actor_local_network_un.pt (torch, 411319 bytes, 6 tensors)

hidden_layers.0.weight f4 [256, 101]
0	0xbcbeb6ea	-0.02328058
1	0x3da5db0f	0.08098423
2	0x3eac03c2	0.33596617
3	0x3f1be562	0.60896885
4	0x3d05920c	0.032609984
5	0x3e63530e	0.22199652
6	0xbe3ab840	-0.18234348
7	0xbd0dd790	-0.034629405
8	0xbe1d9932	-0.1539047
9	0xbe1f2936	-0.15543064
10	0x3c89b8da	0.016811777
11	0x3eb44f3d	0.35216704
12	0x3e6a4a16	0.22879824
13	0x3f0ac16c	0.5420139
14	0x3ecf30ab	0.40466818
15	0x3e90823d	0.28224364
16	0x3c432069	0.011909583
17	0xbec6bfc5	-0.38818184
18	0xbe42ffa0	-0.19042826
19	0xbd78bd56	-0.06072744
20	0xbe568538	-0.20949256
21	0x3e9046ee	0.28179115
22	0x3ee3aa1c	0.4446572
23	0x3f1c61b6	0.61086595
24	0x3dc6e7e9	0.09712202
25	0x3e428357	0.18995415
26	0x3e94bf3a	0.29052144
27	0xbead815a	-0.3388775
28	0xbac29677	-0.0014845867
29	0xbec1e8fb	-0.37873062
30	0xbd07d4ea	-0.033162035
31	0x3e9109dc	0.28327835
32	0x3de350b9	0.11099381
33	0x3dbc0ed3	0.09182515
34	0xbd93849c	-0.072030276
35	0xbcfc00cb	-0.030762097
36	0xbf11ccb1	-0.5695296
37	0xbe28c5a5	-0.16481645
38	0xbe3b0026	-0.18261775
39	0x3e1dcf5a	0.1541113
40	0x3e92c7d3	0.2866808
41	0x3d1ab0bf	0.037766214
42	0x3d554033	0.05206318
43	0x3e01635d	0.1263556
44	0x3d0c6527	0.034276154
45	0x3e46c7da	0.19412175
46	0xbe8f24cb	-0.27957758
47	0xbd0f87d1	-0.035041634
48	0x3e32eeb1	0.17473866
49	0x3e804309	0.25051144
50	0xbd8457cf	-0.06462061
51	0x3e6e9ed2	0.23302773
52	0x3e372c7d	0.17888065
53	0xbd1fbca8	-0.038998276
54	0x3ed8c799	0.4233978
55	0x3ea0cb76	0.31405228
56	0x3c6d097d	0.014467594
57	0x3e1f19c0	0.15537167
58	0xbe5dc056	-0.21655402
59	0xbe182f6a	-0.14861837
60	0xbccd5ac5	-0.025067696
61	0x3c51aca4	0.012797508
62	0x3e8d6ee0	0.27623653
63	0x3e383347	0.17988311
64	0x3dd4e601	0.10395432
65	0x3ebb70bc	0.36609447
66	0xbbf6a027	-0.007526416
67	0x3e3efdd4	0.18651515
68	0xbda17269	-0.0788315
69	0xbdf0dc10	-0.117607236
70	0xbdfc2870	-0.123124
71	0x3cae5635	0.021281341
72	0xbdb2ae6d	-0.08724675
73	0x3d93b162	0.072115675
74	0xbd65c9ed	-0.056100775
75	0x3e2012cb	0.15632169
76	0xbd05d277	-0.032671418
77	0x3e170864	0.14749295
78	0x3e0e2407	0.13880931
79	0x3d56cab5	0.05243941
80	0x3e0ca073	0.13733082
81	0xbe814b13	-0.2525259
82	0xbef375b0	-0.47550726
83	0xbe409cf6	-0.18809876
84	0xbdd0d596	-0.10196988
85	0x3e405984	0.18784148
86	0xbea4e94f	-0.3220925
87	0x3e1a655a	0.15077725
88	0xbd44b23a	-0.048021533
89	0xbe5acbf4	-0.21366864
90	0xbdcb5d05	-0.099298514
91	0xbd994890	-0.07484543
92	0xbe2925f3	-0.16518383
93	0xbe064681	-0.13112833
94	0xbd10660d	-0.035253573
95	0xbed6300c	-0.41833532
96	0xbeb8ce42	-0.36094862
97	0xbe6fd310	-0.23420358
98	0x3cf1f3aa	0.029535133
99	0xbd0d6aa8	-0.034525543
100	0xbd66bfc7	-0.056335237
101	0x3def3e97	0.1168186
102	0x3e1b6512	0.15175274
103	0x3e8a29c1	0.2698498
104	0x3e037bf3	0.12840252
105	0xbe09381b	-0.13400309
106	0x3dae2d59	0.08504743
107	0x3e7e30b9	0.24823274
108	0x3d0daec8	0.034590513
109	0x3e23461d	0.15944715
110	0xbd45a6a2	-0.048254617
111	0xbdb6c278	-0.08923811
112	0x3c10bbdf	0.008833854
113	0xbdac8066	-0.084229276
114	0xbdf45688	-0.11930567
115	0xbc4847c0	-0.012224138
116	0x3e413f63	0.18871836
117	0x3e5888a4	0.21145874
118	0xbe2b2b6a	-0.1671578
119	0xbe72b6ae	-0.237025
120	0x3ca37503	0.019953256
121	0x3c9d228c	0.019181512
122	0x3850a3f8	4.9743772e-05
123	0xbf062731	-0.5240355
124	0xbe3ef9e9	-0.1865002
125	0xbca7dc6e	-0.020490851
126	0xbe20798b	-0.15671365
127	0xbd56a25a	-0.052400924
128	0xbda693a3	-0.08133628
129	0xbd97c096	-0.0740978
130	0x3c908899	0.01764326
131	0x3daecd18	0.08535212
132	0x3cb29a39	0.021802055
133	0xbe43a57b	-0.19106095
134	0xbe466970	-0.19376159
135	0xbec66dea	-0.38755733
136	0x3cfbb9d7	0.030728264
137	0xbe8ab8f9	-0.27094248
138	0xbebdcd88	-0.3707087
139	0xbe3b3fa1	-0.18285991
140	0xbe8f6693	-0.28007945
141	0x3e4312b5	0.19050105
142	0xbe8597a7	-0.26092264
143	0xbeb06bb7	-0.3445718
144	0xbea33899	-0.31879118
145	0xbf0bbcdc	-0.5458505
146	0xbe9baa04	-0.3040315
147	0xbe803cf7	-0.25046512
148	0xbe44bdbc	-0.19213003
149	0xbe821c79	-0.25412348
150	0xbdd3fa68	-0.103504956
151	0xbe8e2fbb	-0.2777079
152	0xbe5fbb66	-0.2184883
153	0xbe984e30	-0.29747152
154	0xbddd487e	-0.108048424
155	0xbee9b5a2	-0.45646387
156	0x3cdd885a	0.027042557
157	0xbe832ece	-0.25621647
158	0xbe8d2773	-0.2756916
159	0xbf097494	-0.5369351
160	0xbce6610e	-0.028122451
161	0x3d0a702f	0.033798393
162	0xbd1db363	-0.038501155
163	0xbe489e44	-0.19591624
164	0xbd15cf3e	-0.036574595
165	0xbc45f256	-0.012081703
166	0x3df629c3	0.12019684
167	0xbca301d8	-0.01989834
168	0xbeca3f10	-0.39501238
169	0x3e543e12	0.20726803
170	0xbcb83a5d	-0.022488767
171	0xbd56d0dd	-0.05244528
172	0x3e72d335	0.23713382
173	0x3e0d21e1	0.13782455
174	0xbc3fecab	-0.011714141
175	0x3e591216	0.21198305
176	0x3d1dce78	0.038526982
177	0x3e151ee3	0.14562564
178	0x3d78c0f6	0.060730897
179	0xbdf96b96	-0.121787235
180	0xbc08c3c9	-0.00834746
181	0xbc9d0c8d	-0.019171024
182	0x3ed6745a	0.41885644
183	0x3e75aca2	0.23991635
184	0x3ef4f50a	0.478432
185	0xbdc15550	-0.094401
186	0xbe032200	-0.12805939
187	0x3d0fdc0e	0.03512197
188	0xbdef5f36	-0.11688082
189	0xbcf9d1e6	-0.030495595
190	0x3db6b5ea	0.08921416
191	0x3e2a1e91	0.16613223
192	0x3df29f08	0.11846739
193	0x3d390684	0.04517223
194	0x3d3d8a95	0.04627474
195	0x3dcadfde	0.099059805
196	0x3de6643f	0.11249589
197	0xbd29103e	-0.041275255
198	0xbe0adbe7	-0.13560449
199	0xbd1137d7	-0.035453644
200	0xbe17997d	-0.14804645
201	0x3d84a037	0.06475871
202	0x3dbcf835	0.09227029
203	0x3e212061	0.15735008
204	0xbe8c8d30	-0.27451468
205	0x3cd27af3	0.025693392
206	0xbe836fae	-0.25671142
207	0xbd00cdd2	-0.031446286
208	0xbe7b7455	-0.24556096
209	0xbe9bfe26	-0.30467337
210	0xbe9b9488	-0.30386758
211	0x3dcb8a79	0.09938521
212	0x3eaa149c	0.3321885
213	0xbb2b7147	-0.0026160048
214	0xbe934a75	-0.28767744
215	0x3daf146f	0.08548819
216	0xbc81829b	-0.015809348
217	0xbedce11d	-0.43140498
218	0x3d19a7f2	0.03751368
219	0xbeca48bc	-0.39508617
220	0xbd83ac0e	-0.06429301
221	0xbe838887	-0.256901
222	0x3d889d49	0.06670625
223	0xbeab26e8	-0.3342812
224	0xbdd338b5	-0.103135504
225	0xbe8a803e	-0.27050966
226	0x3da19e6e	0.07891546
227	0xbe8ab1bb	-0.27088723
228	0xbe1b7991	-0.15183093
229	0xbecdb1b4	-0.4017464
230	0xbde47f41	-0.11157084
231	0xbe9fb316	-0.3119132
232	0x3e196c59	0.14982738
233	0xb7196188	-9.142219e-06
234	0xbe6b0cb3	-0.22954063
235	0xbe57466a	-0.21022955
236	0x3dc77852	0.09739746
237	0xbdaf617b	-0.08563515
238	0x3dbe8b2a	0.09303887
239	0x3e5575d0	0.20845723
240	0x3c9ea426	0.019365381
241	0xbec65ad4	-0.3874117
242	0x3bbdda5d	0.005793853
243	0xbe09f0c4	-0.13470751
244	0xbeebe001	-0.4606934
245	0xbe6b55be	-0.22981927
246	0xbe82bd46	-0.2553503
247	0xbcc6f7f3	-0.024288153
248	0x3d2268a3	0.03965057
249	0x3e05e3ff	0.13075255
250	0x3e874c6b	0.2642549
251	0xbd763791	-0.060111586
252	0xbe627dec	-0.22118348
253	0x3d908143	0.07055905
254	0xbdd2820f	-0.10278713
255	0xbe50cd82	-0.20390895

hidden_layers.0.bias f4 [256]
0	0xbe8c13fc	-0.27358997
1	0xbdbd8556	-0.092539474
2	0xbe30f903	-0.1728249
3	0x3d2c4e17	0.04206666
4	0xbe4eeeb1	-0.20208241
5	0xbd0446fd	-0.032294262
6	0x3dacb640	0.08433199
7	0xbdaa2bf2	-0.08309163
8	0x3e370320	0.17872286
9	0xbd261100	-0.040543556
10	0xbe964f94	-0.29357588
11	0xbdc15885	-0.09440712
12	0x3db28c88	0.087182105
13	0xbd9f4fcb	-0.07778891
14	0x3ce815ee	0.02833077
15	0xbea502da	-0.32228738
16	0x3da6b950	0.08140814
17	0xbca6ff43	-0.02038539
18	0x3e25425a	0.16138592
19	0xbea68fb4	-0.32531512
20	0xbdbc39d5	-0.09190718
21	0x3d58a954	0.05289586
22	0xbe9c63d7	-0.30544922
23	0xbdce9ee3	-0.10088899
24	0x3d5b409c	0.053528413
25	0x3d8ebdf5	0.06969825
26	0x3e0cfdb0	0.13768649
27	0xbd8b44ce	-0.06800233
28	0xbda2d5df	-0.07950949
29	0x3e22edc0	0.15911007
30	0xbe628265	-0.22120054
31	0x3dac465f	0.0841186
32	0xbde226b2	-0.11042537
33	0x3d530377	0.051516976
34	0xbea247b4	-0.3169533
35	0xbce7b223	-0.028283184
36	0xbc775701	-0.015096427
37	0x3d81617b	0.06317421
38	0x3df89be9	0.121391125
39	0xbda2136b	-0.0791386
40	0x3d6e570c	0.058188483
41	0x3c6f6523	0.014611515
42	0xbe861ea3	-0.2619525
43	0x3dc45a48	0.09587532
44	0xbed41272	-0.41420323
45	0x3b8c5b02	0.00428331
46	0xbe6a5538	-0.22884071
47	0xbe225eff	-0.1585655
48	0xbe6a78de	-0.2289767
49	0x3c787176	0.01516377
50	0x3d4099e5	0.047021765
51	0xbd8bc214	-0.06824127
52	0xbdaf193b	-0.08549734
53	0xbeb631dc	-0.35584915
54	0xba726f81	-0.0009248183
55	0xbeb6c647	-0.3569815
56	0xbd0665a6	-0.032811783
57	0x3c21e070	0.00988017
58	0xbd6da720	-0.05802071
59	0xbce8e4a6	-0.02842934
60	0x3c2fe9d9	0.010736906
61	0xbdc10204	-0.094242126
62	0xbe011d43	-0.12608819
63	0x3d01194e	0.031518273
64	0xbc6dc4de	-0.014512269
65	0xbde38366	-0.11109047
66	0xbd8f3bba	-0.06993814
67	0xbd896149	-0.06708009
68	0xbd63adf8	-0.05558583
69	0xbeb9e012	-0.36303765
70	0xbe8834eb	-0.26602873
71	0xbda8f2f2	-0.08249463
72	0xbc6215b2	-0.013799118
73	0x3de9d055	0.11416689
74	0x3d56a103	0.052399646
75	0xbe0bea76	-0.13663658
76	0x3d8e777d	0.06956384
77	0x3d0bcef4	0.034132913
78	0xbd5d2f3b	-0.05400012
79	0xbd614dfd	-0.055006016
80	0x3db653d2	0.08902706
81	0xbe35d913	-0.17758588
82	0xbc41ef40	-0.011836827
83	0x3dcd4e0f	0.10024654
84	0xbe957ad4	-0.29195273
85	0xbeaea585	-0.34110656
86	0xbbd75679	-0.0065715876
87	0xbdf256eb	-0.118329845
88	0x3dd38589	0.10328204
89	0xbe5a397b	-0.2131099
90	0xbe37aaf8	-0.17936313
91	0xbdd1a8ea	-0.10237296
92	0x3d076cfd	0.033062924
93	0x3bcf1c81	0.0063205366
94	0xbdd3b844	-0.1033788
95	0xbbf91864	-0.0076017845
96	0xbe6d1cea	-0.23155561
97	0x3d93b8f5	0.07213012
98	0x3da7d82b	0.08195528
99	0xbd795b74	-0.060878232
100	0xbdab2291	-0.083562024
101	0xbd83d5fb	-0.06437298
102	0x3dbea501	0.09308816
103	0xbdc95a06	-0.09831624
104	0xbd824124	-0.06360081
105	0xbe4337c1	-0.19064237
106	0x3e444f77	0.19170938
107	0x3e429cbb	0.190051
108	0x3cb54648	0.02212824
109	0x3dea1d6a	0.114313915
110	0x3e0c0c53	0.13676576
111	0xbec90bd0	-0.39266825
112	0xbee0bc6f	-0.43893763
113	0xbe8faa87	-0.2805979
114	0x3d844d51	0.064600594
115	0xbe4fbea6	-0.2028757
116	0x3d16fe76	0.036863767
117	0xbe61cd98	-0.22051084
118	0x3d575d36	0.052579127
119	0xbe740f25	-0.23833902
120	0x3d2fdd63	0.04293574
121	0x3d81c3c7	0.0633617
122	0x3e3d927b	0.18512909
123	0xbb35f091	-0.0027761797
124	0xbd06dce8	-0.032925516
125	0xbe1a6e3b	-0.15081112
126	0xbe878249	-0.26466587
127	0xbd9ed830	-0.07756078
128	0x3d448d5e	0.04798638
129	0xbe92bba6	-0.2865879
130	0x3ccf7124	0.025322504
131	0xbea37a5b	-0.31929287
132	0xbd71d09d	-0.05903684
133	0xbd32a53b	-0.043614607
134	0xbd4f52ac	-0.05061595
135	0xbdd7f66a	-0.10545047
136	0x3c034de6	0.008014178
137	0x3d788b25	0.060679574
138	0xbe34d145	-0.17657955
139	0xbe8a3bda	-0.26998788
140	0xbe3e3674	-0.1857546
141	0xbe624510	-0.22096658
142	0xbd78ea68	-0.060770422
143	0xbdfe968f	-0.124310605
144	0xbde99e05	-0.11407093
145	0xbe526378	-0.20545757
146	0x3da0b18f	0.078463666
147	0x3e13c229	0.14429535
148	0x3da5d618	0.08097476
149	0xbd85274d	-0.06501637
150	0xbe8270aa	-0.2547658
151	0xbddaf212	-0.106907025
152	0xbbfb5f49	-0.007671271
153	0x3cd43ffb	0.025909415
154	0xbd3c2248	-0.04593113
155	0xbdd5565a	-0.10416861
156	0xbe786383	-0.2425671
157	0xbe75f76b	-0.24020164
158	0xbe285168	-0.16437304
159	0xbe06ff1d	-0.13183255
160	0x3de63e9f	0.11242413
161	0x3d63b35c	0.055590972
162	0x3dd72f76	0.10507099
163	0xbdc26ef8	-0.09493822
164	0xbe082a5c	-0.13297409
165	0xbe34ba93	-0.17649297
166	0xbd8e028b	-0.06934079
167	0x3d066168	0.032807738
168	0xbe17ad50	-0.14812207
169	0xb898df6c	-7.2895404e-05
170	0xbe2232a5	-0.15839632
171	0x3d89f95d	0.067370154
172	0xbe88fb19	-0.26754072
173	0xbe7e32ae	-0.2482402
174	0xbe4b0a65	-0.19828184
175	0x3daa4a3f	0.083149426
176	0xbdf28eb1	-0.118436225
177	0xbe13e475	-0.14442618
178	0x3d130e15	0.0359021
179	0xbd06e0f1	-0.032929365
180	0xbe400fe3	-0.1875606
181	0xbe2a3861	-0.1662307
182	0xbdd230a3	-0.10263183
183	0xbdf71ddb	-0.12066241
184	0xbe77a9a0	-0.241858
185	0xbd2c41e2	-0.04205502
186	0x3d039ec3	0.03213383
187	0x3d7516d8	0.05983624
188	0xbe02d2b7	-0.12775694
189	0xbd6815f1	-0.05666155
190	0xbc32f4ad	-0.010922593
191	0x3ca2d7cb	0.019878289
192	0xbea3352a	-0.31876498
193	0xbba6c4f6	-0.0050893975
194	0xbec0332e	-0.37539047
195	0xbddd7f45	-0.1081529
196	0xbd086b45	-0.033305425
197	0xb8e13202	-0.00010738151
198	0xbe81a5be	-0.25321764
199	0xbc8cab4f	-0.01717153
200	0x3d877e29	0.0661586
201	0xbc85be52	-0.016326103
202	0xbddf413d	-0.10901115
203	0x3e284a20	0.16434526
204	0x3d1ccb67	0.038279917
205	0xbd2fc05f	-0.04290807
206	0xbe7b8f24	-0.24566323
207	0xbdeb6119	-0.11493129
208	0x3d883d70	0.06652343
209	0x3d138845	0.03601863
210	0xbe00e8cf	-0.1258881
211	0x3e1ffe4a	0.15624347
212	0xbc18828d	-0.0093084695
213	0xbe63a657	-0.22231422
214	0x3d74651f	0.05966675
215	0xbe0f4b20	-0.13993502
216	0x3cdd2bb9	0.026998388
217	0xbd6bd3a0	-0.05757487
218	0xbcec362f	-0.02883443
219	0xbd470d82	-0.048596866
220	0x3b59d1c6	0.0033236607
221	0xbd80b0f9	-0.06283755
222	0xbd8f8f5e	-0.07009767
223	0x3e03510c	0.12823886
224	0xbe57f74f	-0.21090434
225	0xbdd372da	-0.103246406
226	0xbe7a0ebf	-0.24419688
227	0xbcd30703	-0.02576018
228	0xbdbc4ddc	-0.09194538
229	0x3e3128e6	0.17300758
230	0xbda6f552	-0.0815226
231	0x3dd3e689	0.103467055
232	0xbe938129	-0.2880948
233	0x3cc2f745	0.023799548
234	0xbda58a5c	-0.080830306
235	0x3c64cca0	0.013964802
236	0x3c8b3ef2	0.016997788
237	0x3db2c048	0.08728081
238	0xbc80546b	-0.015665254
239	0xbd642b0f	-0.055705126
240	0x3ccb3bd6	0.024808805
241	0xbe78f401	-0.2431183
242	0x3b5cd46a	0.0033695945
243	0xbcc7c763	-0.024387067
244	0xbe812433	-0.2522293
245	0xbe28e48a	-0.1649343
246	0xba88cbcd	-0.0010436714
247	0xbe853864	-0.26019585
248	0xbe35bfdd	-0.17748971
249	0x3cf3bf62	0.029754344
250	0xbc2a6b05	-0.010401492
251	0x3dc30733	0.095228575
252	0xbd48a17e	-0.048982136
253	0x3c84929c	0.01618319
254	0xbd74e1d9	-0.059785698
255	0x3df1e3bd	0.11811016

hidden_layers.1.weight f4 [256, 256]
0	0xbc91a1bc	-0.017777316
1	0xbbffd42a	-0.0078072743
2	0xbebbf547	-0.3671057
3	0xbdc54805	-0.09632877
4	0xbe0c9bc1	-0.1373129
5	0x3dc3ad5b	0.09554549
6	0xbdd70dab	-0.10500654
7	0x3bf23e30	0.0073926672
8	0xbe01a9e5	-0.12662466
9	0xbe2dfa40	-0.16989994
10	0x3db6c0c8	0.08923489
11	0x3d1250c3	0.03572155
12	0xbced55fe	-0.028971668
13	0xbe93f149	-0.28895023
14	0xbc828995	-0.015934745
15	0xbc9d8002	-0.019226078
16	0xbd55c57f	-0.0521903
17	0x3e346f85	0.17620666
18	0xbda2cd49	-0.07949311
19	0xbd01446c	-0.031559393
20	0x3c350c16	0.011050245
21	0xbdf9e567	-0.12201958
22	0x3d82826c	0.06372532
23	0x3d257575	0.04039522
24	0xbdb6a3ce	-0.08917962
25	0x3e1ac063	0.15112452
26	0xbd70c6e4	-0.058783427
27	0xbdfbb5c7	-0.12290531
28	0xbda18ec5	-0.07888559
29	0xbd7ce579	-0.06174228
30	0xbea5a650	-0.3235345
31	0x3c0970d1	0.008388714
32	0xbe280bb1	-0.1641071
33	0xbe44c2a4	-0.19214875
34	0xbdac90c4	-0.08426049
35	0x3df59704	0.119916946
36	0x3d14aee4	0.0362996
37	0xbe23b8f9	-0.1598853
38	0xbb0c07a4	-0.002136686
39	0xbd65dea1	-0.05612052
40	0xbe70fb9c	-0.23533481
41	0xbd806cdb	-0.062707625
42	0xbd9723df	-0.07379889
43	0x3da15703	0.07877924
44	0xbcb3db52	-0.021955166
45	0xbd0102d1	-0.031496827
46	0xbe64f2e0	-0.22358274
47	0xbe08cced	-0.13359423
48	0x3cb8bbec	0.022550546
49	0xbd7b9c79	-0.06142852
50	0xbcdffbc7	-0.027341736
51	0xbc2d768c	-0.010587346
52	0x3e2ab413	0.16670255
53	0x3e5dc691	0.21657778
54	0x3d04b1ba	0.032396056
55	0xbd3d5cf1	-0.046231214
56	0xbc83c8dd	-0.01608699
57	0xbd85ae9a	-0.06527443
58	0xbda8285c	-0.08210823
59	0x3cc73541	0.024317386
60	0xbd0daee2	-0.03459061
61	0x3d8a559d	0.06754611
62	0xbe022024	-0.12707573
63	0xbca12c38	-0.019674405
64	0xbe514d8c	-0.20439738
65	0x3d123e0e	0.03570371
66	0xbdae17f5	-0.08500663
67	0x3e03a852	0.12857178
68	0x3da5e7a4	0.081008226
69	0x3d09463d	0.03351425
70	0x3d889609	0.06669242
71	0xbdc7afeb	-0.097503506
72	0xbe873687	-0.2640879
73	0x3d21af6b	0.039473932
74	0x3b8d74ca	0.004316901
75	0xbdf5c100	-0.119997025
76	0xbde501f4	-0.11182013
77	0xbd93b6d7	-0.07212608
78	0xbe6ea447	-0.23304854
79	0xbdfc9570	-0.123331904
80	0x3d6a5aef	0.057215627
81	0xbda04813	-0.07826247
82	0x3c2f17d3	0.0106868325
83	0xbe1077c1	-0.14108182
84	0x3d71e601	0.05905724
85	0xbe27c57d	-0.1638393
86	0xbe7b2e24	-0.2452932
87	0xbdc1c790	-0.09461892
88	0xbe2493a7	-0.1607195
89	0x3c1411dc	0.009037461
90	0xbe2000d6	-0.15625319
91	0xbd9f3944	-0.077745944
92	0xbb83a4ea	-0.004017462
93	0xbd80bb6c	-0.06285748
94	0xbe49239a	-0.19642487
95	0x3dac6574	0.08417788
96	0xbe36397f	-0.1779537
97	0xbd39338b	-0.04521517
98	0xbc9b08ec	-0.018925153
99	0x3cd3ee62	0.025870506
100	0x3c9df387	0.019281162
101	0xbd99dcc7	-0.07512813
102	0xbe2b93c7	-0.16755591
103	0x3e60364d	0.21895714
104	0xbe379597	-0.17928158
105	0xbd4b184a	-0.04958371
106	0x3d1a2e52	0.03764183
107	0x3df46eba	0.11935182
108	0xbd447cea	-0.04797069
109	0xbdbd825b	-0.09253379
110	0xbe0d6c5f	-0.13810872
111	0x3ea605bf	0.3242626
112	0xbe184922	-0.14871648
113	0xbaec832e	-0.0018044466
114	0xbd25cc32	-0.04047794
115	0xbe3f8579	-0.1870326
116	0xbdaa9bf9	-0.08330531
117	0xbdd7b763	-0.10533025
118	0x3dde9259	0.10867757
119	0x3c6f63d6	0.014611205
120	0xbe2bb2ff	-0.167675
121	0xbe2fde2f	-0.171746
122	0xbc96f112	-0.018425498
123	0xbe3f60d3	-0.1868928
124	0xbe1a9315	-0.1509517
125	0xbd40b31a	-0.047045805
126	0xbe621b36	-0.22080693
127	0x3daff7c2	0.08592178
128	0xbd01c891	-0.031685416
129	0xbe4ebd9b	-0.20189516
130	0xbd8e6f4f	-0.06954824
131	0xbe4c706f	-0.19964765
132	0xbd03b3f8	-0.032154053
133	0x3c9a7391	0.018853934
134	0xbdf83a17	-0.12120455
135	0xbe17cfd8	-0.1482538
136	0x3deb3d7e	0.11486338
137	0xbdff0160	-0.12451434
138	0x3d0051c9	0.031327996
139	0xbe12c484	-0.14332777
140	0x3e2068d3	0.15664987
141	0xbeb43032	-0.3519302
142	0x3dc5568b	0.096356474
143	0xbe3e372f	-0.18575738
144	0xbe1cef92	-0.15325764
145	0xbe542258	-0.20716226
146	0xbdc850e0	-0.09781051
147	0xbe0da170	-0.13831115
148	0xbd5f7ec3	-0.05456425
149	0xbe14a96c	-0.14517754
150	0xbe89707f	-0.2684364
151	0xbe66c5e8	-0.22536433
152	0x3c63e872	0.0139104
153	0xbdebb91f	-0.115099184
154	0x3e3af2b4	0.18256646
155	0x3e20f8a3	0.15719847
156	0xbdf5c333	-0.12000122
157	0x3debff3a	0.1152329
158	0x3dad8c1f	0.084739916
159	0xbd1d36e0	-0.03838241
160	0xbdfa5691	-0.122235425
161	0xbe15e301	-0.14637376
162	0xbd9ec1aa	-0.07751782
163	0x3e13a621	0.14418842
164	0xbd53b844	-0.0516894
165	0xbe2e1590	-0.17000413
166	0xbe0a23bf	-0.13490199
167	0xbdfe7a3b	-0.12425657
168	0xbd40dd54	-0.047086075
169	0xbe348e4c	-0.17632407
170	0xbd32290d	-0.04349618
171	0xbd12c81d	-0.035835374
172	0xbdc24c8d	-0.09487257
173	0xbbbdc884	-0.0057917256
174	0xbdcb3780	-0.09922695
175	0xbde3a315	-0.1111509
176	0x3c7f46ac	0.015580814
177	0x3e4a2680	0.19741249
178	0x3d917a46	0.071034
179	0xbe24bf3d	-0.16088577
180	0xbdfd7590	-0.12375939
181	0x3e7edd15	0.24889024
182	0xbd3e8b5b	-0.04651962
183	0x3ca1dc21	0.019758286
184	0xbd815ab7	-0.063161306
185	0xbd7c7c46	-0.061641954
186	0xbdc0c332	-0.094122306
187	0x3d94ff44	0.072752506
188	0x3c353d52	0.011061983
189	0xbe0e6bae	-0.13908264
190	0xbda24f52	-0.079252854
191	0xbde66967	-0.11250573
192	0x3e003a9f	0.12522362
193	0xbdb85fb6	-0.090026304
194	0x3d31f92d	0.043450523
195	0x3e33ad2d	0.1754653
196	0xbe3fa7f3	-0.18716411
197	0xbce3a409	-0.027788179
198	0x3d749fe4	0.059722796
199	0xbd9ce64c	-0.07661113
200	0xbe87ace8	-0.26499104
201	0xbe33ddcb	-0.17565076
202	0xbd30ad38	-0.043133944
203	0x3c9ac864	0.018894382
204	0x3d61740b	0.055042308
205	0xbe585dfa	-0.21129599
206	0xbdbe1b19	-0.09282512
207	0x3d4a64fb	0.04941271
208	0xbd45f75a	-0.048331596
209	0x3d9c9201	0.076450355
210	0xbe233706	-0.15938959
211	0x3d233fe8	0.039855868
212	0xbc5b8f12	-0.01340081
213	0xbe66393c	-0.2248277
214	0xbe8c97d3	-0.27459583
215	0x3cc9604e	0.024582054
216	0xbcc0dc46	-0.023542535
217	0x3d1c4dc4	0.0381601
218	0xbdd6b2a1	-0.104832895
219	0x3d39fd5d	0.04540764
220	0xbd15226e	-0.036409788
221	0x3df3b5e3	0.118999265
222	0xbd4570f4	-0.048203424
223	0xbd51b49b	-0.05119763
224	0xbd841461	-0.064491995
225	0x3ea93a2c	0.33052194
226	0x3dfd648d	0.12372694
227	0xbe668375	-0.22511084
228	0xbac00bbf	-0.0014651938
229	0xbdd4b733	-0.10386505
230	0xbde53fea	-0.11193831
231	0xbe349a48	-0.17636979
232	0x3d34dbb8	0.044154853
233	0xbea127c1	-0.31475642
234	0xbd93190d	-0.071825124
235	0xbda79323	-0.08182361
236	0xbd9b96a9	-0.075970955
237	0xbd14f4f5	-0.03636642
238	0xbc6d15c5	-0.014470522
239	0xbd8cc897	-0.06874197
240	0xbd42a89a	-0.047524072
241	0x3d669ddd	0.056302894
242	0x3df3781c	0.118881434
243	0xbdd2e55d	-0.10297654
244	0x3e036bdc	0.12834114
245	0x3d1a714c	0.037705705
246	0x3e17c7ab	0.14822261
247	0x3d549a7b	0.051905137
248	0xbcf9ce72	-0.030493949
249	0xbd9d7335	-0.076879896
250	0x3e1a2af0	0.15055442
251	0x3e075a51	0.13218047
252	0x3e05416e	0.1301324
253	0xbe7953ea	-0.24348417
254	0x3e4ab75b	0.19796507
255	0xbceb2c72	-0.028707717

hidden_layers.1.bias f4 [256]
0	0xbdceedbf	-0.1010394
1	0xbd8c85ab	-0.06861433
2	0xbdcca762	-0.09992863
3	0xbdf92025	-0.12164334
4	0xbd8dd31a	-0.0692503
5	0xbc8851a2	-0.016640488
6	0xbd823081	-0.06356908
7	0xbdb645c3	-0.08900025
8	0xbdaf9873	-0.08573999
9	0xbd7b8c29	-0.061412964
10	0xbd837cf4	-0.06420317
11	0xbd3219c2	-0.043481596
12	0xbe1cb550	-0.1530354
13	0xbd915217	-0.070957355
14	0xbd3ba2e2	-0.045809634
15	0xbd94079b	-0.07228013
16	0xbca0c3b5	-0.01962457
17	0xbd93c86d	-0.072159626
18	0xbd5a8cc0	-0.053356886
19	0xbd6eb8d1	-0.058281723
20	0xbd209030	-0.039200008
21	0xbe0671ba	-0.1312932
22	0xbd2a52a4	-0.04158272
23	0xbd464d4e	-0.048413567
24	0xbe0298eb	-0.12753646
25	0xbda83cb3	-0.082147025
26	0xbc4bdc20	-0.012442619
27	0xbd12df88	-0.035857707
28	0xbddbebdc	-0.10738346
29	0xbe0d0a3f	-0.1377344
30	0xbd8edb27	-0.06975394
31	0xbd5a09a8	-0.053231865
32	0xbdef390c	-0.11680803
33	0xbe312440	-0.17298985
34	0xbd93e30b	-0.072210394
35	0xbe0c4475	-0.1369799
36	0xbd2cf9dc	-0.042230472
37	0xbd658904	-0.05603887
38	0xbe0bfec1	-0.136714
39	0xbd450e31	-0.048109237
40	0xbd1f2567	-0.03885403
41	0xbd8fec91	-0.07027543
42	0x3c856e8c	0.016288064
43	0xbbe3e8b6	-0.0069552315
44	0xbd237ef1	-0.039915983
45	0xbd3a00ac	-0.045410797
46	0xbc8c4638	-0.017123327
47	0x3d82e0ed	0.063905574
48	0xbe1a688d	-0.15078945
49	0x3c001afe	0.007818935
50	0xbdda73c3	-0.10666611
51	0xbb3d5f72	-0.0028896001
52	0xbd3f5286	-0.04670956
53	0xbdcd928f	-0.100377195
54	0xbde7a64b	-0.11311015
55	0xbb9bc756	-0.0047539873
56	0xbdca674f	-0.09882986
57	0xbe014818	-0.12625158
58	0xbd3147db	-0.043281417
59	0x3ca0709d	0.019584948
60	0xbe037b66	-0.12840042
61	0xbc9db1af	-0.019249765
62	0xbe0d316c	-0.13788384
63	0xbd9280f5	-0.07153503
64	0xbd9ca16d	-0.07647977
65	0xbcda3f39	-0.026641475
66	0xbda0bcd2	-0.078485146
67	0xbdfbe4db	-0.1229951
68	0xbd9be161	-0.07611347
69	0xbd4486ae	-0.047980003
70	0xbe5b0ee5	-0.213924
71	0xbdcd8ace	-0.100362405
72	0xbe36d705	-0.17855461
73	0xbd9c289d	-0.07624934
74	0xbdf12f88	-0.11776644
75	0xbdf4e61c	-0.119579524
76	0xbe13bf0c	-0.14428347
77	0xbd84227e	-0.06451891
78	0xbca21049	-0.019783156
79	0xbe05a043	-0.13049416
80	0xbdca8bde	-0.09889959
81	0xbdda2031	-0.10650671
82	0xbd2dea8f	-0.04246002
83	0xbdac250c	-0.08405504
84	0xbe05921c	-0.13044018
85	0xbe02b064	-0.127626
86	0xbe0f4eca	-0.139949
87	0xbd853520	-0.065042734
88	0xbd759e5e	-0.059965484
89	0xbe2c0627	-0.16799222
90	0xbdfb9ea3	-0.12286117
91	0xbe0665e9	-0.13124813
92	0xbe23986c	-0.15976113
93	0xbda0dc90	-0.07854569
94	0xbe075539	-0.13216104
95	0xbdaf03d8	-0.08545655
96	0xbd1223e2	-0.03567875
97	0xbe419ea6	-0.18908176
98	0xbb86a919	-0.0041095135
99	0xbce41eed	-0.027846778
100	0xbc340a00	-0.010988712
101	0xbda0db5c	-0.078543395
102	0xbd76ddbd	-0.06027006
103	0xbdffb085	-0.1248484
104	0xbdd48e97	-0.10378759
105	0xbdb72b45	-0.089438
106	0xbdbe3b75	-0.09288684
107	0xbd0622fa	-0.0327482
108	0xbd81f9b1	-0.06346453
109	0xbcd0894b	-0.025456091
110	0xbdbf45a3	-0.09339454
111	0xbdb95374	-0.090491205
112	0xbcea726c	-0.028619014
113	0xbd6d6155	-0.05795415
114	0xbe1fbfdd	-0.15600534
115	0xbdd76b74	-0.10518542
116	0xbbc824ac	-0.0061078873
117	0xbd201099	-0.03907833
118	0xbdcd543d	-0.10025833
119	0xbc6df38d	-0.014523399
120	0xbde040c1	-0.10949851
121	0xbdb45613	-0.0880548
122	0xbde6e3db	-0.11273929
123	0xbde6f8b1	-0.11277903
124	0x3be4ed2e	0.006986282
125	0xbd4f1830	-0.050560176
126	0xbe077763	-0.13229136
127	0xbd8da838	-0.06916851
128	0xbda1374d	-0.07871876
129	0xbddfac2f	-0.10921513
130	0xbdd9a0d6	-0.1062638
131	0xbd8357fe	-0.064132676
132	0xbdff5292	-0.12466921
133	0x3c2b2fd2	0.010448413
134	0xbde8be18	-0.113643825
135	0xbda6db27	-0.08147269
136	0xbb569207	-0.0032740848
137	0xbdb72824	-0.08943203
138	0xbcf0132f	-0.029306022
139	0xbd72d1e8	-0.059282213
140	0xbd7f33c5	-0.06230523
141	0xbe1a5372	-0.15070894
142	0xbd4b722f	-0.04966944
143	0xbd61b9c5	-0.055108804
144	0xbbb5e3d9	-0.005550843
145	0xbcb5759a	-0.022150803
146	0xbde7fe3c	-0.11327788
147	0xbd8acba1	-0.067771204
148	0xbdb4a120	-0.08819795
149	0xbd0040bd	-0.03131174
150	0xbe030c23	-0.12797599
151	0xbdc46834	-0.09590188
152	0xbd49858e	-0.049199633
153	0xbcd2c544	-0.02572883
154	0x3bb3046c	0.0054631736
155	0xbd252712	-0.040320463
156	0xbdc6743b	-0.09690138
157	0xbcb58cc0	-0.022161841
158	0xbe023a55	-0.12717564
159	0xbdecb5ce	-0.11558114
160	0xbd12dd6c	-0.035855696
161	0xbda0a698	-0.07844275
162	0xbe095657	-0.13411842
163	0xbda0491a	-0.07826443
164	0xbdbfaffc	-0.09359738
165	0xbde250bc	-0.11050555
166	0xbb86b14e	-0.004110492
167	0xbd64079b	-0.055671316
168	0xbda8e4bf	-0.08246755
169	0xbde84172	-0.11340608
170	0xbd12cd81	-0.035840515
171	0xbd2a0000	-0.041503906
172	0xbdb0a64d	-0.08625469
173	0xbd8d6bf3	-0.06905355
174	0xbcb750f9	-0.022377478
175	0xbc22e0f3	-0.009941327
176	0xbd49fb8d	-0.049312163
177	0xbda5a3b9	-0.08087868
178	0xbe001bad	-0.12510557
179	0xbd75f574	-0.060048535
180	0xbc8e79cf	-0.017392067
181	0xbcde2f2b	-0.0271221
182	0xbe1e5b01	-0.15464403
183	0xbe57efa3	-0.21087508
184	0xbcc82a12	-0.024434123
185	0xbdb4e5f8	-0.088329256
186	0xbd8e5f21	-0.06951738
187	0xbd9be0e3	-0.07611253
188	0xbde0c6d0	-0.109754205
189	0xbda4b601	-0.08042527
190	0xbde3c189	-0.11120898
191	0xbce2985c	-0.027660541
192	0xbe67774b	-0.226041
193	0xbd11544e	-0.03548079
194	0xbd455bb1	-0.048183147
195	0xbe1fdc34	-0.15611345
196	0xbdfcd6ee	-0.12345682
197	0xbdbda670	-0.09260261
198	0xbdef7776	-0.11692707
199	0xbd5149f9	-0.051095936
200	0xbe1f8c36	-0.1558083
201	0xbd098649	-0.03357533
202	0xbe293997	-0.16525875
203	0xbdcbb4c5	-0.099465884
204	0xbbaa81fc	-0.0052034836
205	0xbe23cc40	-0.15995884
206	0xbd80ed50	-0.06295264
207	0xbd8c2489	-0.06842906
208	0xbda9e2c2	-0.08295204
209	0xbd9482da	-0.072515205
210	0xbd9a3eeb	-0.07531532
211	0xbd390a49	-0.045175824
212	0xbc03a6e2	-0.008035393
213	0xbd8aeb22	-0.06783129
214	0xbd3d9002	-0.046279915
215	0xbc592513	-0.013253468
216	0xbde3d449	-0.111244746
217	0xbdf09b5b	-0.11748382
218	0xbd021fd4	-0.031768635
219	0xbd4f08b5	-0.050545413
220	0xbddb7a14	-0.10716644
221	0xbdafa2f8	-0.08576006
222	0xbd3c7ba5	-0.046016354
223	0xbb5e5bbf	-0.0033929197
224	0xbe06f6e9	-0.13180126
225	0xbd452d46	-0.04813888
226	0xbd307c27	-0.04308715
227	0xbdd30af6	-0.10304825
228	0xbd9666e5	-0.07343844
229	0xbdf63229	-0.12021286
230	0xbdf9360f	-0.12168514
231	0xbdbb0b21	-0.09132982
232	0xbd14a50a	-0.036290206
233	0xbe09500f	-0.13409446
234	0xbd2a61d9	-0.04159722
235	0xbd449988	-0.04799798
236	0xbd290b38	-0.041270465
237	0xbd9d0ae1	-0.076680906
238	0xbe0c6d7c	-0.1371364
239	0xbd55952f	-0.052144226
240	0xbd7dd8d8	-0.061974376
241	0xbc8cd39b	-0.017190745
242	0xbd3b1bee	-0.045680933
243	0xbe15ae69	-0.14617313
244	0xbda2c557	-0.07947796
245	0xbdd6029b	-0.10449716
246	0xbe46513e	-0.19366929
247	0xbdbed04c	-0.09317073
248	0xbd9165c4	-0.070994884
249	0xbd71330b	-0.05888657
250	0xbdff1f03	-0.12457087
251	0xbda07e46	-0.07836585
252	0xbe0c57a7	-0.13705312
253	0x3d1064e8	0.03525248
254	0xbde60f4f	-0.11233389
255	0x3c015892	0.007894652

output_layers.0.weight f4 [40, 256]
0	0xbe31f980	-0.17380333
1	0xbd15148a	-0.03639654
2	0x3d87371c	0.06602308
3	0xbe8e7837	-0.27826092
4	0x3de51ecd	0.111875154
5	0xbcb22bdf	-0.021749435
6	0xbd858b1b	-0.06520673
7	0x3d1872f0	0.037218988
8	0x3ce813ff	0.028329847
9	0xbdabf172	-0.083956614
10	0xbe29cf3a	-0.16582957
11	0x3d296b4a	0.041362084
12	0xbd28e191	-0.041230742
13	0xbe13998a	-0.14414039
14	0x3db75639	0.089519925
15	0x3e0911de	0.13385722
16	0x3d534614	0.051580504
17	0xbedf95d8	-0.4366901
18	0x3db108bc	0.08644244
19	0x3d618944	0.055062547
20	0x3ceaea2c	0.028676115
21	0x3e1c0f8b	0.15240304
22	0x3e6a1be9	0.2286221
23	0xbd709eca	-0.058745183
24	0x3d6d3a82	0.057917126
25	0x3dfbfb39	0.12303776
26	0x3da438de	0.08018659
27	0xbbe25f7f	-0.0069083567
28	0xbef5d092	-0.4801069
29	0xbf90fc91	-1.1327077
30	0xbd36d29d	-0.04463445
31	0x3cfa066b	0.030520638
32	0xbc7f5aef	-0.015585645
33	0xbe8d460d	-0.27592507
34	0x3e3c6888	0.1839925
35	0xbd2a8d5a	-0.04163871
36	0x3df66edf	0.12032866
37	0xbd51a6c7	-0.051184442
38	0x3e2df1eb	0.16986816
39	0xbe0426dc	-0.12905449
40	0xbd570b16	-0.052500807
41	0x3c96e906	0.018421661
42	0x3edc6393	0.4304472
43	0x3e806468	0.25076604
44	0xbc9c2e6d	-0.019065106
45	0xbe8c8fba	-0.27453405
46	0x3d47032e	0.048587017
47	0xbf93dec2	-1.1552355
48	0x3ee11a24	0.43965256
49	0x3ecfaca7	0.4056141
50	0xbd93d400	-0.0721817
51	0xbe165a7a	-0.14682952
52	0x3e2d08bc	0.16897863
53	0xbdcaaffd	-0.09896848
54	0x3e134a9e	0.14383933
55	0x3d88604f	0.066589944
56	0x3cca9e28	0.024733618
57	0xbe54ad57	-0.20769249
58	0xbddf6ed3	-0.1090981
59	0xbddbefd2	-0.107391015
60	0xbe4b2298	-0.19837415
61	0xbd78130a	-0.060565032
62	0x3cee051c	0.02905517
63	0xbe02c774	-0.12771398
64	0xbddc13d5	-0.1074597
65	0x3c7e51bd	0.015522418
66	0x3e0441a1	0.1291566
67	0xbd1b54b3	-0.037922572
68	0x3cef797b	0.029232731
69	0xbd926506	-0.07148175
70	0x3b3beea1	0.002867617
71	0x3cd8d86d	0.026470387
72	0xbeae41c4	-0.3403455
73	0xbe134ae3	-0.14384036
74	0xbe192cc1	-0.14958479
75	0x3dcdf5aa	0.10056622
76	0xbe3980ec	-0.18115586
77	0x3e36964d	0.17830773
78	0xbd01e2a4	-0.031710282
79	0xbe956370	-0.29177427
80	0xbd93e1ee	-0.07220827
81	0xbce05598	-0.027384564
82	0x3e3c28a4	0.18374878
83	0x3e238a27	0.1597067
84	0xbcc045f3	-0.023470854
85	0xbe3a4225	-0.18189295
86	0xbe78110e	-0.24225256
87	0x3def9c38	0.11699718
88	0x3e2454bb	0.16047947
89	0xbf33af07	-0.70188946
90	0xbdc807ab	-0.097670875
91	0xbdca8912	-0.09889425
92	0xbd5f127b	-0.054460984
93	0x3cb17ed8	0.02166693
94	0xbf59e1e5	-0.8511031
95	0xbd771176	-0.060319386
96	0x3e3ee7d3	0.18643121
97	0xbd85e234	-0.065372854
98	0xbccaee83	-0.024771934
99	0xbe3cb63e	-0.18428895
100	0x3d8aefdd	0.067840315
101	0x3eaa66f4	0.33281672
102	0xbd4664fc	-0.04843615
103	0x3d085ecb	0.033293527
104	0xbd1f08d7	-0.03882679
105	0x3d53a65f	0.051672336
106	0xbc967a97	-0.018369002
107	0xbda7137c	-0.08158013
108	0x3ef871e9	0.48524407
109	0x3e26bcb1	0.16282918
110	0xbe446c99	-0.19182052
111	0xbcf16fcd	-0.029472256
112	0x3d531bc6	0.05154016
113	0xbdf77684	-0.12083152
114	0xbf3a2841	-0.7271767
115	0x3e5f6644	0.21816355
116	0x3e0efae1	0.1396289
117	0xbe30a63f	-0.17250918
118	0xbe1f8589	-0.15578283
119	0xbd271759	-0.04079375
120	0x3cc49806	0.023998272
121	0x3e02b5a5	0.12764604
122	0x3c6a26be	0.014291463
123	0xbea66f86	-0.3250696
124	0xbd956f01	-0.07296563
125	0xbdb21e81	-0.086972244
126	0xbe39f45a	-0.18159619
127	0x3da6c84d	0.08143673
128	0x3dbc2668	0.09187013
129	0xbf0a4ae2	-0.5402051
130	0xbd376e11	-0.044782702
131	0xbde92a4b	-0.1138502
132	0x3cec9378	0.028878912
133	0x3e364db1	0.17803074
134	0xbe54609e	-0.20739982
135	0xbed7d314	-0.42153227
136	0xbbbce804	-0.005764963
137	0xbdd926fb	-0.10603138
138	0xbd430ce9	-0.047619734
139	0x3d886662	0.06660153
140	0xbf429fbc	-0.76024985
141	0xbe289b4a	-0.16465488
142	0xbd9695a7	-0.07352763
143	0xbd9fb8fc	-0.07798955
144	0x3cd00c59	0.025396513
145	0x3e0a0ae8	0.13480723
146	0x3bc9944c	0.0061517116
147	0xbe152485	-0.14564712
148	0xbcb50a7c	-0.022099726
149	0x3c9f89cd	0.019474888
150	0xbee3ae3b	-0.44468865
151	0xbdbcaa88	-0.09212214
152	0x3eb12d14	0.34604704
153	0x3a52ebf2	0.0008046023
154	0x3d10da74	0.035364583
155	0xbddf7a60	-0.10912013
156	0x3e195fc1	0.14977933
157	0x3e156df0	0.14592719
158	0x3cfeb712	0.031093154
159	0xbc9674d7	-0.01836626
160	0x3cdd0b5a	0.026982952
161	0xbda8a278	-0.082341135
162	0xbe23736c	-0.15961999
163	0x3e3db888	0.18527424
164	0x3cdfab22	0.027303282
165	0xba5f05fd	-0.0008507667
166	0xbc25602b	-0.010093729
167	0xbe0eff16	-0.13964495
168	0xbe0ff1b7	-0.1405705
169	0xbf4310ea	-0.76197684
170	0x3ddc516d	0.10757718
171	0xbf08cbcf	-0.5343599
172	0xbe1f3b1e	-0.15549895
173	0x3da5924f	0.08084547
174	0x3e05e27f	0.13074683
175	0xbec4c83a	-0.3843401
176	0x3e18bf9c	0.14916843
177	0x3de9d738	0.11418003
178	0x3dd4f9a6	0.10399179
179	0xbe935ade	-0.28780264
180	0x3d571f93	0.052520346
181	0x3bc12b26	0.0058950363
182	0x3e2b8ea9	0.1675364
183	0xbd6f9dfe	-0.058500282
184	0xbe4016f3	-0.18758754
185	0x3e4b6efe	0.19866559
186	0xbde0ac57	-0.10970371
187	0xbe0260b2	-0.12732199
188	0xbddf7e60	-0.10912776
189	0xbdb8d5b5	-0.090251364
190	0x3d9b2625	0.07575635
191	0xbec65078	-0.38733268
192	0xbd917a89	-0.0710345
193	0xbda2adef	-0.079433315
194	0xbe0393c9	-0.12849344
195	0x3d43bac6	0.047785543
196	0xbe9b05e0	-0.3027792
197	0xbeb758cc	-0.35809934
198	0x3dac3dc7	0.084102206
199	0x3eba66e7	0.36406633
200	0xbe727fd3	-0.23681574
201	0xba70deb3	-0.0009188458
202	0xbede2fe4	-0.43395913
203	0x3d265733	0.040610503
204	0x3eacc633	0.33744964
205	0x3d8fc3a2	0.07019736
206	0x3c9295f0	0.017893761
207	0xbd2572a7	-0.040392544
208	0x3d0ad6da	0.033896305
209	0xbd8236e7	-0.06358128
210	0x3c1edbf7	0.009695998
211	0xbd91a5e5	-0.0711172
212	0xbcf1ff80	-0.029540777
213	0xbcc42e72	-0.023947928
214	0xbe70250f	-0.23451637
215	0xbdea4133	-0.11438217
216	0xbf10585b	-0.5638482
217	0xbe87a988	-0.2649653
218	0xbdcc1d7e	-0.09966563
219	0xbee90a69	-0.45515755
220	0x3e3d28fa	0.18472663
221	0xbf20f2cb	-0.6287047
222	0x3dd72db3	0.10506763
223	0xbc08a5f7	-0.00834035
224	0x3d318222	0.043336995
225	0xbcab286e	-0.020893302
226	0xbeb42bbb	-0.35189614
227	0xbd5be363	-0.05368365
228	0xbdf2aa8a	-0.11848934
229	0xbe074b92	-0.13212422
230	0x3e189014	0.14898711
231	0xbe0fb425	-0.14033563
232	0x3d86ff59	0.065916725
233	0xbeb5beac	-0.35497034
234	0x3e708e6c	0.2349183
235	0x3db2a81f	0.08723473
236	0x3d523e79	0.05132911
237	0x3d1d574d	0.038413335
238	0xbed37e10	-0.41307116
239	0x3de23da9	0.11046917
240	0xbd73a69e	-0.05948507
241	0x3da5dbe0	0.080985785
242	0x3d5dd18a	0.05415491
243	0xbe1d8de4	-0.15386158
244	0xbd330601	-0.043706898
245	0xbd95f0e8	-0.0732134
246	0xbf28ec02	-0.6598512
247	0x3f31cf3f	0.6945686
248	0xbf28f7ea	-0.66003287
249	0xbe7cc03a	-0.24682704
250	0xbdb6015e	-0.088869795
251	0xbd327c3e	-0.043575518
252	0x3e1b66c8	0.15175927
253	0xbe0e9098	-0.13922346
254	0xbd9ed580	-0.07755566
255	0xbbfa7a30	-0.0076439604

output_layers.0.bias f4 [40]
0	0xbe8116e3	-0.25212774
1	0x3ec00281	0.3750191
2	0xbf368a7e	-0.7130507
3	0xbf15416a	-0.5830294
4	0x3df5a18f	0.119937055
5	0x3e082437	0.13295065
6	0x3e45fd80	0.19334984
7	0xbf369def	-0.7133474
8	0x3d790a41	0.060800795
9	0x3ec9e909	0.39435604
10	0x3d9caec6	0.07650523
11	0xbf1ee61f	-0.62069887
12	0x3e9f2ede	0.31090444
13	0x3e8e9ebc	0.2785548
14	0x3e5baeca	0.21453395
15	0x3eeb3499	0.45938566
16	0x3dc265f9	0.09492106
17	0x3ecc361f	0.3988504
18	0x3eee274b	0.46514353
19	0x3e95bfd2	0.2924791
20	0x3e0411ff	0.1289749
21	0x3f196309	0.5991674
22	0x3ed27c2d	0.41110364
23	0x3e40dad0	0.1883347
24	0x3f0e738f	0.5564508
25	0x3e9cbb29	0.30611542
26	0xbadbb194	-0.0016761296
27	0x3ee5d5e7	0.44889757
28	0x3df05c18	0.117363155
29	0xbee328fc	-0.44367206
30	0x3d1544b6	0.03644248
31	0x3ea2f96e	0.31830925
32	0x3e42cedd	0.19024225
33	0xbf433c09	-0.7626348
34	0x3e0de689	0.13857473
35	0x3da669e4	0.08125666
36	0xbf1d7ec0	-0.6152153
37	0xbf136f9e	-0.5759219
38	0xbf3916a8	-0.72300196
39	0x3f12f246	0.5740093
