MODELS/REWARD COMPARISON/SAC UNMASKED MODELS/11_2_critic_target_network_un.pt (torch, 411335 bytes, 6 tensors)

hidden_layers.0.weight f4 [256, 101]
-0.02328058 0.18022412 0.18196571 0.7402312 -0.045233127 0.24384902 -0.01934109 0.012667744
-0.0035743716 -0.023342349 0.016811777 0.44728035 0.095266394 0.4428346 0.10451854 -0.026886977
0.03787382 -0.24309531 -0.106988415 0.057855748 -0.20949256 0.4631732 0.43333966 0.48050377
0.06874987 0.2675505 0.2017012 -0.36407122 0.11036727 -0.06065608 -0.033162035 0.44066924
0.24012996 0.18796752 -0.019325878 0.012943852 -0.31783214 -0.10531304 0.037307143 0.2521494
0.2866808 0.21858594 0.19757777 0.35603875 0.16958568 0.042652942 -0.21655585 -0.044916544
0.27770707 0.24291776 -0.06462061 0.14645931 0.3225926 -0.07443783 0.29863173 -0.0913913
0.16817711 0.06512785 -0.21265712 -0.25631148 -0.025067696 0.3047063 0.7339457 0.20563564
0.16537218 0.47816694 0.09262061 0.047335386 -0.15731883 -0.010500753 -0.123124 0.30165932
0.3625552 0.30751255 0.042542312 0.24085598 0.06559655 0.1598288 0.058362633 0.11966603
0.13733082 -0.00229926 0.16570465 0.3247908 0.18919466 0.32653067 -0.09520263 0.14664114
-0.07593923 0.026727341 -0.099298514 0.033832837 0.07226601 0.27830377 0.19130163 -0.27694428
-0.20135444 0.024481673 0.077108935 -0.013299494 0.023687743 0.1168186 -0.060709994 -0.049903877
-0.2085391 -0.2831617 -0.092279494 -0.044345796 -0.29004917 -0.3547624 -0.6855311 -0.08923811
-0.21913221 -0.3140657 -0.52602935 0.069026604 0.3605336 0.13270105 -0.17263645 -0.21231529
-0.50196975 0.019181512 0.1474963 -0.59281045 -0.17957854 0.0055423975 -0.2846367 -0.012494509
-0.41003138 -0.46757376 -0.30899972 0.08535212 0.2023058 -0.2509045 0.07343266 -0.37675726
-0.3335253 -0.7157383 -0.5008218 -0.37445974 -0.57045996 0.19050111 -0.073423676 -0.29207796
-0.16766512 -0.4102991 -0.08446904 -0.0062976214 0.06698196 -0.021384848 0.32985592 -0.2777079
0.11957503 -0.28598827 0.22674064 -0.026411219 0.31733897 -0.041984282 -0.17002982 -0.13814276
0.030540327 0.033798393 -0.24628812 -0.56896865 -0.21971023 -0.04162195 -0.026060462 -0.15831658
-0.066578984 0.22605725 -0.08750512 -0.05244528 0.10548671 -0.25838938 -0.45427412 0.014148976
-0.089938715 -0.43119007 -0.03722918 -0.17800424 -0.14542519 -0.019171024 0.29030442 -0.19761251
-0.045291327 -0.48264158 -0.49578798 -0.2612185 -0.20947486 -0.2233172 -0.2505145 0.16613223
0.055346183 -0.16074364 -0.23484807 -0.23285316 -0.029965129 -0.21296448 -0.53207326 -0.045564692
-0.6525513 -0.0015991236 0.092270315 0.29488268 -0.17902939 0.4797581 0.017256098 0.12823981
-0.12024225 -0.39992064 -0.07898067 0.12713964 0.3321885 0.1669068 -0.14779602 0.34340963
0.23972605 -0.27545452 0.32842386 -0.3595161 0.34191006 -0.2444816 0.06670625 -0.016769212
0.096318536 -0.18213388 0.321334 -0.031748675 0.0979656 -0.28515482 0.35526332 -0.044434056
0.14982738 0.29917982 0.097027004 -0.12533994 0.21057306 -0.14062 0.29748848 0.19584748
0.06984663 -0.054249626 0.005793853 0.1583349 -0.12844613 0.03776248 -0.00018671958 0.2951789
0.1837551 0.24179992 0.40926334 -0.2758663 -0.22118348 -0.037181243 0.1403735 0.19762999
00000000: eab6 bebc ac8c 383e 3855 3a3e cb7f 3d3f
00000010: 5f46 39bd 8fb3 793e 3571 9ebc 5f8c 4f3c
00000020: 0140 6abb 7438 bfbc dab8 893c ee01 e53e
00000030: 071b c33d 37bb e23e d10d d63d 1442 dcbc
00000040: 9421 1b3d faed 78be be1c dbbd 26fa 6c3d
00000050: 3885 56be 0a25 ed3e b2de dd3e 9704 f63e
00000060: bbcc 8c3d 61fc 883e c28a 4e3e 8b67 babe
00000070: 3c08 e23d 8272 78bd ead4 07bd 669f e13e
00000080: a1e4 753e 8f7a 403e 4e51 9ebc 7312 543c
00000090: e5ba a2be 5dae d7bd 60cf 183d ba19 813e
000000a0: d3c7 923e fed4 5f3e d451 4a3e b64a b63e
000000b0: dea7 2d3e dab4 2e3d d1c0 5dbe 69fa 37bd
000000c0: 9f2f 8e3e 6fbf 783e cf57 84bd 6ef9 153e
000000d0: db2a a53e dc72 98bd 42e6 983e 5d2b bbbd
000000e0: 9f36 2c3e c061 853d cac2 59be 423b 83be
000000f0: c55a cdbc 7702 9c3e dee3 3b3f 2692 523e
00000100: 5357 293e 4cd2 f43e e0af bd3d c0e2 413d
00000110: 3018 21be 5a0b 2cbc 7028 fcbd 1773 9a3e
00000120: d6a0 b93e 4972 9d3e d940 2e3d f3a2 763e
00000130: 7c57 863d 29aa 233e a80d 6f3d 7713 f53d
00000140: 73a0 0c3e 2faf 16bb 7bae 293e fb4a a63e
00000150: 3fbc 413e 072f a73e 99f9 c2bd 1829 163e
00000160: 0786 9bbd 4cf3 da3c 055d cbbd 4d94 0a3d
00000170: 3400 943d d57d 8e3e 93e4 433e a4cb 8dbe
00000180: dc2f 4ebe ca8d c83c 4aeb 9d3d 1fe6 59bc
00000190: cc0c c23c 973e ef3d 0bab 78bd 0268 4cbd
000001a0: 468b 55be 92fa 90be 08fd bcbd f0a3 35bd
000001b0: 5381 94be 6ba3 b5be f77e 2fbf 78c2 b6bd
000001c0: 3264 60be 38cd a0be dca9 06bf d25d 8d3d
000001d0: dc97 b83e c9e2 073e 9cc7 30be 2e69 59be
000001e0: 1781 00bf 8c22 9d3c 4509 173e 6dc2 17bf
000001f0: 70e3 37be 009d b53b e7bb 91be c5b5 4cbc
00000200: a2ef d1be d465 efbe 3635 9ebe 18cd ae3d
00000210: 4029 4f3e 8e76 80be dd63 963d 54e6 c0be
00000220: d4c3 aabe a03a 37bf dc35 00bf 30b9 bfbe
00000230: aa09 12bf b912 433e 275f 96bd 3e8b 95be
00000240: 68b0 2bbe b912 d2be 1bfe acbd 475c cebb
00000250: d62d 893d 472f afbc e0e2 a83e bb2f 8ebe
00000260: c1e3 f43d 0e6d 92be b32e 683e 575c d8bc
00000270: 417a a23e b6f7 2bbd 4c1c 2ebe 4c75 0dbe
00000280: b52f fa3c 2f70 0a3d f432 7cbe eea7 11bf
00000290: b8fb 60be c77b 2abd c07c d5bc be1d 22be
000002a0: 905a 88bd 8d7b 673e e235 b3bd ddd0 56bd
000002b0: 6b09 d83d 9d4b 84be 9e96 e8be 1bd1 673c
000002c0: ca31 b8bd f2c4 dcbe a07d 18bd be46 36be
000002d0: 57ea 14be 8d0c 9dbc c8a2 943e ef5a 4abe
000002e0: 6683 39bd cc1c f7be ecd7 fdbe 6ebe 85be
000002f0: 9480 56be 44ad 64be 7043 80be 911e 2a3e
00000300: aeb2 623d fb99 24be 037c 70be 0f71 6ebe
00000310: 6e79 f5bc 5c13 5abe f435 08bf 0ba2 3abd
00000320: 9a0d 27bf af99 d1ba 38f8 bc3d ddfa 963e
00000330: 7b53 37be dba2 f53e a95c 8d3c 4c51 033e
00000340: 9241 f6bd 66c2 ccbe 9ec0 a1bd e530 023e
00000350: 9c14 aa3e 9ee9 2a3e d757 17be 63d3 af3e
00000360: bf7a 753e 6008 8dbe 2c27 a83e 7f12 b8be
00000370: d60e af3e 6259 7abe 499d 883d 965f 89bc
00000380: a742 c53d 4e81 3abe e485 a43e e60a 02bd
00000390: 30a2 c83d d0ff 91be 13e5 b53e 7c00 36bd
000003a0: 596c 193e 192e 993e 18b6 c63d 1d59 00be
000003b0: 77a0 573e b0fe 0fbe 6950 983e 3e8c 483e
000003c0: c00b 8f3d db34 5ebd 5dda bd3b 8b22 223e
000003d0: 6287 03be d5ac 1a3d 28ca 43b9 b021 973e
000003e0: 4c2a 3c3e 669a 773e f78a d13e 593e 8dbe
000003f0: ec7d 62be 5c4b 18bd 12be 0f3e 845f 4a3e

hidden_layers.0.bias f4 [256]
-0.38645342 -0.18584713 -0.37281182 0.14399943 -0.14124678 -0.040639825 -0.06302132 0.13891612
0.018293092 -0.059194617 -0.2608172 -0.262901 -0.10141168 -0.047016855 -0.054864705 -0.091087736
-0.29863277 -0.07520797 -0.02237587 -0.31096613 -0.12801571 0.034569226 -0.2891923 -0.13073401
-0.22130392 -0.017255798 0.081379585 -0.2106331 -0.20743167 0.08313277 0.11067569 -0.23831373
0.043473653 0.15683946 -0.11219259 -0.09216584 -0.107280865 0.09368898 0.2706286 -0.0039965846
-0.12385 -0.12069819 -0.23113826 0.1891675 -0.11755938 -0.07253192 -0.23232345 -0.0020829889
-0.084690966 -0.1411234 0.100001216 0.02152646 -0.012669188 -0.20802934 -0.09151765 -0.37162128
0.2660735 -0.0036823484 0.025922101 0.010014485 -0.008591554 -0.006411784 -0.20922294 -0.12917525
0.05985365 0.06309264 -0.04833196 -0.027847823 0.04028931 -0.1576249 0.17054969 0.10859907
-0.05773472 0.09356362 -0.04466251 0.07652765 -0.06941432 -0.23451559 0.16440672 -0.029163912
0.04964207 -0.19370802 -0.07196539 -0.051723074 -0.1234715 -0.29103115 -0.06470413 -0.044863775
-0.03402173 0.12983927 -0.35893413 0.14608434 -0.057122562 -0.121515274 -0.20250264 -0.07430378
-0.022447297 0.0028221775 -0.0062419027 -0.028827906 -0.13222444 -0.009428592 -0.055854656 -0.00657038
-0.024244621 -0.044338025 0.16674784 0.12230278 0.0502609 0.055186413 0.0896242 -0.28632742
-0.27558884 -0.1501613 0.106766626 -0.23954782 0.039219964 -0.030378398 0.085473 -0.07622989
-0.0871629 -0.009108714 0.10094424 -0.071385875 0.08968684 -0.19839741 -0.15894237 -0.065157264
-0.2462089 -0.022714559 -0.08338447 -0.049566507 -0.04260914 0.017568989 0.09398705 -0.287173
-0.06002968 0.09731264 -0.12784211 -0.203027 -0.103530556 -0.24183539 -0.06937284 0.025854576
-0.13863906 -0.22716226 0.003969001 -0.041768365 0.04088223 0.07385632 -0.27686715 -0.10782003
0.1436097 -0.11330269 -0.15231541 0.05250854 -0.13647905 -0.069025606 0.05564746 -0.020418802
-0.009032771 0.2056046 -0.07448028 0.0022908507 -0.17284945 -0.31412145 -0.111594 -0.09811944
-0.20688745 -0.15879424 -0.2439478 -0.11430253 -0.22108208 -0.22970732 -0.007934209 0.03736124
-0.037451528 -0.16033632 -0.037135933 -0.14533864 0.0022463552 0.0040282067 -0.15068376 -0.034284562
-0.24940501 -0.14418265 -0.119191386 -0.16846031 -0.27819207 -0.0026938738 -0.20940697 0.008335907
0.017340358 -0.0729369 -0.027203023 -0.11939828 -0.0020625023 -0.06304966 0.024105338 -0.0013229075
0.13261619 -0.053776946 -0.14518502 0.054973148 -0.008857017 -0.095085755 -0.059244208 -0.025133787
-0.11830937 0.08124457 -0.17003588 0.12015225 -2.8453596e-05 0.027969526 -0.24363133 -0.30356568
-0.03283405 -0.025683103 -0.07197274 -0.015355266 0.036493223 -0.025884103 -0.08890339 -0.048206218
-0.35019818 -0.29484478 0.01366762 -0.09615316 -0.17454979 0.10289561 0.008392008 -0.06991916
-0.16256133 0.090076216 -0.2536764 -0.28654656 -0.114782415 0.10113079 0.06860078 0.07829938
0.014903572 -0.015424461 -0.19379315 -0.012651093 -0.09017363 -0.067548 0.037658032 -0.008477426
-0.050573014 0.05194426 -0.08572963 0.24495627 -0.267109 -0.0682083 -0.21996556 0.22791378
00000000: 39dd c5be b64e 3ebe 31e1 bebe 9674 133e
00000010: ffa2 10be f275 26bd 5211 81bd 0740 0e3e
00000020: 65db 953c 0e76 72bd d589 85be f69a 86be
00000030: edb0 cfbd bf94 40bd d0b9 60bd 358c babd
00000040: 65e6 98be a306 9abd 9a4d b7bc f436 9fbe
00000050: 8d16 03be 7698 0d3d 0311 94be 23df 05be
00000060: 7f9d 62be 085c 8dbc 57aa a63d 34b0 57be
00000070: f868 54be 8441 aa3d f0a9 e23d 8408 74be
00000080: 6e11 323d 869a 203e 3bc5 e5bd 72c1 bcbd
00000090: 12b6 dbbd 02e0 bf3d d58f 8a3e c8f5 82bb
000000a0: 12a5 fdbd 9d30 f7bd 82af 6cbe 20b5 413e
000000b0: f9c2 f0bd 9e8b 94bd 33e6 6dbe c182 08bb
000000c0: 7572 adbd a782 10be 70cd cc3d 4258 b03c
000000d0: 6d92 4fbc a505 55be 9b6d bbbd 2545 bebe
000000e0: c93a 883e 8e53 71bb 965a d43c cb13 243c
000000f0: 97c3 0cbc f119 d2bb 8a3e 56be 8446 04be
00000100: 1a29 753d b736 813d bcf7 45bd 1e21 e4bc
00000110: 6706 253d 6c68 21be 94a4 2e3e 3069 de3d
00000120: 3e7b 6cbd 489e bf3d 09f0 36bd 87ba 9c3d
00000130: 1829 8ebd db24 70be 3c5a 283e 28e9 eebc
00000140: 7c55 4b3d 655b 46be 9762 93bd 93db 53bd
00000150: a0de fcbd 0902 95be 9983 84bd 14c3 37bd
00000160: 5f5a 0bbd 96f4 043e 37c6 b7be 2297 153e
00000170: 59f9 69bd 00dd f8bd da5c 4fbe 952c 98bd
00000180: 65e3 b7bc 48f4 383b e088 ccbb 8028 ecbc
00000190: d865 07be 627a 1abc dac7 64bd 584c d7bb
000001a0: a89c c6bc ca9b 35bd f2bf 2a3e e179 fa3d
000001b0: 60de 4d3d 260b 623d e48c b73d 8299 92be
000001c0: fb19 8dbe e2c3 19be 76a8 da3d 064c 75be
000001d0: 1da5 203d 1edc f8bc 780c af3d 6b1e 9cbd
000001e0: 7682 b2bd b73c 15bc dbbb ce3d c232 92bd
000001f0: bcad b73d b128 4bbe cac1 22be 2c71 85bd
00000200: 301e 7cbe e213 babc 7ac5 aabd 4006 4bbd
00000210: ec86 2ebd d7ec 8f3c 487c c03d 5708 93be
00000220: afe1 75bd d94b c73d 0be9 02be 4fe6 4fbe
00000230: d407 d4bd b2a3 77be 5913 8ebd facc d33c
00000240: 66f7 0dbe 399d 68be 650e 823b 4e15 2bbd
00000250: 2074 273d fb41 973d 88c1 8dbe bfd0 dcbd
00000260: 6c0e 133e 3e0b e8bd 92f8 1bbe 3213 573d
00000270: 2ac1 0bbe 4c5d 8dbd 97ee 633d 5545 a7bc
00000280: 30fe 13bc 038a 523e 1e89 98bd 1922 163b
00000290: 72ff 30be 87d4 a0be 658b e4bd d8f2 c8bd
000002a0: 4eda 53be f59a 22be 74cd 79be 7217 eabd
000002b0: 5763 62be 6538 6bbe 7cfe 01bc 1908 193d
000002c0: c666 19bd 342f 24be d91b 18bd a7d3 14be
000002d0: 9637 133b 0cff 833b d84c 1abe f86d 0cbd
000002e0: 0764 7fbe 9ea4 13be 9d1a f4bd dc80 2cbe
000002f0: 316f 8ebe b48b 30bb c86e 56be 5493 083c
00000300: 5e0d 8e3c f15f 95bd e0d8 debc 1687 f4bd
00000310: 0c2b 07bb 2e20 81bd 8f78 c53c 6965 adba
00000320: 8acc 073e 3745 5cbd 62ab 14be 862b 613d
00000330: 061d 11bc 52bc c2bd 0eaa 72bd 5fe5 cdbc
00000340: 2f4c f2bd 8e63 a63d e31d 2ebe 6212 f63d
00000350: a2af eeb7 5920 e53c 7e7a 79be f66c 9bbe
00000360: ff7c 06bd 5f65 d2bc 7266 93bd a794 7bbc
00000370: eb79 153d e60a d4bc fb12 b6bd e273 45bd
00000380: 2d4d b3be e5f5 96be 27ee 5f3c f3eb c4bd
00000390: 2ebd 32be efba d23d a27e 093c c731 8fbd
000003a0: 7a76 26be e179 b83d e0e1 81be 3bb6 92be
000003b0: 0b13 ebbd a91d cf3d 917e 8c3d 6d5b a03d
000003c0: 1d2e 743c e1b6 7cbc b671 46be 8846 4fbc
000003d0: f4ac b8bd 9b56 8abd 4f3f 1a3d e7e4 0abc
000003e0: a625 4fbd 81c3 543d 0493 afbd d1d5 7a3e
000003f0: 83c2 88be cbb0 8bbd a73e 61be 3b62 693e

hidden_layers.1.weight f4 [256, 256]
-0.17563446 -0.027840631 -0.2859462 -0.06829459 -0.110151544 -0.075053416 -0.13217069 0.06891679
-0.11985426 -0.16918398 -0.0625467 -0.1678816 -0.011127501 -0.39376804 -0.039925765 -0.06498924
-0.23693866 0.06325736 -0.034481376 -0.104369074 -0.0117082475 -0.1453826 -0.053144798 -0.11793961
-0.015045357 0.3601231 -0.06911564 -0.1522343 0.17873879 -0.058561455 -0.2991709 -0.15172078
0.0123904 -0.020598484 0.086244784 -0.055215996 0.08298483 -0.036535267 0.051858056 0.06263066
-0.20127952 -0.058876604 -0.21667524 0.07230569 -0.015521017 -0.04399802 -0.22831067 -0.019429838
0.014162001 -0.07288807 -0.009852469 0.034626905 -0.016812881 0.08841456 0.087465 -0.09505376
0.067803636 0.0032738186 0.10361412 0.0045747585 -0.028868623 0.13115104 -0.15541855 -0.14079793
-0.17492749 0.18397439 -0.19492085 0.0887584 0.03900825 -0.0025171773 0.12150342 -0.0027566564
-0.16251172 0.093316585 0.12018947 -0.033206042 -0.08486843 -0.029595591 -0.09260885 0.05129129
0.045537043 -0.09216368 0.042272646 -0.19547777 -0.019560296 -0.22175188 -0.043335304 0.04355717
-0.20986171 0.011804405 -0.0023484235 -0.06803372 -0.08595833 -0.1724632 -0.19135687 0.07296165
-0.11497564 0.057822898 -0.05463197 -0.041356903 -0.13239181 -0.1605389 -0.16719018 0.10079538
-0.11308433 0.071346544 0.06084989 0.14518006 0.08924627 -0.05660123 -0.14710087 0.23584184
-0.16254449 -0.108345844 -0.086362235 -0.28985 0.026443359 -0.08823523 0.0042344327 -0.05808626
-0.16885766 -0.109966524 0.08774514 -0.16256002 -0.11502417 -0.10534427 -0.2798894 0.28700358
0.041486137 -0.14217822 -0.08218706 -0.27255896 -0.07287179 0.099724725 -0.041294914 -0.16498473
0.15911672 0.04787947 -0.047295295 -0.015802015 0.059443444 -0.34312004 0.24670602 0.00839654
-0.15585476 -0.25777915 -0.019562632 -0.18721771 0.02485279 0.0116 -0.38450518 -0.05726581
0.12986328 -0.22910757 0.060383424 0.15414879 -0.06769025 -0.013155853 -0.00534913 -0.012455114
-0.18971097 -0.15001376 -0.060353223 0.11882702 0.08271087 -0.20494308 -0.2598786 -0.016969383
-0.19211645 -0.14990658 0.00839858 0.07122308 -0.17725965 -0.056709565 -0.24818935 -0.06746282
0.013817189 0.0027297838 0.034420665 -0.011331965 -0.17731594 0.21301147 -0.03701172 -0.09133424
-0.11443029 -0.14168775 -0.06684203 0.0039815763 -0.111099556 -0.20047247 -0.1546997 -0.120331794
0.24694452 0.025485875 0.132379 0.051264834 -0.20576467 0.063692465 -0.05763549 -0.050511643
-0.2643488 -0.16498859 -0.09254745 0.025024949 0.27784553 -0.20319276 -0.1417744 -0.05722805
-0.14583564 0.15189256 -0.14558508 0.07893176 0.12163419 -0.14375313 -0.31100774 0.009092364
0.016865693 0.08531153 -0.15031867 -0.0279218 -0.11059611 0.15008338 -0.10779601 -0.09576475
-0.2599751 0.21004166 0.11227487 -0.34989998 0.083425395 0.10360723 -0.15035653 -0.17345782
-0.11829093 -0.4118781 -0.22170356 -0.23105688 -0.0009420695 -0.0058077965 -0.062491767 -0.04609625
-0.07075602 -0.026124837 -0.027379895 -0.08889459 0.014551714 -0.06587273 0.12975109 -0.05999136
0.011567608 -0.09356288 0.074274726 0.13881923 0.056212742 -0.17682917 0.14186418 -0.08051185
00000000: 85d9 33be 0912 e4bc 8a67 92be 09de 8bbd
00000010: 2297 e1bd 9bb5 99bd c157 07be 3f24 8d3d
00000020: 2676 f5bd 913e 2dbe 7c18 80bd 27e9 2bbe
00000030: 1f50 36bc f79b c9be 3389 23bd 1419 85bd
00000040: 0ca0 72be 138d 813d 583c 0dbd 74bf d5bd
00000050: f3d3 3fbc 2ddf 14be 5cae 59bd 528a f1bd
00000060: cd80 76bc 0e62 b83e 808c 8dbd 4fe3 1bbe
00000070: 4d07 373e 23de 6fbd ee2c 99be b15c 1bbe
00000080: 1b01 4b3c 27be a8bc 1ba1 b03d 2b2a 62bd
00000090: f3f3 a93d 01a6 15bd 1d69 543d 8144 803d
000000a0: 381c 4ebe 9828 71bd 1de0 5dbe 0115 943d
000000b0: dd4b 7ebc 4537 34bd 46ca 69be 532b 9fbc
000000c0: bd07 683c 5746 95bd 406c 21bc f1d4 0d3d
000000d0: 2bbb 89bc b112 b53d da20 b33d 8cab c2bd
000000e0: a2dc 8a3d 908d 563b a433 d43d dbe7 953b
000000f0: e47d ecbc 754c 063e 0a26 1fbe 552d 10be
00000100: 3120 33be c863 3c3e 5599 47be f7c6 b53d
00000110: 1dc7 1f3d 3af7 24bb c9d6 f83d 05a9 34bb
00000120: 7969 26be c41c bf3d e625 f63d 0f03 08bd
00000130: 80cf adbd 7472 f2bc b5a9 bdbd d116 523d
00000140: 0d85 3a3d 50c0 bcbd 1526 2d3d 532b 48be
00000150: ea3c a0bc ed12 63be 5c80 31bd 0169 323d
00000160: fde5 56be 4367 413c 02e8 19bb 4355 8bbd
00000170: ec0a b0bd 319a 30be 0ef3 43be eb6c 953d
00000180: 5978 ebbd b4d7 6c3d c6c5 5fbd db65 29bd
00000190: b891 07be 4f64 24be e733 2bbe cf6d ce3d
000001a0: c298 e7bd 231e 923d bc3d 793d 15aa 143e
000001b0: c0c6 b63d b1d6 67bd 9ca1 16be 8680 713e
000001c0: 1072 26be 6de4 ddbd afde b0bd 3867 94be
000001d0: be9f d83c acb4 b4bd ffc0 8a3b dceb 6dbd
000001e0: 06e9 2cbe 2136 e1bd b9b3 b33d 2276 26be
000001f0: cb91 ebbd bdbe d7bd aa4d 8fbe 22f2 923e
00000200: 5eed 293d 2b97 11be b051 a8bd d98c 8bbe
00000210: ce3d 95bd 7a3c cc3d db24 29bd c2f1 28be
00000220: 7eef 223e 431d 443d b6b8 41bd 3a73 81bc
00000230: f87a 733d 6ead afbe 81a0 7c3e a491 093c
00000240: 6498 1fbe a1fb 83be d041 a0bc 00b6 3fbe
00000250: 1498 cb3c ed0d 3e3c dddd c4be 8e8f 6abd
00000260: e1fa 043e 2d9b 6abe 9c54 773d 2ed9 1d3e
00000270: 30a1 8abd a68b 57bc c147 afbb 8910 4cbc
00000280: 9843 42be 359d 19be f134 77bd 955b f33d
00000290: 5164 a93d 99dc 51be cf0e 85be 6003 8bbc
000002a0: 2dba 44be 1c81 19be 339a 093c 68dd 913d
000002b0: 8e83 35be 4a48 68bd 5925 7ebe f229 8abd
000002c0: 7e61 623c 2ce6 323b affc 0c3d b5a9 39bc
000002d0: 4f92 35be ae1f 5a3e 9a99 17bd 720d bbbd
000002e0: 6e5a eabd 9816 11be 79e4 88bd e277 823b
000002f0: 2a88 e3bd a848 4dbe 9969 1ebe 8470 f6bd
00000300: 06df 7c3e c1c7 d03c 5c8e 073e 13fb 513d
00000310: f9b3 52be 3271 823d 3113 6cbd 4ce5 4ebd
00000320: ba58 87be c5f2 28be 8489 bdbd 1f01 cd3c
00000330: c541 8e3e c311 50be 4f2d 11be f667 6abd
00000340: f055 15be b989 1b3e 4114 15be f9a6 a13d
00000350: 591b f93d 0534 13be 683c 9fbe 24f8 143c
00000360: ec29 8a3c d0b7 ae3d 23ed 19be 42bc e4bc
00000370: 3780 e2bd 75af 193e 28c4 dcbd 4f20 c4bd
00000380: 751b 85be 2915 573e 5ef0 e53d 1726 b3be
00000390: efda aa3d 0730 d43d 10f7 19be ed9e 31be
000003a0: 8442 f2bd b0e1 d2be 4206 63be 2d9a 6cbe
000003b0: 37f5 76ba 544f bebb 5ef7 7fbd 6ccf 3cbd
000003c0: 88e8 90bd c103 d6bc cd4b e0bc 5e0e b6bd
000003d0: 506a 6e3c 48e8 86bd 78dd 043e 80b9 75bd
000003e0: 1186 3d3c e59d bfbd 591d 983d a126 0e3e
000003f0: 553f 663d b512 35be d844 113e 66e3 a4bd

hidden_layers.1.bias f4 [256]
-0.11038962 -0.3890021 -0.44555607 -0.20830044 -0.49179968 -0.2927954 -0.22223853 -0.081939936
-0.05953149 -0.3909833 -0.101752326 -0.12869246 -0.21750121 -0.09860506 -0.14857642 -0.10443411
-0.11758685 -0.08603212 -0.07605487 -0.14444071 -0.3781744 -0.1849598 -0.18965413 -0.14192869
-0.39266935 -0.16599089 -0.4037578 -0.062342513 -0.13583489 -0.15404065 -0.056425385 -0.3886538
-0.14489797 -0.40573242 -0.14517374 -0.15705255 -0.16059215 -0.14859386 -0.1943505 -0.13187982
-0.1470853 -0.1665379 -0.0741943 -0.058939084 -0.35797635 -0.080912784 -0.0188712 -0.12750156
-0.11626283 -0.11829001 -0.17277232 -0.092055105 -0.09096619 -0.09508999 -0.141481 -0.11002732
-0.13029373 -0.20822449 -0.07515542 -0.07402648 -0.3997971 -0.08246798 -0.19786464 -0.11833441
-0.1305825 -0.095281646 -0.112583116 -0.15490495 -0.1362103 -0.3382865 -0.16912867 -0.14085282
-0.24999516 -0.06840647 -0.23019478 -0.17106375 -0.40991452 -0.15260854 -0.15150061 -0.19028471
-0.17344278 -0.41782403 -0.045132075 -0.15335587 -0.11508513 -0.15733273 -0.21186452 -0.10520105
-0.12413715 -0.20191316 -0.11779227 -0.1387795 -0.18494229 -0.36979777 -0.1945417 -0.1709932
-0.009617759 -0.4405474 -0.06588282 -0.09443789 -0.037464485 -0.14727654 -0.06082449 -0.19867836
-0.12873174 -0.1791371 -0.13084961 -0.35855487 -0.08786138 -0.10421721 -0.18597338 -0.21142972
-0.04187726 -0.08390693 -0.1412646 -0.1451579 -0.029011587 -0.07493566 -0.19500367 -0.14399503
-0.11507325 -0.12859993 -0.2093125 -0.06806974 -0.09070609 -0.087878175 -0.11880463 -0.06263181
-0.07492092 -0.14845408 -0.18714033 -0.05723856 -0.20339137 -0.070804805 -0.09072013 -0.08202226
-0.018779436 -0.07905332 -0.14384928 -0.14758722 -0.061074257 -0.20388348 -0.31787717 -0.07661126
-0.06958515 -0.077416636 -0.114621885 -0.121891744 -0.1481676 -0.09887637 -0.43599582 -0.13791978
-0.07840559 -0.10913293 -0.121270336 -0.1114398 -0.15948047 -0.1563832 -0.11184184 -0.45566848
-0.35452864 -0.11725586 -0.12464873 -0.45686305 -0.47494215 -0.10614344 -0.11069695 -0.12361523
-0.08200642 -0.20088811 -0.106048346 -0.09031271 -0.14908424 -0.111447684 -0.09513396 -0.13992113
-0.06810523 -0.11825871 -0.19928144 -0.3654367 -0.13067739 -0.1350166 -0.10838788 -0.11788099
-0.15548222 -0.15330498 -0.16097265 -0.09300149 -0.089785345 -0.16117449 -0.13079749 -0.10059944
-0.2283455 -0.110401325 -0.13689052 -0.15320586 -0.12450564 -0.1826381 -0.44609892 -0.30908173
-0.11904224 -0.15530932 -0.135076 -0.16187423 -0.08443773 -0.2347379 -0.12582158 -0.1133123
-0.47231945 -0.42121068 -0.15859294 -0.14366457 -0.39327475 -0.15712136 -0.12062668 -0.08141893
-0.13958664 -0.14064094 -0.15307832 -0.13899899 -0.4920723 -0.1283279 -0.10036833 -0.4835562
-0.19480038 -0.047163747 -0.34183377 -0.13359147 -0.29658502 -0.16952321 -0.1719815 -0.12592459
-0.046745583 -0.17765619 -0.11704339 -0.09528036 -0.16122177 -0.31955066 -0.19955444 -0.0939011
-0.45034343 -0.39004388 -0.18416567 -0.17599441 -0.17147207 -0.17276238 -0.15221193 -0.15471439
-0.14143103 -0.10882581 -0.19571443 -0.16633776 -0.18971643 -0.15605131 -0.1742449 -0.12431044
00000000: f413 e2bd 492b c7be ed1f e4be b64c 55be
00000010: 2bcd fbbe 47e9 95be 7f92 63be 20d0 a7bd
00000020: 4bd7 73bd f72e c8be 8663 d0bd f5c7 03be
00000030: a3b8 5ebe 73f1 c9bd 6b24 18be 8de1 d5bd
00000040: 60d1 f0bd 9c31 b0bd a8c2 9bbd 44e8 13be
00000050: 13a0 c1be 1a66 3dbe b134 42be c155 11be
00000060: f50b c9be 84f9 29be 58b9 cebe dd5a 7fbd
00000070: 4d18 0bbe d5bc 1dbe 4e1e 67bd a2fd c6be
00000080: 2260 14be 29bc cfbe 6da8 14be 62d2 20be
00000090: 4572 24be fd28 18be d103 47be 810b 07be
000000a0: 879d 16be e988 2abe 2ef3 97bd 1c6a 71bd
000000b0: ad48 b7be 9ab5 a5bd c697 9abc c58f 02be
000000c0: 351b eebd 0842 f2bd 3aeb 30be 6387 bcbd
000000d0: 7b4c babd 8abe c2bd 65e0 10be 0156 e1bd
000000e0: b86b 05be cd38 55be 16eb 99bd 329b 97bd
000000f0: 35b2 ccbe f9e4 a8bd 079d 4abe 5059 f2bd
00000100: 6bb7 05be 0623 c3bd fa91 e6bd 679f 1ebe
00000110: b67a 0bbe e333 adbe 1130 2dbe b93b 10be
00000120: bbfe 7fbe b118 8cbd 2eb8 6bbe 562b 2fbe
00000130: 51e0 d1be 6a45 1cbe fa22 1bbe ffd9 42be
00000140: fc9a 31be 08ed d5be 69dc 38bd 5209 1dbe
00000150: c1b1 ebbd d51b 21be 03f3 58be a673 d7bd
00000160: 9e3b febd 53c2 4ebe 133d f1bd 371c 0ebe
00000170: 8361 3dbe 2256 bdbe f035 47be d718 2fbe
00000180: ce93 1dbc 6e8f e1be 92ed 86bd a768 c1bd
00000190: 5c74 19bd a9cf 16be 1a23 79bd 5772 4bbe
000001a0: 41d2 03be b76f 37be 71fd 05be 8194 b7be
000001b0: abf0 b3bd d56f d5bd ce6f 3ebe 0881 58be
000001c0: 7d87 2bbd 66d7 abbd aba7 10be 46a4 14be
000001d0: b5a9 edbc de77 99bd 0baf 47be 6f73 13be
000001e0: 86ab ebbd b3af 03be 0456 56be 2668 8bbd
000001f0: 1dc4 b9bd 79f9 b3bd d84f f3bd 1b45 80bd
00000200: 2470 99bd 5904 18be b7a1 3fbe fb72 6abd
00000210: d445 50be 1c02 91bd 7acb b9bd 49fb a7bd
00000220: 55d7 99bc b5e6 a1bd 3a4d 13be 1b21 17be
00000230: 0029 7abd d5c6 50be ccc0 a2be 5de6 9cbd
00000240: a982 8ebd 9d8c 9ebd e1be eabd 61a2 f9bd
00000250: 3fb9 17be b27f cabd d83a dfbe d83a 0dbe
00000260: 1c93 a0bd 1681 dfbd 955c f8bd 8d3a e4bd
00000270: d94e 23be eb22 20be 560d e5bd 614d e9be
00000280: c784 b5be d723 f0bd d547 ffbd f4e9 e9be
00000290: 9e2b f3be bb61 d9bd 15b5 e2bd fb29 fdbd
000002a0: fbf2 a7bd 9db5 4dbe e02f d9bd dff5 b8bd
000002b0: 8aa9 18be af3e e4bd 98d5 c2bd 7c47 0fbe
000002c0: c17a 8bbd 9f31 f2bd 6f10 4cbe 851a bbbe
000002d0: 4bd0 05be cb41 0abe 77fa ddbd 976b f1bd
000002e0: bb36 1fbe fbfb 1cbe 04d6 24be 9177 bebd
000002f0: 61e1 b7bd ed0a 25be c7ef 05be 1407 cebd
00000300: 67d3 69be 171a e2bd 072d 0cbe ffe1 1cbe
00000310: d0fc febd 7b05 3bbe 1467 e4be f63f 9ebe
00000320: 6bcc f3bd 6809 1fbe 5d51 0abe 5cc2 25be
00000330: b0ed acbd 225f 70be 5fd7 00be 4710 e8bd
00000340: dbd3 f1be eda8 d7be 3066 22be ce1c 13be
00000350: 4f5b c9be 6ce4 20be 1f0b f7bd f8be a6bd
00000360: cdef 0ebe 2e04 10be 90c0 1cbe c055 0ebe
00000370: e7f0 fbbe 6468 03be e98d cdbd ae94 f7be
00000380: c079 47be c62e 41bd d604 afbe 34cc 08be
00000390: fed9 97be 7e97 2dbe eb1b 30be 60f2 00be
000003a0: 4c78 3fbd 81eb 35be 72b4 efbd 5922 c3bd
000003b0: 5217 25be 259c a3be 0058 4cbe 384f c0bd
000003c0: 6a93 e6be d5b3 c7be ed95 3cbe e137 34be
000003d0: 6096 2fbe 9fe8 30be 72dd 1bbe 736d 1ebe
000003e0: 4cd3 10be 11e0 debd 5d69 48be 7254 2abe
000003f0: 0645 42be eacb 1fbe 416d 32be 7996 febd

output_layers.0.weight f4 [40, 256]
-0.13263278 -0.018031985 -0.016406348 -0.058602244 -0.030067952 0.07289322 0.06547909 0.22446239
-0.05191666 -0.033356085 -0.036871877 0.035592977 -0.038380284 -0.08199006 0.05508368 0.33099213
-0.0063858274 -0.0541987 0.14815468 0.07369819 -0.035580765 0.20630474 0.05192578 0.07098415
0.03565779 0.14139087 -0.0029446655 0.054669812 -0.06655825 -0.101846 0.16730367 0.016439602
0.0051230923 0.019668648 0.1074123 -0.050998356 0.08073603 -0.0622272 0.12456259 -0.008709527
-0.06612115 0.001192894 -0.010740748 0.12719575 0.0167833 -0.31289533 0.0038610196 -0.16691163
0.075105034 0.27527243 -0.0039679254 -0.16666678 0.4557958 -0.15156609 0.13619329 0.061992526
0.09530571 -0.053468585 -0.084038444 -0.17348391 0.029197197 -0.22325768 0.12056583 -0.17755577
-0.023749625 0.13477327 0.01592658 0.047043882 0.029465595 -0.031214673 -0.09394475 0.053910922
0.042010516 -0.12025285 -0.013787593 0.1288064 0.01139928 0.036122963 -0.022726372 -0.10618221
0.014248336 -0.04332017 0.4227286 0.07584049 -0.018292414 -0.23325354 -0.05721852 0.092936456
0.05989653 -0.015594041 -0.06351152 -0.18944304 -0.016634852 0.04004125 -0.10463004 -0.036852863
0.19069809 -0.028198011 0.08363039 -0.093264624 0.11015585 0.028428636 -0.08419946 0.07775769
-0.24493885 0.058480613 0.043637846 0.021890178 0.29041234 0.23684882 -0.1009476 0.0652724
0.09638713 0.07963314 -0.23070863 0.024033537 0.17271152 0.05643733 -0.05776748 0.04103102
-0.084629424 0.11825334 0.03898555 -0.13095236 -0.06512747 0.008260444 -0.056215663 0.37397447
-0.15017235 -0.1795607 0.06769016 -0.037904587 0.057658955 0.11757619 -0.1734241 -0.18736306
0.093678035 0.052581295 0.04447014 0.18055846 -0.24656633 -0.049873464 -0.07109601 -0.1850061
0.030297173 0.19985357 0.0594228 -0.3747621 0.22854243 0.0019924068 0.013559771 0.03176225
0.3086171 -0.12239946 0.019806001 -0.06702581 0.12533316 0.069679484 0.06425037 -0.012065067
0.0054833144 -0.047910444 0.0623707 -0.06094911 -0.03450821 -0.10839759 0.04576268 0.06605991
-0.13513236 -0.11176795 0.021203388 -0.13372862 -0.07949072 0.12712 -0.33528817 -0.009042438
0.32020223 0.1593305 0.023057587 -0.0021829715 0.019094858 0.04433144 0.0013468298 -0.053785592
-0.12231241 0.12914005 -0.006461262 -0.058921237 0.055588447 -0.20556465 0.11794457 -0.07164565
0.121006876 -0.04493719 0.14172272 0.10613424 -0.22698784 -0.0066078994 -0.04672725 -0.011785296
-0.035594985 0.1665128 -0.06004795 0.058565002 0.20242773 0.026130237 0.1174249 0.016902853
-0.06255383 0.008677747 0.120863065 -0.036294293 -0.0069995774 0.056642834 -0.14096504 0.03370596
0.0071053794 0.011295669 -0.0040486967 -0.33153296 -0.043593787 -0.1839907 0.09254216 -0.0058513456
0.18033515 -0.05062177 -0.0075635943 -0.0732342 -0.045393623 -0.024365457 0.16919139 0.11502114
0.13059773 -0.040858325 0.021664076 0.10021955 0.116470076 -0.02886109 -0.017654995 0.059372693
-0.029333066 -0.026230369 0.17223021 -0.005658009 -0.03231675 0.034165386 0.018370626 0.030533768
0.03400166 -0.13981883 -0.081174575 -0.039351635 0.061770536 -0.1103209 0.041057304 -0.02638375
00000000: e3d0 07be d0b7 93bc 9b66 86bc e808 70bd
00000010: 1151 f6bc 0a49 953d e719 863d 78d9 653e
00000020: 90a6 54bd 64a0 08bd f706 17bd f1c9 113d
00000030: a534 1dbd 68ea a7bd 6d9f 613d cd77 a93e
00000040: 3440 d1bb 75ff 5dbd dcb5 173e 14ef 963d
00000050: 23bd 11bd 8d41 533e 20b0 543d 2360 913d
00000060: e70d 123d c5c8 103e 4afb 40bb 74ed 5f3d
00000070: b14f 88bd a394 d0bd a751 2b3e 58ac 863c
00000080: 9ddf a73b 2520 a13c fbfa db3d a7e3 50bd
00000090: ef58 a53d f3e1 7ebd ac1a ff3d 67b2 0ebc
000000a0: 876a 87bd e15a 9c3a f6f9 2fbc 9a3f 023e
000000b0: 227d 893c d133 a0be 2909 7d3b e2ea 2abe
000000c0: abd0 993d 82f0 8c3e 5f05 82bb b2aa 2abe
000000d0: 115e e93e 2434 1bbe 4176 0b3e e0eb 7d3d
000000e0: a42f c33d e001 5bbd 591c acbd c4a5 31be
000000f0: f62e ef3c a99d 64be 38eb f63d 2ed1 35be
00000100: 938e c2bc 0102 0a3e 7678 823c 16b1 403d
00000110: d561 f13c eab5 ffbc 1b66 c0bd b3d1 5c3d
00000120: 3813 2c3d 2047 f6bd 5be5 61bc d3e5 033e
00000130: 0cc4 3a3c acf5 133d a82c babc 0f76 d9bd
00000140: da71 693c 7e70 31bd e26f d83e 4252 9b3d
00000150: f9d9 95bc 04da 6ebe f85d 6abd 7855 be3d
00000160: 1056 753d 267e 7fbc 5412 82bd 5bfd 41be
00000170: d045 88bc 4b02 243d 4648 d6bd 07f3 16bd
00000180: 5c46 433e 84ff e6bc 6946 ab3d 8601 bfbd
00000190: 6499 e13d 2ce3 e83c c470 acbd 6c3f 9f3d
000001a0: 40d1 7abe 5e89 6f3d 99bd 323d 0853 b33c
000001b0: edb0 943e 7f88 723e 9ebd cebd 89ad 853d
000001c0: 9e66 c53d b316 a33d e23e 6cbe fbe1 c43c
000001d0: 4adb 303e d42a 673d 989d 6cbd 2510 283d
000001e0: 3152 adbd cf2e f23d 50af 1f3d 6018 06be
000001f0: 8d61 85bd d056 073c 6542 66bd 9579 bf3e
00000200: c8c6 19be c3de 37be 23a1 8a3d d741 1bbd
00000210: cc2b 6c3d c9cb f03d 1696 31be 1adc 3fbe
00000220: 45da bf3d 7c5f 573d 5226 363d 51e4 383e
00000230: e27b 7cbe 1e48 4cbd c99a 91bd 3d72 3dbe
00000240: c731 f83c 6aa6 4c3e 5265 733d d1e0 bfbe
00000250: 0707 6a3e 0a93 023b cd29 5e3c 2219 023d
00000260: 0f03 9e3e 91ac fabd 3240 a23c d444 89bd
00000270: 5657 003e 1eb4 8e3d b395 833d 8fac 45bc
00000280: 60ad b33b be3d 44bd 6b78 7f3d c6a5 79bd
00000290: 7b58 0dbd 8eff ddbd a671 3b3d 6b4a 873d
000002a0: 2360 0abe 98e6 e4bd bab2 ad3c 28f0 08be
000002b0: 08cc a2bd bf2b 023e e4aa abbe bc26 14bc
000002c0: 8cf1 a33e 8927 233e 44e3 bc3c 2f10 0fbb
000002d0: d26c 9c3c e294 353d 1c88 b03a 484e 5cbd
000002e0: ee7e fabd 4a3d 043e feb8 d3bb 6557 71bd
000002f0: b6b0 633d 8a7f 52be ec8c f13d f4ba 92bd
00000300: 74d2 f73d 0f10 38bd c31f 113e e95c d93d
00000310: 806f 68be 1487 d8bb 1365 3fbd 1d17 41bc
00000320: 0ccc 11bd 5582 2a3e d7f4 75bd dbe1 6f3d
00000330: 3749 4f3e 140f d63c 777c f03d da77 8a3c
00000340: 391c 80bd 1c2d 0e3c 0e87 f73d 53a9 14bd
00000350: b65c e5bb 5102 683d 2459 10be 430f 0a3d
00000360: 3ed4 e83b 7811 393c eeaa 84bb b0be a9be
00000370: 668f 32bd 0f68 3cbe be86 bd3d a5bc bfbb
00000380: c7a9 383e c658 4fbd 07d8 f7bb d0fb 95bd
00000390: aaee 39bd 119a c7bc 8240 2d3e 3490 eb3d
000003a0: 69bb 053e 0f5b 27bd dc78 b13c e83f cd3d
000003b0: dd87 ee3d 186e ecbc 35a1 90bc c830 733d
000003c0: e64b f0bc 12e1 d6bc 1e5d 303e d266 b9bb
000003d0: 925e 04bd 01f1 0b3d ff7d 963c f421 fa3c
000003e0: 5345 0b3d ab2c 0fbe db3e a6bd 2e2f 21bd
000003f0: 1a03 7d3d edef e1bd b42b 283d bc22 d8bc

output_layers.0.bias f4 [40]
-0.96134907 -0.90137935 -0.8571318 -0.88570553 -0.8819199 -0.8818383 -0.8809106 -0.9208859
-0.8937572 -0.8837401 -0.886573 -0.93064195 -0.87777543 -0.890154 -0.8949498 -0.9089468
-0.8974264 -0.901023 -0.88678473 -0.88457525 -0.887237 -0.8784265 -0.8810838 -0.9163378
-0.8664158 -0.9102732 -0.86317766 -0.8868733 -0.88737214 -0.90013576 -0.8926882 -0.9000504
-0.88772017 -0.9380902 -0.88383466 -0.8924636 -0.89476585 -0.95577365 -0.86767215 -0.89158905
00000000: f91a 76bf ccc0 66bf fd6c 5bbf 99bd 62bf
00000010: 81c5 61bf 28c0 61bf 5b83 61bf 2ebf 6bbf
00000020: 46cd 64bf cb3c 62bf 73f6 62bf 8d3e 6ebf
00000030: e4b5 60bf 22e1 63bf 6e1b 65bf bdb0 68bf
00000040: bdbd 65bf 71a9 66bf 5304 63bf 8673 62bf
00000050: f721 63bf 8fe0 60bf b58e 61bf 1d95 6abf
00000060: 6dcd 5dbf aa07 69bf 36f9 5cbf 210a 63bf
00000070: d22a 63bf 4c6f 66bf 3787 64bf b469 66bf
00000080: a141 63bf ae26 70bf fd42 62bf 7f78 64bf
00000090: 600f 65bf 95ad 74bf c31f 5ebf 2e3f 64bf
