MODELS/REWARD COMPARISON/SAC UNMASKED MODELS/11_3_critic_local_network_un.pt (torch, 411327 bytes, 6 tensors)

hidden_layers.0.weight f4 [256, 101]
00000000: c25f bebc 5c0c 6d3d 27d5 03be 47e8 1bbe
00000010: dece 913c 578c e83d 8329 adbd ff8e 00bf
00000020: c263 163e 5cae cc3e da8e 693c e943 a2bd
00000030: ce59 8abe 8742 08be 59e0 b2be e24f b6bd
00000040: a23c 683b 0f19 1a3e c65c a4be bfa1 e5be
00000050: f662 793e a555 acbd 16e0 dcbe 8ded 04bf
00000060: b777 b3bd 2c50 46bd 6e3b 11be a14e 9dbe
00000070: db4a 21be d4d1 09be 8573 d03d 40e4 6abe
00000080: dedc dfbd 8e30 5bbe 28df 82be 8ec0 053c
00000090: b2f8 65be 21d8 2abf 5ed9 3ebe b8ec 2abe
000000a0: 816e e3bd 1f68 3ebe ec9e 74be 4888 babe
000000b0: e477 95be a313 11bf 7606 16bf d560 27bf
000000c0: 8cd7 0bbc 1eaa 44bd e6f5 173e 36c7 a53d
000000d0: 7f1e b8be 1dd2 8fbe 2e09 023e 49c2 94be
000000e0: 7a0f 863e 3208 b0be fd10 0ebf 660e 38be
000000f0: 27b8 4b3d 2db7 043d 1001 ccbe 566c a1be
00000100: abb4 22be f61c ccbe 9dc4 5a3d e6bc c9bd
00000110: 455e e5be fdd7 9c3d 6cd6 3abe 542f ab3d
00000120: f4ee 13be 1278 ab3c 6127 00bd ca29 6ebe
00000130: 5abf 913d 512f 7d3d 8357 37be 2b8e 01be
00000140: f2de 9dbe 38a3 413e 83e5 0f3e 49da 753c
00000150: e4b4 033d 1eea 9e3d b0d2 673e 2463 bbbe
00000160: 85e0 21bf 14ac d6be fc8b 93bd 063b 54be
00000170: 03ef a1bd f86a 343e 2488 6abd 9349 6c3e
00000180: 8f5a 5fba 0537 b2be 3a1b acbe e3c5 95be
00000190: fde7 11be 1b48 803d 9b68 333d dbff c53e
000001a0: d479 eebd 9ba8 373d 18bc 6b3e 3bbc dbbd
000001b0: 15b6 9b3e 09b3 ba3e 8209 0bbf fde2 74bd
000001c0: 11be d93e ee4a bf3e c37f 9c3e 44d2 983e
000001d0: 835c 223e c590 e5bd 43b5 8fbd 7f1b c63d
000001e0: fc31 83be 428e efbd 8517 963e b5d2 0d3f
000001f0: 1aad 773e 4aa4 b53d cc47 133d 34f7 9b3e
00000200: 7fbf 253f 0a35 65be d24b dbbc 7ed3 bf3d
00000210: aa38 963e 232a 143f bc46 2e3d 9a42 89be
00000220: 4738 c0be d9ad a8be 3993 a2be e778 d13c
00000230: 4d33 703d effa e93d 6657 443e d7f7 853e
00000240: d3ad 5e3e 3801 773e 32ad 9c3e d6ab 103e
00000250: 02b1 793e 1f19 043e 7b0f 91bd 83f6 6fbd
00000260: f74d 233e cb66 2e3f 0b3d d83e ce33 ae3d
00000270: 71b9 b13e f686 1fbc fdfc 2ebe 757b 1fbf
00000280: 45fc adbe 3517 bc3d ae81 9b3e 4805 743f
00000290: 0001 4b3e 00ac c73e fd56 e33d 4a0c b13d
000002a0: 99d1 b03e 1d45 0bbd 9c7b 72bc a351 a7bc
000002b0: 5879 5b3f ec79 203f 6d38 243c 94f2 fa3d
000002c0: 29a0 bc3e 412a 2bbe f532 89bd 0531 9b3d
000002d0: 0434 5cbe da7c 27bd b3be 12bd 4018 943e
000002e0: 76be 43be a895 97be 1924 2f3e 747a 92bd
000002f0: 512f b8be 5ff5 20be a0e7 d63e 6fe7 1abc
00000300: 1a1e f13d fea0 f83e b269 923b 5351 d13e
00000310: f1e6 a93d 6dc9 2ebe 4c31 d2bd 5ce3 7fbd
00000320: da4d 4cbe d6cd bfbd 99e0 fcbd a897 91be
00000330: 1337 a6be cd40 2e3e 2ced 803d 87c5 1d3d
00000340: 449f 85be dd89 813e 1014 b83d ecba d3be
00000350: 97ff bfbd f3a5 c83c bb9c 9abe 5f19 adbe
00000360: 64d1 e63d 00ec e1bd df71 f13d 3ef1 34bd
00000370: de73 1ebe bf74 323d a9e9 8bbd 7a1c cfbe
00000380: df88 acbe 9e3b adbe 70db a4be 4c23 11be
00000390: d1f2 b7be 084e cabc ff32 b93d 44f9 4b3e
000003a0: b39c f3bd a207 adbe ebd5 2cbd 4405 a2bd
000003b0: 8e34 cb3c 16ab b6be 9caa 51bf bfb5 3bbe
000003c0: ba41 0c3e 4b66 c93d fa58 14be 8e7e e4be
000003d0: d2ad 22be 27ae 1dbe d224 8d3c 224b 7dbd
000003e0: 2d1d b5bd 8705 2f3e ca42 643e 1bcf 45bd
000003f0: fd88 cbbc fe28 a1be bc39 91be ff16 f4be
-0.02323902 0.057873115 -0.1287428 -0.15225326 0.017798837 0.11354893 -0.08455183 -0.50218195
0.14686492 0.39976776 0.01425525 -0.07923109 -0.2702164 -0.13306628 -0.3493679 -0.08901955
0.003543653 0.15048622 -0.3210203 -0.44849965 0.24354157 -0.08414773 -0.43139714 -0.51924974
-0.08763068 -0.0484163 -0.14182827 -0.30724052 -0.15751211 -0.1345895 0.101782836 -0.22938633
-0.10930799 -0.21405241 -0.2556088 0.008163584 -0.22458151 -0.66736037 -0.18637607 -0.16691864
-0.11105061 -0.18594407 -0.23888749 -0.364321 -0.29193032 -0.5667059 -0.5860361 -0.6538213
-0.008535277 -0.0480138 0.14839897 0.08094637 -0.35960767 -0.2808999 0.12698814 -0.29054478
0.26183683 -0.34381253 -0.5549467 -0.17974243 0.04973617 0.032401253 -0.3984456 -0.31527966
-0.15889232 -0.39865845 0.05341016 -0.09850483 -0.44798484 0.07658384 -0.18245858 0.083586365
-0.14446622 0.020931277 -0.031287555 -0.23258129 0.071165755 0.061812703 -0.17904477 -0.12651889
-0.30834156 0.1890992 0.14052396 0.0150056565 0.032154933 0.07759498 0.22638965 -0.36599076
-0.63233215 -0.4192816 -0.07204434 -0.2072564 -0.07906916 0.1761893 -0.05725874 0.23074941
-0.0008520269 -0.34807602 -0.33614522 -0.29252538 -0.14248653 0.06263753 0.04380093 0.38671765
-0.116443306 0.04483853 0.23020971 -0.107292615 0.30412355 0.36464718 -0.5431138 -0.059786785
0.42527822 0.37361854 0.30566224 0.2984792 0.15855603 -0.11209253 -0.07016995 0.09673213
-0.25624073 -0.116970554 0.2931482 0.5539964 0.24187127 0.08869226 0.035957143 0.3046204
0.64745325 -0.22383514 -0.026769552 0.09366511 0.29340106 0.57876796 0.042547926 -0.26808625
-0.37542936 -0.32945135 -0.31752947 0.025570346 0.058642674 0.11424815 0.19173965 0.2616565
0.21745996 0.24121559 0.30600888 0.1412805 0.2438393 0.12900208 -0.07083031 -0.0585847
0.1594771 0.681256 0.42234072 0.08505975 0.34711793 -0.009736767 -0.17088695 -0.62297755
-0.3398153 0.09184114 0.30372375 0.9532056 0.198246 0.38998413 0.11100576 0.08644922
0.3453491 -0.03400146 -0.014799979 -0.02042467 0.8573203 0.6268604 0.010023219 0.12253299
0.36840943 -0.16715337 -0.066991724 0.07577709 -0.21504217 -0.040890552 -0.035826396 0.2892475
-0.19115624 -0.29606366 0.17103614 -0.07152262 -0.359736 -0.15718602 0.4197359 -0.009454592
0.117733195 0.48560327 0.0044681663 0.40882358 0.08296002 -0.17069025 -0.10263309 -0.062472686
-0.19951573 -0.09365432 -0.12347526 -0.28436017 -0.32463893 0.17016907 0.06295237 0.038518455
-0.26098073 0.25300494 0.089882016 -0.41353548 -0.09374922 0.024493193 -0.301977 -0.3380842
0.11270407 -0.110313416 0.11789297 -0.04417538 -0.15473887 0.04356837 -0.068316765 -0.40451413
-0.33698174 -0.33834547 -0.32198668 -0.14173621 -0.35927442 -0.024695411 0.0904293 0.19919306
-0.118951224 -0.33794886 -0.042196196 -0.079111606 0.024805333 -0.35677403 -0.81900954 -0.1833105
0.13696948 0.09833964 -0.14487067 -0.44627804 -0.1588662 -0.15398465 0.017229471 -0.06183923
-0.088434555 0.17091952 0.22291103 -0.048293214 -0.024845595 -0.31476587 -0.2836436 -0.47673795

hidden_layers.0.bias f4 [256]
00000000: bd5f 5e3d 11fb b6be 57ef c7bd dcf1 92be
00000010: e4ab 9f3c 8d23 773d fc96 9abd 2acd 46bd
00000020: 551e bc3d da58 b4bd 5c25 46be 2917 9dbd
00000030: 21ed 583d 83be 4f3d aaf7 d0bd 48be 383e
00000040: ab04 c9be e68f c43c 4bc4 153e 803f 11bd
00000050: 69d0 babe 2c85 9dbd 3eb5 26bd 3c2e 69ba
00000060: cff4 97be 17bd 9a3d 6d2a f6bb da48 d1bd
00000070: 234e 82bd 201b 06be d066 acbb 81e6 35be
00000080: 706f 31bd c878 153d 42b1 87be 741c cc3d
00000090: 5962 08bd 7161 2dbc 57cf 923d 44fb 46bd
000000a0: 3de7 693c dfb3 2d3e 0d3a 983c 5f7c 4abc
000000b0: bcbd c33d 6b6d af3d 8d70 6bbd 4f7c 973d
000000c0: b06b e7bc a811 c3be 7777 f83c 5127 193d
000000d0: 3604 54bd 29c4 98bd fe03 6fbd b944 0c3e
000000e0: 2076 f63d b452 a2be a4af 3cbe 336f aabe
000000f0: bee2 543d ea18 2dbe 386d d7bd 04c9 b9bd
00000100: caa7 d1bd 9e27 90be a9cf 4bbe a989 933d
00000110: 33f6 e3bc 390a 08bd e560 27bc ce88 af3c
00000120: 18f0 08be 0d0c 1ebd 2a82 12be 6ebf 573d
00000130: 1add 9a3c c72b d63d 7881 d7bd 31f3 103e
00000140: fadb fa3d 2590 7d3d a1e5 50be f214 913d
00000150: f496 1dbe 82a3 eb3d e7b3 8abe cd23 e3be
00000160: 1bf7 ec3c cfc4 223e b7c3 bfbe 14d9 7ebd
00000170: eaeb 2d3e 869c f9bd 767d 083d a2c7 f33d
00000180: 62c4 2e3d 9c32 473e 012d 97be 4ab7 78bd
00000190: 8b91 cc3d d2c3 333d 0222 953d 9fe6 d33d
000001a0: 2d75 95be 250e 5abe 0d28 a5bc 8dc5 7bbe
000001b0: e763 083d dce9 64be c0d1 833d 71c5 e6bd
000001c0: e42a 1fbe 56e9 b83c f334 20bd 4745 fc3d
000001d0: 01a1 533c 8fe2 d2bd acd6 e6bd d298 d53d
000001e0: f18a 8bbe 8e59 e6be be30 bf3d af88 99be
000001f0: 64a0 f63d 4167 08be ad78 77bd 97ba e73d
00000200: 217b 333d e7dd 23be d956 ecbd 3d88 4f3c
00000210: 259d 36bd 4d12 10bd f89e efbe ac34 a93d
00000220: 6646 0abe dbd3 823c d5ff b5bd d4a8 93be
00000230: 2cd3 d73c 65ed 8ebe c0e8 c3be 18c7 64bd
00000240: 25b9 02be 5cd8 903d 0afe 843d 80ee e63b
00000250: 5d68 ab3d 5d21 b2be 0923 e93c d031 163e
00000260: 9ec0 b1be d34e 17be 134c 89be 5713 fcbd
00000270: 962b 2c3e 174e 57bd 3e34 21be 285b a7be
00000280: f5e3 22be c2a5 6dbe 7449 e7bd fbe2 b2be
00000290: 945d c2bd 00a7 4dbe 7a72 64be d4da 7bbe
000002a0: 06a7 943b 3d23 8abd 64bb a0be 1ede 2bbd
000002b0: 8480 cdbe 039c 123d 25a6 a0bb c992 1abe
000002c0: 5d58 9c3d 4a7e ee3a 2bef 8bbc 2cda 23bd
000002d0: fd06 65be 2689 56be 07e3 a9be 580c b33d
000002e0: 1d5d 84be 14d8 253c d464 973d 1e7d bdbe
000002f0: 8c77 f93d 87c0 fc3c f10c 9cbe e3a9 e1bd
00000300: 6873 2a3e 33f7 693c abaf b3be 9621 3ebe
00000310: 854e c9be 6c0a e93d 8168 8d3a 9d1b 0abe
00000320: 8d05 98bd 199b ce3c 3d81 c9bb 515a b7be
00000330: 55ef 8fbe 62e9 18be a8a1 d03c 4fbf 54bc
00000340: 2474 e53c 166a cfbe 56f5 383e 2c98 8b3d
00000350: ea70 953c 05a7 04bd 155a efbd 85ed 973c
00000360: 8159 41be 3af0 973b e2be 19be bf89 8ebe
00000370: f87f 4d3d dac2 8fbd 4aaa 85bc a3e4 583d
00000380: e5a7 d2bc d8ee 86be e8c0 ff3c 2794 2dbe
00000390: bb82 93bd f586 ab3d 01e1 83be 7175 32be
000003a0: 11ce 12be 7d17 e6bc 88c9 9cbe 11c4 a0be
000003b0: 07fc a53d 2db4 b93d 8fd6 90be 1107 1bbe
000003c0: 415d a3be 175c 67be 5ae4 8abd a6d3 21bd
000003d0: 6c6c c1be 0a4a 57bd c2a8 89bc 60eb 0ebe
000003e0: 1825 493e 66b0 f33d d2ba d03d e8c3 b53d
000003f0: 3814 86be 2e58 8cbe 6e82 9cbe a4a9 a1be
0.054290522 -0.35738423 -0.09762447 -0.2870015 0.019491144 0.06033664 -0.07548329 -0.048535503
0.09185473 -0.088060096 -0.19350189 -0.07670433 0.05296052 0.050718796 -0.10203488 0.18041337
-0.39261374 0.023994397 0.14625661 -0.03546095 -0.3648713 -0.07691416 -0.04070019 -0.0008895134
-0.29678962 0.07555597 -0.0075123818 -0.102189735 -0.0636256 -0.13096285 -0.0052612796 -0.17763712
-0.043319166 0.03649214 -0.26502424 0.099663645 -0.033296917 -0.010582314 0.07168453 -0.04857947
0.014276323 0.16963147 0.018582368 -0.012358754 0.09557673 0.08565792 -0.057480384 0.07396757
-0.028249592 -0.38099408 0.030330403 0.03739101 -0.05176183 -0.074592896 -0.058353417 0.1369809
0.12034249 -0.31703722 -0.18426377 -0.33287963 0.05197405 -0.16904035 -0.10518879 -0.09071544
-0.10237081 -0.28155226 -0.19903435 0.07203991 -0.027827358 -0.033212874 -0.010215973 0.021427538
-0.13372838 -0.03858571 -0.14307466 0.052672796 0.018904258 0.104575686 -0.10522741 0.1415527
0.122489884 0.061905045 -0.20400096 0.07084073 -0.15389615 0.11505796 -0.2709038 -0.4436325
0.028926423 0.15895389 -0.37454006 -0.06221874 0.16984525 -0.121880576 0.033322774 0.11903311
0.042667754 0.194529 -0.29526523 -0.060721673 0.099886976 0.04388792 0.07281877 0.10346722
-0.2919096 -0.21294458 -0.0201607 -0.24587078 0.0332984 -0.22354835 0.06436491 -0.11268128
-0.15543705 0.0225722 -0.039112996 0.12317901 0.012916804 -0.10297119 -0.11271414 0.10429539
-0.2725444 -0.449902 0.09335469 -0.29987094 0.12042311 -0.13320638 -0.06041782 0.11314886
0.043818597 -0.16002618 -0.115400024 0.012666759 -0.04458346 -0.035173703 -0.4680097 0.082619995
-0.13503417 0.015970161 -0.08886687 -0.28839743 0.026345812 -0.27915493 -0.38263512 -0.055853933
-0.1276594 0.07072517 0.064937666 0.0070474744 0.08369515 -0.3479108 0.028459089 0.1466744
-0.34717268 -0.14776163 -0.26815853 -0.12308376 0.16813502 -0.052564707 -0.15742585 -0.32686734
-0.15907271 -0.23207763 -0.11293307 -0.34938797 -0.09490505 -0.20083237 -0.22309294 -0.24595195
0.0045365123 -0.067450024 -0.31392968 -0.041959874 -0.40137112 0.035793316 -0.0049026185 -0.15095057
0.076340415 0.0018195596 -0.017081818 -0.040002987 -0.22365947 -0.20950755 -0.3318102 0.08742589
-0.2585229 0.010122318 0.07392278 -0.3700952 0.12181005 0.030853523 -0.30478624 -0.110187314
0.16645586 0.014280128 -0.35094962 -0.185675 -0.39317718 0.11378941 0.0010788591 -0.13487096
-0.07422934 0.02522044 -0.0061494396 -0.35811093 -0.28112283 -0.14932778 0.025467709 -0.012985065
0.028009482 -0.40510625 0.18062338 0.06816134 0.018242318 -0.032385845 -0.11687104 0.018545875
-0.188818 0.0046367915 -0.15014222 -0.27839467 0.05017087 -0.07019587 -0.016316552 0.05295242
-0.025714824 -0.26354098 0.031219915 -0.16951047 -0.07202669 0.083753504 -0.25757602 -0.17427613
-0.1433642 -0.028087372 -0.30622506 -0.31399587 0.08104711 0.09067569 -0.28288695 -0.15139414
-0.31907085 -0.22593723 -0.06781836 -0.039508484 -0.37778032 -0.052560844 -0.016804103 -0.13956976
0.19643056 0.1189888 0.10191883 0.08875257 -0.261873 -0.27411026 -0.3056826 -0.31574738

hidden_layers.1.weight f4 [256, 256]
00000000: 7fc1 3cbc 4312 e63d b6ea 13be 4418 bebb
00000010: abd5 49be 7c42 47be a800 a73d f9e0 733c
00000020: 7441 7bbe e890 82b9 4ff3 09be 5db6 433e
00000030: a745 49be 07b6 5f3d 1fbe adbd 9cfa f13d
00000040: 6f7f 873c 3988 3abd ab5c 0f3e 43a5 8abd
00000050: a487 8cbd f95f 84bd 2d65 043e 5fc0 03bd
00000060: a7e2 91bd 46ec c83d 19df 623d ca36 afba
00000070: d4f5 203e 910e 803d 98a1 d4bd b690 bdbc
00000080: 04ac 8dbd e5dc 363c c2a9 2fbe db66 8cbe
00000090: ab0a 133e 35a5 c4bd c04a 953d e954 1bbe
000000a0: f907 0ebc 911c 91be 6dca 4b3d 5c1b 8abd
000000b0: b99c 5d3d f58c 2dbe f5ff 633d fe3d 32bd
000000c0: 4b22 5abc 6199 3cbe 4c93 59be bb92 a83d
000000d0: ca19 2a3e dcf1 9c3c 9c10 023e fd0d c93d
000000e0: 3995 023e 1b12 5ebe 0840 62be 9a98 29be
000000f0: 12a2 813d df80 05be c295 d9bd 8c43 9fbd
00000100: c8d5 b0bc 5859 4cbe dab6 c63c bb81 47bd
00000110: 0f09 ecbd af95 c8bc 92ff 963d 513e 483c
00000120: 2c27 34be d6fe 34bd 6826 4fbd ca38 203e
00000130: 3eba ca3c d809 d83b b4c2 23be b4a2 86be
00000140: 3a34 41bd 8096 933c ee5d 16be 05f9 13be
00000150: 15d0 d23d 5b67 12bd 7f6a 933c efb4 95be
00000160: 922b b4bd baea cfbd ba1c ecbb fd7d 5abe
00000170: 5b30 88be 351c 22bb 17b7 80be 2f26 13bd
00000180: a0ca d3bd 1d08 90be 142f 743d 36ea 9a3d
00000190: f51c 94be fdf0 573d 25ef 4e3c 5cfe b8bc
000001a0: 60ba c4bd ede6 12bd 5650 c73c 3b69 aabd
000001b0: 85de 4bbe fbf0 b73c 82d3 c73b 75e4 e23c
000001c0: 0b09 56bd 81aa 89bd 4925 133e 42d6 18bd
000001d0: 1536 aebd 3a8c 93be 78fe 983c 2e64 60bd
000001e0: 38fc 30be 79a5 0dbe 2455 5dbc c2c8 85bc
000001f0: 8825 323c 416c 403e 9fa7 cbbd 4ec0 3bbc
00000200: 4f16 e9bd a4cf 983b 5767 b63d 7dff 51bd
00000210: 5868 023d 3e26 f83d 8897 d1bd 23a6 83bd
00000220: 02dc a6bc 6c42 fdbc 0814 a63d c4a9 9cbd
00000230: 4f55 acbd 3c9a 0c3d 162e 77be 7f98 dbbc
00000240: 97a5 69be 6b40 5c3d 8062 6abd 82bc b0be
00000250: 5e08 283d f1ed bcbd 89c1 a33b c8e3 94bc
00000260: 7904 35be 6bef 0cbe 1896 fcbd 5ee3 403e
00000270: 11f0 65bd 0594 b1bc a9e4 803d 3cdf adbe
00000280: 4ed8 183e 27f2 9dbe 5b20 cebc b03d 42bd
00000290: 01c1 533e 640d 3bba 7d06 39be 1647 0cbe
000002a0: 9514 02bc e50b 0ebe 5110 9abc 3d7b 653d
000002b0: f7d9 39be bfc9 74bd 43a9 963d 4065 163e
000002c0: 5bc4 0f3e 43ee bfbe 7998 d1bd 1796 fcbd
000002d0: 7224 5abb f6f2 fbbd 04cb e7bd 55ba 68be
000002e0: 5ba5 e1bd 5b72 01be cb54 583d ca2c e5bd
000002f0: 74b4 2bbe 9e23 afbc 40e0 14bd 0a89 083d
00000300: 3ab3 483d 9881 b83d 68fe c1bd 7a12 da3c
00000310: ddce c7bd b574 4ebe 202f d8bd bc19 c9bd
00000320: ba34 373e 42d4 44be 02c9 7e3e 7647 213d
00000330: b0ab 3cbd d9d7 db3d f45b 49be 7568 2d3c
00000340: 9db0 b7bd b44a f33b 3375 98bc f957 413d
00000350: fa27 8abc 97ef 8dbe 17b2 94bd a8f5 62bd
00000360: 8af9 40bd f443 99bc c032 aebc 0572 32be
00000370: d9d9 b5bd d30e 48be 560f e5bb dfba a63d
00000380: 74a1 003e 010f 7cbd f393 313d 64b4 f4bd
00000390: f9da 5e3d 1f88 51bd 3aad 44be 36c5 2fbe
000003a0: d632 36bd da46 32be c9d0 4fbd 0851 ef3d
000003b0: 5273 f8bd 4ee7 86bb 035b 35be 32da 023e
000003c0: 727d a93d 7b11 f6bc 463f 60be d85a 463e
000003d0: 8ba6 7b3d b45e b0bd f999 3d3d e31b 21be
000003e0: e51f ff3d 1f42 c33b 7c0a d53d 2ebc df3d
000003f0: e294 10be a72e b53c ae59 07be 1789 91be
-0.011520742 0.11233952 -0.14445004 -0.0058012325 -0.19710414 -0.19458956 0.08154422 0.014885181
-0.24536687 -0.00024903496 -0.13471721 0.19112535 -0.19655477 0.054616954 -0.08483528 0.11815378
0.016540257 -0.04554007 0.14000194 -0.067698024 -0.06861809 -0.06463618 0.1292922 -0.03216588
-0.07123309 0.098106906 0.055388544 -0.0013367769 0.15718776 0.06252778 -0.10382384 -0.023140293
-0.06917575 0.011161064 -0.17154601 -0.27422222 0.14359538 -0.09601823 0.07289648 -0.1516911
-0.008668893 -0.28342107 0.049753595 -0.067435 0.05410454 -0.16948302 0.05566402 -0.04351615
-0.01331384 -0.18417884 -0.21247596 0.082311116 0.166114 0.019158296 0.12701648 0.09817121
0.12752236 -0.21686594 -0.22094738 -0.16562119 0.063297406 -0.13037442 -0.10624267 -0.077765554
-0.021586314 -0.19955957 0.024257112 -0.048707705 -0.11525165 -0.024485437 0.07372965 0.012221889
-0.17593068 -0.044188343 -0.050573736 0.15646663 0.02474701 0.0065929703 -0.15992242 -0.26296008
-0.047168948 0.0180161 -0.14684269 -0.14450462 0.10293595 -0.0357431 0.017995117 -0.29239604
-0.08797373 -0.101521924 -0.007205573 -0.21337123 -0.26599392 -0.002473605 -0.25139686 -0.035925087
-0.10341382 -0.2813119 0.05961521 0.075642034 -0.28928342 0.05272006 0.012630259 -0.022582226
-0.09605861 -0.03586476 0.0243303 -0.08320852 -0.19909103 0.022453776 0.0060982117 0.027696827
-0.052254718 -0.06721974 0.14369692 -0.037313707 -0.08506409 -0.28817922 0.018676028 -0.05478304
-0.17283714 -0.13832654 -0.013509069 -0.01633108 0.010873206 0.18791296 -0.099440806 -0.011459423
-0.11381208 0.0046634246 0.08906429 -0.051269043 0.03183779 0.12116669 -0.102339804 -0.064281724
-0.02036858 -0.030915461 0.081092894 -0.07649568 -0.08414709 0.034326777 -0.24138674 -0.026806114
-0.22817074 0.05377237 -0.057222843 -0.3451882 0.041023605 -0.09225071 0.0049974364 -0.01817502
-0.17677487 -0.13763206 -0.123333156 0.18836734 -0.05613715 -0.021677027 0.062936135 -0.33959377
0.14926264 -0.3084881 -0.025161913 -0.04742211 0.20679094 -0.0007135479 -0.18068881 -0.13698992
-0.007939477 -0.13871725 -0.018806608 0.056025732 -0.18149553 -0.059762713 0.07356503 0.14687061
0.14039747 -0.37486467 -0.1023416 -0.12333315 -0.0033285883 -0.123022005 -0.11318019 -0.2272733
-0.11017867 -0.1264128 0.05281524 -0.111901835 -0.16768056 -0.021379288 -0.036346674 0.033333816
0.04899905 0.09009093 -0.09472352 0.026620138 -0.09756253 -0.20161708 -0.105558634 -0.098193616
0.17891207 -0.19221595 0.24881366 0.03937479 -0.04606217 0.10734529 -0.19663984 0.0105839865
-0.08969233 0.007424677 -0.018610572 0.047203038 -0.016864765 -0.27721855 -0.072605304 -0.055410057
-0.04711298 -0.01870916 -0.021264434 -0.17426307 -0.08879442 -0.19536905 -0.0069903536 0.081411116
0.1256159 -0.061537746 0.043353986 -0.11948469 0.054408047 -0.051155206 -0.19206706 -0.17165074
-0.044482075 -0.1740984 -0.050736222 0.11685377 -0.121313706 -0.004116929 -0.177105 0.12778547
0.0827588 -0.030037632 -0.21899137 0.19370592 0.061438125 -0.08611813 0.046289418 -0.15733294
0.12457255 0.00595881 0.1040239 0.10924564 -0.14119294 0.022116972 -0.13217804 -0.28424904

hidden_layers.1.bias f4 [256]
00000000: 237d e0bd ff7e 2bbd a76a 2dbe 19a5 23be
00000010: 1a4b 15be e59d 0ebf ecc4 f8be dd8a 07be
00000020: 2a69 0dbe 13c4 10be db45 fdbd 164d f3bd
00000030: b0cf a6bd 14f5 00be 61e6 09be 7b02 11be
00000040: baa7 f8be e07b 34be 316e 1bbe 146c 9ebd
00000050: 9f1c fbbe 0313 2cbe 34a8 dfbd 0bd2 99bd
00000060: c390 0ebe b345 e1bd 285d fcbe d3c7 67bd
00000070: 3857 50be 5fc7 75bd 91c5 ffbd ca8a c4be
00000080: 80f6 85bd a08a 4cbe 14dd 8fbd c7ec 38be
00000090: 949a 10be f18a 4dbe b3f3 39be 4940 2cbe
000000a0: 1e6c 71be 2d29 08bf e4b1 eebd 1d1e ccbd
000000b0: 72d9 23be c8eb 47be baae 58be f211 13be
000000c0: ecba 9bbd 5e20 25be 9951 04bd e0ec 5cbe
000000d0: c097 03be 4387 38bd 66af 30be 1639 8ebd
000000e0: 8283 32be 6524 0abe 694d 04be f0c1 b8bd
000000f0: e6f2 12be ea06 e0be f1d6 a8bd ec22 0ebf
00000100: 66bd 1bbe 7fd8 15be 6479 e0bd c581 b2bd
00000110: 83b4 4dbe ed7d 58be 5ed7 20be e353 5bbe
00000120: 8dd3 0abe 0188 32be b5f1 06be 9cd0 d5bd
00000130: 030b e8bd 4302 09be 0164 34bd 5c77 ffbd
00000140: 32f6 0cbf 386c 80bd 638f 09be 2d3e 05be
00000150: b7c1 69be fcf6 85bd 44f3 b4bd 4135 05be
00000160: e1b4 f0bd f191 5cbe 5f8a f2bd ee7d f6be
00000170: 4071 5bbd 52a1 10bf 7fe4 3fbe 400e 07bf
00000180: 3b02 37be e2d9 10bf 5dea 17be 789b 1abe
00000190: 1c1c 0abe 7987 3fbe 9ab0 3ebe 15ed 10be
000001a0: ed5b 32be 7b10 fcbd d64f 19be 5787 17be
000001b0: fbc4 c5bd 05cc 1fbe d1e1 a9be c25a c6bd
000001c0: fe9c c8bd be44 48be cfea 6ebd 1b92 c6bd
000001d0: a9fe efbe 8c33 41be 8093 2abe 4cab 0ebe
000001e0: 01fe 16be 2161 d5bd d3f4 44be 4865 e7bd
000001f0: 3c6c 08be ee7a 02be 3806 1cbe b596 0dbe
00000200: 5a6b 04be 2c56 97bd 336a 0dbe 8b2b c1bd
00000210: c43e 1dbe af4a 0fbe 7d7b 0ebe c611 4fbe
00000220: 9bdd b3be dccd f8bd 4945 6ebd 2868 a8be
00000230: 94f3 3dbe 79c5 64be f019 cfbe 5e30 26be
00000240: f399 b1be 24c9 dbbd 6ade dabd aed8 65be
00000250: 8329 38be 485d e4bd 3b5d fbbd fd26 b5bd
00000260: 44db 4ebe 0fff d2bd 7313 92bd ec80 11bf
00000270: a7da f8be ebfc abbe 16fe 09be c267 9abd
00000280: 3a96 90bd 6d86 5ebd 51ad 00be b4f0 81bd
00000290: bdb9 a2be a42e 3dbd c40f fbbd a9b5 0abe
000002a0: 3ecb 16be a886 4ebe de0f 40be 2a0a efbe
000002b0: 3f38 60be d368 27be f029 00bf 086c 3cbe
000002c0: 9534 19be b384 31be 847e 9ebd 8776 13be
000002d0: 14fc ecbe b3f2 fabd 3f46 2dbe 9b6f 16be
000002e0: c533 dfbd a87f fabd a986 dfbd e547 04bf
000002f0: c047 edbd 9036 a4bd e9c7 ccbe 5d84 e3be
00000300: 5cd7 0abe 19d9 4fbe 8e3b 3dbe 1e62 08bf
00000310: 2ac9 1dbf ddb9 44be 8f40 2dbe 5459 dfbd
00000320: 17bf e0be 56a8 81bd 7b56 00be 27d2 8ebd
00000330: aefc 68bd 77a9 12be b92b 69be a462 29be
00000340: 230b 06be 3616 c5bd d655 0fbf b90a 5abe
00000350: 306a 0abe dae5 06be 53bc 74be d93c 59be
00000360: 82d5 cebd f73c f8bd bc74 45be f1a7 05bf
00000370: 8c68 98bd 5e8d 42be 9d29 83be 8289 30be
00000380: 5418 cdbd 5ab5 43be 1f8b 16be 5a73 58be
00000390: 59e3 dabd 8732 c8be 7f54 97be b32d a1bd
000003a0: 4605 1dbe b531 e1bd 5832 5dbe ee23 08be
000003b0: e298 91be 6ea2 d6bd 0a19 40be 2aa2 4cbe
000003c0: ce67 46be b981 ebbe a73d f2be 01ca 39be
000003d0: fc25 11be c018 97be 5aac 0abe 6a6f 35be
000003e0: c1bc 17be 4359 ccbd 164c 72be 10ba 86be
000003f0: bc26 3ebe 9e19 1cbe b614 ffbd edb2 cbbe
-0.10961368 -0.04186916 -0.16935216 -0.15980949 -0.1457943 -0.5570968 -0.4858774 -0.13236566
-0.13809648 -0.14137296 -0.123668395 -0.11879937 -0.08145082 -0.1259349 -0.13466789 -0.14161102
-0.48565465 -0.1762538 -0.15178753 -0.07735458 -0.49045274 -0.16804127 -0.10920754 -0.07510766
-0.1392241 -0.10999622 -0.49289823 -0.05658705 -0.20345771 -0.06000459 -0.12488855 -0.38387138
-0.06541157 -0.19974756 -0.07024589 -0.18059073 -0.14121467 -0.20072533 -0.1815937 -0.16821398
-0.235764 -0.5318783 -0.11655024 -0.09966681 -0.16000918 -0.19523537 -0.21160403 -0.14362314
-0.07604012 -0.16125628 -0.03230438 -0.21574736 -0.12850857 -0.04505087 -0.17254409 -0.06944482
-0.17432979 -0.13490446 -0.12920155 -0.09021366 -0.14350471 -0.43755275 -0.08244122 -0.55522037
-0.15208969 -0.14633368 -0.109606534 -0.08716158 -0.20088391 -0.21141787 -0.15707156 -0.21418719
-0.13557263 -0.17434694 -0.13178141 -0.1044018 -0.11330225 -0.13379769 -0.044040684 -0.12473938
-0.55063164 -0.06270641 -0.13433604 -0.13012 -0.22827803 -0.06541249 -0.08835462 -0.13008596
-0.1175325 -0.21540047 -0.118427984 -0.48142952 -0.0535748 -0.56496155 -0.18739508 -0.5275612
-0.17871945 -0.5658246 -0.14835496 -0.15098369 -0.13487285 -0.18704022 -0.18622056 -0.1415294
-0.1741788 -0.12307831 -0.14971861 -0.14797722 -0.09656712 -0.15605171 -0.33180097 -0.096852794
-0.09795569 -0.19557473 -0.0583294 -0.09695836 -0.46873978 -0.1886732 -0.1665783 -0.13932532
-0.14745332 -0.104189165 -0.19234018 -0.11298615 -0.13322538 -0.12742206 -0.15236747 -0.13827021
-0.12931576 -0.07389483 -0.13810043 -0.09432133 -0.15355974 -0.13993333 -0.13914295 -0.20221624
-0.3513001 -0.121486396 -0.058171544 -0.32891965 -0.18549949 -0.22340955 -0.40449476 -0.16229388
-0.34687766 -0.10731724 -0.10686953 -0.22445938 -0.17984585 -0.111506045 -0.12273642 -0.08845327
-0.2020083 -0.10302555 -0.07132616 -0.56837344 -0.48604318 -0.335914 -0.13475832 -0.075393215
-0.070599034 -0.054327417 -0.12566115 -0.063447386 -0.31782332 -0.046187058 -0.122588664 -0.1354586
-0.14725968 -0.20168555 -0.18756053 -0.46687442 -0.21896456 -0.16348581 -0.5006399 -0.18400586
-0.14961465 -0.17335777 -0.07738975 -0.14400683 -0.4628607 -0.122533225 -0.16921328 -0.14691012
-0.10898546 -0.1223138 -0.10914356 -0.516722 -0.11585951 -0.080182195 -0.3999627 -0.44436923
-0.13558716 -0.2029766 -0.1847975 -0.53274715 -0.61635077 -0.19211526 -0.16919158 -0.1090571
-0.4389579 -0.06330936 -0.1253299 -0.06973677 -0.0568816 -0.14322458 -0.22770585 -0.16541535
-0.13090186 -0.09623377 -0.5599035 -0.21293153 -0.1351707 -0.13173619 -0.23899965 -0.21214618
-0.10099317 -0.12121003 -0.19282812 -0.52209383 -0.07441816 -0.1899924 -0.25617686 -0.17239955
-0.10014406 -0.19112149 -0.14701508 -0.21137753 -0.106878944 -0.3910105 -0.29556653 -0.078700446
-0.15334043 -0.10995809 -0.21601236 -0.13294956 -0.28436953 -0.104802 -0.18759552 -0.19983736
-0.19375536 -0.45997408 -0.47312662 -0.18143465 -0.14174646 -0.2951107 -0.1354231 -0.17718282
-0.14818098 -0.09977963 -0.23661837 -0.2631383 -0.18569463 -0.15244147 -0.12455122 -0.39784947

output_layers.0.weight f4 [40, 256]
00000000: 8625 a5bc cfd7 cdbd 70d3 5b3b 9699 b13e
00000010: 98f9 0fbd ee86 41bd 0230 0abc 3aef f63d
00000020: fdfc b8bd 63f5 1a3d b112 46be e6fe adbd
00000030: 65aa b2bd b282 9b3e 577e a6ba f7f2 9cbd
00000040: 621b 62bd 04ab 98bd 7c99 753d fb8b e6bd
00000050: ca01 1bbd d316 adbd fc27 ebbc d448 fc3d
00000060: 147b 0b3e 0aa7 41be 999b 203d 674b 41bd
00000070: 3470 5c3c 3827 df3d f280 533d d592 1ebd
00000080: 6632 6d3d a0d9 9ebd cad6 2f3e 88d3 b6bd
00000090: d474 803d 5417 e0bd e703 6fbe d7ac dd3b
000000a0: 9786 143d 589f 62ba 7751 a93c 059a bcbd
000000b0: 4b67 10bc ad8d e9bd 01da da3b 3405 1f3e
000000c0: 23ca fabb b0c0 b0bd 9d18 f13c 0404 1bbe
000000d0: 386f da3b 41e7 bd3e 2c5e db3d 953e 1a3c
000000e0: 649f a93b 734a 8f3e fef7 ca3b 558d 313e
000000f0: 8ddd 1ebe add4 8abd df73 003d 6e9c 57bd
00000100: 95bb 1ebd f198 febd 71a9 ea3d b7a0 5dbd
00000110: dd0f a4bd 8f15 803c d5d1 3cbe 8721 343d
00000120: db8c 553e 3e31 0b3e 70a5 003e ec42 383e
00000130: b05d 353c 4260 77bd 1b37 ab3d 9175 e1bd
00000140: 9bea 0fbd a542 683d b540 0cbe 7d0c a2bd
00000150: 454a 0a3d 71de 2b3e 98a4 b03d 1391 41bd
00000160: 3c43 adbe 3291 41bb 9e61 a1bd 5124 6dbd
00000170: 043c 8a3e efd5 30bd 81b8 683e 26c6 0bbd
00000180: fb5c ca3c 5655 e4bc 09cb 4d3c 554e 94bc
00000190: 793a 723e fc94 38bd e94b 28be 64de 36be
000001a0: 89ad 283e ee75 793d 249d e8bd ae3d a8bb
000001b0: 1db2 5e3d d498 143d 74e6 053c 1d8f c0be
000001c0: b761 31bd cf62 c23c 3af1 36bd 9eb8 5f3e
000001d0: d306 c5bc 3041 54be 4012 253d ccb2 973e
000001e0: 001c 33bd 54e7 233c c835 223d d13e 073e
000001f0: c611 42bd a956 44bd 1420 ad3d b972 40bd
00000200: 08bf 873c b866 3dbe 97e9 5cba d23d 3c3e
00000210: 2b26 bc3d 9ba6 debd 3253 08bd b959 83be
00000220: b3db 9fbd e24b adbd c16a edbd a81c 71bd
00000230: 613e 85bd 068b ff3c 5700 91bd bae8 41bd
00000240: c272 883b 8095 7dbd 3198 44be 1d1d 023e
00000250: 1b48 27bd 5643 9f3d 33ec 973d 3a09 a5bd
00000260: 6ace aebd de93 153e 89d5 803e e913 67bd
00000270: d79e 52bc 93fc 8cbc 0024 d1bd 3c48 66be
00000280: c844 7dbd c232 ae3d 7f9d 64be 7576 183e
00000290: 56d2 cdbc 2b7a 92bd 0a7c ffbb d19d 8dbc
000002a0: ecaa 323e 9fbc 43bd ad33 6a3e 22ad 4abd
000002b0: dc4d e0bb 5029 e9bd 2a3a 80bd ff45 d43c
000002c0: 0e63 11bd 0801 3f3e 49ab 5abe 7feb 1ebc
000002d0: 3f14 58bd f386 45bd 66b6 263d def9 36be
000002e0: 6671 4c3e ce69 c53d 32b8 40be d5bd a73c
000002f0: 71b1 e53c c2f8 733e e15d 903b ee73 10bd
00000300: 1ddb 8ebe 78a7 ae3d 2a59 d2bc d877 cb3a
00000310: 2aa1 1abd f350 18bd 3511 49be 8b0f 6fbd
00000320: 316e 23bd f566 d23d d796 1bbc 2a37 8abd
00000330: 080f 3a3e 3e04 36bd fd01 01be 4cc2 193c
00000340: e907 e4bd a0f0 c03d 0126 15bd 57bc 45bc
00000350: acd8 0dbe 4402 46bd e61b b83d adce babd
00000360: bb76 a93d 9484 65be 091a 113c f3a7 53bd
00000370: 6bc3 943d 9bc1 65bd 786c 433d 2603 81be
00000380: feb9 0b3c 1a6f 3abd 8dbe dfbd 30e3 55be
00000390: fad0 09be e52e 50bd 39c3 9f3d f449 013e
000003a0: 97ba 993d 81f5 eabd 789b 5c3c a597 66bd
000003b0: 8f82 02ba 5ca4 6f3e 07a3 26be 6e4c 76be
000003c0: ae4c d5bc 6460 6cbd cff2 3abc 5782 633d
000003d0: 67ed 25be 3dac 60bb 2364 aa3e 00b2 25be
000003e0: 23ea 75be f5a8 873d d68f 9dbd 00de 0cbe
000003f0: 5939 8cbc 089f 9dbd e071 8c3e 3f6d bbbd
-0.020159494 -0.10050928 0.0033542775 0.3468749 -0.03515014 -0.04724782 -0.0084342975 0.120573476
-0.09032629 0.037831675 -0.19343068 -0.08495884 -0.087239064 0.3037315 -0.0012702447 -0.07663529
-0.055201896 -0.07454494 0.059960827 -0.11257168 -0.037843503 -0.08451619 -0.02870559 0.12318578
0.1362117 -0.18911377 0.03921089 -0.04719105 0.013454486 0.10896152 0.051636644 -0.03871425
0.05790939 -0.077563524 0.1717178 -0.08927065 0.06272283 -0.109419495 -0.23341332 0.006764989
0.036261167 -0.000864496 0.020668728 -0.092090644 -0.008813689 -0.11403976 0.00667882 0.15529329
-0.007653491 -0.08630502 0.029430682 -0.1513825 0.0066660903 0.37090495 0.10711321 0.009414335
0.0051764715 0.27986488 0.0061941138 0.1733907 -0.15514202 -0.06778846 0.031360503 -0.052639417
-0.03875311 -0.12431515 0.114581 -0.054108348 -0.08010838 0.01563528 -0.1843942 0.043977287
0.20854513 0.13593003 0.1256311 0.17994279 0.0110697 -0.060394533 0.0836012 -0.11008752
-0.035135847 0.056704182 -0.13696559 -0.07912538 0.033762235 0.16784073 0.08625144 -0.047257494
-0.33840358 -0.0029536006 -0.07879947 -0.057895962 0.26998913 -0.043172773 0.22726633 -0.034124516
0.02470254 -0.027872723 0.012560614 -0.018103758 0.23655118 -0.045063958 -0.16435207 -0.17858273
0.16472448 0.060903482 -0.11358097 -0.005134306 0.05436908 0.03627856 0.00817262 -0.37609187
-0.04330608 0.023728756 -0.044663645 0.2184777 -0.024051106 -0.20727992 0.040300608 0.296286
-0.043727875 0.010003883 0.03960207 0.13207556 -0.04738023 -0.047934208 0.08453384 -0.046984408
0.016570583 -0.18496215 -0.00084271416 0.18382958 0.091869675 -0.10871621 -0.033282466 -0.2565439
-0.07805576 -0.08461739 -0.11592627 -0.05886522 -0.065060385 0.031194221 -0.07080143 -0.047341086
0.004164071 -0.061910152 -0.19198681 0.12706418 -0.04084025 0.07776515 0.07418098 -0.080584005
-0.08535464 0.14607188 0.25162914 -0.056415472 -0.012855253 -0.01721028 -0.102119446 -0.22488493
-0.061833173 0.08505775 -0.22325705 0.14888938 -0.02512471 -0.07152208 -0.007796769 -0.017287167
0.17448014 -0.047787305 0.22871275 -0.04948152 -0.006845219 -0.11384833 -0.06261094 0.025912283
-0.035494857 0.18652737 -0.21354403 -0.009699701 -0.052753683 -0.0482244 0.040701292 -0.17868754
0.19965133 0.09639321 -0.18820265 0.020476261 0.028038712 0.23825362 0.0044057225 -0.03526681
-0.27901545 0.08528036 -0.025677282 0.0015523387 -0.037751354 -0.037186574 -0.1963547 -0.058364432
-0.03990001 0.10273544 -0.009496412 -0.06748803 0.18169796 -0.04443764 -0.12598415 0.009384703
-0.11134321 0.094208956 -0.036413196 -0.0120688295 -0.13852185 -0.048342004 0.08989696 -0.091214515
0.08274599 -0.22413856 0.008856305 -0.05167384 0.072638355 -0.05609284 0.047710866 -0.25197715
0.008528231 -0.04551611 -0.109250166 -0.20887446 -0.13458624 -0.050825972 0.07800908 0.12625867
0.07506292 -0.114726074 0.013464801 -0.056296963 -0.0004978561 0.23402542 -0.16273127 -0.24052593
-0.02603754 -0.057709113 -0.011410429 0.055544224 -0.16203843 -0.003428235 0.33279523 -0.16181183
-0.24015097 0.06624023 -0.0769345 -0.13756561 -0.01711719 -0.076963484 0.2743063 -0.091516964

output_layers.0.bias f4 [40]
00000000: b4a0 6fbf 5ea5 58bf d4ce 65bf e6d3 78bf
00000010: 0705 5ebf 63da 5cbf 26f0 64bf 9be0 52bf
00000020: a7f6 5fbf bc4e 5abf 858c 61bf f6ee 64bf
00000030: 188a 52bf 3f52 59bf 87df 59bf f27d 5cbf
00000040: 27aa 61bf ee2d 59bf 5a15 5fbf a47c 59bf
00000050: 5b6d 57bf c697 5ebf 1d02 5abf d412 5dbf
00000060: b763 5cbf a2c7 61bf 8f1e 58bf 1770 5dbf
00000070: 3f7d 58bf 398c 5dbf 08b4 54bf 8c9f 54bf
00000080: 0850 56bf 03da 57bf 8f31 5ebf e8a4 58bf
00000090: 2a27 61bf cfeb 74bf e53c 65bf 9c0c 57bf
-0.9360459 -0.8462733 -0.8976872 -0.9719833 -0.8672642 -0.8627073 -0.8942894 -0.8237397
-0.87485737 -0.8527639 -0.8810504 -0.89427125 -0.82241964 -0.8489112 -0.851067 -0.8612968
-0.88150257 -0.8483571 -0.87141955 -0.8495581 -0.8415124 -0.8695034 -0.85159475 -0.86356854
-0.8608965 -0.8819524 -0.8442163 -0.8649916 -0.8456611 -0.8654209 -0.83087206 -0.8305595
-0.8371587 -0.84317034 -0.8679437 -0.84626627 -0.87950385 -0.95672315 -0.8954604 -0.84003615
