MODELS/REWARD COMPARISON/SAC UNMASKED MODELS/11_3_critic_target_2_local_network_un.pt (torch, 411399 bytes, 6 tensors)

hidden_layers.0.weight f4 [256, 101]
-0.020383274 0.20505789 0.0026274903 0.19283219 0.23860238 -0.25810522 0.28622445 0.52082217
0.38945666 -0.28666607 0.17911713 0.32177895 0.7471433 0.48650882 0.16897364 0.385045
0.010712613 -0.23236455 0.0021902567 0.24565639 -0.10183846 0.1723566 0.60660166 0.16771916
0.122803845 0.1996597 0.19840528 0.22468767 -0.17969896 -0.29883775 0.19933969 0.102895096
0.46904474 0.40659103 0.44589978 0.32139903 0.30770266 0.27188963 -0.028734542 0.01868421
-0.13916205 0.5072509 0.21657582 0.29742905 0.39033747 0.1598341 0.28701955 0.021317704
0.05607273 0.30905595 0.105587065 0.24292597 0.4202577 0.21675351 0.23497175 0.17165628
0.22501475 0.22453566 0.24697754 0.3000774 -0.108346745 -0.24378951 0.3552692 0.19911197
0.11915403 0.25914988 0.23482935 -0.04530108 0.3673875 -0.19198385 -0.08246484 -0.4339044
0.036965787 0.067558214 0.11190736 0.01852826 0.07040708 -0.008095388 0.0025784962 -0.2058768
0.022113442 -0.33501208 -0.35219005 0.030938204 -0.060578432 0.14509508 0.014969383 0.019429384
0.52612054 -0.41138646 -0.07705491 0.121210605 -0.010611965 -0.120722525 0.21570116 -0.36475033
-0.041576073 0.06692979 0.02848022 0.13594513 -0.053877134 -0.1906237 -0.2876791 -0.20613317
-0.053543855 0.11953962 -0.22156781 0.028932348 0.14997077 -0.58964705 -0.11683428 0.1410886
-0.33710927 -0.07142685 -0.3678674 -0.1537569 0.022383263 0.37744793 -0.34979787 -0.050169874
-0.010641072 0.05512838 -0.5028551 0.0029612386 -0.3640944 0.044947613 -0.1929843 -0.22775415
-0.33525378 -0.22026779 0.04071422 0.16843475 -0.22971967 -0.21156444 -0.5395358 -0.38338682
-0.27423045 -0.28377563 -0.31056583 -0.07636594 0.35070872 -0.22440264 -0.4250938 0.16541505
-0.3018713 -0.3782425 -0.12898663 -0.2679183 0.08789578 0.027683333 0.1335455 -0.23007733
-0.08657491 -0.5002439 -0.46527755 -0.15903322 -0.4315931 -0.2903391 -0.22321206 -0.013431079
-0.18162204 0.1182544 -0.19175579 -0.28008887 -0.19338894 -0.19703497 -0.54759413 -0.3140491
-0.37016952 -0.42054442 0.09747645 -0.09660217 -0.093644924 -0.1450169 0.33922526 -0.28227636
0.016827783 -0.22197844 -0.35222918 -0.22734827 -0.19209966 0.035344195 -0.32592747 -0.233778
-0.03624257 -0.34484592 -0.042808596 -0.23575085 -0.27159965 -0.361248 -0.46788245 -0.053484898
-0.2649399 -0.26479164 0.3343293 0.25540912 0.07360208 0.2052415 -0.09847666 -0.32575896
-0.20452082 -0.29711294 0.048012834 0.17322896 -0.061752126 -0.14436525 -0.10218331 -0.119969666
-0.047684737 -0.18092726 -0.24188775 -0.25028357 -0.12973359 -0.09502381 -0.30040506 -0.2710317
-0.26313007 -0.4922925 -0.20898205 -0.36123794 0.030940708 0.2344352 0.07784499 -0.10347629
-0.35180205 -0.7721849 -0.051758874 -0.34574604 -0.50900614 -0.37758887 -0.28312597 -0.28304747
-0.05872698 -0.3034021 -0.60070217 -0.66402733 -0.3325535 -0.25490144 -0.1762717 0.15821373
-0.647893 -0.3213988 0.080663696 -0.23419201 -0.3361836 0.0879809 -0.23446149 0.10299946
-0.3216058 0.15355858 -0.17439517 -0.22614355 0.08875106 0.21544723 -0.34775528 -0.71066934
00000000: d3fa a6bc b2fa 513e f931 2c3b cd75 453e
00000010: 2f54 743e 5e26 84be 038c 923e 9a54 053f
00000020: dd66 c73e e5c5 92be 7b6a 373e 36c0 a43e
00000030: c944 3f3f af17 f93e 6d07 2d3e 9e24 c53e
00000040: f583 2f3c f9f0 6dbe 698a 0f3b 598d 7b3e
00000050: af90 d0bd 407e 303e 3f4a 1b3f 92be 2b3e
00000060: 9580 fb3d 9873 4c3e c12a 4b3e 8614 663e
00000070: 0103 38be 4301 99be b41f 4c3e aaba d23d
00000080: a226 f03e b32c d03e fa4c e43e 6a8e a43e
00000090: 348b 9d3e 1e35 8b3e b464 ebbc a10f 993c
000000a0: 7f80 0ebe 32db 013f 0dc6 5d3e 9f48 983e
000000b0: 50da c73e 8dab 233e 3af4 923e 77a2 ae3c
000000c0: 85ac 653d 953c 9e3e 083e d83d 96c1 783e
000000d0: 042c d73e a2f4 5d3e 6f9c 703e aac6 2f3e
000000e0: 446a 663e adec 653e aee7 7c3e bfa3 993e
000000f0: e6e4 ddbd f5a3 79be d8e5 b53e 02e4 4b3e
00000100: 0707 f43d 4baf 843e 1b77 703e a08d 39bd
00000110: 371a bc3e 6a97 44be 53e3 a8bd b828 debe
00000120: 7069 173d f65b 8a3d b02f e53d 94c8 973c
00000130: 9631 903d 85a2 04bc fdfb 283b 5ed1 52be
00000140: 4027 b53c b486 abbe 4152 b4be 1e72 fd3c
00000150: 1721 78bd ce93 143e 2542 753c 5f2a 9f3c
00000160: d6af 063f 3fa1 d2be f7ce 9dbd 443d f83d
00000170: cfdd 2dbc 5f3d f7bd c4e0 5c3e 8ec0 babe
00000180: ac4b 2abd 7c12 893d 5a4f e93c 3335 0b3e
00000190: 45ae 5cbd dc32 43be ad4a 93be 9314 53be
000001a0: cd50 5bbd 30d1 f43d ace2 62be 8803 ed3c
000001b0: f091 193e 1cf3 16bf d046 efbd 8879 103e
000001c0: 9699 acbe 3e48 92bd 1e59 bcbe 7372 1dbe
000001d0: 1b5d b73c db40 c13e b518 b3be ed7e 4dbd
000001e0: e457 2ebc 4cce 613d 1dbb 00bf 5711 423b
000001f0: 956a babe fd1a 383d ad9d 45be 6238 69be
00000200: 62a6 abbe e18d 61be f4c3 263d 297a 2c3e
00000210: a23b 6bbe 59a4 58be 051f 0abf 474b c4be
00000220: ef67 8cbe 0a4b 91be 7c02 9fbe bf65 9cbd
00000230: 1890 b33e cec9 65be e5a5 d9be 9062 293e
00000240: e08e 9abe 00a9 c1be 1215 04be 962c 89be
00000250: b402 b43d 28c8 e23c 27c0 083e 6499 6bbe
00000260: 304e b1bd fc0f 00bf dc38 eebe 9bd9 22be
00000270: c5f9 dcbe 54a7 94be b491 64be 070e 5cbc
00000280: 21fb 39be 5d2f f23d a15b 44be cf67 8fbe
00000290: c007 46be 89c3 49be 212f 0cbf 0bcb a0be
000002a0: dc86 bdbe 9951 d7be bca1 c73d 5cd7 c5bd
000002b0: e9c8 bfbd 4f7f 14be efae ad3e 8786 90be
000002c0: 6bda 893c 514e 63be 6257 b4be fccd 68be
000002d0: c6b5 44be 13c5 103d f7df a6be 8063 6fbe
000002e0: 1773 14bd a58f b0be 1158 2fbd ac68 71be
000002f0: 1c0f 8bbe 7ff5 b8be 4a8e efbe fb12 5bbd
00000300: 34a6 87be c592 87be 362d ab3e fcc4 823e
00000310: b0bc 963d d42a 523e 22ae c9bd e1c9 a6be
00000320: e86d 51be 301f 98be 1ba9 443d ef62 313e
00000330: ccef 7cbd 7cd4 13be 7c45 d1bd a8b2 f5bd
00000340: 1251 43bd ff44 39be 6cb1 77be 2b25 80be
00000350: e2d8 04be d89b c2bd b1ce 99be abc4 8abe
00000360: fcb8 86be c30d fcbe 64ff 55be 2ef4 b8be
00000370: 5e77 fd3c c80f 703e 326d 9f3d 61eb d3bd
00000380: 661f b4be e9ad 45bf 1d01 54bd a005 b1be
00000390: 3a4e 02bf 5453 c1be e3f5 90be 99eb 90be
000003a0: b48b 70bd 8557 9bbe 9ec7 19bf b2fd 29bf
000003b0: 7444 aabe 7182 82be 9280 34be c802 223e
000003c0: 51dc 25bf 628e a4be 0233 a53d 08d0 6fbe
000003d0: 4220 acbe 552f b43d ac16 70be 62f1 d23d
000003e0: 84a9 a4be 763e 1d3e a694 32be 2d92 67be
000003f0: 1ec3 b53d 339e 5c3e fb0c b2be 6dee 35bf

hidden_layers.0.bias f4 [256]
-0.34496915 0.034827318 0.10438598 -0.2638236 0.13994367 -0.13299838 -0.172803 -0.19149335
-0.30649424 -0.28647846 -0.08478635 0.092571825 -0.11340004 -0.09719214 -0.36492565 0.14618187
-0.2208044 -0.24406569 -0.06557544 -0.0029667008 0.023098288 0.075862885 -0.1605214 -0.3123089
-0.28461885 0.01923394 -0.2289351 -0.15271193 -0.20035876 -0.015116278 0.09044326 0.08110215
-0.3638388 0.21390939 -0.26004726 0.17203276 -0.34116465 0.0740595 -0.0055468655 0.067023166
0.0032140154 0.006927745 -0.3027124 -0.11705034 -0.1856872 -0.1763938 -0.02034183 -0.027351467
0.15584204 -0.10887345 -0.05667803 -0.2511416 -0.36049122 0.10728066 -0.093511716 -0.19268718
-0.047466274 -0.027342346 0.08050075 -0.28300387 -0.025781753 0.15711759 -0.29423717 -0.043312963
-0.26738656 0.11465832 -0.14786585 0.15765314 -0.47223088 -0.03232698 -0.037745025 -0.04473484
-0.10566419 -0.3715246 -0.30754808 0.06943317 -0.11117466 0.120756365 0.102124095 -0.3581633
-0.021735407 -0.20096241 -0.021098904 0.078853786 0.1466504 -0.056440257 -0.109920435 -0.14214121
-0.15421078 0.009274178 -0.02923178 0.09596648 0.090912506 -0.2788971 -0.27193 0.1967632
-0.31883714 -0.14229703 -0.38237914 0.04541096 -0.31151226 -0.168139 0.09338438 0.016665727
0.16656451 0.062827796 -0.26353276 -0.13678934 0.09330438 -0.36936843 0.10428692 -0.35405535
-0.035943262 0.003428161 -0.43036148 0.08141927 -0.24973196 -0.41421425 -0.11221181 -0.24280779
-0.25835901 -0.39278588 -0.19516513 -0.24218012 -0.04752363 0.07452929 0.11263953 -0.29840398
-0.14189906 -0.014319078 -0.20289665 0.06571055 -0.29879317 0.103584826 0.03527799 -0.09359221
-0.10205101 -0.26445392 -0.13879517 -0.054078836 -0.076291 -0.12895712 0.10313489 -0.10877526
-0.45640826 -0.07124849 0.10433474 -0.17483269 0.12509619 -0.10398828 0.16904122 0.07785245
0.041077025 -0.021741705 -0.06258668 0.0026658692 -0.30605328 -0.2960234 0.09606175 -0.022773765
0.06010748 -0.029710773 0.12569977 -0.11082902 0.055298835 0.029303554 -0.018762201 -0.065546066
0.026892707 0.0037151459 0.13465607 0.0020621584 0.0019875937 -0.25479063 -0.081966296 -0.004990952
-0.38845703 -0.28751552 0.051921826 0.25035554 -0.010115655 -0.11838164 0.087482445 -0.026539309
-0.18234128 -0.3284156 0.21235572 0.03988064 0.0009968214 -0.12935016 -0.33693543 0.111942194
0.08302973 -0.05955955 0.02322195 -0.15507172 -0.005951429 0.21189465 -0.371457 0.033593502
-0.11908344 -0.10565697 -0.19611171 0.2743514 0.03464418 0.29055935 0.03445718 -0.031040683
-0.30532065 0.254008 -0.37406322 -0.018550325 -0.012575379 -0.1955201 -0.06957867 -0.2059824
0.025853613 -0.20926404 -0.12437168 -0.052401792 -0.30048615 -0.016967582 -0.093699865 0.013807119
-0.021066181 -0.09094718 -0.08106652 0.059998628 0.06973696 -0.17260408 0.09924283 0.04968608
-0.049514797 -0.21071258 -0.27134708 -0.06757504 -0.043233145 -0.18766052 0.15822464 -0.15004417
-0.23892881 -0.07883953 -0.060963754 0.032412026 0.28913417 -0.2063599 -0.14674082 0.06771163
-0.073376834 -0.015174296 -0.10949654 -0.17058805 0.14258958 -0.18002784 -0.10163635 -0.14913999
00000000: cc9f b0be 17a7 0e3d 51c8 d53d e313 87be
00000010: 654d 0f3e ba30 08be 45f3 30be d516 44be
00000020: d0ec 9cbe 4ead 92be 77a4 adbd 4c96 bd3d
00000030: 483e e8bd ac0c c7bd 89d7 babe b3b0 153e
00000040: 8c1a 62be 5bec 79be 6b4c 86bd fb6c 42bb
00000050: 9f38 bd3c 005e 9b3d b95f 24be f4e6 9fbe
00000060: 90b9 91be 7f90 9d3c f66d 6abe 8460 1cbe
00000070: d92a 4dbe 44aa 77bc 513a b93d e218 a63d
00000080: 1449 babe 100b 5b3e ea24 85be 5b29 303e
00000090: 22ad aebe 82ac 973d 7bc2 b5bb 7143 893d
000000a0: 3ba2 523b 2302 e33b 1ffd 9abe 17b8 efbd
000000b0: c924 3ebe 94a0 34be e9a3 a6bc 2f10 e0bc
000000c0: 0e95 1f3e 0bf9 debd 3927 68bd a295 80be
000000d0: 4e92 b8be f6b5 db3d 1283 bfbd ca4f 45be
000000e0: ff6b 42bd 0efd dfbc 94dd a43d e2e5 90be
000000f0: 4134 d3bc 6fe3 203e 41a6 96be ef68 31bd
00000100: e4e6 88be fbd1 ea3d 256a 17be d36f 213e
00000110: 3fc8 f1be 4c69 04bd 879a 1abd e13b 37bd
00000120: 7866 d8bd 7938 bebe f176 9dbe fa32 8e3d
00000130: 8aaf e3bd 1d4f f73d 7026 d13d 2e61 b7be
00000140: 740e b2bc 17c9 4dbe 9cd7 acbc 187e a13d
00000150: 862b 163e e62d 67bd f71d e1bd 778d 11be
00000160: 6ee9 1dbe b9f2 173c 7c77 efbc 138a c43d
00000170: 5630 ba3d 9acb 8ebe 693a 8bbe 4b7c 493e
00000180: 9f3e a3be 50b6 11be 33c7 c3be d800 3a3d
00000190: 897e 9fbe a12c 2cbe 4f40 bf3d 9086 883c
000001a0: e38f 2a3e dcab 803d c4ed 86be 8112 0cbe
000001b0: 5e16 bf3d dc1d bdbe 6194 d53d be46 b5be
000001c0: 3e39 13bd ffaa 603b 5758 dcbe 25bf a63d
000001d0: bcb9 7fbe e413 d4be 4ecf e5bd 9ba2 78be
000001e0: a247 84be 3b1b c9be 5ed9 47be 11fe 77be
000001f0: 23a8 42bd d0a2 983d 8eaf e63d 68c8 98be
00000200: fd4d 11be 919a 6abc 24c4 4fbe 4193 863d
00000210: 6bfb 98be 4824 d43d a77f 103d 46ad bfbd
00000220: 1f00 d1bd 8166 87be 5220 0ebe c581 5dbd
00000230: 753e 9cbd 560d 04be 6338 d33d 90c5 debd
00000240: 58ae e9be baea 91bd 74ad d53d 5707 33be
00000250: 3719 003e cff7 d4bd 2419 2d3e 1b71 9f3d
00000260: 6240 283d a91b b2bc 722d 80bd ddb5 2e3b
00000270: 04b3 9cbe 6190 97be 06bc c43d 0c90 babc
00000280: 4333 763d 0264 f3bc 71b7 003e 53fa e2bd
00000290: 0881 623d 020e f03c 30b3 99bc 043d 86bd
000002a0: 184e dc3c ce79 733b 48e3 093e 4725 073b
000002b0: 4a42 023b eb73 82be f2dd a7bd 248b a3bb
000002c0: d7e3 c6be 3c35 93be fbab 543d 9a2e 803e
000002d0: 22bc 25bc 1372 f2bd ff29 b33d f768 d9bc
000002e0: acb7 3abe 1726 a8be c773 593e e259 233d
000002f0: c7a7 823a 5e74 04be cd82 acbe f341 e53d
00000300: 7e0b aa3d b7f4 73bd f53b be3c 1fcb 1ebe
00000310: 3404 c3bb e9fa 583e 9d2f bebe 5799 093d
00000320: 05e2 f3bd ae62 d8bd 82d1 48be c977 8c3e
00000330: 0ee7 0d3d 32c4 943e f922 0d3d 0849 febc
00000340: fd52 9cbe 560d 823e 3785 bfbe daf6 97bc
00000350: f608 4ebc 6c36 48be 437f 8ebd 0ded 52be
00000360: f5ca d33c 5049 56be 94b6 febd 43a3 56bd
00000370: 52d9 99be 99ff 8abc b7e5 bfbd 4137 623c
00000380: fc92 acbc 8442 babd 3406 a6bd 1fc1 753d
00000390: 40d2 8e3d 20bf 30be d33f cb3d a283 4b3d
000003a0: 07d0 4abd 0ac5 57be 01ee 8abe c864 8abd
000003b0: 3d15 31bd 142a 40be a405 223e 2ea5 19be
000003c0: c1a9 74be 9f76 a1bd 21b5 79bd 79c2 043d
000003d0: 6509 943e 0250 53be 3a43 16be 65ac 8a3d
000003e0: 9846 96bd 9c9d 78bc b93f e0bd a2ae 2ebe
000003f0: 0103 123e 3859 38be b826 d0bd 27b8 18be

hidden_layers.1.weight f4 [256, 256]
-0.264418 -0.11630504 0.053818412 -0.1711275 -0.23125194 0.089317024 -0.1194515 -0.08391058
-0.053396575 -0.11185737 -0.16691077 -0.048742507 -0.05233587 -0.23795769 -0.10559683 -0.029592006
0.007365303 -0.113068596 -0.06521646 -0.16141646 -0.02556678 -0.10600823 -0.005017166 -0.0003384192
-0.2277314 0.07113118 -0.13321449 -0.034466673 -0.036461063 0.2944835 -0.044008296 -0.015238277
0.082429335 -0.19740053 -0.20602411 -0.07975506 -0.2064059 -0.02547784 -0.04270434 -0.019621583
0.020273764 0.13321058 0.01680838 0.07888376 0.04409355 -0.05312423 -0.26397887 0.043296892
-0.07303596 -0.20577717 0.038774297 0.06417247 -0.12516505 -0.023024838 -0.088170625 -0.24820226
-0.04953766 -0.062475607 -0.123748764 0.111432746 -0.023484854 -0.11034032 -0.039045375 0.11793188
0.04187171 0.017737426 -0.06332269 0.052927833 -0.09135282 -0.10633833 -0.031103358 -0.07349703
-0.015682163 0.009424302 0.078936026 0.088067986 -0.15027094 -0.07763143 -0.06323517 -0.1754921
0.021305963 -0.02128378 0.028036354 0.008780872 -0.04456551 0.03393496 -0.12605363 -0.18042777
0.015049607 -0.15833299 -0.018200044 0.0685067 -0.063762374 -0.10792884 -0.12522139 -0.060081143
-0.08553588 -0.26382238 -0.13520241 -0.012444493 -0.17560548 -0.09909899 0.11194104 0.004836079
-0.08579968 -0.14788176 -0.038328674 -0.07413428 0.0956256 -0.08071182 -0.06561542 -0.0049730767
-0.28455806 0.0068484824 0.007277211 0.01974021 -0.3069975 0.09019824 -0.0058371644 -0.14045435
-0.018245187 -0.26378733 -0.13850573 -0.11085908 -0.05835525 0.09116216 -0.014714071 -0.19851933
-0.101596355 0.049510263 0.083743215 -0.20407791 -0.020993153 0.14378454 0.106932916 0.041050818
0.050451625 0.044010963 0.010167118 -0.078636386 -0.13961214 -0.16799407 -0.028558446 0.018609948
-0.0036831195 -0.02715635 0.060940124 -0.19665661 0.07132516 -0.121152155 -0.2277038 -0.12213672
0.31366384 -0.04476625 -0.016202454 -0.058196608 -0.040812813 -0.048859224 -0.21759324 -0.062804654
0.14494397 -0.17535721 -0.12580898 -0.020170331 0.034978587 -0.21507357 -0.21817818 0.050852984
0.025092617 -0.017097866 -0.151061 0.135 0.0067138188 -0.02808351 0.08653741 0.075782716
-0.07476017 0.11378119 -0.025445938 0.100455455 -0.25566158 0.017075388 0.14283338 -0.1739136
-0.006505608 -0.23591991 -0.07517331 -0.043842386 0.13769262 -0.09391137 -0.05196855 0.19157574
0.13002378 -0.10883259 -0.17643516 -0.15209445 0.009265454 -0.2630692 0.004942609 -0.14614661
0.041478083 0.1009308 -0.07753141 0.112393975 0.0066826595 0.0468623 -0.067659035 0.008986389
0.064312726 -0.058542907 -0.18404259 0.12550443 0.10931548 -0.11642241 -0.23391518 -0.08414169
-0.13633814 -0.102102526 -0.11454599 0.14979792 -0.09024009 0.16144045 -0.03146478 0.2150793
0.08864518 -0.006802278 -0.2935887 -0.18699975 0.05665445 -0.15902707 -0.11643133 -0.12627089
0.06604199 -0.12588929 -0.13839486 0.0005444473 -0.17483038 0.02977686 0.08235248 0.067873575
-0.13699073 -0.08327768 -0.10007661 0.04371079 -0.0273463 -0.060930222 -0.021388253 0.027120398
-0.13619986 0.092782654 0.08243395 -0.13023578 0.040963758 -0.0055094883 -0.050356288 0.068059444
00000000: cc61 87be 5631 eebd b270 5c3d 0c3c 2fbe
00000010: 4fcd 6cbe d8eb b63d fda2 f4bd 4fd9 abbd
00000020: 5eb6 5abd 7a15 e5bd a8ea 2abe 39a6 47bd
00000030: 235e 56bd 2eab 73be 2743 d8bd ef6a f2bc
00000040: a458 f13b 8290 e7bd 3590 85bd 5b4a 25be
00000050: 6c71 d1bc d81a d9bd 0a67 a4bb db6d b1b9
00000060: 6c32 69be 39ad 913d 6169 08be ed2c 0dbd
00000070: 3258 15bd 8bc6 963e 0b42 34bd f7a9 79bc
00000080: b6d0 a83d 5d23 4abe fcf7 52be 9f56 a3bd
00000090: 115c 53be e7b6 d0bc bfea 2ebd 71bd a0bc
000000a0: 2a15 a63c 5b68 083e bab1 893c cf8d a13d
000000b0: 709b 343d cb98 59bd 3d28 87be 1558 313d
000000c0: e193 95bd 40b7 52be ccd1 1e3d db6c 833d
000000d0: 442b 00be 969e bcbc cd92 b4bd bc28 7ebe
000000e0: 00e8 4abd 6ce6 7fbd fe6f fdbd da36 e43d
000000f0: 4f63 c0bc 1bfa e1bd 0bee 1fbd 4586 f13d
00000100: ac81 2b3d 144e 913c 54af 81bd dbca 583d
00000110: 3017 bbbd e9c7 d9bd 78cc febc 9c85 96bd
00000120: e177 80bc 6368 1a3c 36a9 a13d fd5c b43d
00000130: a0e0 19be 3afd 9ebd 7181 81bd 33b4 33be
00000140: d889 ae3c 525b aebc 7fac e53c a6dd 0f3c
00000150: 538a 36bd 62ff 0a3d 3414 01be 0fc2 38be
00000160: a092 763c 0b22 22be 4218 95bc 3e4d 8c3d
00000170: d995 82bd cc09 ddbd 093a 00be a517 76bd
00000180: 6f2d afbd ba13 87be 8072 0abe fde3 4bbc
00000190: ecd1 33be 69f4 cabd 5841 e53d f977 9e3b
000001a0: beb7 afbd 516e 17be 87fe 1cbd b7d3 97bd
000001b0: 5bd7 c33d 3d4c a5bd 6161 86bd 31f5 a2bb
000001c0: 98b1 91be 3c69 e03b ac75 ee3b 39b6 a13c
000001d0: c72e 9dbe dbb9 b83d af45 bfbb 44d3 0fbe
000001e0: ee76 95bc 220f 87be 72d4 0dbe 160a e3bd
000001f0: ea05 6fbd 3ab3 ba3d 4913 71bc a748 4bbe
00000200: c011 d0bd 46cb 4a3d 9081 ab3d cdf9 50be
00000210: d5f9 abbc 413c 133e a5ff da3d e724 283d
00000220: 5da6 4e3d d744 343d fc93 263c 1d0c a1bd
00000230: 7cf6 0ebe a306 2cbe 67f3 e9bc e473 983c
00000240: 7e60 71bb fe76 debc 5a9c 793d 5a60 49be
00000250: ed12 923d 9f1e f8bd 2f2b 69be d122 fabd
00000260: 8c98 a03e d15c 37bd 02bb 84bc 915f 6ebd
00000270: 562b 27bd 9c20 48bd c3d0 5ebe ba9f 80bd
00000280: 316c 143e d790 33be 12d4 00be 403c a5bc
00000290: b545 0f3d 3f3c 5cbe 1a6a 5fbe 384b 503d
000002a0: 088f cd3c d310 8cbc bcaf 1abe 713d 0a3e
000002b0: 98ff db3b 640f e6bc 873a b13d f833 9b3d
000002c0: dc1b 99bd 1d06 e93d 0074 d0bc 97bb cd3d
000002d0: 13e6 82be afe1 8b3c ea42 123e 6816 32be
000002e0: ff2c d5bb fd94 71be 77f4 99bd 1394 33bd
000002f0: 4bff 0c3e 9b54 c0bd f9dc 54bd 6e2c 443e
00000300: f424 053e 9fe3 debd 6bab 34be a6be 1bbe
00000310: 21ce 173c 02b1 86be 9cf5 a13b 75a7 15be
00000320: ece4 293d cfb4 ce3d cac8 9ebd d02e e63d
00000330: 36fa da3b aff2 3f3d d290 8abd a63b 133c
00000340: 64b6 833d b0ca 6fbd a975 3cbe 3c84 003e
00000350: cbe0 df3d df6e eebd 7687 6fbe 7a52 acbd
00000360: 3a9c 0bbe 211b d1bd 1797 eabd a064 193e
00000370: cccf b8bd a550 253e 37e1 00bd bf3d 5c3e
00000380: 9b8b b53d a5e5 debb 4251 96be dd7c 3fbe
00000390: 7f0e 683d fed7 22be 8d73 eebd 284d 01be
000003a0: 0641 873d 1fe9 00be 62b7 0dbe 3db9 0e3a
000003b0: bc06 33be 9aee f33c 6ba8 a83d 4d01 8b3d
000003c0: 4c47 0cbe 7d8d aabd f7f4 ccbd 160a 333d
000003d0: 5905 e0bc f891 79bd 6b36 afbc 992b de3c
000003e0: fa77 0bbe d504 be3d 21d3 a83d 875c 05be
000003f0: 9dc9 273d f088 b4bb 6542 4ebd c062 8b3d

hidden_layers.1.bias f4 [256]
-0.10318453 -0.1673119 -0.33513927 -0.5822075 -0.087197915 -0.4835593 -0.07227948 -0.09850741
-0.023558803 -0.07104748 -0.14060605 -0.30866984 -0.09487824 -0.1320884 -0.3211043 -0.10855914
-0.17916588 -0.21926185 -0.057534162 -0.14194131 -0.12605351 -0.12368883 -0.15226184 -0.12329444
-0.1536055 -0.21744138 -0.08987105 -0.1714021 -0.17944464 -0.36532542 -0.06763644 -0.43837202
-0.15291922 -0.1462967 -0.363054 -0.036070615 -0.15502934 -0.22083277 -0.21985987 -0.12974086
-0.3625994 -0.11928692 -0.44573396 -0.07192029 -0.33644038 -0.21260898 -0.11763119 -0.089594595
-0.12165663 -0.57715476 -0.029533066 -0.13200463 -0.20512427 -0.16256768 -0.19848666 -0.15548813
-0.18926851 -0.18683288 -0.11966417 -0.09453987 -0.12647834 -0.1542443 -0.08242745 -0.18822859
-0.13074227 -0.12221595 -0.39957398 -0.08061479 -0.29491678 -0.5292569 -0.14698555 -0.11207285
-0.25350922 -0.09505571 -0.11486505 -0.19063358 -0.14671022 -0.17121796 -0.15744743 -0.13477038
-0.05032503 -0.12506424 -0.08185713 -0.14526203 -0.1569369 -0.024186675 -0.19328307 -0.16565344
-0.17013276 -0.10292545 -0.47372666 -0.20742211 -0.07586867 -0.08212922 -0.17554049 -0.18817438
-0.14084114 -0.12347142 -0.28322804 -0.21505153 -0.12869203 -0.16763192 -0.16434912 -0.11315572
-0.12901305 -0.5241849 -0.090204716 -0.0807517 -0.063819185 -0.16754456 -0.09808539 -0.15513228
-0.56388634 -0.17341803 -0.07855558 -0.23166108 -0.13153747 -0.10390501 -0.12165894 -0.5498772
-0.16516586 -0.031051151 -0.116092734 -0.08642728 -0.14304897 -0.31459966 -0.099249974 -0.15529624
-0.21173234 -0.50460625 -0.21197586 -0.18195309 -0.15495495 -0.22637959 -0.1847895 -0.1758804
-0.5363527 -0.19323125 -0.09458355 -0.20993888 -0.19725092 -0.15452394 -0.10358682 -0.58662844
-0.108652554 -0.33645162 -0.02793221 -0.06346143 -0.16260804 -0.12799206 -0.18823002 -0.18149088
-0.025176473 -0.15658943 -0.16225772 -0.18601498 -0.10665638 -0.3654272 -0.21905883 -0.18597303
-0.14101186 -0.12927707 -0.14606255 -0.15990467 -0.10209986 -0.13098307 -0.127035 -0.123128906
-0.16194186 -0.13646144 -0.13341779 -0.066267885 -0.20697418 -0.09498489 -0.48509145 -0.5781243
-0.1702354 -0.514544 -0.05748388 -0.64557624 -0.105278 -0.16340242 -0.13458577 -0.101845875
-0.1278923 -0.17325597 -0.26457703 -0.16866362 -0.475134 -0.17275071 -0.50618243 -0.15660802
-0.2068347 -0.57096046 -0.07358468 -0.13233188 -0.17308597 -0.19226244 -0.14091437 -0.44734618
-0.184763 -0.19481954 -0.14458746 -0.12114397 -0.15033302 -0.16865784 -0.12923339 -0.55666083
-0.080049165 -0.20406511 -0.1774432 -0.22919266 -0.15372269 -0.08875227 -0.21153933 -0.10245816
-0.12218697 -0.11769256 -0.18812923 -0.48286042 -0.17545268 -0.4400802 -0.12274012 -0.16928601
-0.17693044 -0.5258051 -0.5813735 -0.19018689 -0.039335094 -0.37903467 -0.16362154 -0.09223151
-0.20407175 -0.19863614 -0.14283355 -0.1708484 -0.13070768 -0.15832546 -0.06616073 -0.14391921
-0.21972892 -0.32983348 -0.14022733 -0.0892846 -0.12830704 -0.17023854 -0.1176057 -0.19914605
-0.11894348 -0.13780747 -0.11875373 -0.11756339 -0.41089064 -0.106142215 -0.36500055 -0.05833201
00000000: 6952 d3bd d053 2bbe 6097 abbe 8d0b 15bf
00000010: d294 b2bd 1695 f7be 4407 94bd 41be c9bd
00000020: 64fe c0bc 5781 91bd 08fb 0fbe f909 9ebe
00000030: 864f c2bd 2e42 07be c867 a4be 4154 debd
00000040: 4377 37be 2e86 60be f1a8 6bbd 1059 11be
00000050: 2c14 01be 9250 fdbd 87ea 1bbe cc81 fcbd
00000060: c34a 1dbe f4a8 5ebe 500e b8bd 0884 2fbe
00000070: 56c0 37be ef0b bbbe f984 8abd 4c72 e0be
00000080: db96 1cbe cdce 15be 37e2 b9be c8be 13bd
00000090: 03c0 1ebe fc21 62be f222 61be cada 04be
000000a0: a1a6 b9be b34c f4bd 3e37 e4be f24a 93bd
000000b0: ea41 acbe 2bb6 59be 9fe8 f0bd 5f7d b7bd
000000c0: 1c27 f9bd 6ac0 13bf 54ef f1bc 392c 07be
000000d0: 190c 52be 2478 26be 1640 4bbe 4838 1fbe
000000e0: 9bcf 41be 1e51 3fbe 7d12 f5bd 1f9e c1bd
000000f0: 8a83 01be 38f2 1dbe b9cf a8bd ffbe 40be
00000100: 4de1 05be 5b4c fabd f694 ccbe 5e19 a5bd
00000110: 55ff 96be 617d 07bf 6183 16be 7386 e5bd
00000120: f6cb 81be 91ac c2bd 5e3e ebbd 7335 43be
00000130: 343b 16be c353 2fbe e639 21be 3f01 0abe
00000140: 9e21 4ebd d710 00be b6a4 a7bd 92bf 14be
00000150: 11b4 20be 2223 c6bc ffeb 45be 0ea1 29be
00000160: 4837 2ebe 94ca d2bd 4d8c f2be 7666 54be
00000170: 0961 9bbd 5d33 a8bd e3c0 33be c9b0 40be
00000180: a938 10be 95de fcbd 4403 91be 7836 5cbe
00000190: d8c7 03be b4a7 2bbe 234b 28be 30be e7bd
000001a0: ff1b 04be fb30 06bf 40bd b8bd 2661 a5bd
000001b0: a2b3 82bd cd90 2bbe fee0 c8bd ffda 1ebe
000001c0: db5a 10bf 7f94 31be bfe1 a0bd 9038 6dbe
000001d0: c2b1 06be 26cc d4bd 5328 f9bd c1c4 0cbf
000001e0: 3d21 29be fc5e febc 07c2 edbd c900 b1bd
000001f0: 6e7b 12be 3513 a1be 9243 cbbd fa05 1fbe
00000200: 5dd0 58be e02d 01bf 3310 59be e951 3abe
00000210: 83ac 1ebe 0dd0 67be 7539 3dbe fe19 34be
00000220: 694e 09bf 6ade 45be 05b5 c1bd 38fa 56be
00000230: 25fc 49be 863b 1ebe 5425 d4bd 482d 16bf
00000240: 3b85 debd 6343 acbe 17d2 e4bc 11f8 81bd
00000250: b982 26be 5a10 03be 5fbf 40be bfd8 39be
00000260: e43e cebc fb58 20be e326 26be b67a 3ebe
00000270: a96e dabd 4619 bbbe f550 60be b76f 3ebe
00000280: 6a65 10be 3561 04be 6c91 15be 0dbe 23be
00000290: bb19 d1bd 6d20 06be 7715 02be 022b fcbd
000002a0: 16d4 25be 8cbc 0bbe ac9e 08be 75b7 87bd
000002b0: 0af1 53be 7087 c2bd e85d f8be f4ff 13bf
000002c0: 3052 2ebe 28b9 03bf 3874 6bbd 7c44 25bf
000002d0: fe9b d7bd f752 27be dad0 09be 9294 d0bd
000002e0: 33f6 02be 036a 31be a476 87be 28b6 2cbe
000002f0: c344 f3be 90e5 30be 2c95 01bf da5d 20be
00000300: 7acc 53be 772a 12bf 91b3 96bd 0282 07be
00000310: 733d 31be 72e0 44be db4b 10be 8f0a e5be
00000320: 8332 3dbe c67e 47be bc0e 14be 541a f8bd
00000330: e6f0 19be a4b4 2cbe c255 04be 5381 0ebf
00000340: d1f0 a3bd 72f6 50be acb3 35be 7bb1 6abe
00000350: 7b69 1dbe c0c3 b5bd c49d 58be 95d5 d1bd
00000360: 2a3d fabd cc08 f1bd f3a4 40be 7b39 f7be
00000370: dea9 33be 3152 e1be 2c5f fbbd 5059 2dbe
00000380: 412d 35be 2a9b 06bf e5d4 14bf 5ac0 42be
00000390: d61d 21bd d510 c2be 688c 27be e0e3 bcbd
000003a0: 2ff8 50be 4667 4bbe f542 12be e2f2 2ebe
000003b0: 3cd8 05be 1220 22be 477f 87bd 8f5f 13be
000003c0: 9e00 61be efdf a8be c197 0fbe d8da b6bd
000003d0: ec62 03be 0353 2ebe 42db f0bd f1ec 4bbe
000003e0: a498 f3bd 671d 0dbe 2835 f3bd 13c5 f0bd
000003f0: 4260 d2be 1761 d9bd 5ae1 babe 8ced 6ebd

output_layers.0.weight f4 [40, 256]
0.036866296 0.043057207 -0.003274329 -0.05969306 0.047285046 -0.08951176 0.04555014 0.40649766
-0.07998742 -0.30470198 0.05258971 -0.009809015 0.17908132 0.14366733 0.0953636 -0.035553582
0.02813753 0.0069225854 0.25135618 -0.10251314 0.20618121 0.04907993 -0.030412616 -0.021958644
0.10073882 0.15308292 -0.031924915 0.11851695 0.12943828 -0.036596585 0.16580099 -0.0006139375
-0.13121803 -0.16019423 -0.07353057 0.032610595 -0.18025653 0.013999788 -0.0964924 0.21567173
0.005018618 0.22821303 -0.028931944 0.26038665 -0.021924606 -0.0723123 -0.11236297 0.2172654
0.42899433 -0.03533687 0.037999053 0.049729258 -0.120671436 0.14300515 -0.08450164 -0.053295042
-0.15731964 -0.08369899 -0.07427581 0.039024603 -0.08596482 0.107617974 -0.127229 -0.15568547
-0.2120795 0.06902307 -0.038362794 -0.020298216 0.012073925 0.0065832287 0.057029307 -0.10940298
-0.07196008 -0.19158827 0.11947639 0.09162738 0.11429083 -0.1432729 0.048115034 0.004873518
0.123484455 -0.070717305 -0.109154135 -0.16348843 0.055601858 0.19249518 -0.05033653 -0.088172816
-0.07857632 -0.12113076 -0.018778168 -0.07675244 0.11122747 -0.019708991 -0.026295835 0.074478514
-0.07933364 0.0028353191 -0.12508036 -0.062979355 0.062115733 0.11150866 0.03695757 -0.07721426
-0.029994916 -0.037768565 0.16794337 0.077745296 0.14803094 0.012558718 -0.034637325 -0.028278338
-0.02645436 0.11512938 0.11710177 -0.047185145 -0.037849646 -0.12621325 -0.19496511 0.04469361
0.03711944 0.3104831 -0.17552555 -0.019343812 -0.074657194 -0.05661804 -0.06709006 -0.20317881
-0.087138854 -0.04661958 -0.03690954 -0.23997945 -0.036785815 -0.21965839 -0.11983297 0.048348185
-0.017250141 0.09383989 0.09331935 -0.07796317 0.09691799 -0.15167072 0.112258844 -0.043763306
-0.12599559 -0.0137066 0.20783466 0.27363417 -0.0179664 -0.04409708 -0.029821968 0.114543766
0.09209575 0.0206534 0.07586877 0.0016323923 0.117323905 -0.09535986 -0.029649194 0.1072727
-0.20571809 -0.07660284 -0.12666218 0.0045576356 -0.063990936 -0.0013876181 0.06776941 0.02498608
-0.215345 0.06650127 -0.036226444 -0.15756615 0.13763548 -0.32354882 -0.0050146575 -0.06945507
0.073595606 0.025725845 0.23845461 -0.027325971 -0.11490636 0.0801048 -0.030350566 0.18785529
0.015014459 -0.1477649 -0.031165669 -0.13711502 0.015241277 0.09669118 0.023204202 -0.014809565
-0.041270386 -0.045491476 0.13766035 0.047727264 -0.16831508 -0.13655686 0.12847812 -0.033541534
-0.15543893 -0.03958256 0.08762774 -0.03796789 0.059224848 -0.038052488 -0.058355786 -0.054898083
0.025057472 -0.042636972 -0.10972648 -0.0058446894 -0.079487994 -0.042647395 -0.01996006 0.22390002
0.015133646 0.16196306 0.093324274 -0.0108401235 -0.08599612 -0.04941496 0.19567448 -0.054312732
0.104735754 -0.0670706 -0.010014664 -0.02346033 0.20034449 -0.08425826 -0.017127091 0.08387697
0.06218995 -0.028000357 0.103009164 -0.07333423 0.079967104 -0.06718941 -0.073080644 0.015721973
0.024040341 0.061943445 -0.012601711 0.031272773 0.052530825 -0.021804053 0.16060552 -0.095852435
0.11088432 0.059202224 0.028378276 0.09961035 -0.039594505 0.07830335 -0.121082574 0.024696443
00000000: 1d01 173d c15c 303d 2096 56bb b680 74bd
00000010: f7ad 413d f151 b7bd c992 3a3d 7620 d03e
00000020: 72d0 a3bd e601 9cbe 4f68 573d feb5 20bc
00000030: 1861 373e 871d 133e fe4d c33d a2a0 11bd
00000040: ad80 e63c dbd6 e23b c2b1 803e 69f2 d1bd
00000050: 2b21 533e 0908 493d e123 f9bc 9de2 b3bc
00000060: 2850 ce3d c5c1 1c3e b3c3 02bd 04b9 f23d
00000070: 788b 043e 4de6 15bd bcc7 293e a6f0 20ba
00000080: 055e 06be f509 24be 3297 96bd b092 053d
00000090: 2b95 38be 5e5f 653c cf9d c5bd 0dd9 5c3e
000000a0: 3873 a43b adb0 693e af02 edbc 6651 853e
000000b0: 3b9b b3bc 7918 94bd 8f1e e6bd d27a 5e3e
000000c0: 25a5 db3e 65bd 10bd e5a4 1b3d e8b0 4b3d
000000d0: 9622 f7bd f16f 123e 320f adbd e74b 5abd
000000e0: 6618 21be 606a abbd ea1d 98bd 43d8 1f3d
000000f0: 530e b0bd d066 dc3d 5248 02be 036c 1fbe
00000100: 5e2b 59be f85b 8d3d 4e22 1dbd 7248 a6bc
00000110: b6d1 453c 20b8 d73b 9097 693d ab0e e0bd
00000120: ce5f 93bd b72f 44be 0ab0 f43d 23a7 bb3d
00000130: 5011 ea3d 22b6 12be 4514 453d 08b2 9f3b
00000140: 6be5 fc3d 3cd4 90bd 348c dfbd 8369 27be
00000150: c6be 633d 751d 453e ad2d 4ebd f393 b4bd
00000160: 9fec a0bd 6713 f8bd acd4 99bc 6230 9dbd
00000170: 3acb e33d c074 a1bc 5d6a d7bc 3188 983d
00000180: ad79 a2bd c3d0 393b 1115 00be 52fb 80bd
00000190: 116d 7e3d a75e e43d d260 173d 8322 9ebd
000001a0: e6b7 f5bc 36b3 1abd 59f9 2b3e ed38 9f3d
000001b0: 6c95 173e 15c3 4d3c dedf 0dbd f9a7 e7bc
000001c0: d0b6 d8bc f4c8 eb3d 0ed3 ef3d 3645 41bd
000001d0: 3b08 1bbd 0c3e 01be efa4 47be a610 373d
000001e0: 8e0a 183d a4f7 9e3e f8bc 33be ea76 9ebc
000001f0: dfe5 98bd 51e8 67bd 8366 89bd 1b0e 50be
00000200: db75 b2bd 2cf4 3ebd 752e 17bd 2cbd 75be
00000210: b9ac 16bd 21ee 60be fd6a f5bd bf08 463d
00000220: 2b50 8dbc 212f c03d 371e bf3d 28ab 9fbd
00000230: f07c c63d 924f 1bbe f7e7 e53d 2741 33bd
00000240: fd04 01be a691 60bc 9cd2 543e c719 8c3e
00000250: 462e 93bc 249f 34bd 334d f4bc ec95 ea3d
00000260: b29c bc3d 5231 a93c 1661 9b3d fff5 d53a
00000270: 8447 f03d 084c c3bd dee2 f2bc cab1 db3d
00000280: c3a7 52be f3e1 9cbd bbb3 01be 3858 953b
00000290: ae0d 83bd bde0 b5ba b0ca 8a3d 9caf cc3c
000002a0: 6683 5cbe d131 883d 2e62 14bd 0559 21be
000002b0: 51f0 0c3e 31a8 a5be ff51 a4bb 763e 8ebd
000002c0: 4bb9 963d 02bf d23c 722d 743e b7da dfbc
000002d0: 0754 ebbd fc0d a43d c0a1 f8bc 235d 403e
000002e0: 35ff 753c af4f 17be 254f ffbc e167 0cbe
000002f0: 8db6 793c 0606 c63d bd16 be3c d1a3 72bc
00000300: 230b 29bd 4555 3abd d6f6 0c3e aa7d 433d
00000310: ca5a 2cbe 90d5 0bbe c58f 033e d962 09bd
00000320: 622b 1fbe 5321 22bd 2c76 b33d 3884 1bbd
00000330: c195 723d eddc 1bbd 7a06 6fbd d0dc 60bd
00000340: 5445 cd3c 1ba4 2ebd 47b8 e0bd cf84 bfbb
00000350: 9aca a2bd 09af 2ebd 4883 a3bc 0c46 653e
00000360: 1df3 773c a5d9 253e cc20 bf3d c69a 31bc
00000370: bc1e b0bd 5767 4abd e45e 483e 0777 5ebd
00000380: b37f d63d 505c 89bd 8c14 24bc e12f c0bc
00000390: 1b27 4d3e 988f acbd 1d4e 8cbc b0c7 ab3d
000003a0: e4ba 7e3d 0161 e5bc 78f6 d23d 4230 96bd
000003b0: cbc5 a33d 9a9a 89bd 4eab 95bd 5ecb 803c
000003c0: 40f0 c43c 69b8 7d3d 6877 4ebc e117 003d
000003d0: 902a 573d 6a9e b2bc c675 243e 484e c4bd
000003e0: 5217 e33d 087e 723d 8f79 e83c 8300 cc3d
000003f0: d92d 22bd 825d a03d 24fa f7bd 3250 ca3c

output_layers.0.bias f4 [40]
-0.9352091 -0.8439141 -0.9018264 -0.95835346 -0.8589994 -0.86024666 -0.8871168 -0.85782844
-0.8721029 -0.8544099 -0.87629265 -0.893814 -0.82286215 -0.85541403 -0.85092264 -0.85777766
-0.8767189 -0.8499104 -0.8790155 -0.8479533 -0.83937293 -0.8668225 -0.85159874 -0.8610875
-0.86540395 -0.8826318 -0.84685177 -0.8663113 -0.85067755 -0.8667724 -0.83349955 -0.8457495
-0.8355085 -0.82236826 -0.865338 -0.8453371 -0.8691958 -0.9587508 -0.8697029 -0.8442125
00000000: dd69 6fbf c10a 58bf 18de 66bf a756 75bf
00000010: 62e7 5bbf 2039 5cbf 161a 63bf a59a 5bbf
00000020: 2342 5fbf 9bba 5abf b754 60bf ffd0 64bf
00000030: 18a7 52bf 6afc 5abf 11d6 59bf 5197 5bbf
00000040: a670 60bf ba93 59bf 2907 61bf 7813 59bf
00000050: 25e1 56bf 14e8 5dbf 6002 5abf 3b70 5cbf
00000060: 1d8b 5dbf 28f4 61bf 47cb 58bf 94c6 5dbf
00000070: 01c6 59bf cce4 5dbf 3a60 55bf 0a83 58bf
00000080: e3e3 55bf ba86 52bf cb86 5dbf 0368 58bf
00000090: 9e83 5ebf b170 75bf d9a4 5ebf 4f1e 58bf
