MODELS/REWARD COMPARISON/SAC UNMASKED MODELS/1_1_critic_local_network_un.pt (torch, 411319 bytes, 6 tensors)

hidden_layers.0.weight f4 [256, 101]
00000000: b3e3 45be 0938 cbbd fb41 613e 6b76 1d3e
00000010: 8650 1fbe 98ca 9cbd 0724 4a3e 1163 8d3c
00000020: 4162 f3bc 0445 7ebe 42c4 c53d caa1 6f3e
00000030: 9385 873e 9292 363c 0521 6b3e d69c 583e
00000040: 123f c83d 40ce 213e 877a 7fbd b973 5f3d
00000050: edf9 9bbe 2607 00be af36 0f3e 8f6c 913e
00000060: 4bf7 a13e 7b6f 0f3e cb24 e23e b92c c23e
00000070: 2d8c 113e bd4f f23e c123 1d3a fa99 a73e
00000080: d165 143e 41bd 2c3d 52eb 0f3d 916c 80be
00000090: b5fa 58be 06e8 f4be f0fc 113e ccc4 a93c
000000a0: c824 b33a 84f1 1e3e bf74 babc 1be9 70be
000000b0: faba 72bb 912f 2c3d 9487 cc3e 91a0 8f3e
000000c0: 6f4f 2ebe 4851 3ebd c178 493e 170f 333e
000000d0: bfc0 9a3d f762 473e b127 103f c882 3d3d
000000e0: 13e8 2b3e f072 29be 1ec3 6c3e 173a e6bd
000000f0: 838b a53d 05e0 ce3c 5308 223f 062d b23e
00000100: 3513 953b 6548 d93d 78a7 043b cd02 04bc
00000110: 5094 d1bd 67c7 173e 6d19 aebe b4cb 1c3e
00000120: 5f28 ed3e d32c f03e b28b ab3d 02ff 8abd
00000130: 5198 8c3e 391d 1e3f 4104 c6bc d173 593e
00000140: 972c a83d d82d 3a3e a363 533e f33e 713e
00000150: b2c5 ac3e 3a50 523e 6427 a5be 278e a2bc
00000160: 663b 98be eb99 72be 2fc5 d2bd 8c3e f43d
00000170: 8fca 8e3e 18df ea3d 08b1 313e e701 e23b
00000180: 30ea 55be 79ff 173e 2ba6 c0bd 8e22 77be
00000190: a451 cfbd 2a0c 4f3e 18cc 833e a0b6 7cbe
000001a0: e4d3 c43d e0ed 2b3e 4c5e a63e 342a 163d
000001b0: 0951 23be 3f44 22be 9d05 ef3d 3230 7cbe
000001c0: 3358 fb3d 0818 a1bc 80af 493e 11ba 473e
000001d0: 3105 5f3d af29 203e ed23 94bd ec92 233e
000001e0: 1997 793e 722c 2c3c b779 b93e b1d1 9f3e
000001f0: 7e92 a93d 7d38 10be 8a09 bbbd 35dd 2e3d
00000200: 4055 a3bd 498a 183e 0aee 3b3e e5af 813e
00000210: ddb0 8e3e dfa6 023f 5022 913e 86c0 893e
00000220: da01 8b3e 4394 5b3e 2ee2 0cbd 20b7 a43e
00000230: 19f5 42be 2778 e83d d6f5 a33d 45c2 853e
00000240: 952f 7ebc 8195 2c3e 24ef 8b3d 7979 173e
00000250: 071c 78bd 9751 ca3d 8db0 13bb 8d8b 083e
00000260: 5dc0 bbbd ff39 d33e dee5 d83d 9b94 123e
00000270: 5a2e ad3e 3059 003e ee28 d6bc c460 91bc
00000280: 573a 553e 53ce 603e b836 45be 0780 363e
00000290: f9eb 69bd 7233 643d fbfa b9bd fea9 a4be
000002a0: 2e1e d43d f23e 063e ad50 3b3d 628d e93c
000002b0: 551b 893b 92e6 fa3d ecbd 9abe 4c21 e43d
000002c0: 20b7 14be 81bd be3d 3dc4 c23d ce59 de3e
000002d0: 65a4 01bd 0448 adbe c4b4 7b3e 6ee3 973e
000002e0: 5973 643d 18d4 1fbe 4ef2 b63d f1ad 3e3e
000002f0: 7293 5cbe c4a6 dfb9 a38f 843e 1f73 bf3d
00000300: ff9f 91bd e3be ef3c abde 02be acdf a63d
00000310: 9413 d7bd ce08 e23d 76c3 993e 4630 8dbb
00000320: 207d 8c3c 5226 173c bd35 a53d 1898 713e
00000330: deec 803d 6cae 55be 9911 533d 1135 813d
00000340: 5307 683e e396 88bd 9746 2b3e 0aaf dc3e
00000350: fd8d 31bc f138 27be 350d 3dbd f0cf 00be
00000360: 3e2d 273e b3bf 87be dc9e 9d3e 1d22 283e
00000370: 69e7 b8bd bebb ee3d fed0 39be 997e b3be
00000380: 30e8 9a3d 2ce4 eebd 6792 443e f7f3 7e3d
00000390: fd45 a43e 6821 193e b961 5fbc e4ec 71bd
000003a0: 3569 a73d 0656 10bd 3730 33be 7c99 40be
000003b0: 2380 893d b148 dd3e 5308 37bd 1b0b 553e
000003c0: 4c9e ac3e 9203 6f3d 25ee a9bd d420 afbe
000003d0: 75bf 8ebe b552 bbbd c7e4 373e e4d8 41bd
000003e0: 7ab9 57be 61dd a83d 523e a13c 8799 8c3e
000003f0: 797b 30bc c36c 9fbd 9aa4 98be 7d86 cdbe
-0.19325142 -0.09922797 0.21997826 0.15377204 -0.15558061 -0.07655829 0.19740306 0.017259153
-0.029709937 -0.24831015 0.09656574 0.23401561 0.26469097 0.0111433435 0.22961815 0.21153578
0.09777655 0.15801334 -0.06237271 0.05455372 -0.30464116 -0.12502727 0.13985704 0.28403136
0.31633982 0.1400737 0.44168696 0.37924746 0.14213629 0.4732646 0.00059944025 0.32734662
0.14491965 0.042172674 0.03513653 -0.2508283 -0.21189387 -0.4783327 0.14256644 0.020723723
0.0013667578 0.15521818 -0.022760747 -0.23526423 -0.0037037716 0.04203755 0.39947188 0.2805219
-0.17022489 -0.046464235 0.1967497 0.17486225 0.07556295 0.19471346 0.56310564 0.0462673
0.16787748 -0.16547751 0.23121306 -0.112415485 0.080832504 0.025253305 0.6329395 0.34799975
0.004549409 0.10609511 0.002024142 -0.008057308 -0.102333665 0.1482216 -0.34003773 0.15312082
0.46319863 0.46909198 0.08376254 -0.0678692 0.27459958 0.6176334 -0.02417195 0.21235587
0.0821163 0.1818155 0.20643477 0.2355917 0.3374458 0.20538417 -0.32256615 -0.019843174
-0.29732817 -0.23691528 -0.10291516 0.11925992 0.27888915 0.11468333 0.17352688 0.0068971994
-0.20890117 0.14843549 -0.09406694 -0.24134275 -0.101229936 0.20219484 0.2574165 -0.24679041
0.096107274 0.16789961 0.32493818 0.03666134 -0.15948881 -0.15846346 0.116709925 -0.2462776
0.12272682 -0.01966478 0.19695854 0.19504572 0.05444831 0.15640901 -0.07233415 0.15974015
0.24374045 0.010508643 0.36225674 0.3121467 0.08279894 -0.14084049 -0.09132679 0.04269143
-0.079752445 0.14896502 0.18352523 0.2532951 0.2786931 0.51035875 0.2834649 0.26904696
0.2714985 0.21443276 -0.03439539 0.32170963 -0.1903881 0.11351042 0.08005874 0.26124778
-0.015514274 0.16853906 0.06832722 0.14792432 -0.060573604 0.09878843 -0.0022535652 0.13334484
-0.0916755 0.41255185 0.10590719 0.14314501 0.33824426 0.12534022 -0.026142564 -0.017746337
0.20823036 0.21953706 -0.19259155 0.17822276 -0.057109807 0.055713125 -0.09081074 -0.32160944
0.10357319 0.13109949 0.045731235 0.0285098 0.0041841664 0.12251009 -0.30223024 0.111391634
-0.14522982 0.09313489 0.09510086 0.4342789 -0.03165092 -0.33844006 0.24580675 0.29665703
0.055774067 -0.15608251 0.08932935 0.18621041 -0.21540621 -0.00042658125 0.25890836 0.093481295
-0.07110595 0.029265827 -0.12780254 0.08148131 -0.10501781 0.110368356 0.30031937 -0.004308733
0.017149508 0.009225445 0.080668904 0.23593175 0.06295179 -0.20867318 0.051530454 0.0630895
0.22659044 -0.06669404 0.16726147 0.43102294 -0.010837075 -0.16330315 -0.046155173 -0.12579322
0.16325852 -0.26513442 0.30785263 0.16419263 -0.09028513 0.11656903 -0.1814613 -0.35057524
0.075638175 -0.11664614 0.19196473 0.06224438 0.32084647 0.1495415 -0.013634139 -0.059063807
0.081743635 -0.03523829 -0.17498861 -0.1880855 0.06713893 0.43219522 -0.044685673 0.20805018
0.3371452 0.058353014 -0.082973756 -0.34204733 -0.27880445 -0.091466345 0.17958365 -0.047325984
-0.21066847 0.0824535 0.019683037 0.27460882 -0.010771626 -0.077844165 -0.2981308 -0.4014167

hidden_layers.0.bias f4 [256]
00000000: cc66 eebd 5c8d 14bd 67dd 63bd 59d8 d8bd
00000010: 7051 cabd f491 323d 4ff7 cabd cb9b da3a
00000020: 580b b2bd d7e2 703c 568f dbbd 2387 89bd
00000030: ff14 2cbd f480 b33b 9fd7 3bbd 1232 adbe
00000040: 5d2a 35bc 7c1b f93d aab5 8f3d eeed ca3d
00000050: ff22 4e3d 824a 30bb 7141 d13a d0a3 5e3c
00000060: a667 f7bb b4fc 18be a552 00bc dd6f 3bbd
00000070: 0f1c 38be 615b 5fbd 59d6 873c cafe 6cbd
00000080: 929e 80bc 1f0c cfbd 08c9 67bd 0812 83bd
00000090: 88e5 ec3b 3e2e dcbd 25a7 66bd ecbd 22be
000000a0: aa84 d8bd 16cf 00be 3781 cebd b7b6 d5bc
000000b0: 3cea 28be 7204 293d f0ce 133c 33d8 973d
000000c0: eeac 13be 03d0 aebc d3fb f13c 2134 cb3b
000000d0: 339d 0fbd 72c7 7ebb 2977 89bd 9aa6 2d3c
000000e0: b660 f1bd 47f7 02be 3c60 bbbd 8e60 2fbe
000000f0: 35b0 98bd 861f 37bd 076a 38be 998c c23c
00000100: f0f6 183d 4505 96bd be82 d0bd 3238 86bd
00000110: 629e 7fbe 5986 8e3c dcb9 873d 89ef 93bd
00000120: f267 0ebe 8cee e93d 17d3 e03d c540 243e
00000130: 5665 a3bd a529 1cbe 41e3 ca3d c4ec 8fbd
00000140: 811e b13d 6885 8fbc a41e 57bd cefe 533b
00000150: d26f b0bd d5bf 82be 95f5 a3bd 8ed7 2bbe
00000160: 99e8 11be da62 bfbd ef24 a5bd 1e66 9bbd
00000170: 6172 81bd 5110 13bd 3ba5 a8bd ff4c 38be
00000180: 7624 37be bfea 26bb 79a8 a93c 7929 20be
00000190: bb11 82bc 121b 31be 54e4 22bd c9ce 13be
000001a0: 81ea 203d dcd1 673d f6d6 263d be50 083d
000001b0: 8172 67bd 09f3 e43d db28 68bd 35c7 afbc
000001c0: c358 8fbc 0bb0 9ebd 6bdd ecbc dc4e 4e3d
000001d0: 400b 94bd 4b86 9e3c fdbe 19bd ffc5 503d
000001e0: 6a56 2c3c 0018 c5bc 5707 aebd eefe a13d
000001f0: 87a1 f8bc 86ca 51be 12e0 e23d f782 a1bd
00000200: f9db 91bd 0b4e d8bc 57be 3fbd d33d 7fbd
00000210: c9a2 cd3d 308e 09be 90a4 b8bd e22f 3f3d
00000220: 6226 2ebd dc25 40bd 666d dabd b493 98bd
00000230: 976b 8abd 46a8 08be 2e96 a7bd 2351 003d
00000240: 0bbc 1d3d 8a6b 28be 58a3 1b3d 3076 51be
00000250: 6f84 4dbe b1b8 08be a6b6 963d c32a 6fbb
00000260: 4dcf 23bd b8ed 093d 6e79 c23b ac84 21bc
00000270: a24a 40bd b02b 55ba 5496 fcba 6b29 d3bd
00000280: 0708 07be 76b4 773d d166 70bd 6835 a0bb
00000290: ec75 91bd 6841 54bd e025 c83d 1a90 9b3c
000002a0: c95b 1f3c f072 fdbd db87 6cbd e12b 91bd
000002b0: d5ec f6bd beaa 70bd 9d57 4bbd e1c5 803d
000002c0: 8872 10bd 20da edbd 608a 00bd 7409 cd3d
000002d0: 9baf 82bd d537 de3b 3856 a63d 6727 e5bd
000002e0: e051 13be 63c8 ccbd 0456 9fbd 9f9c 10be
000002f0: 9788 6abd ab0d 183d d645 07be 624d 17be
00000300: 35ef 1b3e e57e 83bd 87a1 bebd f4ac 393b
00000310: c77e bdbd afa2 4a3c 7eda babc 31b7 1bbe
00000320: 55da 94bd 0cd7 d03d 3fb9 debb 1c60 4d3d
00000330: 7265 86bd 16cc 4e3c f461 27be 7aa6 86bd
00000340: 597d 1f3c 301b 073e f1cd a53d 4739 1bbe
00000350: 1fcb 4bbd 7611 8ebd 6ed4 8fbe 6e86 323d
00000360: c6aa f0bc 2686 98bd 4abd 0c3d a62f 32bd
00000370: 4a6e 0d3d 9cf1 11bc adaa 873c d531 8cbd
00000380: f350 ed3c b61d b83c 52ed 30bd f3b2 2bbb
00000390: f2b1 46bd 917d 91bd bbe4 01bd 736d 53bd
000003a0: f512 41bc 3514 74bc 9053 cdbc 87ef c4bd
000003b0: aa5d 17be 0d59 d83a 95c4 bf3b f827 81bd
000003c0: 29df 963d 3db0 603b 5d3d f1bd 6e28 babd
000003d0: 3ff0 1f3d c287 0d3d fd90 24ba 36f2 c33c
000003e0: ee2a da3c 049c 21be 21ab b1bd ca9b 5cbd
000003f0: ef72 e83d 54bf 55be 3b1a 873d 3f61 96bd
-0.11640701 -0.036267623 -0.055631068 -0.1058814 -0.09878814 0.043596223 -0.099104516 0.001667851
-0.0869357 0.01470252 -0.107206985 -0.067152284 -0.04201221 0.005478019 -0.04585993 -0.33827263
-0.0110574635 0.12163445 0.070170715 0.09908663 0.050326344 -0.002689988 0.0015964938 0.013588861
-0.0075501977 -0.14940149 -0.007832204 -0.045760978 -0.17979454 -0.054530505 0.016581701 -0.057860173
-0.015700612 -0.10109734 -0.056588203 -0.063999236 0.0072295107 -0.107510075 -0.056311745 -0.15892762
-0.10572179 -0.12578997 -0.100832395 -0.026088102 -0.16495603 0.041264005 0.009021506 0.074142836
-0.14421436 -0.021339422 0.029539024 0.0062012826 -0.035062026 -0.0038876203 -0.06712181 0.010598803
-0.11786024 -0.12789641 -0.091492146 -0.17126676 -0.07455484 -0.044707797 -0.18009196 0.023748683
0.037344873 -0.07325224 -0.10181187 -0.06553687 -0.24962762 0.017398046 0.06627247 -0.07223422
-0.1390684 0.11422452 0.10977762 0.16040333 -0.07978313 -0.15250261 0.099066265 -0.07027581
0.08648396 -0.017519668 -0.052519456 0.003234792 -0.08615078 -0.2553698 -0.080058254 -0.16781446
-0.14248885 -0.09345026 -0.08063685 -0.07587837 -0.06320644 -0.035904232 -0.0823464 -0.17998122
-0.17885002 -0.002546951 0.020710217 -0.1564082 -0.015877595 -0.17295483 -0.039768532 -0.14434351
0.03928614 0.056596622 0.040732346 0.033280127 -0.056505684 0.11179168 -0.056679588 -0.021457294
-0.01749838 -0.07748421 -0.028914174 0.050368175 -0.07228708 0.019351145 -0.037535656 0.050970074
0.01051865 -0.024059296 -0.08497494 0.07909952 -0.03035046 -0.20487413 0.11077894 -0.07886308
-0.071220346 -0.026404401 -0.04681238 -0.06231482 0.100408144 -0.13433146 -0.09015763 0.046676524
-0.042517073 -0.046911106 -0.10665397 -0.07450047 -0.067588024 -0.13345441 -0.081829414 0.031327378
0.03850941 -0.16447273 0.037997574 -0.20455241 -0.2007005 -0.13351704 0.07359056 -0.0036493994
-0.03999262 0.033673972 0.0059348857 -0.009858292 -0.046946175 -0.0008131815 -0.0019270875 -0.10310634
-0.13186656 0.060474835 -0.058691803 -0.004889179 -0.0710257 -0.05182019 0.09772849 0.018989611
0.009726473 -0.12375438 -0.05774675 -0.07088447 -0.12056891 -0.058756582 -0.0496441 0.062877424
-0.035265476 -0.1161387 -0.031381965 0.10011569 -0.0638115 0.006781558 0.08121914 -0.11189156
-0.14386702 -0.09999158 -0.07780078 -0.14122246 -0.05725917 0.03712241 -0.13210234 -0.14775613
0.15227969 -0.064206876 -0.09308153 0.0028331848 -0.092526965 0.012367888 -0.022809263 -0.152066
-0.07268206 0.10197267 -0.0067969854 0.050140485 -0.06562318 0.0126219 -0.1634596 -0.06574722
0.009734475 0.13193965 0.08095921 -0.15158568 -0.04975426 -0.06936924 -0.28091758 0.043585233
-0.029378306 -0.07447462 0.034360208 -0.043502472 0.034529008 -0.008907702 0.016560877 -0.06845442
0.028969264 0.022475105 -0.043195076 -0.0026199191 -0.048509546 -0.07104028 -0.031712275 -0.05161805
-0.011784305 -0.014897396 -0.02506426 -0.09615999 -0.14781824 0.0016506031 0.005852292 -0.063064516
0.07366783 0.0034284734 -0.11779282 -0.090897426 0.039047476 0.034553297 -0.00062777085 0.023919206
0.026631799 -0.15782171 -0.086752184 -0.05385951 0.11350047 -0.20873767 0.065968 -0.07342767

hidden_layers.1.weight f4 [256, 256]
00000000: bee8 49be cbf6 62bd c4cc ecbd eb9f 30be
00000010: 8b1b dcbd 035d 98bc a3f5 39bd 8e01 6fbe
00000020: bba8 60bd 8bc0 13bd cf1f 42bd fb97 6dbd
00000030: 6e81 5b3d 24a0 c43d 8df0 eabd adf4 2bbe
00000040: a7d0 b0bd 9ad5 a5bd 360a da3c 0d2c a03d
00000050: 7b36 82bc 2315 9dbe 4d99 1bbd a0b9 2fbd
00000060: 4ec0 523d ee75 ab3d df5c 143d b906 3bbc
00000070: ac51 a1bc 8000 da3c e2c8 8f3d 32f3 fa3d
00000080: 997d 6e3c 74ef b63d f926 86bc eac7 61bd
00000090: c5ce 96bd 782f 54bd 02ea e23d 29e0 66bd
000000a0: 5895 fa3d 0c02 e8bd 55eb 343c 00fe b1bd
000000b0: 23f6 68bb f028 88be 519e 3cbe 863e eb3b
000000c0: 8cb0 a7bd eb55 e13d b8bd 98bb f147 f83d
000000d0: dd67 51be 5a5f 853c be0c ffbd 4515 84bd
000000e0: 1077 2ebd bcf4 45bd 85e0 22bd 1776 52bc
000000f0: ee58 c0bd 145e eabd a446 21be f054 74bd
00000100: f25b febd 300b a6be 1496 02be fe85 c13a
00000110: 3fd5 35be a58c 34be d94b 9b3c 4086 f2bc
00000120: e53e a2bd 4c29 f2bd 15cb abbc f596 db3d
00000130: 84a4 30be 71f4 18be 3b65 2abe dd7c 28bd
00000140: 071d 03be dbc6 08bd c496 2cbe 562d a7bd
00000150: 09b3 c33d 17d6 8abe fe73 b4bd e8b2 87bd
00000160: c87a 50be a5fc 4d3e 722f 87bd 58b0 20be
00000170: 4cf2 dbbc 9fab 403e fa9b 0dbe fb19 97bd
00000180: a42b febd 7318 23be 5956 67be 3e33 13be
00000190: a0d8 1abd 22b7 783e df3a 4c3d 13e8 953d
000001a0: 2c42 67bc 86ba dcbd 99d5 36be 7df7 d0bc
000001b0: 78b5 353d ce5d d0bd 96c3 48be 9193 b03c
000001c0: fdf3 04bd 025b 07bd 0fd8 a8bd e8b2 65bd
000001d0: 1ebb be3b 0810 863c 7704 4f3c 300b bebd
000001e0: d750 44bd ca96 263e 79c8 6ebe 113a 64bd
000001f0: 587c f23c 0e48 243e 94e0 debd dd72 81be
00000200: c08f c33b 57c9 fbbd 1dea fc3c f331 ecbb
00000210: 49f2 2d3d 5bbf 0a3d d7b7 2b3d f84f 92bb
00000220: 511e 08bd 144d 50bc e0c1 073d b639 b9bd
00000230: 89af 27be 9d78 7cbd 799a 6abd ef7e 44be
00000240: 5012 c7bd 2407 a8bd 54e5 20bd 0229 363d
00000250: 4049 a4bd 27f9 11be 3b7d 51bc 1246 efbd
00000260: bbf3 eb3c 593c 46be cab3 e8bd 7657 e7bd
00000270: 881c 91be 63b9 753d 2d32 323d ec23 573e
00000280: ae89 18be 552d 4a3c 9ae5 ffbd 44a0 c63d
00000290: d936 363d 6003 9a3d b03f 0d3d a4af 103d
000002a0: db09 c3bd a882 853d d581 bdbd c20a 5bbe
000002b0: bc22 8e3d 2298 153b 23b8 5f3e 0dca e8bd
000002c0: e8f7 94bd 4588 a73c 5d4b f7bc 778f 7abd
000002d0: e207 33bd 60c2 bdbd 44bd e4bb 63cc 05be
000002e0: f3c9 823d 8876 27be f98c 03be 8677 373d
000002f0: 93f6 e0bd 1daa 63be 797a 2cbd a220 123d
00000300: f6a2 47be dba0 81bd 01d5 7cbb e938 29be
00000310: 6856 883d c0f2 ee3d c54e 823d 6f84 adbd
00000320: 8353 c6bc ea26 17be df03 4fbd d418 efbd
00000330: 4f21 93bc b00b abbd 1aa6 b6bc f038 0e3e
00000340: c02e 97be 3230 a1bb 498e 08be a6c9 febc
00000350: 7bee 073e 308e 453e fd4e 87bd c17b f8bd
00000360: 4cbf 8bbd 5fbc 39bc 448e 5ebd fb49 af3a
00000370: 797f 89b9 59be d43c e7bf 9dbd 25e5 dd3d
00000380: 1417 1fbd 25ef 28bd e72d 553d 4214 cbbd
00000390: f02c b0be dbae d8bd 29fd 97bd fa16 e53c
000003a0: 07ff 953d 6457 a5bc da17 da3c b269 8b3a
000003b0: df01 acbd 64bd d8bd ef05 9a3c 6a62 b9bc
000003c0: 7dda 9e3d 9aab f4bd de44 b0bd 971a 13bc
000003d0: a84c 8cbe d32e 91bd 5686 953d e3cd 43be
000003e0: a5ee 903c de16 cbbd 7bca 61bc ba77 28be
000003f0: a9fb 663c 5cc5 30bd fff6 44bc 2d71 acbd
-0.1971769 -0.05541114 -0.115624934 -0.17248504 -0.10747441 -0.018599039 -0.045400273 -0.23340437
-0.054848414 -0.036072295 -0.047393616 -0.058006268 0.05359023 0.09600857 -0.11471663 -0.16792555
-0.08633547 -0.08097382 0.026616197 0.07820902 -0.015895119 -0.3068019 -0.037987996 -0.042901635
0.051452927 0.08372103 0.03622138 -0.011415177 -0.019692264 0.026611567 0.07020737 0.12253417
0.014556312 0.08932391 -0.016376005 -0.055122294 -0.07363657 -0.051803082 0.1107979 -0.05636612
0.12235516 -0.113285154 0.011042436 -0.08691025 -0.00355471 -0.26593733 -0.18419768 0.0071790842
-0.081879705 0.11002716 -0.004661288 0.12123097 -0.20449777 0.016280819 -0.12453602 -0.06449369
-0.042594016 -0.0483291 -0.0397649 -0.012845538 -0.09391962 -0.11443725 -0.15749604 -0.059651315
-0.12419881 -0.3243041 -0.12752563 0.0014764664 -0.17757128 -0.17631777 0.018957065 -0.029605031
-0.079221524 -0.11824283 -0.02097086 0.10722152 -0.17250258 -0.14936997 -0.16640179 -0.041134704
-0.12804042 -0.03339277 -0.16854388 -0.08162944 0.095556326 -0.27116463 -0.08811186 -0.066259205
-0.20359337 0.20115907 -0.06600846 -0.1569227 -0.026848935 0.18815468 -0.13829032 -0.07378002
-0.124106675 -0.15927295 -0.22591533 -0.14375016 -0.037804246 0.2428861 0.04986083 0.07319655
-0.014114898 -0.10777764 -0.17854919 -0.025508637 0.044362515 -0.10174142 -0.1960586 0.02155474
-0.032459248 -0.033045776 -0.08244335 -0.05607882 0.005820646 0.016365066 0.012635342 -0.092794776
-0.047928657 0.16268459 -0.23318662 -0.05571944 0.029600307 0.16043112 -0.10882679 -0.25282946
0.005968064 -0.12294262 0.030873353 -0.007208103 0.04246739 0.033873897 0.04192337 -0.0044650994
-0.033232037 -0.012713689 0.033143878 -0.090442106 -0.16375555 -0.061638463 -0.057276223 -0.19189046
-0.0972029 -0.08204487 -0.039281204 0.0444727 -0.08021784 -0.142552 -0.012786205 -0.11683287
0.028802743 -0.19358958 -0.11362417 -0.11295979 -0.2834208 0.05999125 0.043504883 0.21009797
-0.1489627 0.01233991 -0.12494965 0.09698537 0.0444859 0.07520175 0.034484565 0.035323754
-0.09523364 0.06519061 -0.09253279 -0.21390823 0.06940219 0.0022826274 0.21847586 -0.11366663
-0.07273847 0.02045072 -0.030187303 -0.061171975 -0.04370869 -0.0926559 -0.00698057 -0.13066249
0.06386175 -0.1635381 -0.12846746 0.04479172 -0.1098453 -0.22232862 -0.042108987 0.035675652
-0.19495758 -0.06329509 -0.0038579109 -0.16525616 0.06657106 0.11667395 0.0636268 -0.08472525
-0.024209743 -0.14760938 -0.0505408 -0.116746575 -0.017960219 -0.083518386 -0.022296 0.13888907
-0.29527855 -0.0049190754 -0.13335527 -0.031102013 0.13274567 0.19292521 -0.06606863 -0.12132979
-0.06823596 -0.011336415 -0.054334894 0.0013373488 -0.0002622565 0.025969671 -0.07702618 0.108347215
-0.03884037 -0.04124369 0.05204573 -0.09915973 -0.34409285 -0.10580226 -0.07421333 0.027965058
0.07324033 -0.020183273 0.026622701 0.0010636358 -0.083987944 -0.105829984 0.018801657 -0.022629935
0.07756517 -0.11946793 -0.086068854 -0.0089785075 -0.27402234 -0.07089009 0.07301013 -0.19121508
0.01769192 -0.09916471 -0.013781185 -0.16451922 0.014098086 -0.043156967 -0.012021779 -0.08420024

hidden_layers.1.bias f4 [256]
00000000: 9f01 94bd 5b9d 01be a237 80bd 0e96 02be
00000010: c650 ccbd 953e b3bc 1b60 12be 7610 f7bc
00000020: af5c adbc 3ef1 1cbd 80ff c7bc f34e 0abe
00000030: 034d 9dbd 48c5 a6bd a782 efbc e611 b4bd
00000040: c27b 96bd 3c66 27bc 2538 973d dd7f 86bc
00000050: 3c1e fdbd 6d3e f5bd c79b dcbd 047a 28bd
00000060: 20da 8cbd 5395 64bd bcfb 4bbd 39ab d4bd
00000070: f1d6 d5bd 4fc3 e0bd 5a1c 29bd 919f 10bd
00000080: 21e1 45bd e560 cdbd 7bcb 97bd c2f6 aabd
00000090: 5726 08be adfb cabd 3884 07bc 4aaa d5bc
000000a0: 07e0 a6bd 234e 9dbd 3a4f fbbc a752 c43b
000000b0: 7c25 32bd 36b4 943c 295c dabc d5f7 16bd
000000c0: cb64 2cbd c51a 72bd bb37 56bd 292c dabd
000000d0: 5c7b 08be 9127 3cbd 4620 29be 5178 79bd
000000e0: 320c ce3b 38b8 1ebe 1df2 bdbd 64e4 17be
000000f0: e37e 98bd f026 ab3d cd28 08be fb64 0abd
00000100: ed96 0cbe c2a7 80bd 8f3f 20be c504 b1bd
00000110: 6de6 e5bc fa42 75bd abd2 24be eca4 50bd
00000120: 5c2d c2bd 0c1a 8fbd 7359 13be 57c2 06be
00000130: 8932 03be 9dbd 24bd a9bc aabd 4bba b8bd
00000140: c585 693d 0560 72bd 92b4 1abd 551e 9ebd
00000150: d387 87bd cb85 d6bd 66dc 7cbd 4ab5 97bd
00000160: e461 ffbd 2547 6ebd 7e38 93bc fbdb 97bd
00000170: 8f3f 06be 1f7c 683d 255d ebbd 7075 81bd
00000180: 07e3 f8bd 6999 933d 382e 18be 7f9b 13be
00000190: 5c22 1bbd cb81 503c a180 91bc 357b 80bd
000001a0: ea26 103d e9c6 e7bd f2a7 84bd 2a0f ddbd
000001b0: 76f6 b8bd 73c3 88bd 2104 7ebc 87af a0bc
000001c0: 05eb 4bbd bfbe cfbd b72c 9c3d ed1e f8bd
000001d0: 007e 323c 101c a2bd 2b4f 08bd 14e9 1abe
000001e0: 838e ddbd 4bc4 d0bd 1d1f f43d ae14 c4bc
000001f0: 7fac a2bd bd0a 1ebe 449a b7bd 0688 88bd
00000200: 4057 0fbd 6724 8ebd 0dae 52bd 2b12 fabd
00000210: 3d1c d0bc 1af6 c2bd da52 9bbd 5ca3 0cbd
00000220: 641d 7dbd 34ee 1bbb 72a2 0fbe f5df aabd
00000230: 8520 1cbe 7498 b8bd 8a8d 1cbd 3ecf 99bd
00000240: b703 08be f7b3 aabd 0396 0abe 483d ee3c
00000250: 14ea b83b a5ab 0abe 7626 ffbd 94ce 05bd
00000260: d7d3 d7bd 5e77 46bd 00eb b0bd 087d e8bc
00000270: de15 12be 21ba 84bd ab53 e9bc 4837 243d
00000280: 976b a63b f2bf bcbd 858a ddbd 9534 acbd
00000290: 8c65 1ebe 8a01 bebd b1f4 af3d d6b8 e6bd
000002a0: 2fac 10be ea23 173d 8a3a a3bd d4f2 123d
000002b0: 97c7 9abd 2309 aabc 07e6 febd dc77 f2bd
000002c0: cdb8 79bd 09da 3d3c 912b 20be 94b7 d7bc
000002d0: e355 64bd ee0a f93c 47cf e2bd 5a51 b0bd
000002e0: 550f 22be 05c2 1bbe 36e4 aabd f7cb 2dbd
000002f0: fbde 6abd a00a 12be fcd4 b2bd 3722 583b
00000300: 28e4 fe3b 475f babd 385e 71bd 4682 0ebd
00000310: b9cc 663c b057 30bd 2b84 3ebd 44b0 c2bd
00000320: 8e02 b1bc 4de3 d43b 5028 09be 5d6b d9bd
00000330: eafd 64bd 8b9f 04be 6358 b0bd 3099 cabd
00000340: 87e3 f0bc e262 04be 2f17 2fbe c775 98bd
00000350: 79eb 0cbe d1a8 06be 2370 78bb a87b cabd
00000360: 51a3 01bc ef03 0ebe 5b93 09be bea9 c0bd
00000370: 3de9 46bd cc22 afbc 11db 8b3d b6cb 78bc
00000380: 25be f0bc 55a2 c4bd cce9 05bb 0724 b9bd
00000390: e977 09be bc58 c5bd 76a1 15bd 0916 41bc
000003a0: 0f02 84bd 9911 a83d 9e48 673c 8b51 56bd
000003b0: 934e 30bd 1f29 15bc a7f2 e3bc 966c acbd
000003c0: 8f48 ddbd 2d29 7fbd ba34 b5bd 02d6 5fbd
000003d0: f7cb a2bd adb3 e8bb 41f4 54bc b452 8cbd
000003e0: b6c6 acbd d308 f9bc a963 edbc 725f 4abd
000003f0: 6647 cdbc ab2b b0bd 10f6 1bbd b129 34bc
-0.07226872 -0.12657683 -0.06260611 -0.12752554 -0.09976344 -0.021880427 -0.14294474 -0.030159216
-0.021162359 -0.038316004 -0.024413824 -0.13506679 -0.076807044 -0.08143097 -0.029237105 -0.08792476
-0.07347824 -0.010217246 0.073837556 -0.016418392 -0.123592824 -0.119747974 -0.107719 -0.04113199
-0.068775415 -0.05580647 -0.04980062 -0.10384221 -0.104413874 -0.10974752 -0.041286804 -0.035308424
-0.048310403 -0.10028247 -0.07411858 -0.083478466 -0.13295875 -0.099112846 -0.0082712695 -0.026082177
-0.081481986 -0.07680919 -0.030677427 0.0059912982 -0.04349278 0.018152338 -0.026655274 -0.036857445
-0.04208831 -0.05910756 -0.052299242 -0.10652954 -0.13328308 -0.04593617 -0.16516218 -0.06090576
0.006288075 -0.15499961 -0.09274695 -0.14833218 -0.07446077 0.08357036 -0.13296814 -0.03378771
-0.13729449 -0.06281997 -0.15649246 -0.08643488 -0.028063977 -0.059878327 -0.16095988 -0.05093853
-0.09481308 -0.0698739 -0.14389591 -0.13160072 -0.12812246 -0.04021989 -0.08336765 -0.090199076
0.05701234 -0.059173603 -0.03776986 -0.07720629 -0.06617703 -0.10474738 -0.061733626 -0.07407625
-0.12469843 -0.058173317 -0.017971274 -0.07415005 -0.13110183 0.056758996 -0.11492375 -0.063212276
-0.12152677 0.07206995 -0.14861381 -0.14414786 -0.037874565 0.012726258 -0.01776153 -0.062735
0.03519336 -0.11317236 -0.064773455 -0.10793908 -0.09031384 -0.06677904 -0.015503914 -0.019614948
-0.04978468 -0.10143804 0.07625716 -0.121152736 0.010894299 -0.07915509 -0.033278625 -0.15127975
-0.108181976 -0.1019369 0.11919997 -0.023935642 -0.07943057 -0.15433784 -0.08964971 -0.066665694
-0.034995317 -0.06940537 -0.05143552 -0.122104965 -0.02540409 -0.095195964 -0.07584162 -0.03433548
-0.061795607 -0.0023793103 -0.14026812 -0.08343498 -0.1524678 -0.09013453 -0.03822092 -0.075102314
-0.13282667 -0.08335107 -0.13533787 0.029081956 0.0056431387 -0.1354204 -0.12458508 -0.03266771
-0.10538452 -0.04845368 -0.08638573 -0.028379932 -0.14266154 -0.06480814 -0.028482279 0.040091783
0.0050787437 -0.09216298 -0.10817436 -0.08408467 -0.15468425 -0.09277637 0.08591593 -0.112657234
-0.14128183 0.036899485 -0.0797015 0.03587611 -0.075576 -0.02075631 -0.12446218 -0.118392676
-0.060967255 0.011587628 -0.1564162 -0.026332654 -0.05574597 0.03040072 -0.11074691 -0.086092666
-0.15826161 -0.15210731 -0.08344309 -0.042430844 -0.057341557 -0.14261866 -0.0873203 0.0032979378
0.007778663 -0.09100204 -0.058927745 -0.034792207 0.014086896 -0.043052375 -0.046512764 -0.09506276
-0.021607663 0.006496823 -0.13394284 -0.10616181 -0.055906214 -0.12951486 -0.086106084 -0.098924994
-0.029405368 -0.12928346 -0.17098688 -0.07444339 -0.137617 -0.13150336 -0.0037908636 -0.09886867
-0.007912473 -0.13868688 -0.13435118 -0.09407376 -0.048562277 -0.021378897 0.06828893 -0.015185287
-0.029387543 -0.09601275 -0.0020433543 -0.09040075 -0.13424648 -0.09636065 -0.036530934 -0.011785039
-0.06445705 0.082064815 0.014116434 -0.05232386 -0.043043684 -0.009104042 -0.027825667 -0.084191486
-0.10804855 -0.062295128 -0.088479474 -0.054647453 -0.079490595 -0.007101497 -0.012997688 -0.06851712
-0.084363386 -0.030399716 -0.028978186 -0.04940743 -0.02505846 -0.08602079 -0.03807646 -0.010996268

output_layers.0.weight f4 [40, 256]
00000000: 5f54 47bd 0476 303d f6c7 493e e659 033d
00000010: fd8b 57bc b19b 393e bef5 cdbc 8213 2abe
00000020: cee3 863d be41 7dbd 3b20 993b 48d6 003d
00000030: f8aa c13d e53a 01bd 5417 c7bd b770 92bc
00000040: 385d 78bc 0e49 d9bc b198 0abd 3ef1 8fbd
00000050: bf1c 95bd 49a9 b8bd e283 793d 0247 43be
00000060: dd8a 3d3d 999a 2f3d f4ee fbbd 7466 da3c
00000070: 7290 14be c3ee 0d3e 853b 023e 6407 94bd
00000080: a9d8 f83d 2ec1 33be abea 5ebd 5800 83bd
00000090: b81e 8c3d 7855 c4bd c775 ffbd 3af6 393d
000000a0: e5c6 b33d 96d6 ffbc c1c7 1ebd 93eb 0d3e
000000b0: 847a bdbd 149c 18bd addb e43c bc9b 42bd
000000c0: 0255 b4bd f7cf aa3d d26d 4fbd db63 35bc
000000d0: 66c8 653d 6442 e9bc 62a9 37bd 6e5e 96bd
000000e0: 88b0 dcbc c48e 0b3e 55d6 e93b f72d 0e3e
000000f0: 3a7c de3d 56cd 43bd 9104 1cbe f415 cabc
00000100: 9350 a7bd 5152 4f3d ec26 fbbd 538e e7bd
00000110: 6137 a0be b3d1 e13d b79a 1cbe d6e3 11be
00000120: 9c22 89be d338 8abd cf75 e3bd d9bd 2b3d
00000130: 718b 0e3e bc96 c7bd 710a 3cbd 935d 8a3e
00000140: da2b 05bd 1ae1 1fbd a978 aa3c 8996 c33d
00000150: a5a2 bdbc cdb4 483c 7519 a4bd 871f c8bd
00000160: 5f79 c6bd bc08 a23d bd9b 13bd 96f0 e33d
00000170: 93cb f8bd 7a11 1cbd dfbf a53b ceae bf3d
00000180: c158 16be dd1f 10bd bc1b 80bd 0a1d cf3c
00000190: 2bed f0bc a833 f9bd 09e8 1d3d f7fe 173d
000001a0: 401a 0abd 77ed e7bc d489 0fbe a8ff f6bc
000001b0: d656 ca3d de65 a53d 41ca 35bd a359 eb3b
000001c0: d823 2fbe 6f6a 633d e61a edbc 6aa2 133e
000001d0: 3a44 bbbc 61dd 20bd b41c 2a3e 9f99 343d
000001e0: c368 d93d c7e1 283d aac4 4dbc e269 bc3d
000001f0: e067 313d 0c5a 853d 375f 393d dd33 ddbd
00000200: 9a87 943d c522 acbd 7d6d afbd 6df8 06be
00000210: d5ad c5bc 0891 683a 50b2 163c 0d8e 8cbd
00000220: 37c4 67be 696b 883d 5475 d8bc 02eb e53c
00000230: 9587 80bd d0a2 f4bd 401a ce3e 4800 aebd
00000240: 9027 36bc c966 4e3d e707 523d 2e09 2bbe
00000250: f34a dbbc c2d9 1abd fd2d 3d3e 3248 593c
00000260: eb71 12be 8a2a 66bd ad7c 9f3c e56c 8abe
00000270: 431c 363b 29aa c03d cd63 013d 8aa7 ccbc
00000280: cf37 45be 93e0 b8bd b673 5c3c 5db3 3b3e
00000290: fe56 cfbd 84de db3c 326d c9bc 4fd1 02be
000002a0: 354a c4bd a972 98bc 8bdc 56be c585 29be
000002b0: 203e e93c 84a5 813d b630 17bc e159 4abb
000002c0: 0a19 e6bb 2f8f 66bd 964b 823d 3371 db3d
000002d0: 5937 a93d 4cb5 74bc 48e4 0b3e 4e45 84bd
000002e0: d55f e63c d624 a1bd 000b ea3c c2ee 13bd
000002f0: 31e0 05be 4e4c 153e f980 383e 1fb9 0ebe
00000300: ebf1 b7bc 6091 863e d9c6 c5bc 838b 34be
00000310: 7aab 373d 5e65 a83c 5b40 8b3d 0072 c33d
00000320: 47f4 babd 9afd 33be bf9d 04be a0e9 dcbd
00000330: 1c87 12be 6c3b 3a3e fd54 7bbc 0b07 58be
00000340: b4ee a9bd b522 3d3d 0762 533d 6e3a 8fbd
00000350: 3b75 803d c783 02bb 3ebc e6bc 1b58 d2bd
00000360: 5b3a 83bd 8b4d 4ebb 285b d3bd 6ec1 013d
00000370: 7291 2ebd 8f21 01be a92a 31bd 09f8 3cbd
00000380: bc12 d2bc 5d5d 9cbd 826f abbd 0435 5e3e
00000390: b522 383b acd2 b53d b626 7ebe 234c adbd
000003a0: fe7a 1fbc fd43 eebc 0aa5 92bc f378 723e
000003b0: 7871 153d fed6 fcbc 6cbf ebbd 3671 fe3d
000003c0: d085 30bc 38d5 163e 1c8d a73d ab1a efbd
000003d0: 1ed6 033d c436 c23d 35ed e93c 5f11 9abd
000003e0: 8c4e 53bd 7d87 0e3e 093a f13d 8a3c 7c3e
000003f0: 6e32 b33d de4a 30bd 5f70 51bc a6e2 12bd
-0.048664447 0.0430813 0.19705185 0.032068156 -0.013155934 0.18125798 -0.025141593 -0.16609004
0.06586419 -0.061830275 0.0046730316 0.031454355 0.09456438 -0.031550307 -0.09721246 -0.017876012
-0.015158944 -0.026524093 -0.033837024 -0.07028435 -0.072808735 -0.090166636 0.06091679 -0.19070056
0.04627501 0.042872045 -0.12301436 0.026660182 -0.14508227 0.13860612 0.12718017 -0.07227972
0.121507 -0.17554161 -0.054423016 -0.0639655 0.06841797 -0.09586614 -0.12473636 0.045400836
0.087781705 -0.031230252 -0.03876472 0.13859396 -0.092518836 -0.037258223 0.02793678 -0.0475118
-0.088052765 0.083404474 -0.050641842 -0.011071171 0.056099318 -0.02847404 -0.04483927 -0.0734223
-0.026939645 0.1362868 0.007136146 0.13884722 0.10863538 -0.047803245 -0.15236117 -0.024668671
-0.08169665 0.050615612 -0.12263283 -0.11306443 -0.3129225 0.11026325 -0.15293394 -0.14247069
-0.26784217 -0.067491196 -0.111064546 0.0419291 0.1392038 -0.09745547 -0.045908395 0.27024516
-0.032512523 -0.039033033 0.020809488 0.09550197 -0.023148844 0.0122501375 -0.08012668 -0.09771638
-0.096911184 0.07911822 -0.036037195 0.111298725 -0.12148204 -0.038102604 0.005058273 0.09359513
-0.14682294 -0.035186637 -0.0625529 0.025282402 -0.029409966 -0.12168056 0.038551364 0.037108388
-0.03371644 -0.028311474 -0.14017421 -0.030151203 0.09879844 0.0807607 -0.044382337 0.0071823164
-0.17103517 0.055521425 -0.02894349 0.14417425 -0.022859681 -0.039273623 0.16612512 0.044091817
0.10615685 0.041230943 -0.012559095 0.09199883 0.043311954 0.06511316 0.04525682 -0.10800908
0.072524264 -0.08405069 -0.08565805 -0.13180704 -0.024130741 0.0008871709 0.009197786 -0.068630315
-0.22633444 0.06661112 -0.026423134 0.028066162 -0.0627586 -0.119451165 0.40254402 -0.084961474
-0.011117831 0.050390992 0.051277068 -0.1670272 -0.026769137 -0.037805326 0.18474574 0.013261842
-0.14301269 -0.056192912 0.01946863 -0.27036205 0.0027787841 0.094074555 0.031589318 -0.024982233
-0.1925957 -0.09027209 0.013455322 0.1833014 -0.10124014 0.026839502 -0.024588201 -0.12775157
-0.09584466 -0.018609362 -0.20982568 -0.16554935 0.028472006 0.06330398 -0.009227922 -0.0030876326
-0.007022028 -0.056288894 0.06362073 0.107149504 0.0826251 -0.014935803 0.13661301 -0.06458531
0.028121868 -0.07868354 0.028569698 -0.03611637 -0.13073803 0.14579889 0.18017949 -0.13937806
-0.022454223 0.26282787 -0.02414267 -0.17631344 0.044841267 0.020556148 0.06799384 0.09543228
-0.091286235 -0.1757721 -0.129508 -0.10786748 -0.14309353 0.1818673 -0.015340087 -0.21096437
-0.08297482 0.046175677 0.051607158 -0.069935665 0.0627236 -0.0019914971 -0.028165933 -0.10270711
-0.06407615 -0.0031479325 -0.10320121 0.03167861 -0.042619176 -0.12610458 -0.043253575 -0.046134982
-0.025643699 -0.07634995 -0.08370878 0.21699911 0.002809686 0.08878073 -0.24819455 -0.084617876
-0.0097339135 -0.029085154 -0.017900962 0.23678951 0.036485165 -0.030864235 -0.1151112 0.12423937
-0.010774091 0.14729774 0.08181211 -0.116750084 0.03218662 0.09483102 0.028555492 -0.075228445
-0.05158858 0.13918872 0.117786475 0.24632469 0.08749853 -0.04304015 -0.012783139 -0.03586068

output_layers.0.bias f4 [40]
00000000: f6ce 53be 6f84 cfbe afa1 6bbe 1938 75bf
00000010: 4624 8cbe d4ab 8ebe 0965 9abe 6d40 22be
00000020: 2749 83be 10c6 94be 251e 8cbe d824 03be
00000030: db4e 92be 96c6 87be da63 63be 84da acbe
00000040: 1624 66be 0119 8bbe f72e a1be 7b38 7dbe
00000050: c59b 1cbe 91c6 9cbe 0070 8cbe 289e 8fbe
00000060: ff26 90be 6fd9 88be 877f a4be 597d 6bbe
00000070: 178a acbe ece0 8cbe a3f6 a9be d140 87be
00000080: 9db2 b6be 8225 23be 69b6 8dbe 3819 c6be
00000090: c3b8 83be 83d1 6ebf 67e8 66be f858 b4be
-0.20684418 -0.40530726 -0.23010896 -0.95788723 -0.27371424 -0.2786547 -0.3015521 -0.15844889
-0.25641748 -0.2905736 -0.27366748 -0.12807024 -0.28575787 -0.26518697 -0.22206059 -0.33760464
-0.22474703 -0.27167514 -0.31481144 -0.24728577 -0.15293796 -0.30620244 -0.274292 -0.2805035
-0.28154752 -0.2672839 -0.32128546 -0.22997035 -0.33699104 -0.27515352 -0.3319598 -0.26416638
-0.35683146 -0.15932277 -0.2767823 -0.38691115 -0.257269 -0.9328844 -0.22549592 -0.35224128
