MODELS/REWARD COMPARISON/SAC UNMASKED MODELS/1_3_critic_local_network_un.pt (torch, 411319 bytes, 6 tensors)

hidden_layers.0.weight f4 [256, 101]
00000000: 3099 233b af93 78be 1e37 773e 2d23 debd
00000010: 4272 1cbd 8c3e 04bd 56cd 4f3e 0a2b edbd
00000020: 1dc8 0dbc c955 53bd 64d4 01bd 3d84 a7bd
00000030: 7260 14be 07fa 59bd 4bc4 f6bb abfc c0bd
00000040: fb22 00bf 6772 23be 33a2 75bd 9f3e 1ebe
00000050: d85e a23d df84 9ebd ab3a 41be 9263 96bd
00000060: 9552 bdbe 22ec d1be ab52 a6be d58c a2be
00000070: a820 83be e8f3 91bd c488 623e 36d5 60be
00000080: 2ec1 b7be 18b6 663c f8b0 48be 66e3 a8be
00000090: fd7f f3bc 9769 e0bc ed3b 51bd 0915 a6be
000000a0: 25a6 02be 9b2c 97be 2033 96be 37a2 c4be
000000b0: 7e74 8b3d ee95 3dbe cfdb 05be 60e2 18be
000000c0: 10ce 92be e547 cfbe 9269 ae3d 4f43 98be
000000d0: b518 dabd 6d28 01be f1e0 80bd b0fd 9abe
000000e0: dfde d6be b218 c2bd b5a3 6bbd 7cb6 7bbe
000000f0: 80e9 8e3e e6b4 4cbc 5f73 02bd 3904 3abe
00000100: 94ef 97be 8ec4 1ebd 46b1 243d ca92 abbe
00000110: c5c2 653d 1419 dfbd 261a 85bd 7de1 9fbd
00000120: 6b17 c8be b20a 00bd 3390 bb3c 7cd0 293d
00000130: 037c 843c 9385 9ebc ee27 acbd 15f8 bebc
00000140: 028a cdbd 10c5 d8bd c6db 35be 8edb 3cbe
00000150: a8b5 e2bc c6b9 57be 6212 86bc 841f 8ebd
00000160: 7bba 8fbe 5ccd 50be 245d 313e 94cb 59bd
00000170: 5ae6 d1be 7006 5ebe 2d45 afbe 497a 843b
00000180: 449c b1be 31f5 27be a177 bebe fc15 8bbe
00000190: cd6b afbc 9652 2dbc 0e86 a3be cd33 80bd
000001a0: f86c 3d39 54fc 6fbe 1371 483e 7b85 453e
000001b0: 134f b53d ed45 d93d 632a 30bc b54a 113d
000001c0: 55e5 2abe 2410 8bbe 4837 9abe 7e62 4fbe
000001d0: bef6 b53e 9109 dbbe 6c8e 5bbe dc36 a9bc
000001e0: 9c36 d23d 0267 38be 8483 8d3d aed3 adbe
000001f0: bdf9 1dbe efc1 d1bd 278d 52be 162a 94be
00000200: 673a 64be 6d55 a0bb 8c2a a2bd a5fd ea3d
00000210: 7b51 8abe 04c9 d5be f0bb aabe f10f edbd
00000220: 2880 093d bd20 58be ae9a 1bbe 181c 8bbe
00000230: 1f55 ffbd 05a1 473d 11f7 d1bd 8e0d 6b3b
00000240: dc93 11bf aa28 c9bd 081b 38be 321c 053e
00000250: ea59 e23c 482b 74b8 eb01 0abe 3bc2 03be
00000260: 5e51 25be 4b9f 19bc 4802 18be aa12 e4bd
00000270: b536 033e 2cb8 ad3e a74d 99bd 93fc 353e
00000280: 147a a7be a75c f53c c6eb 39bd 242c 77be
00000290: 4ca1 ff3d ae8a 1abc e8c2 4b3e 2df3 c63e
000002a0: 60ef 55bd 3837 053f d0f5 c73e f7f8 70be
000002b0: edca 2cbd 56e1 72bb 22ea 8a3e cc85 c33d
000002c0: 7392 d03d a28b 1b3d 5aed 6f3e 3715 063e
000002d0: 3854 863e 35e7 db3d f509 5e3e d6cb 36be
000002e0: 67ae bd3d 7025 ac3e e865 403c 26d1 adbc
000002f0: 33fb 55bd 0799 313e c61f 303e d578 233e
00000300: e24f 29bc b87d 9f3d 99bb b53e 5702 8bbe
00000310: 4069 f6be 8763 d6be 773e babb 43ee ad3e
00000320: 8b7a 603e cbe5 73bd d01a 643d 9ff0 d23c
00000330: 8123 8bbd 0a51 503d f36b 1dbd a390 51bc
00000340: 1609 773e 2b40 bfbd 8b38 65be 4b41 7a3d
00000350: ec6d fb3c 1e3d c5bd 4fb0 abbc 3668 77be
00000360: b611 9abe e0dd 27be 62f1 87be 6f08 28bf
00000370: 3ffe a53c 8bf8 4cbe 817c 8d3e f79f 55be
00000380: 5ebf 94be 4ff4 4dbe 0930 a9be 78be b1be
00000390: 35db c4be b7ec 34be 38da 7bbe 67c9 dfbe
000003a0: 10ca 593e 71a7 d63a ba77 97be 4e28 81be
000003b0: 7cb8 62be 293c b6be be35 efbd 49b3 f9bd
000003c0: 7f98 af3c bbcb 273e 46ab bbbb 3f27 71be
000003d0: b8b0 b2be 93b9 80be 7d18 8dbe c63d 18be
000003e0: 8db5 54be f2da 05bf 4e52 be3d ba59 08bd
000003f0: 5055 65be ae85 90be 3373 84be f51c cdbe
0.0024963133 -0.24275087 0.2414212 -0.10846553 -0.038194902 -0.03228621 0.20293173 -0.11580475
-0.008653668 -0.051595483 -0.031696692 -0.08179519 -0.14489916 -0.05321696 -0.007530724 -0.094231926
-0.50053376 -0.1596161 -0.05996914 -0.15453576 0.07928246 -0.07740187 -0.18870036 -0.0734321
-0.36977068 -0.41000468 -0.32484946 -0.3174807 -0.25610852 -0.071265996 0.22122484 -0.21956334
-0.35889572 0.0140815005 -0.19598758 -0.3298599 -0.029724116 -0.0273941 -0.05108254 -0.32437924
-0.12758692 -0.2952622 -0.2933588 -0.3840501 0.068093285 -0.18514225 -0.13072132 -0.14930105
-0.28672838 -0.4048454 0.0851623 -0.29738852 -0.10649244 -0.12613077 -0.06292904 -0.30271673
-0.41966912 -0.094773665 -0.05752917 -0.24581331 0.2791252 -0.012494301 -0.031848308 -0.18165673
-0.2967497 -0.038761668 0.040208124 -0.3351043 0.05609395 -0.10893455 -0.06499128 -0.0780668
-0.39080366 -0.0312602 0.022895908 0.04145859 0.016172415 -0.019350803 -0.084060535 -0.023311654
-0.100360885 -0.10584462 -0.17759618 -0.18443128 -0.027674511 -0.2106696 -0.016366187 -0.06939605
-0.2807196 -0.20390838 0.17320687 -0.053172663 -0.40996057 -0.21682143 -0.34232464 0.004042898
-0.34689534 -0.16402127 -0.37200645 -0.2716521 -0.021413708 -0.010578772 -0.31938213 -0.0625988
0.00018065039 -0.234361 0.19574384 0.192892 0.08852973 0.106090404 -0.010752293 0.035471637
-0.16689046 -0.27160752 -0.301203 -0.20252416 0.35539812 -0.42780736 -0.21441048 -0.020656042
0.10264322 -0.18008044 0.0690985 -0.3395056 -0.15427299 -0.10242068 -0.20561658 -0.2893836
-0.22287904 -0.004892996 -0.079182714 0.1147416 -0.2701529 -0.41754925 -0.3334651 -0.11575306
0.033569485 -0.21106239 -0.15195724 -0.2716987 -0.124674074 0.048737545 -0.10252202 0.0035866234
-0.5686624 -0.09822209 -0.17979062 0.12999037 0.027630765 -5.8214442e-05 -0.13477294 -0.12867062
-0.1614432 -0.009376357 -0.1484462 -0.111363724 0.12813838 0.33929574 -0.07485514 0.1777213
-0.32710326 0.029951407 -0.045390867 -0.24137932 0.12481937 -0.009432478 0.1989857 0.38857403
-0.05223024 0.5203738 0.39054728 -0.23532473 -0.042185713 -0.003706058 0.27131754 0.09547004
0.10184183 0.03797496 0.23430386 0.1309403 0.2623613 0.107374586 0.21683486 -0.17851195
0.0926178 0.33622313 0.011743046 -0.021217894 -0.052241515 0.17343532 0.1719962 0.15964063
-0.010333987 0.07787651 0.35494688 -0.27150223 -0.48127174 -0.41872808 -0.005683716 0.33970842
0.21921746 -0.05954532 0.055689633 0.025749503 -0.06793881 0.050858535 -0.038433027 -0.012790832
0.2412456 -0.09338411 -0.2238485 0.061097424 0.030692063 -0.09630798 -0.020958094 -0.24160847
-0.30091637 -0.16393232 -0.26551348 -0.6563787 0.020262836 -0.20016687 0.2763405 -0.20861803
-0.29052252 -0.20112728 -0.3304446 -0.3471563 -0.38448492 -0.17668425 -0.24594963 -0.43708345
0.21268487 0.0016376806 -0.29583532 -0.25226063 -0.22140688 -0.35592774 -0.116801724 -0.12192399
0.02143502 0.16386311 -0.0057272045 -0.23550127 -0.3490045 -0.25141582 -0.27557746 -0.14867315
-0.20772381 -0.5228721 0.09293042 -0.033288695 -0.22395825 -0.2822699 -0.2586914 -0.40061155

hidden_layers.0.bias f4 [256]
00000000: b7fa cabd f6f1 03bc 8983 b23d 45df 87bc
00000010: eb85 84bd 5d09 03bd 0c9d d4bd 6172 8dbe
00000020: 1b8f 553c c078 393d 2184 21be 508b 923b
00000030: d4c0 0ebd 73d4 7dbc 667c f73d 5d2e 803d
00000040: efa2 49be 1026 72bd 48c9 0fbc 6597 dcbc
00000050: 7947 b33d 4d50 053b 16b1 ed3d f71a 22bd
00000060: d41d 70be b3cd 17be 64ae 8fbc 1992 80be
00000070: bdb2 2d3d b117 29be e346 96bc 44b6 1a3e
00000080: 0b04 75bd 1268 973d 004c 70bd 90e1 21bd
00000090: c50a 45be 4df4 44be 45d2 e4ba 9c75 cebd
000000a0: 639a 86bd 30ed 143d 8ddd 04bd 5366 05be
000000b0: e8c7 16bd 8244 07bd 9e61 f23d f38a 7fbe
000000c0: a155 78bd 4dbd 98bd 766d 2bbe 3380 3ebe
000000d0: a925 193c 013f c3bd dcdb 07be 81e9 b1bc
000000e0: 470e 83be 9d0d 76bd bec2 5dbd 0ba2 ffbd
000000f0: 3d00 9ebc 4bab 1ebe dab0 a3bd 72e9 a9bd
00000100: b033 87bd 4c81 e33d dc14 043d 3c81 7ebd
00000110: 5325 78bd 8821 57bd acba 5bbd 79e7 19bd
00000120: 1ab4 ffbc 71b0 08be a19e 9a3d 498d 90bc
00000130: 9576 403d 27f9 8bbd e5c8 51bd 92ed a43d
00000140: 84fe a23d 6888 943d b438 c9bc 0743 f73d
00000150: fdda a33c 5dde 033e c30c e4bc adaa 91bd
00000160: ffe9 f83d c2eb ab3d 0e99 52bc de15 b0bc
00000170: 1ff3 4abc 9681 19be 0828 54be f01c 01be
00000180: 88b3 babd e61e 1bbb 102d d6bd 7cb8 52bc
00000190: 14af 753b 2f2a 20be 6dd8 85be c983 683d
000001a0: da44 663c b520 93be 2f3f 03be 4eed 2c3d
000001b0: 632b 8d3d d35c f9bd cdce 79be 1488 e5bd
000001c0: 010c 58bd f87b a43c ffc5 63ba e3fd 5bbd
000001d0: e154 63be 5b8f 903c 3939 10be c0b3 54bc
000001e0: febd ec3d a0a7 10be d238 90bc acc2 92bd
000001f0: 76ad 3ebe f394 5bbe eab9 82be 5d60 d73c
00000200: aef9 cbbd 9f20 53bd a636 633d c165 d7bd
00000210: 4b1d 96bd e629 efbd 6b1e 9fbc ce1f 853d
00000220: 9446 89bc cc17 e8bc 7833 48bd fc9a debd
00000230: 50d7 c0bd fc94 a9bd 5025 433c f2d8 843b
00000240: 55d9 42bd b273 10bd 8654 b83d c9fb 8cbd
00000250: 2276 0abe 6bb5 2bbe b2fc 043d cabb 053d
00000260: 1202 88be f255 0cbe 5318 c43c baee 37bc
00000270: 961d 8abd def0 783c 5991 e5bd 105a 913d
00000280: f864 93bc 711f b0bc 7806 e33c 1ab1 16be
00000290: d46e cabd 8aa7 6b3d 09a3 06bd 369e f2bc
000002a0: b22f 44bd 5bf0 eebd 2186 aa3d f6ca 89bd
000002b0: 2f1b f6bb ee78 98bd a9e5 22bd 5384 f1bd
000002c0: 6654 003e 68c8 bb3c f32f dbbd d322 153d
000002d0: 18a0 713d 58d8 b4bd 0629 68bb a258 363e
000002e0: 1c9a 69bd 18d8 133e 093d 79bd b2af bd3d
000002f0: 704f 59bd 5ea9 a5bd 2904 673d 2581 eabc
00000300: 3433 62be a97f 483d 82fb 07bd b656 273d
00000310: d4c5 a2bd 095b 2bbd 23a5 f13d 0cc8 b7bc
00000320: 989a 2abe 83bf a3bd 87e8 8b3d 9a6b 443c
00000330: 7a71 b03c a855 94bd 0edf eabd c412 aabd
00000340: f1af b4bd 934a d53d 204d 8cbc e81b a4bd
00000350: 298e 953c de51 aebc 1ea9 15be bfd0 2cbd
00000360: 4e6b 343d 3041 d43d a499 3fbe 9d2c bcbc
00000370: b554 363b 4205 67be c887 e83c b65d 133d
00000380: f70f edbc 0746 e7bc aa14 9cbc 3b9e 6ebd
00000390: d023 1fbd 3909 cbbd db8c f0bc 5547 52be
000003a0: 52df 3bbd f6a4 ebbd 58a1 c0bb 1f16 cd3d
000003b0: c2be 47bd f8ce 9f3d 904d a53c 765f 72bc
000003c0: 23bb 33be 54b4 733d 73b3 bdbd 3e41 1f3d
000003d0: d7d0 b7bc a18d 3fbd 325a 3fbc a3b5 21be
000003e0: c91d a9bd 1c01 d8bd b21b 113d 0a23 acbd
000003f0: d237 0fbe 4001 5dbb 310c 50be de79 8f3d
-0.09911101 -0.008053293 0.087164946 -0.016585955 -0.06470855 -0.03199135 -0.10381517 -0.27626327
0.013034607 0.04528117 -0.1577306 0.0044721738 -0.034851864 -0.015492546 0.12084274 0.06258843
-0.1969106 -0.05911833 -0.0087760165 -0.02692766 0.08753867 0.0020342052 0.11606042 -0.039576497
-0.23448879 -0.14824562 -0.01753921 -0.25111464 0.042406786 -0.16512944 -0.018344348 0.15108591
-0.05981831 0.07392897 -0.05866623 -0.039521754 -0.1924239 -0.19233818 -0.0017457685 -0.10081026
-0.06572416 0.036359012 -0.03243785 -0.13027315 -0.03681174 -0.03302432 0.11835025 -0.24955349
-0.060628537 -0.07457981 -0.16740975 -0.18603592 0.009347358 -0.095335014 -0.13267463 -0.021717789
-0.2559683 -0.060071576 -0.0541408 -0.12482079 -0.019287223 -0.1549503 -0.07992716 -0.08296479
-0.066016555 0.11108646 0.032246456 -0.062134966 -0.06058247 -0.052522212 -0.05364482 -0.037574265
-0.031213809 -0.13348557 0.07549787 -0.017645495 0.04698809 -0.068346314 -0.05121698 0.080531254
0.07958701 0.0725258 -0.024563171 0.12073331 0.020001883 0.12877794 -0.027838117 -0.07112632
0.12154006 0.083945766 -0.012853874 -0.021494802 -0.012387066 -0.1499084 -0.20718396 -0.12608695
-0.09116274 -0.002366954 -0.10457814 -0.012861367 0.0037488388 -0.15641092 -0.26141682 0.056766305
0.014054501 -0.2873589 -0.12817071 0.0422185 0.06893041 -0.12175908 -0.24395294 -0.112075955
-0.052745823 0.020078644 -0.00086888665 -0.053708922 -0.22200347 0.017646482 -0.14084329 -0.012982309
0.11559676 -0.14126444 -0.017605219 -0.07166037 -0.18620858 -0.21443538 -0.25532466 0.026291067
-0.09959732 -0.05154478 0.05547204 -0.10517455 -0.07329806 -0.11677913 -0.019423684 0.06500207
-0.016757287 -0.02833166 -0.04887721 -0.10869405 -0.094160676 -0.0828037 0.011910751 0.004054182
-0.047570545 -0.035266586 0.090004966 -0.06883962 -0.13521627 -0.16768424 0.03246755 0.032649793
-0.2656408 -0.1370466 0.02393738 -0.01122635 -0.06743924 0.015194146 -0.112093635 0.07097256
-0.017992482 -0.021499367 0.027713045 -0.14715996 -0.0988442 0.057532825 -0.032870326 -0.029616456
-0.04789705 -0.11666938 0.08326364 -0.06728165 -0.0075105648 -0.074449405 -0.039769802 -0.11792817
0.12532195 0.02292271 -0.10702505 0.036410164 0.058990568 -0.08830327 -0.0035424842 0.17807248
-0.057031736 0.14437902 -0.060849223 0.09262027 -0.053054273 -0.08088945 0.05640045 -0.028626034
-0.22089845 0.04894987 -0.03319884 0.04085418 -0.07947889 -0.041834865 0.117990755 -0.022434257
-0.16660535 -0.07995512 0.068314604 0.011988545 0.021538485 -0.072429 -0.114683256 -0.083043605
-0.08822621 0.104146145 -0.01712662 -0.08013135 0.018256264 -0.021279272 -0.14615294 -0.042191263
0.044047646 0.10363996 -0.18710953 -0.022970492 0.0027821485 -0.225606 0.028385058 0.03597804
-0.028938277 -0.028231634 -0.019052822 -0.05825637 -0.038852513 -0.099138685 -0.02936404 -0.20535024
-0.04586727 -0.11506073 -0.0058786087 0.10013985 -0.048765905 0.07803148 0.020178586 -0.0147932675
-0.17551856 0.059498146 -0.09262743 0.03888058 -0.02243845 -0.046765927 -0.011679219 -0.15791945
-0.08257634 -0.105470866 0.035426803 -0.08405121 -0.13986138 -0.003372267 -0.2031715 0.07005666

hidden_layers.1.weight f4 [256, 256]
00000000: 7ad4 9d3c b067 c4bd 2f31 743e 4401 93bd
00000010: 4796 323d 7de3 0bbe b168 bbbd 0f7e eabd
00000020: ccc9 773d d565 d1bd a057 cfbd 8ffe 5a3e
00000030: 4f4c 49bd 8da9 ecbd 1972 8dbd 61b4 50be
00000040: b191 b5bd 817c 98bb e67d e33d 68b8 803c
00000050: 7d3f f03c 68b2 1a3d 40ef f3bd 3b64 81be
00000060: 8dd6 bcbd d5af fd3d 6930 5b3e 6187 ffbc
00000070: 75cf 2fbe d2da 57bd be22 68bd a678 033e
00000080: 0c1b d43d 8978 cabd e8c9 83be b8aa a2bb
00000090: dd91 a0bd 3d47 17be 8822 063b e88f 49bd
000000a0: 30f7 29bd 64ae 6d3d 09b3 0d3d d222 29be
000000b0: f44e 18bd 77a9 f6bd 5c21 f83d 60c9 4fbe
000000c0: a6a4 1abe 3227 82bd 3f4b 8d39 76bf 213d
000000d0: b5cd cdbc 25be bebd b4c9 b7bd 5cbd cdbd
000000e0: 3261 e4bc f8ea 25be 4b39 91bd f351 8abc
000000f0: 4794 1bbe cd16 24be c4f8 fabd bf34 df3d
00000100: 0f8d 0abc 6e18 03be 2449 47be 878a 253b
00000110: f066 80be 6a4b 5ebd 33b9 28be ef8d ffbd
00000120: dd7e 183e 5a35 ea3d b3af edbb abfc 53be
00000130: 874c 6dbe 69af 26be 3821 b43b 8ae4 aebd
00000140: b245 133c a7ef 583c 2bc0 9a3b 1156 003d
00000150: ce92 e8ba 77c2 4e3c ca41 e43b 21d6 e43d
00000160: 1f49 6bbe dcf0 91bd b348 2bbe eba8 5bbe
00000170: 3caf 103e f30b 00bd 920c febd ff0a 94be
00000180: 1061 803d 1050 9bbd dc47 e5bd 8713 20bd
00000190: 28eb 2a3d 9b70 a1bd 908b 483b 42e0 383d
000001a0: a5c9 673d 86b1 71bd f8db 48be 1a94 c5bd
000001b0: dccf 7ebd b866 6ebd 2f76 02bd f0e7 fbbd
000001c0: 5c27 3fbd 9ad2 10be 8432 04be f6f8 53be
000001d0: d05e dfbd ae7d 2a3e 448f 25bd 2cdf 2cbe
000001e0: af0a a7bb 02f3 cbbd d442 2bbd 993d 23bd
000001f0: ea44 1bbc bd33 0d3d 8a3f 4fbd 3a92 40be
00000200: 4ee1 4a3e 2537 edbd 202d 85be b7dd 38bd
00000210: 1214 b2bc 4429 32be da49 bdbd b922 e1bc
00000220: 1504 b5bd 3010 823c fca0 9fbd e959 003d
00000230: 5413 8abd fc05 d83c c9e3 983d 43df 3ebd
00000240: ecf3 07be 7991 c63d 2496 133e c0a9 65bd
00000250: 90d9 67bd c989 34be 887c 863d c91c 64bc
00000260: 4f99 47be ac08 febc 7f8b cebd d54d 68bd
00000270: a8ad 8f3d 463b 643c 3a8c f9bd 4f66 9cbd
00000280: 4a9a e53d 635b 443b 7db2 d0bd 4c6f bf3d
00000290: 28f8 dbbd 7f99 21be 9f4f 04bc e63e 43be
000002a0: fd1d a2bb 7f2b 20be c5bb 11be c3b0 02be
000002b0: c21e 703c b04a 13ba dca6 62bd e945 80bc
000002c0: c825 13be 5010 64bd 3584 51bd 9f9e 53bd
000002d0: a226 8f3d 7f19 dabc f926 663d 9dd2 e1bd
000002e0: ac59 c6bd 960e b83d 64f1 cabd d4f6 2d3e
000002f0: abfb abbd 9cf3 d2bd defb 06be a87c 183d
00000300: dba2 68be 789e 01bc e231 fdbd 05c6 0abe
00000310: 3147 0bbe 99e3 033d e66a 4c3c bc5f b2bb
00000320: 7f6f 17be 1c1b 8dbd 448c 82bd 8c83 cdbd
00000330: 267c ffbd f1fc 243e f761 213d a5e0 5b3d
00000340: 1330 e93d 3aaa bb3d 368a 533d ef51 c63d
00000350: 37fe 3dbe 81a1 7bbd 3d7d 85bd f89a 5ebd
00000360: 7a90 1dbe 049c d7bd fb71 97bd 8c1e 66bc
00000370: 118c 743d 7a1a 273e 99ca cb3d 010a 3bbd
00000380: 1e8c 9b3d 4ada 26bd 04fb 55be 3cb1 2cbe
00000390: 0b43 503c 115a 3fbe 2af2 ffbd 934a 5dbc
000003a0: ea8c f6bd f6e5 003e 52e7 20be e8c0 c3bd
000003b0: 3c4e 35be ca40 a0bd 12f3 da3c d007 983d
000003c0: 6dd9 98bd b673 b73d d104 90bd dcc4 e03c
000003d0: 8b0c 403e 8b42 ecbd 6edd d7bc 1b34 aebd
000003e0: 05c6 303d 41a2 a0bd 6ce3 4d3d bfa9 e83c
000003f0: c9f7 4abe 2a32 53be 3b0b 7bbd c240 3b3d
0.019266356 -0.09590089 0.23846887 -0.07177976 0.043600347 -0.13660999 -0.09150828 -0.11449825
0.060495183 -0.10224501 -0.10124135 0.21386169 -0.04914504 -0.11555777 -0.06906528 -0.20381309
-0.08865679 -0.004653514 0.111079976 0.015712932 0.029327149 0.037767798 -0.11910868 -0.25271782
-0.0922061 0.12387053 0.21405186 -0.031192483 -0.17168982 -0.052698918 -0.056673758 0.12838992
0.10356721 -0.098862715 -0.2573998 -0.004964199 -0.07840321 -0.14773269 0.002046736 -0.049209505
-0.041495502 0.05802764 0.03459457 -0.16517189 -0.03718467 -0.120440416 0.12115738 -0.20291662
-0.15101871 -0.06355132 0.00026949678 0.039489232 -0.025122503 -0.09313611 -0.08974019 -0.10045883
-0.027878378 -0.16202915 -0.07091006 -0.01688478 -0.15193282 -0.16024323 -0.122544795 0.108987324
-0.008456483 -0.12802288 -0.19461495 0.002525957 -0.25078535 -0.05427114 -0.16476898 -0.124782436
0.14892145 0.11435957 -0.007253611 -0.20701854 -0.23173724 -0.16277851 0.005497124 -0.08539684
0.008988785 0.013240731 0.0047226152 0.03133208 -0.0017743947 0.012619606 0.0069658505 0.11173654
-0.22977112 -0.071260184 -0.16726951 -0.21451156 0.14129347 -0.031261396 -0.12404741 -0.2891464
0.06268513 -0.0758363 -0.11195347 -0.039081123 0.04172817 -0.07882806 0.0030600764 0.045135744
0.056588788 -0.05900719 -0.19615161 -0.09647389 -0.06220995 -0.05820343 -0.03185099 -0.12300098
-0.046668395 -0.14142838 -0.12909895 -0.2070044 -0.10906756 0.16649505 -0.040419832 -0.16882008
-0.005097709 -0.099584594 -0.04181178 -0.039853666 -0.00947688 0.03447317 -0.050597705 -0.18805781
0.1981251 -0.115827836 -0.2601099 -0.04513332 -0.021738086 -0.17398554 -0.09242602 -0.027482377
-0.08838669 0.01587686 -0.07794377 0.031335745 -0.06741968 0.026370041 0.074653216 -0.046599638
-0.13276643 0.096957155 0.14412743 -0.05607009 -0.05660397 -0.17630686 0.06566721 -0.013922879
-0.19492076 -0.031009994 -0.100852005 -0.05671485 0.07015544 0.0139301475 -0.12184949 -0.07636701
0.11211069 0.0029961697 -0.10190294 0.093474 -0.107406914 -0.1578121 -0.008075624 -0.19066963
-0.0049474225 -0.15641592 -0.14231785 -0.12762742 0.014655771 -0.0005618734 -0.05533491 -0.015658336
-0.14369881 -0.05567962 -0.051151473 -0.051664945 0.069897905 -0.026623486 0.05618951 -0.110264994
-0.09685072 0.08987157 -0.09909323 0.16988689 -0.08397611 -0.10300371 -0.13182017 0.037228256
-0.22718374 -0.007911317 -0.1236303 -0.13552101 -0.13601376 0.032199476 0.012476658 -0.0054435413
-0.14788626 -0.06889936 -0.0637441 -0.10034856 -0.12474851 0.16112114 0.039400067 0.053681035
0.113861226 0.091633275 0.05164548 0.09683596 -0.18554007 -0.06143332 -0.06518028 -0.05434701
-0.15387145 -0.105278045 -0.07394787 -0.014045369 0.05970389 0.16318694 0.09950752 -0.045663837
0.075950846 -0.04073552 -0.20896536 -0.16864485 0.012711297 -0.18686701 -0.12497361 -0.013506549
-0.12038596 0.12587723 -0.15713242 -0.09558278 -0.17705625 -0.078248575 0.026727233 0.07423365
-0.07463346 0.08957617 -0.07032169 0.02743762 0.18754785 -0.115361296 -0.026350703 -0.08506032
0.043157596 -0.078434475 0.050265715 0.028401254 -0.19821085 -0.20624605 -0.061290007 0.045716055

hidden_layers.1.bias f4 [256]
00000000: d99f c8bd 47b9 cabd 8ceb fbbd 305f 3abd
00000010: baee 1abe d617 b43d b74a bfbd 8bf8 f9bc
00000020: d119 50bc 64aa e6bd f18d a6bc 1fcd 9d3b
00000030: 0bd2 19bd 99d1 81bc f22a 23bd a69c 0abd
00000040: 0dbb f43c 0bcf e6bd e676 b1bd 1e47 58bd
00000050: 6827 9cbd e4a3 0dbe d523 08be 4777 88bd
00000060: 1898 d6bd 03d5 44bd 4b2b 03be 0b93 0f3d
00000070: 81c9 90bd 0bab fcbc 4307 27bd 508d e4bd
00000080: 7d0c 65bd f324 7abd 9f14 a2bd 9054 6ebd
00000090: bd9d d1bd ed98 70bd 1f61 d6bd 4384 7fbd
000000a0: 860b debd f732 60bd 231f dcbc 2c3e e1bd
000000b0: 466e 91bd 33f3 3ebd 957f cebd b710 1fbe
000000c0: 3f5f c4bd 5a13 20be 59d1 a0bd 51ae eebd
000000d0: 0f09 91bd c059 7abd b301 053d 278f c4bd
000000e0: 7d89 02be 52f4 b73d b070 0ebd 4092 6bbd
000000f0: b68d c5bd 9ae0 873d d81e 973b b257 68bd
00000100: 4f50 b0bd abb2 94bd d7c3 e6bd 92f3 9bbd
00000110: 7db4 d7bd b3c1 23bc f465 adbd 38ec 49bd
00000120: 1929 19be e3f4 5cbd 913e d7bd f6c9 a0bd
00000130: f8cb 9fbd d634 f7bd 23cd 71bd d68b 66bd
00000140: 6674 333d 3c5f 683c bc77 f1bd 5b34 35bc
00000150: 82b6 e1bd 1edf efbb 2662 f2bd 90f9 80bd
00000160: 67e7 9abd f8e6 c2bd 3e2f 21bd 3045 c03b
00000170: 7171 a6bc df64 b1bc 968c 66bd 2bb6 c5bd
00000180: f3b0 64bd 0561 74bd d9aa f9bc 3452 e2bb
00000190: 41bd c5bd fd45 edbd 8f6f d2bd 4bb6 77bd
000001a0: 12dc 24bd 6398 0bbc 48a8 91bd bd3b 53bd
000001b0: cce2 adbd 4465 3cbd 80f2 cbbc 8526 82bd
000001c0: 0663 9cbd 2f8d 2cbd 44f1 06be 28e7 7fbd
000001d0: f7b1 61bd 5010 4d3d e10b 02be 1b24 15be
000001e0: e378 ddbd bbe8 d3bd 978d 00bd 8efe fa3c
000001f0: 2433 01be e3f6 d2bc 0e65 f7bd 7de5 a43d
00000200: 3eed 30be 897e 09be 7925 e5ba 2052 ecbd
00000210: 0a19 efbd 8a01 fcbd 5971 bdbd a37a 9cbd
00000220: 0ffa 87bd 78f1 09be 10a9 32bd a5c1 c53b
00000230: 1ee7 adbd fe4c 9cbd e87f b2bd 9e95 ca3d
00000240: cb2f d53b 9074 d6bc ea12 9bbd b126 8dbd
00000250: 91b3 0fbd 28f6 30bd 0a71 c9bd 25e8 65bc
00000260: 21e0 82bd d27f aabd 7926 4cbd 604b 393d
00000270: 06f4 2c3d 9a9f 0fbe 3579 4f3d c094 c4bd
00000280: 1c3d 04be 6f48 82bd f7da b93c 7225 f0bd
00000290: a39c bdbc a18b efbd 6b99 043c c345 bcbd
000002a0: cb0a 0dbd 347b 1dbe 828c f4bd 0ddf 1bba
000002b0: cb20 90bd 4d77 d7bd 610c 40bd 006b 28bd
000002c0: 5694 36bd b3b0 0f3d 9683 5b3d ba0d 11be
000002d0: 3e15 69bd 7554 c6bd 1aa6 0bbe c132 17be
000002e0: 7227 9ebd 3f27 e8bc e54b 15be dedd b2bd
000002f0: 1fad a73a e871 d1bd 853e aabb 5653 d1bc
00000300: 6fc3 42bd 4ab3 7cbd 372c 493c e21f d1bd
00000310: d9d0 c1bd 0178 f5bd 1f46 fbbd dcd6 91bc
00000320: 9f35 0fbd 6f7f 0dbe 40be 08be a93d 85bd
00000330: c6fd 15bd 58aa 02be b16d abbd 6e51 fe3c
00000340: 9a0f f0bd 9bcd bdbd d52a 76bd d425 b0bd
00000350: 7440 31be ab67 9bbd 8685 7cbd 7139 8cbd
00000360: f00c 20be 3d57 853d cbe6 8fbd 66cc 203d
00000370: bdd6 e5bd ddba d7bd ef10 4ebd 870c 3cbb
00000380: 0084 fbbd 4059 b63c e087 9ebd 98e4 0cbe
00000390: 94ae fdbd cca3 b4bd 77cb a7bd 4644 b5bd
000003a0: 9851 85bd 696f cd3c 9b4a 71bd 9f0b f1bc
000003b0: ba1f 1539 4b51 18be 1ec4 7fbc 1deb 95bd
000003c0: 7b7a 61bd 9ad2 abba 257b 50bd 2de4 61bb
000003d0: da02 d2bc 4c3c 233c 16f6 46bc da5f 15be
000003e0: 122d 01bd d4d2 82bd d56e 3bbd 8d55 a6bd
000003f0: 267f bbbd a145 88bd 14f4 0dbe 5cc6 d1bd
-0.097961135 -0.0989862 -0.123007864 -0.045500934 -0.1513013 0.08793609 -0.093404226 -0.030514022
-0.012701468 -0.11262968 -0.020331355 0.004815712 -0.03755383 -0.015847014 -0.039835878 -0.033840798
0.029874349 -0.11269959 -0.08665256 -0.052802198 -0.07624704 -0.1383205 -0.13294919 -0.06663375
-0.10478228 -0.048054706 -0.12809484 0.03505234 -0.07069684 -0.030843278 -0.04077841 -0.11159766
-0.055920113 -0.061070394 -0.079140894 -0.058186114 -0.10235164 -0.05873959 -0.10467743 -0.062381994
-0.10842042 -0.054736104 -0.026870316 -0.109981865 -0.07101111 -0.04661865 -0.10082928 -0.1553372
-0.09588479 -0.15632382 -0.0785243 -0.11654342 -0.07081806 -0.06112075 0.032472324 -0.09597617
-0.1274776 0.08982147 -0.034775436 -0.05751252 -0.0964617 0.06634636 0.004611831 -0.056724258
-0.08609068 -0.07260641 -0.11267822 -0.07614817 -0.10532472 -0.009994912 -0.08466712 -0.04929754
-0.14957084 -0.05394448 -0.105099805 -0.07851021 -0.07802576 -0.120706245 -0.059033524 -0.0562857
0.043812178 0.014182862 -0.11790416 -0.011059846 -0.11021139 -0.007320299 -0.118351266 -0.062976
-0.07563668 -0.0951671 -0.039351694 0.005867623 -0.020317765 -0.021654544 -0.056286417 -0.096538864
-0.055832814 -0.059662838 -0.030476974 -0.006906772 -0.09655238 -0.11585615 -0.10275184 -0.060476582
-0.040248938 -0.008520219 -0.07112175 -0.051570643 -0.08490524 -0.045995012 -0.024895906 -0.06355003
-0.07636075 -0.04212683 -0.13177973 -0.062476307 -0.05510136 0.050064385 -0.12699844 -0.14564554
-0.10814073 -0.10347124 -0.03138503 0.03063896 -0.12617165 -0.02575249 -0.120798215 0.08051584
-0.17278 -0.13427176 -0.0017482481 -0.115391016 -0.11674698 -0.12304981 -0.09250135 -0.076405786
-0.06639492 -0.1347102 -0.04361826 0.006035047 -0.08491348 -0.076318726 -0.087158024 0.098918185
0.0065059415 -0.026178628 -0.07571967 -0.068921454 -0.035083357 -0.043203503 -0.098360136 -0.014032398
-0.063904054 -0.08325161 -0.049841378 0.0452379 0.042224906 -0.14025727 0.0506527 -0.09598684
-0.12913936 -0.06361472 0.022687418 -0.11725892 -0.02314598 -0.11696554 0.008093218 -0.091929935
-0.03443412 -0.1537903 -0.11940862 -0.0005946018 -0.07037505 -0.10520802 -0.046886805 -0.04111767
-0.044575058 0.035080623 0.053592287 -0.14165393 -0.056905024 -0.09684078 -0.13637581 -0.14765455
-0.07722367 -0.028339026 -0.14579733 -0.08733724 0.0012792683 -0.10226804 -0.005195441 -0.025552433
-0.04754966 -0.06169442 0.012278608 -0.10211159 -0.09463663 -0.119857796 -0.12269234 -0.017802648
-0.034963246 -0.13818143 -0.13353825 -0.06505901 -0.03661897 -0.12760293 -0.08370531 0.031044688
-0.11721726 -0.09267732 -0.06009944 -0.08600965 -0.17309743 -0.075881325 -0.061650775 -0.068468936
-0.15629935 0.0651078 -0.07026442 0.03925743 -0.11222599 -0.10533688 -0.050309118 -0.002869399
-0.122810364 0.022259355 -0.0774076 -0.13759077 -0.12386814 -0.08820304 -0.08193105 -0.08850913
-0.065097034 0.025077539 -0.05890904 -0.029424487 0.00014221566 -0.14874761 -0.015610723 -0.07320235
-0.055048447 -0.0013109029 -0.05089869 -0.0034468279 -0.025636125 0.009963106 -0.012143632 -0.14587346
-0.031537123 -0.063878685 -0.045759995 -0.08121786 -0.09155111 -0.06653906 -0.1386264 -0.10242912

output_layers.0.weight f4 [40, 256]
00000000: 64d4 11be a7f1 bebd b76d c9ba 6fb8 2fbd
00000010: f4eb 113e 7a70 bbbc 9a9f 8dbc ba4b 053a
00000020: da47 7fbc 13c1 50bd 84a6 90bc 1b1e f2bc
00000030: c12e 653d 5022 583d f655 d0bd af69 b83d
00000040: 992c f2bc 0c80 66bd 275e 67be 74ab 24be
00000050: ec2b c33d a5f4 02bd 1dd5 ad3d f674 42bc
00000060: d26a 3e3c 90c4 41bd c08b c2bd b987 71be
00000070: 9562 e3bc 9e40 1b3e 3381 b93d f6ed 55be
00000080: 5bce 923d 824f a23d e1c4 f3bd a73b b13c
00000090: 7588 023e b604 18be 5ada d9bd 1a71 14be
000000a0: e8e6 a53e feae 0a3c 3a5a 52bd 477a 843c
000000b0: 3e11 fcb9 ac26 863b dd90 19bd 4ff5 4bbd
000000c0: 04a8 a8bd 0a8d acbd 1f47 54bc ffe6 0d3c
000000d0: 289f 00bd 41f5 94ba 9512 a1bc eade 99bd
000000e0: 508f 883d a853 02bd 1edc bcbd 7a8e ef3d
000000f0: 14fa ca3d 04db cfbc 9f91 1c3e e7fc 3abe
00000100: e874 ac3d 90c9 adbd 22df 83bc 4576 903d
00000110: 8168 57bd 3765 d63d 85f0 6abd e5ac 88bd
00000120: 1e11 5abd 67ab 7c3d c89d efbd 865e d73d
00000130: a71e 763d 63cf ec3b 3bc0 173e 7b8d a23d
00000140: 318b fcbc c8e5 c7bc 368f b43c a7d8 96bc
00000150: 9e59 2bbe 8c5d 0ebd cab5 6bbd e346 5f3e
00000160: 2660 023e 590b a7bd b291 4e3d 0984 efba
00000170: 469e 9fbd 9594 fdbc 76d2 3fbd 45ce 6a3d
00000180: 6626 d63d 5004 cfbd 20d1 33be b242 babc
00000190: e74a 4abe a0f0 34bd b744 c23d 04f4 873c
000001a0: 4b50 1b3e cdab 333d 5566 213e af90 ea3d
000001b0: b043 043e 91d5 9e3c f801 6fbd 22b3 1abe
000001c0: 232d eb3c e433 0e3e 88cc b83d c0e2 5b3e
000001d0: 9738 d03b b1ec 0cbd c4d9 2fbe ed71 673a
000001e0: fc58 b83d da42 323e a2c7 ea3d 5838 9fbc
000001f0: de44 f0bc ce0f 5bbe 9982 31bd fa88 c7bc
00000200: 371b bd3d 4874 8f3d 5423 00bd 3b09 123d
00000210: 916d c63d b9cd d7bd 8e9a 093d d69f d0bc
00000220: 2366 203d f236 473e 24b9 1c3d 4818 93bd
00000230: 5ea1 8a3d ab25 1e3e 63ee d53c 418a b6bc
00000240: ebd6 ebbc 373f 3cbe 837c 8cbd fb23 613d
00000250: 14c5 173e a584 163e 9ba0 6bbd c6ac 033e
00000260: 6350 bc3d 0974 273c 741c 363d dabf fdbc
00000270: 23f4 6dbd b48e 0fbe 06ce 40bc 830a 55be
00000280: 1748 2b3d 1521 193e 1f9b dcbd 2bb5 f93d
00000290: ba0c 55bd 1173 2ebe 3a9f 35bd afd5 163c
000002a0: 3a43 f3bc 1cb6 b83c 7917 923b 313a 0fbd
000002b0: 190b d33c 9b6e 363d 4b3f 37be b812 08be
000002c0: 20fe 633d 5476 c1bd bcc1 aabc 8f4d a1bd
000002d0: 7d82 04bd 6e08 0cbd ee0d 65bc cc29 5fbe
000002e0: de28 0cbe 03b7 ac3d 5984 27be 4997 82bd
000002f0: e271 61bd d6c3 26bd 0be6 c2bd 613d b43d
00000300: ffa4 11bd d0bf c63d f3e5 26bd b753 26be
00000310: ed98 ad3d 1cd3 99bd 9d67 533c 6128 a03d
00000320: 07b2 c7bd ee12 0abd aaee 72be 6dac 383d
00000330: 11dc 0e3d e96f 06be e66a 9e3c 5b55 1ebc
00000340: aaee f73d e056 fa3d 66eb fb3d b6db fabd
00000350: e00f b13d c9bd 3abc 2d37 633d 7e1f 69bb
00000360: dc29 9dbd f02b e2bc 6677 74bd c09c 47bc
00000370: 8031 cfbd e5e2 b5ba 8546 30be 3652 05bd
00000380: 8e89 2c3e 2920 ebbd 0790 ae3d 5e94 e3bc
00000390: 8f31 babb 9c54 07be 3b38 bcbc bd44 cdbd
000003a0: b499 a83c 243a d1bc 3806 153e be85 02bd
000003b0: 0041 fabd c701 cabd a15f f5bc d7d0 33bd
000003c0: 47f1 f8bd a753 eebc 2544 3d3d b924 09bc
000003d0: ab86 5c3e 9203 0cbd 7362 593e c266 93bd
000003e0: 0ce1 e7bd 41f2 9cbc aedc 033e e93a 0f3e
000003f0: a49b 423d fa2b a43d 8199 ea3d f335 77bd
-0.14241177 -0.09323435 -0.001536778 -0.0429005 0.14250165 -0.022880781 -0.017288018 0.00050848315
-0.015581096 -0.05096538 -0.017657526 -0.029555371 0.05595279 0.052767098 -0.10172646 0.090045325
-0.029562281 -0.05627446 -0.2259451 -0.16081029 0.09529862 -0.031971592 0.08487914 -0.011868706
0.011622148 -0.047306597 -0.094993114 -0.2358693 -0.027756969 0.15161368 0.09057846 -0.20891556
0.071682654 0.07925321 -0.11902786 0.02163489 0.12747367 -0.14845547 -0.106373504 -0.1449627
0.3240273 0.008464573 -0.051355578 0.016171588 -0.00048078032 0.0040939655 -0.037491668 -0.04979449
-0.082351714 -0.084253386 -0.01295641 0.008661031 -0.031401783 -0.0011364595 -0.01966218 -0.075132206
0.0666796 -0.031818062 -0.092216715 0.11697097 0.0991098 -0.02537299 0.15289925 -0.18260537
0.084207356 -0.084857106 -0.016097609 0.07053808 -0.052589897 0.10468524 -0.057358284 -0.06673602
-0.05323898 0.0616869 -0.11700016 0.10516076 0.060087826 0.007226871 0.14819424 0.079371415
-0.03082809 -0.02440156 0.022040945 -0.018413855 -0.16733405 -0.034757182 -0.057546414 0.21804385
0.1273199 -0.08156461 0.050431915 -0.0018273602 -0.0779386 -0.030954638 -0.04683157 0.05732562
0.10456543 -0.101082444 -0.17560244 -0.02273688 -0.19755135 -0.04417479 0.094857626 0.016595848
0.15167348 0.043865014 0.15761693 0.114533775 0.12916446 0.019388946 -0.058351487 -0.15107396
0.028708046 0.13886982 0.09023386 0.21473217 0.0063544023 -0.034405414 -0.17172915 0.0008828927
0.090013474 0.17408314 0.11463858 -0.019436046 -0.029329713 -0.21392748 -0.04333744 -0.024357308
0.092337064 0.07004601 -0.03128369 0.035653334 0.09688867 -0.10537285 0.03359466 -0.02546684
0.039159905 0.19454554 0.0382625 -0.07182366 0.067690596 0.15444057 0.026114648 -0.022282721
-0.028789004 -0.1838349 -0.06859686 0.054965954 0.14821273 0.14699037 -0.057526212 0.12858877
0.0919502 0.010220536 0.04446073 -0.030975271 -0.058094155 -0.1401928 -0.01176787 -0.20804791
0.041816797 0.14954026 -0.107717745 0.12192758 -0.05201409 -0.17036082 -0.044341303 0.00920622
-0.029695142 0.022547774 0.0044583646 -0.034967605 0.025762128 0.044539075 -0.17895238 -0.1328839
0.055662274 -0.094463974 -0.020844333 -0.07876121 -0.032351006 -0.034187727 -0.013980372 -0.21793288
-0.13687465 0.08433344 -0.1635908 -0.063765116 -0.055040248 -0.040714107 -0.095165335 0.088007696
-0.035557743 0.09704554 -0.04074664 -0.16242872 0.08476434 -0.07510969 0.012903121 0.07820202
-0.09750753 -0.03370946 -0.23723856 0.045086313 0.03487784 -0.13128628 0.019338083 -0.009663905
0.121060684 0.12223601 0.12300758 -0.12248938 0.08645606 -0.011397787 0.05547254 -0.003557175
-0.07674 -0.027608842 -0.05968418 -0.012183368 -0.10116863 -0.0013876824 -0.17214401 -0.032549106
0.16849348 -0.114807434 0.08523565 -0.027780708 -0.0056821774 -0.1321587 -0.022976032 -0.100228764
0.020581104 -0.025540419 0.14553154 -0.031865828 -0.12219429 -0.0986362 -0.029952826 -0.043900337
-0.12155395 -0.029092623 0.046207566 -0.008370572 0.21535747 -0.034183092 0.21228962 -0.07197334
-0.11322221 -0.019158484 0.12877151 0.13987316 0.04751171 0.080162 0.1145506 -0.060354184

output_layers.0.bias f4 [40]
00000000: dcdc 83be e5ba a7be 8ab9 5abe fd16 70bf
00000010: 2736 8ebe 8c43 b1be 1f98 adbe 12a9 21be
00000020: 21a5 8ebe c21f 96be 7a7c 9fbe b6f5 0abe
00000030: 2baf a7be 846f 62be c229 87be bd31 84be
00000040: 0bd0 95be da73 a3be cdee 60be 391c a5be
00000050: e5f3 7cbe 6de9 a2be 43f1 95be b7da 32be
00000060: ffa5 98be 40bf c2be 13bd 80be 1c17 60be
00000070: 62f0 91be 19c3 3cbe 50e3 8bbe 713f 8fbe
00000080: 283f 84be 6e13 61be f39c b8be 01d3 94be
00000090: d692 65be c0ae 6dbf f40e 67be 200e b1be
-0.2575444 -0.32759777 -0.2135984 -0.9378508 -0.2777569 -0.34621847 -0.33905122 -0.15787151
-0.27860358 -0.29321104 -0.31149656 -0.13570294 -0.3275083 -0.22112852 -0.26399046 -0.25819197
-0.29260287 -0.31924325 -0.21966095 -0.32248095 -0.24702413 -0.31818715 -0.2928563 -0.17466246
-0.29814145 -0.38036537 -0.25144252 -0.21883816 -0.2850371 -0.18433799 -0.27321863 -0.2797809
-0.25829434 -0.21980068 -0.36057243 -0.29067233 -0.22419295 -0.9284477 -0.22564298 -0.3458109
