MODELS/REWARD COMPARISON/SAC UNMASKED MODELS/8_2_critic_target_network_un.pt (torch, 411327 bytes, 6 tensors)

hidden_layers.0.weight f4 [256, 101]
0	0xbe21b94c	-0.15793341
1	0xbdd78169	-0.1052273
2	0xbec9d87d	-0.3942298
3	0xbf2fa835	-0.6861604
4	0x3e5ce264	0.21570736
5	0xbe27c3e1	-0.16383316
6	0xbe8b8c1f	-0.2725534
7	0x3f123174	0.5710671
8	0x3c7769d6	0.015100917
9	0xbebf9032	-0.374147
10	0xbe95e066	-0.29272765
11	0x3ef0fbcb	0.47067103
12	0xbe79602f	-0.24353097
13	0x3ed3ccc1	0.41367152
14	0x3f0c5d53	0.548299
15	0x3e1b464d	0.15163536
16	0x3f2448dc	0.64173675
17	0x3e5571b8	0.20844162
18	0xbf2f1168	-0.68385935
19	0x3f05b35a	0.52226794
20	0xbe174e2e	-0.14775917
21	0xbea97ca7	-0.33102915
22	0x3ef83d78	0.48484397
23	0xbf4d1d01	-0.8012238
24	0x3e6156f3	0.22005825
25	0x3e8ca34e	0.27468342
26	0xbe9140f4	-0.28369868
27	0xbf41e1d1	-0.75735193
28	0xbf6db7ac	-0.92858386
29	0x3e4d4a02	0.20047763
30	0xbd2a3885	-0.041557807
31	0x3ecd1db9	0.4006174
32	0xbed5053e	-0.41605562
33	0xbf284698	-0.6573272
34	0xbe48cf03	-0.19610219
35	0xbe8d6a5d	-0.2762021
36	0xbfb32cd2	-1.3998053
37	0xbeee09b1	-0.4649177
38	0xbf6d6308	-0.92729235
39	0x3e491a9a	0.19639054
40	0x3b6f3b6d	0.0036503926
41	0xbf2341b5	-0.63772136
42	0xbe55867e	-0.20852086
43	0xbd97e371	-0.07416428
44	0x3ef8aa73	0.48567542
45	0x3dde6ad4	0.108602196
46	0xbf9874d1	-1.191065
47	0xbfe50f4e	-1.7895296
48	0xbe9976c5	-0.29973426
49	0xbf7f2146	-0.99660146
50	0xbe853411	-0.26016286
51	0xbf056fe6	-0.5212387
52	0xbef5f54c	-0.4803871
53	0xbe900a6c	-0.2813295
54	0xbf4c5644	-0.7981913
55	0xbf1408bd	-0.57825834
56	0xbf73c5fd	-0.9522398
57	0xbd3c6d36	-0.04600259
58	0x3faff2b8	1.3745947
59	0xbf10e9e5	-0.56606895
60	0x3d5b7c23	0.053585183
61	0xbf14da26	-0.5814537
62	0xbf92589c	-1.1433291
63	0xbe6a1d4a	-0.22862735
64	0xbe06b28f	-0.13154052
65	0xbf4ef4bb	-0.8084218
66	0xbeb831b5	-0.35975423
67	0xbeb6e5f8	-0.35722327
68	0x3e9aea35	0.3025681
69	0x3f279319	0.6545883
70	0x3cba74c3	0.022760754
71	0xbf16ab4c	-0.5885513
72	0xbf0a0939	-0.5392032
73	0x3dca64c0	0.09882498
74	0xbe0983ab	-0.13429134
75	0xbd910ef3	-0.070829295
76	0x3e7616f5	0.24032195
77	0x3e9775db	0.29582104
78	0x3ee30354	0.44338477
79	0xbe499f3f	-0.19689654
80	0xbe340443	-0.1757975
81	0xbf3a43d8	-0.7275977
82	0xbed02332	-0.40651852
83	0xbe9fc481	-0.31204608
84	0xbe2278e6	-0.15866432
85	0x3dd7f739	0.10545201
86	0x3ddd7fd9	0.10815401
87	0x3d3b6a35	0.045755584
88	0x3f5a77a9	0.85338837
89	0x3e206b8c	0.15666026
90	0xbd814f08	-0.06313902
91	0xbee4552f	-0.4459624
92	0xbdbcbb1a	-0.09215374
93	0xbf1d7e5a	-0.6152092
94	0xbf128043	-0.5722696
95	0xbf33fa1a	-0.703035
96	0x3dfa21a9	0.122134514
97	0xbec13aae	-0.37740082
98	0xbf295dac	-0.66158557
99	0x3f3ddc42	0.7416421
100	0xbe0bc4d2	-0.136493
101	0x3e78ca81	0.24295999
102	0xbe8dc8e3	-0.27692327
103	0xbe81cc3f	-0.2535114
104	0xbd9df87a	-0.07713409
105	0xbf68c6d7	-0.90928406
106	0x3d185fdf	0.037200805
107	0xbe18c915	-0.14920457
108	0xbd522399	-0.05130348
109	0xbf82ac78	-1.0208883
110	0x3ecc984d	0.39959946
111	0xbe2b6de2	-0.16741136
112	0x3ce79597	0.028269572
113	0x3dbbfef5	0.091794886
114	0xbe8d100e	-0.2755131
115	0xbf09585d	-0.53650457
116	0xbf5f7066	-0.8728088
117	0x3ea75bf2	0.32687336
118	0xbe8ea160	-0.27857494
119	0x3da0e9e5	0.07857112
120	0x3e25bd1d	0.16185422
121	0x3b8a9374	0.0042290036
122	0xbdc99f5e	-0.0984485
123	0x3e73214a	0.23743168
124	0xbd0c16c8	-0.034201413
125	0xbc1da6c3	-0.009622279
126	0x3e56a093	0.20959692
127	0xbd70b9d8	-0.058770984
128	0x3d9b6496	0.075875446
129	0xbf8f7e86	-1.1210487
130	0x3efd277e	0.49444193
131	0x3eceaa92	0.4036451
132	0xbeaf4f18	-0.3424003
133	0xbe9a8cf3	-0.3018566
134	0x3ed3b1dc	0.41346633
135	0xbe0de057	-0.1385511
136	0xbe155282	-0.14582255
137	0xbdffe4d8	-0.1249482
138	0xbfa2bece	-1.2714479
139	0xbea3e86b	-0.32013258
140	0x3e12dafc	0.14341348
141	0xbe377eb7	-0.17919432
142	0xbe957ca4	-0.29196656
143	0xbf596958	-0.84926367
144	0x3e9c3f16	0.3051688
145	0x3e277e74	0.16356832
146	0x3f1c385a	0.61023486
147	0xbef6ac43	-0.481783
148	0xbde3f408	-0.1113053
149	0xbeacdf54	-0.33764136
150	0xbd866675	-0.06562511
151	0xbcf56d60	-0.02995938
152	0x3e06eeb4	0.13176996
153	0xbea6408b	-0.32471117
154	0x3e988c19	0.29794386
155	0x3ec96b75	0.39339796
156	0x3daffa8c	0.0859271
157	0xbc0298a8	-0.007970966
158	0xbf14d0ab	-0.581309
159	0x3e81071a	0.2520073
160	0xbec21e92	-0.37913948
161	0x3bf8090a	0.007569437
162	0xbe453e77	-0.1926211
163	0xbf0ac982	-0.54213727
164	0xbde0252a	-0.109445885
165	0xbe05ffcd	-0.13085862
166	0xbe3bed59	-0.1835226
167	0xbe076027	-0.13220273
168	0x3d746afa	0.059672333
169	0xbea03b34	-0.31295168
170	0x3e8dc0a1	0.27686027
171	0x3d983c4e	0.07433377
172	0xbf0291bc	-0.51003623
173	0xbe69be40	-0.22826481
174	0xbf05c639	-0.5225559
175	0xbe8e8cc6	-0.27841777
176	0xbf8a342b	-1.079717
177	0xbe137150	-0.14398694
178	0xbf7d769c	-0.9900911
179	0xbf5d7555	-0.8650716
180	0x3d0268e1	0.0318383
181	0xbd5a0a91	-0.053232733
182	0xbf0bccad	-0.54609185
183	0xbed83146	-0.42225093
184	0xbf136704	-0.57579064
185	0xbf0bc41b	-0.5459611
186	0xbf266ac7	-0.6500668
187	0xbf936d0c	-1.1517653
188	0xbf319015	-0.69360477
189	0xbf93e819	-1.1555206
190	0xbf466c5d	-0.775091
191	0xbd3cfa90	-0.046137393
192	0xbe76fdee	-0.24120304
193	0xbdf1e3fe	-0.11811064
194	0x3e197914	0.14987594
195	0xbe0c5fbe	-0.13708398
196	0xbe9ac4f1	-0.3022838
197	0xbdacb9d3	-0.08433881
198	0xbca0b468	-0.019617274
199	0xbf632de1	-0.8874188
200	0xbe20ae3d	-0.15691467
201	0x3d10f493	0.035389494
202	0x3d82cae9	0.06386358
203	0xbe3540ed	-0.17700548
204	0xbee81ff3	-0.45336875
205	0xbf0b722f	-0.54471105
206	0xbcc2d503	-0.023783213
207	0xbeeafd72	-0.45896488
208	0x3e802e60	0.2503538
209	0x3f97c7a4	1.18578
210	0xbf0d750f	-0.5525674
211	0xbd26a2f3	-0.040682744
212	0x3e6532f9	0.22382726
213	0xbe2e2168	-0.17004931
214	0xbf11dc2f	-0.569766
215	0x3d0f55ac	0.034993812
216	0x3e001324	0.12507302
217	0x3f0de84c	0.5543258
218	0xbe6080c4	-0.2192412
219	0xbf40aaf3	-0.7526085
220	0x3cd7c07a	0.026336897
221	0x3ed2a71e	0.41143125
222	0xbd459bd7	-0.048244324
223	0xbf80d914	-1.0066247
224	0xbff76fd5	-1.9331003
225	0xbda1223b	-0.07867857
226	0xbf00f76e	-0.5037755
227	0xbf7d5ab9	-0.98966557
228	0x3f0fcb0c	0.561692
229	0xbee383d3	-0.4443651
230	0x3ec88987	0.39167425
231	0xbeec9559	-0.46207693
232	0x3d6d023e	0.057863466
233	0x3f36d02d	0.714114
234	0x3feae325	1.8350569
235	0x3ea1121b	0.31459126
236	0xbed6c8e6	-0.41950148
237	0x3f0599f2	0.52188027
238	0x3f57a469	0.84235245
239	0xbedbbfbc	-0.4291972
240	0xbe8fa276	-0.28053635
241	0xbcb5aad4	-0.022176184
242	0xbc9a7c7e	-0.01885819
243	0xbe185d85	-0.14879425
244	0x3ea97d13	0.33103237
245	0x3f3e2dc1	0.74288565
246	0x3eb75ade	0.35811514
247	0xbee3f9a4	-0.44526398
248	0xbeeb5ca1	-0.45969108
249	0x3f07cfa3	0.53051203
250	0xbcce91a3	-0.02521593
251	0xbd5220ee	-0.051300935
252	0xbe241828	-0.1602484
253	0xbe65447a	-0.22389403
254	0xbf9facc4	-1.2474599
255	0xbe6e005b	-0.23242323

hidden_layers.0.bias f4 [256]
0	0xbe4bf7a4	-0.19918686
1	0xbe0a75a1	-0.13521434
2	0xbf13621a	-0.57571566
3	0xbf883b98	-1.0643187
4	0xbcc6d6f7	-0.024272425
5	0xc03e8178	-2.9766521
6	0xbf1015e8	-0.56283426
7	0xbe2a3664	-0.16622311
8	0xc00c590a	-2.1929345
9	0xbe8950ce	-0.26819462
10	0xbeb4b0bb	-0.35291085
11	0xbf798154	-0.97462964
12	0xbf6c08dd	-0.92201024
13	0xbe813a55	-0.25239816
14	0xbe215a97	-0.15757214
15	0xbfbf92a1	-1.4966623
16	0xbfd29844	-1.6452718
17	0xbe83d91a	-0.25751573
18	0x3e16e765	0.14736708
19	0xbe0d7e8f	-0.1381781
20	0xbf7f2616	-0.9966749
21	0xbdc3e900	-0.095659256
22	0xbdfcde8c	-0.12347135
23	0xbf2d6cf1	-0.67744356
24	0xc0210d2d	-2.5164292
25	0xbfe1dd7d	-1.7645718
26	0x3d36c7c6	0.044624113
27	0xbdee7432	-0.11643256
28	0xbf8ef1db	-1.1167558
29	0xc03577c4	-2.835435
30	0xbf9fb860	-1.2478142
31	0x3d89df72	0.06732072
32	0xbecadc97	-0.39621422
33	0xbf6ed4bd	-0.9329336
34	0xc026c057	-2.6054895
35	0xc01c9351	-2.4464915
36	0xbe46e6fe	-0.19424054
37	0xbd1c9362	-0.038226493
38	0xbf8d1c7c	-1.1024318
39	0xbc20dce3	-0.0098182885
40	0xc01d9e6b	-2.462794
41	0xbffcfdc0	-1.9764938
42	0x3c947461	0.0181219
43	0x3e268c84	0.1626454
44	0xbc4bc23f	-0.012436449
45	0xbf7431c8	-0.9538846
46	0x3e7de74b	0.24795263
47	0x3e7a7e22	0.24462178
48	0x3e0a09b8	0.1348027
49	0x3e20033e	0.15626237
50	0xbd976770	-0.07392776
51	0xbf36019d	-0.7109621
52	0xbd708d0c	-0.058728263
53	0xbe161e82	-0.14660075
54	0xbde23d1c	-0.11046812
55	0x3e2edd3b	0.1707658
56	0x3d5c5a29	0.05379692
57	0xbea2140d	-0.31655923
58	0xbf9df28b	-1.2339643
59	0xc02584cb	-2.58623
60	0xbd0a1e09	-0.03372005
61	0xbffd06b1	-1.9767667
62	0xc01d0ddd	-2.4539711
63	0xbdf226b3	-0.118237875
64	0xc037e12c	-2.8731184
65	0xbf142020	-0.5786152
66	0xc041a0cb	-3.025439
67	0xbffb1a69	-1.9617435
68	0xbd9264e4	-0.071481496
69	0xbfe0a8f8	-1.7551565
70	0xbe32aea1	-0.17449428
71	0xbebf0134	-0.37305605
72	0xbf46cb26	-0.7765373
73	0xbee6cf63	-0.45080099
74	0xbf064795	-0.52452976
75	0xbff19af1	-1.8875409
76	0xbee305c0	-0.44340324
77	0xbec0d93e	-0.37665743
78	0xc024cfab	-2.575175
79	0x3ceea7bc	0.029132716
80	0xbf008071	-0.50195986
81	0x3ec56cc3	0.3855954
82	0xbf592bf5	-0.848327
83	0xbe3a8e9d	-0.18218465
84	0xbf0493df	-0.51788133
85	0xbe3bf5fb	-0.18355553
86	0x3c5f7474	0.013638604
87	0xbdd5b43d	-0.10434768
88	0xbf43a472	-0.764228
89	0xbfecfa49	-1.8513881
90	0xbe3c74db	-0.18403952
91	0xbf9993a0	-1.1998177
92	0x3e4a0a69	0.19730534
93	0xbfb3ec27	-1.4056443
94	0xbe367ebc	-0.17821783
95	0x3d9dc222	0.077030435
96	0x3e3a89e7	0.18216668
97	0x3d941843	0.0723119
98	0xc01de634	-2.4671755
99	0xbec09603	-0.3761445
100	0xbf7cd45f	-0.9876155
101	0xbe5ec6ee	-0.21755573
102	0xc039c8c5	-2.902879
103	0xbf900378	-1.1251059
104	0xbe039548	-0.12849915
105	0xbcab06d0	-0.020877272
106	0xc01ae480	-2.4201965
107	0xc040f1e3	-3.0147636
108	0xbd8ba745	-0.068190135
109	0xbeffeb47	-0.4998419
110	0xbe3797ef	-0.17929052
111	0xbc7e0b35	-0.015505602
112	0xbfdd0102	-1.7265933
113	0xc0442eac	-3.0653486
114	0xbe74f668	-0.23922122
115	0xc013e8c4	-2.311082
116	0xbffea9f4	-1.9895616
117	0xbe037b59	-0.12840022
118	0xbfb3003d	-1.3984448
119	0xc0385f80	-2.8808289
120	0x3de97e6b	0.114010654
121	0xbf4b8eba	-0.7951466
122	0xbe430e91	-0.19048525
123	0x3e27ab43	0.16373925
124	0xbdc70502	-0.09717752
125	0xbde73fd9	-0.11291475
126	0xbd9cc1ee	-0.07654177
127	0x3e123511	0.14278056
128	0xbdf5ea1f	-0.12007546
129	0xbf9cdcc9	-1.2254878
130	0xbf848752	-1.0353796
131	0xbc5dd697	-0.013539932
132	0x3d81a8dc	0.063310355
133	0xc0403e61	-3.0038073
134	0xbfa9a20b	-1.3252577
135	0xc002670a	-2.037539
136	0xbf329a09	-0.6976629
137	0xbe05afc5	-0.13055332
138	0xbcf12ef3	-0.029441332
139	0xc017b8b7	-2.370649
140	0x3dd36831	0.10322607
141	0xbd965b73	-0.07341661
142	0xbe5150e2	-0.2044101
143	0x3e45c81c	0.19314617
144	0xbf7eed21	-0.9958058
145	0xbf6a15e0	-0.9143963
146	0x3d75e9f4	0.06003757
147	0x3dda4d2b	0.1065925
148	0x3b00cbe6	0.0019652783
149	0x3d5b8d90	0.0536018
150	0x3d1c3266	0.038134
151	0xbd927761	-0.07151676
152	0xbfbe7462	-1.4879267
153	0xbda8e1e3	-0.082462095
154	0xbfa5dd5c	-1.2958179
155	0xbf5f1d48	-0.87154055
156	0xc036b267	-2.8546388
157	0xc01848b3	-2.3794372
158	0xc04720fe	-3.1113887
159	0xbef97a56	-0.48726147
160	0xc01f507f	-2.489288
161	0xbeb1eb9b	-0.34750065
162	0xc03181ac	-2.7735395
163	0xbdc5c5d0	-0.0965687
164	0xbc7a5a98	-0.015280388
165	0xbfdde1f1	-1.7334577
166	0xbf458d49	-0.7716871
167	0xc0122d28	-2.284006
168	0x3e14564c	0.14486045
169	0xc0392a00	-2.8931885
170	0xc00d7bed	-2.2106888
171	0xbf8d2d4b	-1.1029447
172	0x3b3e0ad4	0.0028998153
173	0xbf21c2b2	-0.63187706
174	0xc03b0dc9	-2.9227164
175	0xbd3aeb2f	-0.045634445
176	0xc018a2d2	-2.3849378
177	0xbfbbb8cf	-1.4665774
178	0xc0329d54	-2.7908525
179	0xc00a2fdf	-2.1591718
180	0xc0234756	-2.551229
181	0xc02b5407	-2.6770036
182	0xbfdcc8bf	-1.7248763
183	0xbe6643b9	-0.22486772
184	0xbfa11021	-1.2583047
185	0xc020a2e6	-2.5099425
186	0xbcd59b55	-0.026075045
187	0x3ca9c88a	0.020725507
188	0x3e9cc807	0.3062136
189	0xbe585845	-0.21127422
190	0x3de15eab	0.110043846
191	0x3e33b1d7	0.1754831
192	0xc01e3133	-2.471753
193	0xbdbb78db	-0.09153911
194	0x3cd2a6a9	0.025714235
195	0xbd08ddc2	-0.03341461
196	0xbe145fa4	-0.14489609
197	0xbf04207a	-0.51612055
198	0xbe7060db	-0.23474447
199	0xbfcf03bc	-1.6173015
200	0xbe6c5beb	-0.23081939
201	0xbf448f96	-0.76781595
202	0xbfb36dc4	-1.4017873
203	0xba93b9ba	-0.0011270561
204	0xbe5eab61	-0.21745063
205	0xc011cd48	-2.2781544
206	0xbf24ca68	-0.6437135
207	0xc01c6542	-2.4436803
208	0xbffce795	-1.9758173
209	0xbd924b31	-0.07143248
210	0xbfb7912c	-1.4341178
211	0xbe99a996	-0.30012196
212	0x3c2dcf11	0.0106084505
213	0xbdffa6fd	-0.12483022
214	0xbdbd4bd0	-0.09242976
215	0x3dd40239	0.103519864
216	0xbdb0bdd4	-0.08629957
217	0xbd6b1831	-0.057396118
218	0xbc9fb972	-0.019497607
219	0xbe09bedd	-0.13451715
220	0x3e39485c	0.18094009
221	0xbf04d632	-0.51889336
222	0xbc8d4181	-0.017243149
223	0xc01f8351	-2.49239
224	0xbbe83172	-0.0070859725
225	0xbfddd185	-1.7329565
226	0xc00cc264	-2.1993647
227	0xbd162ecc	-0.036665723
228	0xc0315004	-2.7705088
229	0xbf7a4524	-0.9776175
230	0xbcbd7961	-0.023129167
231	0xc03e9807	-2.978029
232	0xbfb7fb59	-1.437358
233	0x3dc911a9	0.098178215
234	0xbfaace8c	-1.3344283
235	0xbd52fcb1	-0.051510517
236	0x3e37e543	0.1795855
237	0xbd9ac0a8	-0.075562775
238	0xbd73ed05	-0.05955221
239	0xbfa5f521	-1.2965432
240	0x3d83beb0	0.06432855
241	0x3e206561	0.15663673
242	0x3e5c3de7	0.21507989
243	0xbe10df10	-0.14147592
244	0xbf222e21	-0.6335164
245	0xbf61065c	-0.8790033
246	0xbe6c83d8	-0.2309717
247	0xbde64e67	-0.11245423
248	0xbfb665f1	-1.424986
249	0xbf263c53	-0.649358
250	0xc02d54d5	-2.7083027
251	0xbf80c6f7	-1.0060719
252	0xbec4dfd0	-0.38452005
253	0xc009543b	-2.145766
254	0xbe4d1c18	-0.20030248
255	0xbfccbf0b	-1.5995802

hidden_layers.1.weight f4 [256, 256]
0	0x3e89fe59	0.26951864
1	0x3ead2a8d	0.33821526
2	0x3d5587b9	0.05213139
3	0xbe84a681	-0.25908282
4	0x3ebb0550	0.3652749
5	0x3daacf65	0.083403386
6	0xbe28c0ea	-0.16479841
7	0x3f053c15	0.520448
8	0x3d915c2e	0.0709766
9	0x3e0cdacc	0.1375534
10	0x3f0a8b23	0.54118556
11	0xbde8eede	-0.11373685
12	0x3dccd251	0.10001052
13	0x3dcac2e3	0.09900453
14	0x3f1f1117	0.6213545
15	0xbf2932dc	-0.6609323
16	0x3cef3eeb	0.029204806
17	0x3f22892d	0.63490564
18	0x3e4e96f8	0.20174778
19	0x3f218a41	0.63101584
20	0x3e143e8b	0.14476983
21	0x3e1a9c8d	0.15098782
22	0x3eb7a7af	0.3587012
23	0x3e0fdc8d	0.14048977
24	0xbb98064c	-0.0046394225
25	0xbec91992	-0.3927732
26	0x3dba95e6	0.09110622
27	0x3dde978c	0.10868749
28	0xbf0d0251	-0.5508166
29	0xbd447908	-0.047966987
30	0xbdf3a4ef	-0.11896693
31	0x3f1b4d09	0.6066442
32	0x3f2dda97	0.67911667
33	0xbe083159	-0.13300075
34	0x3e2c6c4a	0.16838184
35	0xbba6070d	-0.0050667585
36	0x3e4ffdcf	0.20311664
37	0x3e36d026	0.1785284
38	0x3c247748	0.0100382045
39	0x3ec8d9ab	0.39228567
40	0xbf0717aa	-0.52770483
41	0xba987dc2	-0.0011634158
42	0x3e84387b	0.2582434
43	0x3eb7ec60	0.35922527
44	0x3ee3f526	0.4452297
45	0xbdc628f0	-0.09675777
46	0xbc2173c7	-0.009854264
47	0x3f476f44	0.7790415
48	0x3e8a81e6	0.2705223
49	0x3f291a4e	0.6605576
50	0xbeb3836b	-0.350612
51	0xbe8acb93	-0.2710844
52	0x3f0328e6	0.5123428
53	0x3eb37bfa	0.35055524
54	0x3e0e4ff5	0.13897689
55	0xbd7faab1	-0.062418643
56	0x3eaf3379	0.34218958
57	0x3e22dc68	0.15904391
58	0xbcbe3f71	-0.02322361
59	0x3da1682e	0.07881199
60	0x3f44c451	0.76862055
61	0x3d99e435	0.0751423
62	0x3dd660ae	0.10467659
63	0x3f35d5e0	0.7102947
64	0x3d83f306	0.064428374
65	0x3deafd88	0.114741385
66	0x3e0b8a8b	0.13627069
67	0xbe522353	-0.20521288
68	0x3f02063e	0.50790775
69	0xbe49ae47	-0.19695388
70	0x3ec06066	0.37573546
71	0x3f5dc16a	0.8662325
72	0xbdc1c2a7	-0.09460955
73	0x3d63fc12	0.055660315
74	0xbdb40ebb	-0.08791872
75	0x3c8bb517	0.017054124
76	0x3eb595a7	0.35465738
77	0x3dc11436	0.09427683
78	0xbdf42da3	-0.11922767
79	0x3e5b101e	0.21392867
80	0x3df3c027	0.119018845
81	0x3df62851	0.120194085
82	0x3c00da0c	0.007864486
83	0x3ea858e2	0.32880312
84	0xbd8d6b58	-0.0690524
85	0x3e2e6977	0.17032419
86	0x3eaeb3ac	0.34121454
87	0x3f1dc988	0.6163564
88	0x3db0379a	0.08604355
89	0xbd7f5dc2	-0.062345274
90	0x3ed51636	0.41618508
91	0xbd1435b1	-0.036184017
92	0x3de05a62	0.10954739
93	0xbe43417c	-0.19067949
94	0x3f0547a1	0.5206242
95	0x3f2cd273	0.6750862
96	0x3f181416	0.5940565
97	0x3dd373e8	0.10324842
98	0x3e236786	0.1595746
99	0xbdf95616	-0.12174623
100	0xbdc9996f	-0.09843718
101	0x3e6b2bef	0.22965978
102	0xbeb6d5e3	-0.35710058
103	0xbe614c75	-0.22001822
104	0xbe4afe79	-0.19823636
105	0x3ec77755	0.3895823
106	0xbdf8b09c	-0.121430606
107	0xbebddc18	-0.3708198
108	0x3f655c6d	0.89594156
109	0xbe6388ee	-0.22220203
110	0x3e7dff19	0.24804343
111	0x3f08c0a9	0.53418976
112	0xbe34c4b4	-0.17653161
113	0xbe10516b	-0.14093558
114	0x3f30f600	0.69125366
115	0x3e0bece2	0.13664582
116	0xbd09d87a	-0.033653714
117	0x3ed90071	0.4238315
118	0xbe95ab55	-0.29232278
119	0xbd5f9c74	-0.054592565
120	0x3e98bba2	0.29830652
121	0xbe7710bb	-0.24127476
122	0x3f2b9172	0.67018807
123	0x3f31e918	0.694963
124	0x3ebcfd43	0.36911973
125	0x3dd75310	0.1051389
126	0x3ef0d3e1	0.4703665
127	0x3dd5d691	0.10441316
128	0x3ec55e6e	0.38548607
129	0xbe7a57bf	-0.24447535
130	0xbe2f3036	-0.17108235
131	0x3dd52d0f	0.10408985
132	0x3e9ca4a9	0.30594376
133	0xbcefd83d	-0.029277915
134	0x3d9040f8	0.07043642
135	0x3bd3eb9c	0.006467296
136	0xbc973e7e	-0.018462416
137	0x3f12929a	0.57254946
138	0x3f2c6aa1	0.673502
139	0xbe61d3a4	-0.2205339
140	0x3e906918	0.2820518
141	0x3f27d003	0.65551776
142	0x3f232543	0.6372873
143	0x3f1f28ab	0.6217143
144	0xbd8133f1	-0.06308735
145	0xbe13aa23	-0.14420371
146	0x3efbeee1	0.49205688
147	0x3f0f01a9	0.5586191
148	0xbc19426f	-0.009354218
149	0x3ee53912	0.44770104
150	0x3f11b7f8	0.5692134
151	0x3e743187	0.23847018
152	0xbcfeb004	-0.03108979
153	0x3e8342f2	0.25637013
154	0xbe021162	-0.12701944
155	0xbde5cad9	-0.11220331
156	0xbe32d6e0	-0.17464781
157	0x3c35ae76	0.011088958
158	0x3e0d79f3	0.13816051
159	0xbc14b642	-0.009076657
160	0x3d41248e	0.047154002
161	0x3e1cf14b	0.15326421
162	0x3dd2e6a6	0.10297899
163	0x3ef521d1	0.47877362
164	0x3ef94b18	0.48690104
165	0xbc668aaa	-0.014071146
166	0xbe203112	-0.15643719
167	0xbd3312cd	-0.0437191
168	0x3c8a11e4	0.016854234
169	0x3e15a54d	0.14613838
170	0xbbfaac9f	-0.0076499726
171	0xbd15c258	-0.036562294
172	0x3e7ac99c	0.2449097
173	0xbdfeee22	-0.12447764
174	0x3e0101f0	0.12598395
175	0x3ef8045e	0.48440832
176	0x3d545b5e	0.051844947
177	0xbea81a54	-0.32832587
178	0xbdf2c50f	-0.11853992
179	0xbea28fd9	-0.31750372
180	0xbd984d5f	-0.07436632
181	0x3d108189	0.035279784
182	0x3c3f2f53	0.011668998
183	0x3e814c53	0.25253543
184	0xbd109ed9	-0.03530774
185	0xbe079b4e	-0.13242838
186	0x3f31896a	0.693503
187	0x3ec671c5	0.38758674
188	0x3f24a6d2	0.6431705
189	0x3e8b41f2	0.2719875
190	0x3e6e719f	0.2328553
191	0x3eb53d8f	0.35398528
192	0x3dd7ea76	0.10542767
193	0x3eef4957	0.4673564
194	0x3e763bea	0.24046293
195	0x3e7bb1c1	0.24579526
196	0x3ee9c365	0.45656887
197	0x3e26dcdc	0.16295189
198	0x3ea2cb34	0.31795657
199	0x3c454dbf	0.012042462
200	0xbddbe758	-0.10737485
201	0x3e513697	0.2043098
202	0xbe9b79f9	-0.30366495
203	0x3f122a3f	0.5709571
204	0x3f2db6e0	0.6785717
205	0xbda4c8d2	-0.08046116
206	0xbdb06cb5	-0.08614484
207	0xbe0edaf9	-0.13950719
208	0xbdc64986	-0.09681992
209	0x3e2c6e51	0.16838957
210	0xbe978877	-0.29596302
211	0x3e30af4d	0.17254372
212	0x3f88518a	1.0649884
213	0x3df70303	0.12061121
214	0x3ea5c7f7	0.32379124
215	0x3e3b4590	0.18288255
216	0x3e9c86f0	0.305717
217	0x3efc3ad3	0.4926363
218	0x3cfd64fc	0.030931942
219	0x3e44ea8c	0.19230098
220	0x3ea699d7	0.32539245
221	0x3c49ac4b	0.012309144
222	0x3e957dee	0.2919764
223	0xbc6a37d7	-0.01429554
224	0x3e5d8bab	0.2163531
225	0xbb7b2674	-0.003832248
226	0xbd56b383	-0.05241729
227	0x3f3643bd	0.7119711
228	0xbe33ce82	-0.17559245
229	0xbe1272f1	-0.14301659
230	0x3db84e58	0.08999318
231	0x3e0241e6	0.12720451
232	0xbe29d827	-0.16586362
233	0x3ec3b243	0.3822194
234	0xbdff2610	-0.12458432
235	0x3d6c43ef	0.057681974
236	0x3e6d5464	0.23176724
237	0x3e9076ea	0.28215724
238	0x3e22ddd2	0.1590493
239	0xbe3454cf	-0.17610477
240	0x3e89f181	0.26942065
241	0x3f09b019	0.5378433
242	0x3f191ba3	0.59807795
243	0x3eb18630	0.3467269
244	0xbd176e93	-0.036970686
245	0x3ad81280	0.0016485006
246	0x3f09c78e	0.5382012
247	0xbe08bb9d	-0.13352819
248	0xbeaa37c7	-0.3324568
249	0x3e56632c	0.20936269
250	0xbe2aae91	-0.16668154
251	0xbed9d6ad	-0.42546597
252	0xbda9ebd8	-0.08296937
253	0xbd732df7	-0.059370007
254	0x3f3fba4b	0.74893636
255	0xbe083862	-0.13302758

hidden_layers.1.bias f4 [256]
0	0xbfa119f0	-1.258604
1	0xbf90d749	-1.13157
2	0xbf0a1a9c	-0.5394685
3	0xbf0a2faa	-0.5397898
4	0xbf620513	-0.8828899
5	0xbf9e0b49	-1.2347194
6	0xbf9d30a9	-1.2280475
7	0xbe905d9d	-0.2819642
8	0xbf3937cd	-0.7235077
9	0xbf095eed	-0.5366047
10	0xbf309423	-0.6897604
11	0xbf9147be	-1.1350019
12	0xbeb87b15	-0.36031404
13	0xbf12d41f	-0.5735492
14	0xbee3fa37	-0.44526836
15	0xbf9271c6	-1.1440971
16	0xbfa0e514	-1.2569909
17	0xbf18c04d	-0.5966843
18	0xbf0daa62	-0.5533811
19	0xbee615e3	-0.44938573
20	0xbf32d786	-0.6986011
21	0xbed5914c	-0.41712415
22	0xbf6679d7	-0.9002966
23	0xbf6d6f64	-0.92748094
24	0xbf21e9ea	-0.6324755
25	0xbf6ce6d3	-0.9253971
26	0xbfa3a1db	-1.2783769
27	0xbed6eee7	-0.41979143
28	0xbf9ba1f1	-1.2158796
29	0xbf934af3	-1.1507248
30	0xbf60400e	-0.8759774
31	0xbf8f10cb	-1.1177
32	0xbf64ba34	-0.89346623
33	0xbf9f3356	-1.2437541
34	0xbee85a1a	-0.45381242
35	0xbf073c58	-0.5282645
36	0xbf94d1f9	-1.1626579
37	0xbf2cf5d6	-0.67562616
38	0xbf0006cc	-0.5001037
39	0xbec505d5	-0.38481012
40	0xbedf1d61	-0.43577102
41	0xbf815fd9	-1.0107375
42	0xbf7fc7de	-0.9991435
43	0xbee9ecc5	-0.45688453
44	0xbf4b5eeb	-0.7944171
45	0xbec7c140	-0.39014626
46	0xbf713685	-0.94223815
47	0xbf071c81	-0.5277787
48	0xbe8003b3	-0.25002822
49	0xbeb8081c	-0.35943687
50	0xbf8c294e	-1.0950105
51	0xbf1f92c8	-0.62333345
52	0xbe884185	-0.26612487
53	0xbe3accbb	-0.18242161
54	0xbf0e95c2	-0.5569726
55	0xbf748982	-0.9552232
56	0xbef90734	-0.48638308
57	0xbf833abc	-1.0252299
58	0xbf3da97f	-0.74086756
59	0xbf96134c	-1.1724639
60	0xbf761549	-0.9612623
61	0xbf07a463	-0.5298521
62	0xbf392f05	-0.7233737
63	0xbf385b39	-0.72014195
64	0xbf953bd7	-1.1658887
65	0xbf6c6b58	-0.92351294
66	0xbf80aef8	-1.0053396
67	0xbf8c9fbf	-1.0986251
68	0xbf964352	-1.1739295
69	0xbf2292fe	-0.6350554
70	0xbef15cf6	-0.47141236
71	0xbf1afd04	-0.6054232
72	0xbf8c1599	-1.0944091
73	0xbf26a1f6	-0.6509088
74	0xbf46d038	-0.77661467
75	0xbf0aa376	-0.5415567
76	0xbeebfc24	-0.46090806
77	0xbf756fe2	-0.95873845
78	0xbef29807	-0.47381613
79	0xbed3ae8e	-0.41344112
80	0xbe831182	-0.25599295
81	0xbf83a57e	-1.0284879
82	0xbf15f56c	-0.5857761
83	0xbf8068ae	-1.0031946
84	0xbeb3e1a2	-0.35133082
85	0xbf7020dd	-0.93800145
86	0xbf835124	-1.0259137
87	0xbf79eb86	-0.97625005
88	0xbf6418bd	-0.8910025
89	0xbed0711d	-0.407113
90	0xbf2cb584	-0.6746447
91	0xbec3409a	-0.38135225
92	0xbf80534e	-1.0025423
93	0xbf2fd872	-0.68689644
94	0xbed7ecf9	-0.42172983
95	0xbee8dc86	-0.45480746
96	0xbf17c3f9	-0.59283406
97	0xbedd3b67	-0.43209383
98	0xbf6d825a	-0.92777026
99	0xbf143b3f	-0.579029
100	0xbf917165	-1.136273
101	0xbe8b485a	-0.27203637
102	0xbfa39801	-1.2780763
103	0xbe06d2ab	-0.13166301
104	0xbec36520	-0.3816309
105	0xbf26fecd	-0.65232545
106	0xbf231c8f	-0.6371545
107	0xbf349605	-0.7054141
108	0xbebd41f7	-0.3696439
109	0xbf522974	-0.820945
110	0xbf3b20fe	-0.7309722
111	0xbf2f5ba4	-0.6849921
112	0xbf87861e	-1.0587804
113	0xbf80369a	-1.0016663
114	0xbf9659d1	-1.174616
115	0xbf8d4fd3	-1.1039985
116	0xbe5bdc8f	-0.21470855
117	0xbf11fcd7	-0.5702643
118	0xbea56d2a	-0.32309848
119	0xbf2f5197	-0.6848387
120	0xbf397fd2	-0.72460663
121	0xbf1a1a36	-0.60196245
122	0xbf59c4db	-0.85066
123	0xbf345618	-0.7044387
124	0xbf1dc1ca	-0.61623824
125	0xbfa57928	-1.2927599
126	0xbf9418a6	-1.1570022
127	0xbf375405	-0.7161258
128	0xbef3117e	-0.47474283
129	0xbecfb571	-0.40568116
130	0xbf851255	-1.039622
131	0xbf822764	-1.0168271
132	0xbf989bb0	-1.1922512
133	0xbf5612e8	-0.836226
134	0xbf292ef3	-0.66087264
135	0xbf81178a	-1.0085309
136	0xbefe6a97	-0.49690697
137	0xbe1c457a	-0.15260878
138	0xbf7a2b6b	-0.977225
139	0xbf07e1e9	-0.53079087
140	0xbf4f2f99	-0.80932003
141	0xbf95a8df	-1.169216
142	0xbf6b67ad	-0.9195507
143	0xbf869c18	-1.0516386
144	0xbf2b42a3	-0.66898555
145	0xbf1b364c	-0.60629725
146	0xbf5670ec	-0.83766055
147	0xbecade5f	-0.3962278
148	0xbf6db208	-0.9284978
149	0xbf7b5759	-0.98180157
150	0xbf8b8457	-1.0899762
151	0xbf93f127	-1.1557969
152	0xbf846731	-1.0343992
153	0xbf4f4614	-0.80966306
154	0xbf8b9448	-1.0904627
155	0xbf17a826	-0.5924095
156	0xbf522a0c	-0.8209541
157	0xbec6d84c	-0.38836896
158	0xbf4fae7a	-0.81125605
159	0xbf2b19ca	-0.66836226
160	0xbf920f7d	-1.1410977
161	0xbf92488e	-1.1428392
162	0xbf46a298	-0.7759185
163	0xbf38adee	-0.72140396
164	0xbeb7250c	-0.35770452
165	0xbf918b23	-1.1370586
166	0xbf0acd6f	-0.54219717
167	0xbf04b87f	-0.5184402
168	0xbed3634b	-0.41286692
169	0xbec360aa	-0.38159686
170	0xbec2be3e	-0.38035768
171	0xbe8a6de1	-0.27036956
172	0xbf84f385	-1.0386816
173	0xbf940073	-1.1562637
174	0xbf8a5018	-1.0805693
175	0xbf72aae8	-0.9479203
176	0xbf6e6091	-0.931161
177	0xbef9c72a	-0.48784763
178	0xbf2a36cd	-0.6648987
179	0xbea5c571	-0.32377198
180	0xbee96eb1	-0.45592263
181	0xbf57e877	-0.8433909
182	0xbf7ecc5f	-0.99530596
183	0xbef073c5	-0.46963325
184	0xbf8a83fe	-1.0821531
185	0xbefcd03d	-0.49377623
186	0xbf8f1197	-1.1177243
187	0xbecbcdc9	-0.3980544
188	0xbf5d994e	-0.8656205
189	0xbf75b6f2	-0.9598228
190	0xbf2be61d	-0.67148
191	0xbf989be3	-1.1922573
192	0xbf086617	-0.53280777
193	0xbf95633a	-1.1670907
194	0xbef360c3	-0.4753476
195	0xbf698686	-0.9122089
196	0xbf6eef88	-0.93334246
197	0xbf6034ae	-0.8758038
198	0xbf561e48	-0.83639956
199	0xbf31dc1b	-0.6947648
200	0xbf875394	-1.0572381
201	0xbf4eca9b	-0.807779
202	0xbf970577	-1.1798543
203	0xbef41e33	-0.4767929
204	0xbf1a1f63	-0.6020414
205	0xbf9f1e39	-1.2431098
206	0xbf84165f	-1.0319327
207	0xbea75984	-0.32685483
208	0xbf98aac8	-1.1927118
209	0xbf795a10	-0.9740305
210	0xbf0536be	-0.52036655
211	0xbf5818b6	-0.84412706
212	0xbf8325c1	-1.0245897
213	0xbf1650c2	-0.58716977
214	0xbdeeb022	-0.116546884
215	0xbf9f532f	-1.2447261
216	0xbe784e6e	-0.24248669
217	0xbf8492d4	-1.0357308
218	0xbf85b904	-1.0447087
219	0xbf24ee35	-0.64425975
220	0xbf31a033	-0.6938507
221	0xbfa9bea2	-1.3261302
222	0xbf8b2da7	-1.0873307
223	0xbf593693	-0.848489
224	0xbf7836ef	-0.9695882
225	0xbeca5d90	-0.39524508
226	0xbe80961e	-0.2511453
227	0xbf700323	-0.93754786
228	0xbf7b1929	-0.98085266
229	0xbf01221d	-0.5044268
230	0xbf818c4e	-1.0120943
231	0xbf4d9563	-0.8030607
232	0xbf76cdba	-0.96407664
233	0xbf9c8986	-1.2229469
234	0xbf1d2fb9	-0.61400944
235	0xbf8c2b90	-1.0950794
236	0xbf2ccab9	-0.6749683
237	0xbefcf63b	-0.4940661
238	0xbebe8f14	-0.37218535
239	0xbf2192fb	-0.631149
240	0xbf4980e7	-0.78712314
241	0xbf6cf4d1	-0.9256106
242	0xbf862365	-1.0479552
243	0xbf56c7fa	-0.8389889
244	0xbed31aef	-0.41231486
245	0xbec79ac4	-0.38985264
246	0xbf92ec33	-1.1478332
247	0xbf971999	-1.1804687
248	0xbf8d18dd	-1.1023213
249	0xbfa406ba	-1.2814553
250	0xbf12a130	-0.572772
251	0xbf879a9a	-1.0594056
252	0xbf0cae3b	-0.54953355
253	0xbf18fbee	-0.59759414
254	0xbf1cdf46	-0.6127819
255	0xbe81f439	-0.2538164

output_layers.0.weight f4 [40, 256]
0	0x3d1ea5fc	0.038732514
1	0x3d01ca68	0.03168717
2	0xbd822db8	-0.063563764
3	0xbe8dd34d	-0.27700272
4	0xbe9f0fa0	-0.31066608
5	0x3d792fe3	0.060836684
6	0x3d44cf88	0.04804948
7	0xbe3c49d0	-0.18387532
8	0x3e2b3e30	0.16722941
9	0x3f5eda78	0.87052107
10	0xbf39d3b1	-0.7258864
11	0xbd77e446	-0.060520433
12	0x3f1c16d1	0.60972315
13	0x3dea6965	0.11445884
14	0x3f0c0f46	0.54710805
15	0xbbbe3756	-0.0058049364
16	0x3c2b70da	0.010463918
17	0xbda76831	-0.0817417
18	0xbea3e21f	-0.32008454
19	0xbea7da5e	-0.32783788
20	0x3f025315	0.50908023
21	0x3e49f381	0.19721796
22	0xbd0a7001	-0.03379822
23	0x3e2bdc13	0.1678317
24	0xbf668d87	-0.90059704
25	0xbd1ebf0e	-0.038756423
26	0xbd8292e9	-0.06375677
27	0xbd3ef4f2	-0.046620317
28	0xbc0fb63a	-0.008771474
29	0xb9c95523	-0.0003840114
30	0xbde5b639	-0.11216397
31	0xbdde2990	-0.10847771
32	0x3e378431	0.17921521
33	0xbcfb199f	-0.030651866
34	0xbf1b7a31	-0.60733324
35	0x3e86866f	0.2627444
36	0xbcf5d8a5	-0.03001053
37	0x3d21c216	0.039491735
38	0x3ea041f3	0.31300315
39	0xbdc9c8b5	-0.09852735
40	0xbca5628c	-0.020188592
41	0x3cc87a6e	0.024472442
42	0x3e1fc7f9	0.15603627
43	0xbd39ff38	-0.04540941
44	0xbe03d6cd	-0.12874909
45	0x3cf587e1	0.029972019
46	0xbc0c9dd1	-0.008582548
47	0x3d94523c	0.072422475
48	0x3ee1cd92	0.4410215
49	0x3f209965	0.6273406
50	0x3d295157	0.041337337
51	0xbf26e97e	-0.6520003
52	0xbe82948c	-0.25503957
53	0xbe3e4850	-0.18582273
54	0xbe8f365e	-0.27971166
55	0xbed5982c	-0.4171766
56	0xbe118a22	-0.1421285
57	0x3c8f4bb7	0.017492158
58	0xbea5da88	-0.3239329
59	0x3d35470d	0.044257212
60	0xbe318cf2	-0.17338923
61	0xbe039dea	-0.12853208
62	0xbea8bc65	-0.32956234
63	0xbd5204c4	-0.051274076
64	0xbd0d401a	-0.03448496
65	0xbde48dc5	-0.11159853
66	0x3c2f6cb9	0.010707074
67	0x3ebea8c8	0.37238145
68	0xbcd714be	-0.026255008
69	0xbd894165	-0.06701926
70	0xbe5ec6c5	-0.21755512
71	0x3e3d41e7	0.18482171
72	0xbd3a8e37	-0.045545783
73	0x3e198b38	0.14994514
74	0xbd4e396d	-0.050347734
75	0x3e7ff919	0.24997367
76	0x3f42ffb6	0.76171434
77	0x3d5434de	0.05180823
78	0x3d3cd191	0.046098296
79	0x3e8bdd36	0.27317208
80	0x3d8ed660	0.069744825
81	0x3c983811	0.018581422
82	0xbe6466d8	-0.22304857
83	0x3cb58856	0.022159737
84	0xbe07508e	-0.13214323
85	0xbe03fc49	-0.12889208
86	0x3dc3f620	0.09568429
87	0x3d63c97c	0.055612072
88	0xbe08c0a3	-0.13354735
89	0xbe76c2dc	-0.2409777
90	0xbd6740ac	-0.05645816
91	0xbe5ea847	-0.2174388
92	0x3c5ea5f3	0.01358937
93	0x3f17cd21	0.59297377
94	0xbdfb1eb2	-0.12261714
95	0xbd6e1482	-0.058125027
96	0xbe3870f9	-0.18011846
97	0xbdc3c9a7	-0.095599465
98	0xbd5a1658	-0.053243965
99	0x3f3370d6	0.7009405
100	0xbd896d19	-0.06710262
101	0x3f40914f	0.75221723
102	0x3da5709f	0.080781214
103	0xbd2261ee	-0.039644174
104	0xbeb0789f	-0.34467027
105	0xbe1354f7	-0.1438788
106	0xbd7e6edd	-0.062117446
107	0x3dce06cc	0.1005989
108	0x3e046fef	0.12933324
109	0xbc6c2d9e	-0.014415173
110	0x3b8d1a6d	0.0043061287
111	0x3f2914ed	0.66047555
112	0x3de3eb93	0.111289166
113	0xbd0794e1	-0.033100966
114	0xbd82960f	-0.06376278
115	0x3cdc3736	0.026881795
116	0x3d584657	0.052801456
117	0x3eeb1dc1	0.45921138
118	0xbed55ef2	-0.41674
119	0x3d947bfa	0.07250209
120	0xbe1068e7	-0.14102517
121	0xbe0dc732	-0.13845518
122	0xbc08d5c7	-0.00835175
123	0x3ddc4459	0.10755224
124	0x3e8bd8b5	0.27313772
125	0x3bd2ccbd	0.006433098
126	0xbdf7c55a	-0.12098189
127	0x3e61e381	0.22059442
128	0x3f1a7155	0.6032918
129	0xbdc065ea	-0.093944386
130	0xbce5da23	-0.028058117
131	0xbd06d9ed	-0.032922674
132	0x3c4c98c4	0.012487594
133	0x3f04fc65	0.51947623
134	0xbeb6feaa	-0.35741168
135	0xbe0ff512	-0.1405833
136	0x3f5d3e99	0.8642364
137	0xbe836f54	-0.25670874
138	0x3de1fc34	0.11034432
139	0xbe1375b7	-0.14400373
140	0xbd71946b	-0.058979433
141	0x3ce1ab5d	0.027547533
142	0xbdcf7a47	-0.101307444
143	0x3ceb0501	0.02868891
144	0xbdf990dd	-0.121858336
145	0x3e2da294	0.1695655
146	0xbd0335a0	-0.032033563
147	0xbec31f91	-0.3811002
148	0xbe157d48	-0.14598572
149	0xbdd169a1	-0.10225225
150	0xbbde3c24	-0.0067820717
151	0xbdcaad8c	-0.09896383
152	0x3d0d8b75	0.034556825
153	0xbd88dfb6	-0.066832945
154	0x3d220674	0.039556935
155	0xbe2fcce5	-0.17168005
156	0xbda09e88	-0.078427374
157	0x3d331b19	0.043727014
158	0xbdccdc38	-0.10002941
159	0xbecc8ef0	-0.39952803
160	0xbdacb52e	-0.08432995
161	0xbcd452eb	-0.025918445
162	0xbebe57f4	-0.37176478
163	0xbdc68887	-0.09694009
164	0x3ebb40ba	0.3657282
165	0xbd789730	-0.06069106
166	0x3dc91bd3	0.0981976
167	0x3db818db	0.08989116
168	0xbf0d53e4	-0.5520613
169	0xbc3e4e7e	-0.011615394
170	0x3f26e226	0.65188825
171	0x3d9b495e	0.07582353
172	0x3d9f8c8d	0.0779048
173	0x3be3cd66	0.0069519756
174	0x3d3b7518	0.045765966
175	0xbdbcc3b3	-0.09217014
176	0x3ee70b3e	0.45125765
177	0xbeb9192a	-0.3615201
178	0x3d1470ef	0.036240514
179	0xbef2345d	-0.47305575
180	0xbed9612f	-0.42456958
181	0xbea0a388	-0.31374764
182	0x3d91b2d7	0.07114189
183	0xbe4d642f	-0.20057748
184	0x3c3f973c	0.011693772
185	0x3ea61e04	0.32444775
186	0x3d80d357	0.0629031
187	0x3ed67c19	0.41891554
188	0x3dd462ee	0.10370432
189	0xbe1e3592	-0.15450123
190	0xbe638f17	-0.22222553
191	0xbe4f54b1	-0.20247151
192	0x3e821ac8	0.25411057
193	0x3d316d76	0.04331728
194	0xbc11ff15	-0.008910914
195	0x3bd475e2	0.0064837793
196	0x3cac65f2	0.021044705
197	0xbe2b3264	-0.16718441
198	0x3dbb2d56	0.091395065
199	0x3d543dea	0.05181686
200	0x3b01d03c	0.0019807955
201	0x3ef82fee	0.48474067
202	0x3c775f96	0.015098473
203	0xbd3aaa48	-0.04557255
204	0xbda09931	-0.07841719
205	0xbe29d720	-0.1658597
206	0xbd5c7164	-0.053819075
207	0xbd4a90e1	-0.049454574
208	0xbdb6409e	-0.088990435
209	0xbd58a070	-0.05288738
210	0xbea82fdc	-0.32849014
211	0x3eb457da	0.35223275
212	0x3ce33113	0.027733361
213	0x3dc11072	0.09426965
214	0xbf1c87fb	-0.6114499
215	0x3daa24fc	0.083078355
216	0xbf06b6b2	-0.5262252
217	0x3d5aa6e5	0.05338182
218	0xbd03ccac	-0.032177612
219	0x3f0fe760	0.56212425
220	0xbe872abe	-0.26399797
221	0x3d2bf98e	0.04198604
222	0xbd8b00b8	-0.067872465
223	0xbd22679b	-0.039649587
224	0xbe30672e	-0.1722686
225	0xbe8b12f7	-0.27162907
226	0xbef7f0ad	-0.4842581
227	0x3f0297c3	0.5101282
228	0x3dae9740	0.085249424
229	0x3c55c297	0.013046882
230	0x3d092176	0.033479176
231	0xbe88d782	-0.2672692
232	0x3d20c72f	0.039252456
233	0x3d0fce97	0.03510913
234	0xbdc9088e	-0.09816085
235	0x3c6a856a	0.014314035
236	0xbdbbfbcc	-0.09178886
237	0x3d2f5792	0.042808123
238	0x3ea3ff73	0.3203083
239	0xbe252717	-0.16128193
240	0x3e020f7d	0.12701221
241	0x3d62ad32	0.055340953
242	0x3d87245b	0.06598731
243	0x3dae6c25	0.08516721
244	0xbeced91f	-0.40400025
245	0xbe0244a3	-0.12721495
246	0xbda42dcc	-0.080165476
247	0xbcc37e70	-0.023864001
248	0x3d1144a1	0.03546584
249	0x3cac9cc8	0.021070853
250	0x3e5097ac	0.20370358
251	0x3e012f55	0.12615712
252	0xbed84dde	-0.42246908
253	0x3ede257c	0.43387973
254	0xbdfca577	-0.123362474
255	0x3e64ee65	0.22356565

output_layers.0.bias f4 [40]
0	0xbd5a4e5a	-0.053297378
1	0x3f95c7ca	1.1701596
2	0x3c14ba0d	0.009077561
3	0xbf1f457a	-0.6221539
4	0x3f880360	1.062603
5	0x3f6c7a55	0.92374164
6	0x3f676e48	0.9040265
7	0xbdf04d81	-0.11733533
8	0x3f8e5863	1.1120723
9	0x3f52cfe1	0.8234845
10	0x3f6e64ab	0.9312236
11	0x3df4f7e5	0.11961345
12	0x3f57e743	0.8433725
13	0x3f6588ed	0.8966206
14	0x3f5f1962	0.87148106
15	0x3f7f52f8	0.99735975
16	0x3f83457a	1.0255578
17	0x3f7d322e	0.98904693
18	0x3f79769d	0.97446615
19	0x3f7bf79c	0.98424697
20	0x3f8dd17d	1.1079556
21	0x3f6f402d	0.934573
22	0x3f3b6379	0.7319866
23	0x3f5ddd76	0.8666605
24	0x3f87ff04	1.06247
25	0x3f82edac	1.0228782
26	0x3f79ed53	0.97627753
27	0x3f81d84f	1.0144137
28	0x3f5c19ac	0.8597667
29	0x3ea36fb4	0.3192116
30	0x3f6c308e	0.9226159
31	0x3f85ca43	1.045235
32	0x3f8ab92c	1.083776
33	0x3d09f466	0.033680342
34	0x3f78623a	0.9702488
35	0x3f446cc4	0.76728463
36	0x3cbb78af	0.022884695
37	0xbf332f18	-0.69993734
38	0x3bff3d3d	0.0077892826
39	0x3f9507a4	1.1642957
