MODELS/REWARD COMPARISON/SAC MASKED MODELS/10_1_critic_local_network.pt (torch, 411303 bytes, 6 tensors)

hidden_layers.0.weight f4 [256, 101]
-0.08684927 -0.017408162 0.3445787 -0.02258991 -0.080645286 0.18734051 -0.0057393494 0.06086935
0.13072911 0.08728066 0.033153214 -0.108264156 0.13575947 0.0071290187 0.06588383 -0.23536497
-0.08773274 0.03587376 0.36004665 0.43596235 0.22145219 0.2798282 0.16403063 -0.035835374
0.00998595 0.41062745 0.3922965 -0.23132762 -0.09754719 0.22750789 -0.13244079 -0.3923219
0.1406503 0.16165172 0.18564846 0.18582684 -0.13294247 0.045468554 -0.01158598 -0.1329844
0.1369295 0.069580935 0.044751804 -0.22829942 -0.10540191 0.17757402 0.38196233 -0.32540074
0.026807 -0.0685479 0.14393586 0.12052959 0.08506947 -0.15137437 -0.063198775 -0.06566253
0.16028857 0.267611 -0.036501016 -0.0385969 -0.020699065 0.066927575 0.0065441187 -0.3684923
0.1892741 0.15556313 -0.055119358 -0.023310553 -0.16540454 0.057777468 0.11528597 0.14359924
0.1157427 -0.06016174 -0.31611148 0.13399802 0.26522645 0.099714264 0.3420734 -0.05819012
-0.14390346 0.06294748 0.006593349 -0.2672383 -0.28479734 -0.22326502 0.14139555 -0.17146169
0.10142917 0.262035 -0.12570812 0.3721708 -0.10507773 -0.38862625 -0.19542265 -0.13157304
0.12273745 -0.010333571 0.081861846 -0.029446164 0.22406225 0.0641276 0.1340622 0.14556296
-0.23697485 -0.036185704 -0.026576536 -0.2738343 0.02472216 0.57933575 0.09176328 0.032534253
0.1468256 0.052363586 -0.3635131 0.25214115 -0.14992978 -0.018541006 0.024435803 -0.014437764
0.010870651 0.19754611 -0.09449333 -0.17263977 -0.20782325 -0.22354569 -0.16467774 -0.011720228
-0.008398363 0.078618355 0.1340439 0.21116048 -0.071263425 -0.46502244 -0.51053864 0.031548746
-0.052332707 -0.12355937 -0.49925047 -0.09661328 -0.15745267 -0.008829083 -0.1256837 -0.22522923
0.058172874 -0.32408404 -0.010984178 -0.11803782 -0.01504807 0.16407557 0.23015146 -0.19402125
-0.46439365 -0.44985756 0.00071846065 0.04445666 0.09834517 0.10798886 -0.21526085 -0.078635335
-0.024328921 -0.008092257 -0.44775558 -0.5777043 -0.15443768 0.10874464 0.16675858 -0.06676206
0.16172361 0.0450245 -0.09314321 -0.09301828 -0.16351251 -0.3648321 -0.3667704 0.15551977
0.024210222 0.07088172 -0.24813376 -0.038655676 -0.14561613 -0.049387522 -0.08832572 -0.4264221
-0.19829214 -0.0820291 -0.15348873 0.049030498 0.04268869 -0.24704151 -0.30694818 -0.010150375
-0.23201944 0.15201057 -0.2623041 -0.26454327 -0.27409196 -0.05281562 0.12492425 -0.24947377
0.21187003 -0.18770659 -0.2098652 0.2481792 0.10099535 0.22887222 0.021791704 0.048562985
0.26423326 0.1661571 -0.4089259 -0.09900968 0.35589328 0.06777859 -0.0868616 0.0077790585
0.15702519 0.088191725 -0.021422 -0.121426135 -0.13753577 -0.1159074 -0.0060899802 -0.4083412
-0.057915546 -0.14091259 0.05230769 0.054572538 -0.25945446 -0.06295415 0.10662023 -0.16517635
0.061478063 0.015725177 -0.38624212 0.37925002 -0.18168159 0.24801719 0.23089227 -0.054544106
-0.19313475 0.0062437486 0.08131193 0.037839927 -0.358426 0.10228564 -0.1207037 -0.03787001
0.321323 0.097415 0.11516359 -0.21330646 0.21465927 0.034376062 -0.26972768 0.10257784
00000000: 08de b1bd 909b 8ebc 9f6c b03e 7a0e b9bc
00000010: 5b29 a5bd 31d6 3f3e 2711 bcbb 2452 793d
00000020: dadd 053e 34c0 b23d aacb 073d 99b9 ddbd
00000030: 8804 0b3e 8b9a e93b 1aee 863d 8403 71be
00000040: 39ad b3bd 5df0 123d 0958 b83e 7536 df3e
00000050: 5dc4 623e a445 8f3e a5f7 273e 1dc8 12bd
00000060: 1c9c 233c c33d d23e 16db c83e 26e1 6cbe
00000070: d2c6 c7bd d4f7 683e 8f9e 07be 6bde c8be
00000080: a206 103e 0788 253e a11a 3e3e 6449 3e3e
00000090: 1222 08be 3c3d 3a3d 1fd3 3dbc 102d 08be
000000a0: 3f37 0c3e 7380 8e3d ab4d 373d 53c7 69be
000000b0: f5dc d7bd f7d5 353e 9190 c33e ed9a a6be
000000c0: 5b9a db3c d762 8cbd ec63 133e 38d8 f63d
000000d0: e738 ae3d e201 1bbe 5c6e 81bd 147a 86bd
000000e0: b022 243e 4f04 893e 1782 15bd c817 1ebd
000000f0: 1691 a9bc 5311 893d 0c70 d63b 06ab bcbe
00000100: 12d1 413e f14b 1f3e d6c4 61bd c6f5 bebc
00000110: cf5f 29be 11a8 6c3d 0d1b ec3d ae0b 133e
00000120: 820a ed3d 286c 76bd 5dd9 a1be c736 093e
00000130: c3cb 873e fe36 cc3d 3f24 af3e c358 6ebd
00000140: 6e5b 13be 9cea 803d 050d d83b 75d3 88be
00000150: f5d0 91be 969f 64be ffc9 103e a793 2fbe
00000160: 19ba cf3d 7429 863e a1b9 00be 2c8d be3e
00000170: fe32 d7bd 05fa c6be e01c 48be 15bb 06be
00000180: c65d fb3d 234e 29bc 2fa7 a73d 1539 f1bc
00000190: 9370 653e 5555 833d 9a47 093e 750e 153e
000001a0: 89a9 72be 7637 14bd 09b7 d9bc 0234 8cbe
000001b0: 2186 ca3c 594f 143f 63ee bb3d a342 053d
000001c0: 7359 163e 337b 563d 641e babe a518 813e
000001d0: 3187 19be 4fe3 97bc 982d c83c 5f8c 6cbc
000001e0: d11a 323c 8749 4a3e b885 c1bd 7bc8 30be
000001f0: 9ecf 54be 29e9 64be 48a1 28be 3306 40bc
00000200: 4a99 09bc a902 a13d ce42 093e 743a 583e
00000210: 8ff2 91bd 6c17 eebe a9b2 02bf 4239 013d
00000220: d25a 56bd b20c fdbd c29d ffbe 2fdd c5bd
00000230: 463b 21be dca7 10bc 3ab3 00be 7ea2 66be
00000240: ae46 6e3d 58ee a5be fbf6 33bc d0bd f1bd
00000250: 2e8c 76bc 6d03 283e d3ac 6b3e 82ad 46be
00000260: 01c5 edbe bb53 e6be 1457 3c3a 3018 363d
00000270: 3169 c93d 4329 dd3d 576d 5cbe 900b a1bd
00000280: 724d c7bc 6395 04bc 3840 e5be 6ee4 13bf
00000290: e924 1ebe 83b5 de3d c3c2 2a3e 8cba 88bd
000002a0: e09a 253e 9c6b 383d dec1 bebd 5e80 bebd
000002b0: d36f 27be 46cb babe 54c9 bbbe 9340 1f3e
000002c0: 8454 c63c 6f2a 913d c716 7ebe 6a55 1ebd
000002d0: 651c 15be 924a 4abd 1de4 b4bd ff53 dabe
000002e0: 180d 4bbe dffe a7bd 262c 1dbe 34d4 483d
000002f0: 56da 2e3d 73f8 7cbe 5028 9dbe c24d 26bc
00000300: 8196 6dbe a9a8 1b3e b94c 86be 3772 87be
00000310: c855 8cbe 3155 58bd 49d8 ff3d 0d76 7fbe
00000320: 75f4 583e 2836 40be e7e6 56be b022 7e3e
00000330: a6d6 ce3d 7b5d 6a3e 8484 b23c fbe9 463d
00000340: 9549 873e 1625 2a3e bc5e d1be 96c5 cabd
00000350: a537 b63e 80cf 8a3d 7fe4 b1bd 79e7 fe3b
00000360: 36cb 203e dd9d b43d 317d afbc 44ae f8bd
00000370: 2dd6 0cbe dc60 edbd 758e c7bb 1912 d1be
00000380: da38 6dbd 644b 10be 9740 563d 7487 5f3d
00000390: 37d7 84be 1bee 80bd b55b da3d fd23 29be
000003a0: 6cd0 7b3d 16d2 803c 87c1 c5be 0f2d c23e
000003b0: bd0a 3abe 38f8 7d3e 066f 6c3e a469 5fbd
000003c0: 1ec5 45be 5c98 cc3b df86 a63d 0afe 1a3d
000003d0: 9d83 b7be 227b d13d 8033 f7bd 951d 1bbd
000003e0: 7384 a43e 8481 c73d e3da eb3d 026d 5abe
000003f0: a4cf 5b3e eacd 0c3d bf19 8abe 5514 d23d

hidden_layers.0.bias f4 [256]
-0.08828143 0.02024007 -0.062294547 -0.07192585 -0.114848845 -0.046266668 0.23821186 0.087215684
0.049118627 -0.035776526 0.056515 0.032749053 -0.044459738 0.058083072 -0.14552788 -0.016083024
-0.010075472 0.12827633 -0.036708742 0.14074805 0.017074613 0.05549157 0.0052703917 -0.050941773
0.20752004 0.10783733 0.084356874 0.13779181 -0.1283757 -0.024551865 -0.020786958 0.024710162
-0.051519834 0.0049506845 -0.12647362 0.06998622 0.037933372 -0.05442523 -0.020956986 0.017681254
-0.103609525 -0.24654149 0.07439059 -0.11594666 0.15484862 0.06056046 0.089271925 -0.06936687
-0.051417753 -0.04143038 -0.029793989 0.046180937 0.040070433 -0.20380181 -0.03176216 -0.023579612
-0.047012016 0.06648215 0.1128186 0.10289201 0.0076795686 0.08291586 -0.053191125 0.015819166
0.012683686 0.14881448 -0.091364026 0.2074056 0.074408956 -0.061184056 0.04281774 -0.07856885
-0.19618367 -0.12087765 0.14272192 -0.19657305 -0.042926814 -0.03931393 -0.05220002 0.15428989
0.10348572 -0.057018243 0.028504457 -0.05600287 0.06210394 0.10965658 -0.25922585 -0.110673994
-0.04093548 -0.027482593 -0.03856686 -0.16607276 0.15406108 0.11742776 -0.005281696 0.09322957
0.15600508 0.019358188 0.049331073 0.10055346 0.0065142806 0.044586316 0.052058037 0.07910859
-0.07935482 0.109242216 0.027954608 0.111015625 0.06414207 -0.13265437 -0.027953124 0.025766551
-0.06710594 -0.02616282 0.073944405 -0.081086315 0.07324932 0.013817991 0.07456758 0.06911881
0.04205552 -0.09328428 0.103047736 0.13102712 0.040080387 0.094854094 -0.13456155 0.12708902
-0.20500796 0.038525146 0.09962666 -0.05286726 -0.012637992 -0.0021752703 0.0803152 -0.03355598
-0.022542253 -0.15013821 -0.023976263 -0.0375402 -0.02231161 -0.06851161 -0.06638042 -0.018522494
0.054001465 0.05747424 -0.1329349 0.045184933 -0.05445719 -0.14685543 0.04908288 -0.064854324
-0.035873447 0.066667646 -0.04120005 0.08473573 -0.10567802 -0.07055904 -0.21514423 -0.062131863
-0.020467414 0.08719067 0.11209305 -0.094207674 0.17336585 -0.050159734 0.005665344 0.0798019
0.05445451 -0.18891656 -0.10709882 -0.04368587 0.024183283 -0.052491046 0.09294041 -0.032114748
0.071135834 -0.005768868 0.016231084 0.057715006 0.18165003 -0.05521259 0.05299318 -0.26858693
0.0031707047 0.01096605 -0.05732765 -0.08155794 -0.125373 0.09005961 -0.03138668 -0.11472608
0.08955966 -0.058944408 -0.12693888 -0.031410743 0.05957833 -0.044145513 0.12214248 0.044886474
-0.016687144 0.0419784 -0.013496141 -0.10242361 -0.07553444 -0.099419005 0.043117795 0.015449813
-0.047587927 0.10369492 0.048920017 -0.077753305 0.028351905 0.057846636 -0.057504755 -0.0049973354
-0.06082681 0.18381697 -0.20473969 -0.059834365 0.07808851 0.012318981 -0.06713186 0.0047063613
0.076370195 0.034503803 0.02643214 -0.026220975 0.13921265 0.04741099 -0.015922448 0.00060279015
-0.11776156 -0.040759537 -0.13830091 -0.14057897 -0.1084899 0.017573306 0.06824495 -0.063219935
0.005731633 -0.06008375 -0.29084072 -0.0019906766 0.0013738391 -0.009197238 -0.16243516 -0.071054645
0.09471632 0.1342278 -0.12078521 0.0676424 0.012276134 -0.1133958 -0.051830802 0.10316947
00000000: e5cc b4bd 81ce a53c 9128 7fbd dc4d 93bd
00000010: df35 ebbd 1e82 3dbd cfed 733e 239e b23d
00000020: 9d30 493d 688a 12bd 467c 673d df23 063d
00000030: 6a1b 36bd 84e8 6d3d 4305 15be 8cc0 83bc
00000040: 9813 25bc df5a 033e e85b 16bd 4220 103e
00000050: 0fe0 8b3c 214b 633d 40b3 ac3b 52a8 50bd
00000060: 2280 543e d1d9 dc3d 4cc3 ac3d 4c19 0d3e
00000070: eb74 03be fe20 c9bc 6949 aabc f76c ca3c
00000080: 7606 53bd 5a39 a23b 4d82 01be ef54 8f3d
00000090: 0660 1b3d fdec 5ebd fcad abbc 47d8 903c
000000a0: 3b31 d4bd 5f75 7cbe 185a 983d 7175 edbd
000000b0: a390 1e3e 3f0e 783d 33d4 b63d 3810 8ebd
000000c0: 6c9b 52bd e7b2 29bd 8612 f4bc 3928 3d3d
000000d0: e520 243d 6cb1 50be 0a19 02bd 082a c1bc
000000e0: ac8f 40bd cb27 883d 700d e73d 0cb9 d23d
000000f0: e4a4 fb3b cacf a93d f0de 59bd 3297 813c
00000100: 3ccf 4f3c d362 183e 101d bbbd 2262 543e
00000110: b963 983d 229c 7abd a861 2f3d b5e8 a0bd
00000120: 5fe4 48be b48e f7bd b225 123e 724a 49be
00000130: 07d4 2fbd a507 21bd b0cf 55bd 2bfe 1d3e
00000140: 52f0 d33d f68b 69bd 2e82 e93c 4463 65bd
00000150: b360 7e3d a193 e03d 40b9 84be 0ca9 e2bd
00000160: f6ab 27bd 2d23 e1bc 49f8 1dbd fa0e 2abe
00000170: 30c2 1d3e f77d f03d 1412 adbb 25ef be3d
00000180: ccbf 1f3e 1095 9e3c 610f 4a3d f9ee cd3d
00000190: bf75 d53b 24a0 363d cf3a 553d af03 a23d
000001a0: c884 a2bd 62ba df3d 1001 e53c 295c e33d
000001b0: eb5c 833d 8cd6 07be f3fd e4bc 6014 d33c
000001c0: d76e 89bd 6953 d6bc 2a70 973d 9510 a6bd
000001d0: bd03 963d db64 623c e3b6 983d 2a8e 8d3d
000001e0: 6942 2c3d d40b bfbd b10a d33d f92b 063e
000001f0: 552b 243d dd42 c23d 81ca 09be a023 023e
00000200: 9bed 51be 8bcc 1d3d 1009 cc3d 578b 58bd
00000210: 950f 4fbc fb8e 0ebb 4c7c a43d ff71 09bd
00000220: 88aa b8bc d5bd 19be de69 c4bc c1c3 19bd
00000230: d6c6 b6bc d14f 8cbd 75f2 87bd 7cbc 97bc
00000240: a430 5d3d 1c6a 6b3d 1620 08be d613 393d
00000250: 810e 5fbd 4561 16be 210b 493d 58d2 84bd
00000260: 09f0 12bd 0c89 883d 62c1 28bd ed89 ad3d
00000270: b86d d8bd 4281 90bd c54e 5cbe fb7d 7ebd
00000280: 47ab a7bc 0691 b23d 0a91 e53d f4ef c0bd
00000290: d186 313e 4b74 4dbd 5aa4 b93b 2e6f a33d
000002a0: b10b 5f3d 5873 41be a056 dbbd f4ef 32bd
000002b0: 051c c63c da00 57bd 8b57 be3d c18a 03bd
000002c0: aaaf 913d c608 bdbb 0df7 843c 9266 6c3d
000002d0: 7702 3a3e 9926 62bd 600f 593d 3a84 89be
000002e0: 99cb 4f3b f3aa 333c 66d0 6abd d907 a7bd
000002f0: c861 00be 2c71 b83d 528f 00bd 82f5 eabd
00000300: 0e6b b73d b16f 71bd 44fc 01be 8da8 00bd
00000310: 6808 743d edd1 34bd d625 fa3d e1da 373d
00000320: 7ab3 88bc 8bf1 2b3d eb1e 5dbc 78c3 d1bd
00000330: cdb1 9abd 319c cbbd 499c 303d 3621 7d3c
00000340: 8feb 42bd 015e d43d 5b60 483d 203d 9fbd
00000350: 4142 e83c 98f0 6c3d 1b8a 6bbd b0c0 a3bb
00000360: 8825 79bd 843a 3c3e 48a7 51be e114 75bd
00000370: deec 9f3d 8dd5 493c 6e7c 89bd d237 9a3b
00000380: fa67 9c3d dc53 0d3d 3788 d83c 5fcd d6bc
00000390: c38d 0e3e 0732 423d cb6f 82bc 9004 1e3a
000003a0: f92c f1bd 79f3 26bd c19e 0dbe eff3 0fbe
000003b0: f42f debd e5f5 8f3c 02c4 8b3d 7479 81bd
000003c0: 6cd0 bb3b 611a 76bd 13e9 94be 0376 02bb
000003d0: 6412 b43a 03b0 16bc 6755 26be 1985 91bd
000003e0: a1fa c13d 0373 093e 3c5e f7bd 1988 8a3d
000003f0: d721 493c 0f3c e8bd 894c 54bd 844a d33d

hidden_layers.1.weight f4 [256, 256]
-0.06444652 -0.086260505 0.12963265 -0.0760471 -0.067080334 -0.1271086 -0.20355128 -0.15141657
-0.0006061872 -0.105944455 -0.046929646 -0.14966431 0.09468096 0.05412681 -0.15643653 0.04862701
0.023674047 -0.19906971 0.08325097 -0.12813184 -0.03368941 -0.0045691123 -0.29931653 -0.06592374
-0.058468793 -0.09892492 -0.045636144 -0.060000967 -0.12744084 -0.053040054 0.062277246 0.053613953
0.055627294 -0.048943065 -0.0668007 0.023575366 -0.10834772 -0.15729803 -0.10534596 -0.07613108
-0.15101334 -0.035136174 -0.08302817 -0.1344239 -0.008604075 0.04957485 -0.009239296 -0.2886454
-0.1105817 0.0035727387 -0.022970924 -0.041297995 -0.13742119 -0.11599972 0.044359367 -0.16136387
-0.062063187 -0.16295268 -0.010540194 -0.0888089 -0.09728395 0.088576056 -0.023786271 0.040970903
0.0403166 -0.08734732 0.18238398 -0.06944968 -0.08208433 0.027778402 -0.031966865 -0.2615855
-0.22895195 -0.1549643 -0.07206183 -0.06839512 0.13096733 -0.072053365 -0.110297024 -0.25323468
-0.2633523 -0.14221404 -0.03314905 -0.09124577 0.098280475 -0.025440985 -0.19587685 -0.07275413
0.16214666 -0.2126819 0.11124663 -0.13502201 -0.08628069 0.123898655 -0.06553198 0.18860155
-0.049169272 0.035714112 -0.04488686 -0.08043925 -0.19129951 0.012125908 0.04588011 0.07995587
-0.23188928 -0.14684434 0.057746846 -0.09230701 0.08340927 -0.034248576 0.3150503 -0.101387255
-0.013206981 -0.2253533 0.0157695 -0.13217835 0.00211945 -0.12845573 0.09466991 -0.19307615
-0.06376803 -0.0616506 -0.1670997 0.066308424 -0.056266543 0.010187166 0.18110579 0.0020013365
-0.047609694 -0.0032430764 -0.008550548 0.01463998 0.0043837246 -0.06412783 -0.073704064 -0.06970713
-0.06512965 -0.052246045 0.04801747 -0.00079744123 -0.03466959 -0.014014504 -0.16084631 -0.10130227
0.057293087 -0.014502687 -0.17925386 0.14297597 0.043836202 0.023458084 0.111602835 -0.31000057
0.0008535924 0.08190691 -0.15834387 0.13839296 -0.2816483 0.034920473 -0.30372167 0.023895007
-0.04039638 -0.018495144 -0.0014425104 0.016243374 -0.12201928 -0.12592743 0.048312116 0.12120005
-0.13244635 -0.18598355 -0.019769868 0.14763527 -0.08625052 0.1272478 0.10469002 0.1141579
-0.05502026 -0.13943848 -0.16527973 -0.0058551906 0.04224309 0.032078963 -0.08711692 -0.078223735
0.038647946 0.07085596 -0.0003392661 -0.10806779 -0.09935518 -0.05549112 -0.03704953 -0.12750898
-0.06220013 -0.048572134 -0.061412375 -0.019164871 0.034147628 -0.13150452 0.11268245 -0.12845694
0.08144382 -0.1575612 0.03970165 -0.24080393 -0.05725401 -0.016350333 -0.16932482 0.04237476
-0.2646022 -0.06078165 -0.070397 -0.12053815 0.014690979 -0.19624805 -0.004250026 -0.02086369
-0.14750504 -0.20596482 -0.057470463 0.004280301 0.08681687 -0.109392405 -0.014660002 -0.18028495
-0.015566634 -0.12756363 -0.23989148 0.098270394 -0.05200262 -0.1204771 -0.0017949855 0.013711338
-0.11717321 -0.14619409 -0.11859499 -0.059359737 -0.09010583 0.15390807 0.178846 -0.2090273
-0.13235512 0.040059086 -0.0013424478 0.057571974 -0.06381779 0.15652288 -0.13848715 -0.09729643
-0.16807555 -0.11948546 -0.07439052 -0.03896196 -0.045379322 0.1550517 0.15566272 -0.23073414
00000000: 89fc 83bd 59a9 b0bd 6cbe 043e 95be 9bbd
00000010: 6a61 89bd c228 02be bf6f 50be f20c 1bbe
00000020: 89e8 1eba 68f9 d8bd 4d39 40bd 9a41 19be
00000030: 17e8 c13d 13b4 5d3d e630 20be 1e2d 473d
00000040: 13f0 c13c eed8 4bbe 7c7f aa3d fe34 03be
00000050: e8fd 09bd 7eb8 95bb 0440 99be 0703 87bd
00000060: f97c 6fbd 2699 cabd f7ec 3abd 93c3 75bd
00000070: da7f 02be 8740 59bd 6d16 7f3d 4e9a 5b3d
00000080: 72d9 633d 8678 48bd cece 88bd 2021 c13c
00000090: 69e5 ddbd bc12 21be 9fbf d7bd 9dea 9bbd
000000a0: 3ea3 1abe f3ea 0fbd ac0a aabd 6ba6 09be
000000b0: 1bf8 0cbc ff0e 4b3d 6b60 17bc 54c9 93be
000000c0: a978 e2bd 9c24 6a3b 852d bcbc 1628 29bd
000000d0: 24b8 0cbe 4391 edbd 2bb2 353d 923c 25be
000000e0: f835 7ebd 11dd 26be c7b0 2cbc 71e1 b5bd
000000f0: cf3c c7bd 5d67 b53d 6ddb c2bc 1bd1 273d
00000100: 0523 253d 27e3 b2bd dec2 3a3e a23b 8ebd
00000110: d41b a8bd 888f e33c b0ef 02bd 89ee 85be
00000120: 6172 6abe f6ae 1ebe 2795 93bd be12 8cbd
00000130: 4d1c 063e b790 93bd 68e3 e1bd faa7 81be
00000140: 1dd6 86be 8fa0 11be 4cc7 07bd 10df babd
00000150: 4647 c93d 9d69 d0bc f193 48be 1e00 95bd
00000160: c609 263e 49c9 59be 46d5 e33d 3643 0abe
00000170: eeb3 b0bd 94be fd3d a135 86bd c420 413e
00000180: b865 49bd f648 123d 49db 37bd 55bd a4bd
00000190: 05e4 43be bfab 463c c8ec 3b3d e7bf a33d
000001a0: 6274 6dbe 5d5e 16be f587 6c3d 750b bdbd
000001b0: 7bd2 aa3d 3c48 0cbd 464e a13e 1fa4 cfbd
000001c0: 1862 58bc 04c3 66be 0a2f 813c c359 07be
000001d0: 78e6 0a3b e689 03be 4ce2 c13d c1b5 45be
000001e0: d098 82bd 5785 7cbd 2f1c 2bbe b6cc 873d
000001f0: bf77 66bd 12e8 263c cc73 393e db28 033b
00000200: 6202 43bd cb89 54bb 9917 0cbc 87dc 6f3c
00000210: 59a5 8f3b 7455 83bd 28f2 96bd 9dc2 8ebd
00000220: b262 85bd f3ff 55bd f7ad 443d 600b 51ba
00000230: b301 0ebd 179d 65bc e5b4 24be 9177 cfbd
00000240: 28ac 6a3d ae9c 6dbc 538e 37be 4b68 123e
00000250: 978d 333d 2b2b c03c 0790 e43d 65b8 9ebe
00000260: 9ec3 5f3a cfbe a73d e524 22be e2b6 0d3e
00000270: 3534 90be c508 0f3d 6881 9bbe 76bf c33c
00000280: ad76 25bd 2183 97bc 9e12 bdba d310 853c
00000290: 3fe5 f9bd 1ff3 00be ede2 453d bb37 f83d
000002a0: 04a0 07be 7972 3ebe 6bf4 a1bc b32d 173e
000002b0: 1da4 b0bd 3f4d 023e b967 d63d 9ecb e93d
000002c0: ed5c 61bd f6c8 0ebe 173f 29be e6dc bfbb
000002d0: 1707 2d3d 3b65 033d 5b6a b2bd c433 a0bd
000002e0: 4f4d 1e3d ee1c 913d 86df b1b9 a552 ddbd
000002f0: bb7a cbbd a84a 63bd 3fc1 17bd b791 02be
00000300: 90c5 7ebd 93f3 46bd 8b8b 7bbd a6ff 9cbc
00000310: 62de 0b3d 1fa9 06be 0ec6 e63d 378a 03be
00000320: 04cc a63d b957 21be 339e 223d 4e95 76be
00000330: 2e83 6abd 22f1 85bc 7c63 2dbe 2891 2d3d
00000340: f179 87be 2ef6 78bd 4d2c 90bd b5dc f6bd
00000350: 6fb2 703c 40f5 48be cd43 8bbb 54ea aabc
00000360: 900b 17be 71e8 52be 2666 6bbd c441 8c3b
00000370: 0bcd b13d 2009 e0bd 8130 70bc 9e9c 38be
00000380: 320b 7fbc 0aa0 02be 1da6 75be fd41 c93d
00000390: b300 55bd b3bc f6bd b845 ebba 85a5 603c
000003a0: 82f8 efbd e7b3 15be eee1 f2bd 3223 73bd
000003b0: 6889 b8bd 149a 1d3e 6823 373e 410b 56be
000003c0: 1a88 07be ff14 243d 13f5 afba 97d0 6b3d
000003d0: e7b2 82bd 8947 203e 93cf 0dbe 5a43 c7bd
000003e0: ff1b 2cbe cbb4 f4bd 0f5a 98bd 9396 1fbd
000003f0: abdf 39bd dfc5 1e3e 0c66 1f3e 9245 6cbe

hidden_layers.1.bias f4 [256]
-0.07009918 -0.044331424 -0.15507613 -0.040859766 -0.15409559 -0.1510494 -0.12573716 -0.07375794
-0.078245714 -0.02385851 0.014669232 -0.012623681 0.019111453 -0.13015345 -0.0781595 -0.005493237
-0.071686104 -0.044428445 -0.08878194 -0.1301577 -0.015278011 -0.0009618134 0.013006465 -0.08678167
0.030815706 -0.0479035 -0.06988944 -0.11353758 -0.045569822 -0.08851683 -0.073021196 0.03612768
-0.04879907 -0.12581046 -0.002999027 -0.15662067 -0.1629523 -0.15512967 -0.021617962 0.0136170015
-0.13099983 -0.10468916 -0.06804315 -0.14663775 -0.043994147 -0.058760915 -0.12775517 -0.046918716
-0.0508011 -0.068358235 -0.12562491 -0.05948843 -0.14546277 -0.08054836 -0.07045975 -0.026528906
-0.07557551 -0.11736025 -0.061466303 -0.12368828 -0.12578373 -0.15708669 -0.036337934 0.01685411
-0.121915795 -0.07499669 0.016776899 -0.12719597 0.055155996 -0.048657242 -0.11664746 -0.0632919
-0.038807064 -0.06987073 -0.044159092 -0.038585104 0.03793502 -0.1279117 -0.08702943 -0.111468814
-0.08822244 -0.13655393 -0.029523384 -0.14929268 -0.14489461 -0.15338841 -0.047529716 -0.09727263
-0.051988743 0.028619016 -0.16707705 0.06284353 0.114665024 -0.08644164 -0.08854878 -0.10810168
-0.035872534 -0.08318268 -0.050119188 -0.06333978 -0.04769733 -0.09073622 -0.119027734 -0.111698166
-0.08322049 -0.14516512 -0.080498315 -0.10799222 -0.0446493 -0.068670556 0.15815496 -0.14856237
-0.05670504 -0.08665044 -0.01870339 -0.017929437 -0.035571143 -0.018665126 -0.04149684 -0.07558527
-0.09324184 -0.11032353 -0.07729568 -0.061742496 -0.08070064 -0.12164622 -0.031349592 0.05887046
-0.102815844 -0.14509276 0.082498334 -0.046785064 -0.08886473 -0.066851154 -0.1873723 -0.081471816
-0.08309651 -0.0583508 -0.08512581 -0.1326191 -0.06173696 -0.056816276 -0.10252067 -0.046742525
-0.0721459 -0.07384104 -0.025427189 -0.07274961 -0.0380359 -0.05908115 -0.027404115 -0.08570761
-0.11665376 -0.03510019 3.178009e-05 -0.034551296 -0.13064735 -0.079533465 0.10402977 -0.08887563
-0.06073248 -0.041680418 -0.00027319638 -0.11840635 -0.12417035 -0.05748376 -0.117987245 -0.11091194
-0.0939173 0.052606057 -0.08856317 -0.014849222 0.04084138 -0.11125677 -0.103375904 -0.1355586
-0.13711153 -0.08461103 -0.13127612 0.08083027 -0.09655003 -0.07547613 -0.11010717 -0.040373348
-0.104250975 -0.1024066 -0.08985226 -0.12691544 -0.02987064 -0.016524652 0.045206264 -0.04821105
-0.07613658 -0.03206118 -0.022635046 -0.057406925 0.045196854 -0.08688062 -0.040834665 -0.14856845
0.04713669 -0.026714921 0.084983855 -0.07914756 0.04312203 -0.13317919 0.014109006 -0.07456309
-0.032672722 -0.048807632 -0.10270356 -0.052706815 -0.12148253 0.030882463 -0.017127289 -0.07976251
-0.02946084 -0.06539564 0.07481567 0.08090461 0.048732776 -0.112990364 -0.055746753 -0.11510318
-0.17363039 -0.048044294 -0.043039493 -0.04529886 -0.07064899 -0.023997327 -0.03567798 0.00928019
-0.04862038 -0.10857792 -0.0849997 -0.12855878 0.016584085 -0.033057317 -0.07882663 0.022694562
0.036770932 -0.07981735 -0.039841738 -0.10149821 -0.14397073 -0.03359207 -0.029098062 -0.11383999
-0.06716216 -0.1353546 -0.08337604 -0.1419631 -0.060162663 -0.15020834 -0.087697096 -0.019397637
00000000: 2990 8fbd de94 35bd 47cc 1ebe 925c 27bd
00000010: 3ccb 1dbe b2ac 1abe 3ec1 00be 670e 97bd
00000020: 4a3f a0bd ec72 c3bc 3857 703c 8ed3 4ebc
00000030: 9f8f 9c3c f246 05be 1712 a0bd 9d00 b4bb
00000040: 2ad0 92bd 9afa 35bd 4ed3 b5bd 0f48 05be
00000050: 9f50 7abc 3422 7cba 1119 553c 97ba b1bd
00000060: 3871 fc3c 7636 44bd 3222 8fbd 6486 e8bd
00000070: 6ca7 3abd 5048 b5bd 238c 95bd 9efa 133d
00000080: 89e1 47bd 75d4 00be 538b 44bb 2b61 20be
00000090: f8dc 26be 50da 1ebe 2718 b1bc d819 5f3c
000000a0: d224 06be 4567 d6bd 355a 8bbd 3528 16be
000000b0: 3533 34bd 49af 70bd 40d2 02be d72d 40bd
000000c0: d014 50bd 67ff 8bbd d1a3 00be 24aa 73bd
000000d0: 31f4 14be 8af6 a4bd 344d 90bd 2653 d9bc
000000e0: 55c7 9abd 925a f0bd 17c4 7bbd 4850 fdbd
000000f0: 73cd 00be 55db 20be 16d7 14bd a111 8a3c
00000100: fdae f9bd dd97 99bd b56f 893c a93f 02be
00000110: 41eb 613d d14c 47bd dde4 eebd 2f9f 81bd
00000120: 28f4 1ebd 6318 8fbd 2ae0 34bd 6a0b 1ebd
00000130: c061 1b3d 49fb 02be 7c3c b2bd c349 e4bd
00000140: f7ad b4bd cbd4 0bbe 06db f1bc 2ee0 18be
00000150: 415f 14be da11 1dbe 85ae 42bd df36 c7bd
00000160: 26f2 54bd 6d72 ea3c 3f16 2bbe 1cb4 803d
00000170: 7fd5 ea3d 5108 b1bd 1059 b5bd 6a64 ddbd
00000180: 14ef 12bd ae5b aabd c749 4dbd 49b8 81bd
00000190: 475e 43bd e9d3 b9bd d0c4 f3bd 02c2 e4bd
000001a0: 816f aabd 2aa6 14be 4ddc a4bd 062b ddbd
000001b0: 2fe2 36bd 26a3 8cbd 60f3 213e bc20 18be
000001c0: 8b43 68bd c975 b1bd da37 99bc c1e0 92bc
000001d0: 0cb3 11bd 9be7 98bc 97f8 29bd 73cc 9abd
000001e0: 94f5 bebd 4ef1 e1bd 334d 9ebd b3e5 7cbd
000001f0: 6146 a5bd a721 f9bd 6e68 00bd 2722 713d
00000200: 1d91 d2bd 3293 14be e3f4 a83d b2a1 3fbd
00000210: b6fe b5bd 42e9 88bd 86de 3fbe b2da a6bd
00000220: 812e aabd 4001 6fbd 7156 aebd 4dcd 07be
00000230: e5df 7cbd 2fb8 68bd 5bf6 d1bd 1775 3fbd
00000240: 3bc1 93bd f939 97bd ae4c d0bc bffd 94bd
00000250: 88cb 1bbd 13ff 71bd 987e e0bc 7987 afbd
00000260: 2be8 eebd 38c5 0fbd 9d4b 0538 a985 0dbd
00000270: 6bc8 05be 71e2 a2bd 8f0d d53d 6d04 b6bd
00000280: 9fc2 78bd 16b9 2abd cc3b 8fb9 077f f2bd
00000290: 064d febd 1774 6bbd 4ca3 f1bd cd25 e3bd
000002a0: b757 c0bd 7379 573d 9b60 b5bd 274a 73bc
000002b0: 4a49 273d 97da e3bd bfb6 d3bd e0cf 0abe
000002c0: f766 0cbe 8c48 adbd 3f6d 06be 578a a53d
000002d0: 06bc c5bd 3b93 9abd de7f e1bd 865e 25bd
000002e0: 8981 d5bd 8dba d1bd 7604 b8bd 1ff6 01be
000002f0: 46b3 f4bc b55e 87bc 342a 393d f378 45bd
00000300: 7fed 9bbd 9552 03bd 226d b9bc 8623 6bbd
00000310: 5620 393d 77ee b1bd 4042 27bd 5422 18be
00000320: 6712 413d 40d9 dabc 040c ae3d 1e18 a2bd
00000330: baa0 303d 2060 08be 7629 673c 89b4 98bd
00000340: d5d3 05bd 83ea 47bd 3e56 d2bd 1ae3 57bd
00000350: d5cb f8bd 38fd fc3c 874e 8cbc 875a a3bd
00000360: dc57 f1bc 26ee 85bd f538 993d 51b1 a53d
00000370: 059c 473d 7e67 e7bd b556 64bd 37bb ebbd
00000380: 2acc 31be 18ca 44bd 2e4a 30bd 4c8b 39bd
00000390: 6bb0 90bd 0b96 c4bc 1323 12bd f00b 183c
000003a0: 2a26 47bd 1a5e debd 5314 aebd eaa4 03be
000003b0: 59db 873c 1c67 07bd db6f a1bd f2e9 b93c
000003c0: 1e9d 163d 4777 a3bd 1731 23bd 4bde cfbd
000003d0: 106d 13be d797 09bd 0f5f eebc f124 e9bd
000003e0: 518c 89bd 659a 0abe 0fc1 aabd c65e 11be
000003f0: 206d 76bd 37d0 19be 899a b3bd cbe7 9ebc

output_layers.0.weight f4 [40, 256]
-0.07628153 -0.23068884 0.06626894 0.14673454 -0.11271287 0.10957293 -0.12830718 0.12983015
-0.02404123 0.22700395 0.021210646 -0.047983676 -0.02769612 0.10056058 -0.12791295 -0.028433468
0.012665102 0.14671156 0.1545441 0.081042476 0.015009869 -0.032791387 -0.096239895 0.15108974
-0.120743394 0.017650452 -0.0039326744 -0.000116451796 0.1551491 -0.051315546 -0.007069053 -0.051062852
0.007204881 0.093645655 -0.06597115 0.10394272 0.07281894 0.020834913 -0.08766064 -0.07269381
0.17026433 -0.0012500242 0.16913804 -0.06698829 -0.0025451428 -0.09855917 -0.14335664 0.123781
0.15829636 0.016072247 -0.014138064 0.22736324 0.13338852 -0.015785344 0.107819274 0.23072049
-0.08946183 -0.018140532 -0.08296412 0.063647866 0.05245502 0.093621716 -0.12910305 -0.04244689
0.070205465 0.06967664 -0.01586867 0.033800088 -0.01549676 0.06454495 -0.047097176 0.08406333
0.13367671 -0.042753853 0.021217674 0.037569948 -0.060905438 -0.038620796 -0.029596124 -0.24300103
-0.02283589 0.043796238 0.079309545 -0.13132426 -0.09117924 0.05360032 -0.11665368 -0.031794958
0.04480802 -0.030214207 0.033363093 -0.029334128 -0.025305897 0.0753992 0.10737352 0.086213514
0.15795328 0.043145917 0.024770098 -0.01557639 -0.035537943 0.05458823 0.17808618 -0.015060236
-0.033931743 0.066046126 0.1830061 -0.058118597 -0.09903172 -0.0015148604 -0.024479771 0.021924162
-0.04370643 0.15804225 0.07243262 0.072682634 0.10724197 0.078515194 -0.028460583 0.12567411
-0.0058885505 0.00075768837 -0.229976 -0.01891514 0.040659886 0.048661776 -0.09617343 -0.003598208
0.038511354 0.08335595 -0.028208047 -0.04465928 0.13367271 -0.21689738 0.025811749 0.051369984
-0.13295648 -0.064531095 0.032235913 -0.061990686 -0.07458828 -0.047026515 -0.018253988 -0.08022954
0.23841687 -0.105456725 -0.08752095 -0.27689853 0.063910335 0.17459345 0.24670474 0.021657674
0.046244193 0.089279845 0.0013176374 0.09646255 0.03384333 0.080894426 -0.03015293 -0.035608485
0.052682973 -0.04116321 -0.035763912 -0.13466147 0.0030137007 0.15479665 -0.023168074 0.1731158
-0.0069099893 -0.08573936 -0.017647482 0.107731126 -0.066723056 -0.02435505 0.037156824 0.028441006
-0.03723826 0.09389103 0.05234785 -0.028631601 -0.020439655 -0.09018994 0.07125245 -0.011292325
-0.18987286 -0.07790497 0.12166229 0.021848729 0.17206013 -0.036953744 -0.03434066 0.21800181
-0.07020068 -0.18267319 -0.0613911 0.051812913 -0.06596112 -0.01792458 0.041196074 -0.017787946
-0.07947454 0.004441274 -0.034790624 0.12627177 -0.021896264 0.12606138 -0.048605885 -0.088913605
-0.13407616 0.070204556 0.037525166 -0.06460179 -0.049972616 -0.031317275 0.21929164 -0.03987262
0.08256482 0.013349517 -0.03778561 -0.0150425695 -0.027323216 0.19002792 0.05913719 -0.034496557
0.0293581 -0.20348445 0.10174692 -0.042341374 0.0798408 0.011331617 0.08439595 0.13583831
-0.074419506 -0.06402047 0.12821789 0.00258309 -0.03885921 -0.08296985 -0.29159638 -0.04272497
-0.086506404 0.0048102024 0.012694503 0.0025597871 -0.10344807 -0.28103656 -0.07328635 -0.16281871
-0.022257896 -0.0017418377 0.06558096 0.011435794 0.0021707495 -0.03996088 0.026242694 0.04121454
00000000: 7e39 9cbd b239 6cbe 03b8 873d 9441 163e
00000010: 01d6 e6bd c667 e03d f562 03be 32f2 043e
00000020: 1df2 c4bc b973 683e f3c1 ad3c 888a 44bd
00000030: f9e2 e2bc b5f2 cd3d 9dfb 02be 4eed e8bc
00000040: 4a81 4f3c 8e3b 163e cf40 1e3e 99f9 a53d
00000050: f4eb 753c 4350 06bd 6c19 c5bd 45b7 1a3e
00000060: 5048 f7bd ae97 903c aadd 80bb 9537 f4b8
00000070: 68df 1e3e 4030 52bd 84a3 e7bb 4827 51bd
00000080: ec16 ec3b 4bc9 bf3d e21b 87bd ecdf d43d
00000090: 1922 953d fbad aa3c 6c87 b3bd 7ee0 94bd
000000a0: c659 2e3e dad7 a3ba 8632 2d3e 2831 89bd
000000b0: 69cc 26bb 64d9 c9bd 15cc 12be e580 fd3d
000000c0: 7118 223e f2a9 833c 57a3 67bc e9d1 683e
000000d0: 0097 083e 4450 81bc 5ad0 dc3d fe41 6c3e
000000e0: c437 b7bd 749b 94bc 18e9 a9bd d059 823d
000000f0: 13db 563d bebc bf3d 9733 04be cadc 2dbd
00000100: e2c7 8f3d a0b2 8e3d 03ff 81bc f671 0a3d
00000110: 1fe6 7dbc 2530 843d f8e8 40bd 6529 ac3d
00000120: 8ce2 083e aa1e 2fbd b0d0 ad3c f2e2 193d
00000130: fb77 79bd d730 1ebd 9273 f2bc 43d5 78be
00000140: 5512 bbbc af63 333d 0b6d a23d de79 06be
00000150: 2ebc babd 028c 5b3d 20e8 eebd 6e3b 02bd
00000160: 9d88 373d c983 f7bc bda7 083d 204e f0bc
00000170: 504e cfbc e56a 9a3d a6e6 db3d b690 b03d
00000180: 81be 213e c6b9 303d a9ea ca3c 1d34 7fbc
00000190: 3c90 11bd e897 5f3d 395c 363e 35bf 76bc
000001a0: 03fc 0abd 3143 873d f365 3b3e c40d 6ebd
000001b0: 24d1 cabd 488e c6ba cd89 c8bc 4d9a b33c
000001c0: 8305 33bd d4d5 213e 8e57 943d a2da 943d
000001d0: aea1 db3d 93cc a03d 2b26 e9bc b7b0 003e
000001e0: bef4 c0bb 9b9f 463a d47e 6bbe ecf3 9abc
000001f0: fb8a 263d 9251 473d 93f6 c4bd eacf 6bbb
00000200: 15be 1d3d 86b6 aa3d 9014 e7bc a6ec 36bd
00000210: 80e1 083e 591a 5ebe 2973 d33c 5569 523d
00000220: be25 08be e128 84bd ce09 043d f2e9 7dbd
00000230: bdc1 98bd e09e 40bd 6389 95bc 634f a4bd
00000240: 8d23 743e b2f9 d7bd 2f3e b3bd a5c5 8dbe
00000250: 6ce3 823d a0c8 323e 2ba0 7c3e 6f6b b13c
00000260: 8d6a 3d3d 5ad8 b63d 93b4 ac3a 288e c53d
00000270: 4e9f 0a3d faab a53d 4703 f7bc 34da 11bd
00000280: 1aca 573d c19a 28bd 2e7d 12bd b2e4 09be
00000290: 8281 453b 0383 1e3e f9ca bdbc 4545 313e
000002a0: 316d e2bb 1e98 afbd 7491 90bc 23a2 dc3d
000002b0: 19a6 88bd 3e84 c7bc c131 183d 1dfd e83c
000002c0: 2587 18bd f149 c03d b36a 563d d28c eabc
000002d0: 1071 a7bc 81b5 b8bd ceec 913d 7203 39bc
000002e0: 086e 42be a48c 9fbd 142a f93d 1bfc b23c
000002f0: 8830 303e cf5c 17bd cba8 0cbd de3b 5f3e
00000300: 60c5 8fbd ae0e 3bbe 3c75 7bbd c739 543d
00000310: a016 87bd 92d6 92bc 37bd 283d 07b8 91bc
00000320: 8cc3 a2bd 1b88 913b 9d80 0ebd 634d 013e
00000330: cb5f b3bc 3c16 013e f716 47bd 5618 b6bd
00000340: 434b 09be 68c7 8f3d fdb3 193d f14d 84bd
00000350: 16b0 4cbd 8b46 00bd fd8d 603e 7951 23bd
00000360: bf17 a93d efb7 5a3c 15c5 1abd 1c75 76bc
00000370: f0d4 dfbc ae96 423e d739 723d 434c 0dbd
00000380: 6680 f03c 3a5e 50be b060 d03d 266e 2dbd
00000390: 9383 a33d 3fa8 393c c9d7 ac3d 3319 0b3e
000003a0: 4169 98bd 2a1d 83bd 8d4b 033e 0f49 293b
000003b0: d62a 1fbd 19ec a9bd 1f4c 95be 6100 2fbd
000003c0: 452a b1bd e79e 9d3b 9bfc 4f3c 1ac2 273b
000003d0: 95dc d3bd 06e4 8fbe 2717 96bd f3b9 26be
000003e0: 3156 b6bc 604e e4ba 4f4f 863d 325d 3b3c
000003f0: 2243 0e3b 05ae 23bd ebfa d63c 94d0 283d

output_layers.0.bias f4 [40]
-0.1752294 -0.35715276 -0.24565548 -0.9680918 -0.32124704 -0.3625503 -0.30844745 -0.16333649
-0.2426056 -0.27409315 -0.35139462 -0.27008605 -0.2982213 -0.22891726 -0.21448788 -0.3387727
-0.29066288 -0.24524786 -0.33963814 -0.32355636 -0.24999632 -0.24721016 -0.31782493 -0.30702513
-0.3544733 -0.31202143 -0.29858032 -0.24758519 -0.31791112 -0.24031189 -0.29413113 -0.27614412
-0.35485768 -0.14956775 -0.35623777 -0.42959607 -0.2017393 -0.976837 -0.20285453 -0.3838414
00000000: 566f 33be badc b6be 1c8d 7bbe ddd4 77bf
00000010: 7e7a a4be 31a0 b9be d3ec 9dbe ae41 27be
00000020: 9a6d 78be f055 8cbe ffe9 b3be b848 8abe
00000030: 76b0 98be 4969 6abe b6a2 5bbe 9e73 adbe
00000040: c4d1 94be 4122 7bbe 0de5 adbe 2ea9 a5be
00000050: 09ff 7fbe a924 7dbe f3b9 a2be 6632 9dbe
00000060: 867d b5be 46c1 9fbe 85df 98be f986 7dbe
00000070: 3fc5 a2be 5214 76be 5b98 96be c362 8dbe
00000080: e8af b5be 4a28 19be cc64 b6be 04f4 dbbe
00000090: bf94 4ebe fd11 7abf 19b9 4fbe dc86 c4be
