MODELS/REWARD COMPARISON/SAC MASKED MODELS/11_1_actor_local_network.pt (torch, 411295 bytes, 6 tensors)

hidden_layers.0.weight f4 [256, 101]
000000 38 d9 26 be ad ab 10 be 89 5f 81 bb 77 4c b5 bc
       -0.162938 -0.14127989 -0.0039481563 -0.022131188
000010 f0 70 be 3d 55 4c 8f bc 21 4f 22 be b3 06 35 3e
       0.09298885 -0.017492453 -0.15850498 0.17678337
000020 f7 dc 1d bd 91 ae 4a be f5 c5 4b 3e 0e dd c2 bd
       -0.038540807 -0.19793154 0.19899733 -0.09514819
000030 33 a1 67 be fb 57 74 3d d1 5e da bd de f9 92 bd
       -0.22620086 0.059654217 -0.10662616 -0.07176565
000040 18 e0 e0 bc 10 3c e6 bd ac 71 c7 bd 84 db 94 be
       -0.027450606 -0.11241925 -0.09738478 -0.29073727
000050 75 de 46 be a2 6d 0a 3e 02 03 7f be 4c ec 68 be
       -0.19420798 0.13518384 -0.24903491 -0.2274639
000060 09 e6 4d be 54 ab cb bd 79 88 86 be 55 ba 02 be
       -0.20107283 -0.099447876 -0.26275995 -0.12766393
000070 e0 d6 3d be 0e a9 37 be af 7c f3 bd fc 37 31 3e
       -0.18539 -0.17935583 -0.11889016 0.17306513
000080 0a 8d 2f be bc c5 d8 bd 3b 37 f9 3c c1 f4 e5 bd
       -0.17143646 -0.1058459 0.030421844 -0.11228324
000090 96 68 b3 be 93 23 36 be 89 47 d0 be ab 2b 25 be
       -0.3504073 -0.17787008 -0.40679577 -0.1612994
0000a0 db f5 12 bc fd 9c 09 bd 07 60 77 be 09 57 ef bd
       -0.008969749 -0.03359698 -0.24157725 -0.116865225
0000b0 22 26 97 be d4 34 8d be a1 6a 8b 3d 9b 21 b5 be
       -0.2952128 -0.27579367 0.06807447 -0.353772
0000c0 fe 53 a6 be cd a8 ca be cb c2 72 bd 0d a2 d7 bb
       -0.32485956 -0.3958191 -0.0592678 -0.0065805973
0000d0 10 80 00 bc a3 c6 b0 bd 58 8c 80 be ab df eb bd
       -0.0078430325 -0.08631637 -0.25107074 -0.11517271
0000e0 bf 4a 5e 3d 22 b1 c5 bc 54 6d 79 be 2c 80 be be
       0.054270502 -0.024132315 -0.24358112 -0.37207162
0000f0 d0 90 ee 3c ac 8a 4a be dd 1d 2e bc ae 0a 20 be
       0.029121786 -0.19779462 -0.010627237 -0.15629074
000100 6b f8 4b be d4 d8 9c 3d 98 a4 68 be a1 37 89 be
       -0.19918983 0.07658544 -0.22719038 -0.26800254
000110 ce 27 43 bd 0e 8a 3c be ae 5a 53 3c e1 43 98 bd
       -0.047645383 -0.18412039 0.012900038 -0.07434822
000120 9c 33 19 be 72 22 62 be 7d 96 5d be 42 16 71 be
       -0.14961094 -0.22083452 -0.21639438 -0.23543647
000130 9d e6 1d be 4c 76 80 be 85 74 d9 bc d2 7e 73 be
       -0.15420003 -0.25090253 -0.026544819 -0.23778847
000140 f7 9d 12 be f8 16 8b bc 39 df 81 bc 28 d9 11 be
       -0.14318071 -0.016978726 -0.015853511 -0.14242995
000150 f7 63 c3 bd ca 7b 41 be a2 b9 56 be 1d ba 94 3d
       -0.09540551 -0.18894878 -0.20969251 0.07262061
000160 27 f0 06 bf 58 8b 64 bd 93 1c 0e be b0 9a 8f 3c
       -0.52710193 -0.05579695 -0.13878088 0.017529815
000170 00 91 a1 bd 40 b8 8a be 2e 99 03 be 0c b5 91 be
       -0.07888985 -0.27093697 -0.12851402 -0.2845844
000180 ac 5e 2f bd a9 cc dc bd b9 ce 99 be 12 b0 a8 be
       -0.042814896 -0.10781223 -0.3004053 -0.3294683
000190 28 24 74 bd 5e 01 e7 bd 9c 12 26 3e bc a1 ea bd
       -0.059604794 -0.11279558 0.16218036 -0.1145663
0001a0 6d de ab bd 86 a6 83 3d 61 67 af bd 60 38 ed 3d
       -0.08392034 0.06428246 -0.0856464 0.11583018
0001b0 10 5d c7 3d ec aa e3 be c5 50 c7 3e c0 83 f8 3d
       0.09734547 -0.4446634 0.3892881 0.12134504
0001c0 36 04 90 bd 58 c4 a5 be 0b 87 cd be 2d 1a 97 be
       -0.07032053 -0.3237636 -0.40142092 -0.29512158
0001d0 4d 47 5b be d1 c1 b4 be 8c 97 61 be 43 6a e1 bb
       -0.21413918 -0.3530412 -0.22030467 -0.0068791225
0001e0 cb 1f 9f be 54 3e f5 3d bb c1 54 3d 56 09 83 be
       -0.31078944 0.11974779 0.05194257 -0.2559306
0001f0 da 5f 9f be 5e d8 ba be a2 40 83 be e7 b8 3d be
       -0.31127816 -0.364932 -0.25635248 -0.18527566
000200 82 35 99 bd 33 51 70 3d 82 c2 27 bd 26 24 13 3c
       -0.07480909 0.058671188 -0.04095698 0.008980786
000210 ba 4d f1 3c 15 ec 06 be 30 f2 d9 bb bb e0 35 bd
       0.029456008 -0.13175996 -0.0066511855 -0.044403773
000220 e8 88 58 be 48 7c fd bd 69 b6 05 3e de b7 40 be
       -0.21145976 -0.123772204 0.13057865 -0.1882014
000230 cc 46 1a bd bb 96 ac 3b 3f ee d6 be 1d e0 c1 be
       -0.037665173 0.005266992 -0.41978642 -0.37866297
000240 33 a8 e5 be b1 9a b4 be 7a f1 3d be 4f 39 b1 be
       -0.44854888 -0.3527427 -0.18549147 -0.34614035
000250 98 61 d7 be ee 84 d1 bd 4b 72 ef be e7 d2 44 3e
       -0.42066646 -0.102304325 -0.46766886 0.19221078
000260 b2 72 16 bc fa cb e8 be 89 40 b9 be ce 76 ac be
       -0.009182619 -0.45468122 -0.3618205 -0.3368439
000270 0b 18 bb be 32 1f 0e be 5f 9c bb bd 8a da 8d be
       -0.3654178 -0.13879088 -0.09160685 -0.27705795
000280 c2 8b a7 be cb 1c 1c 3e 39 36 58 bc f7 a6 e3 be
       -0.32723814 0.15245359 -0.013196521 -0.44463322
000290 bb ae aa be 46 2f 14 be 2c 63 c5 3d bc b7 1f be
       -0.33336434 -0.14471158 0.09638056 -0.15597433
0002a0 82 68 8a be db ca 23 be 57 94 d2 3d a9 ed 7e 3d
       -0.27032858 -0.15995352 0.102822 0.06223837
0002b0 4f 30 59 bc c9 71 59 be 9d 1b 88 3e e0 cb b8 3e
       -0.013256147 -0.21234812 0.26583567 0.36093044
0002c0 57 2d ad 3e ba 74 b8 3e 78 a7 ba 3d f0 28 2c bb
       0.33823654 0.36026555 0.091139734 -0.0026269518
0002d0 de 52 b2 be 0e 6d 1c bd 47 15 0a 3e 7e 8d 00 bc
       -0.34828848 -0.03818994 0.13484679 -0.007846234
0002e0 fa e3 8e 3e b6 b3 85 3e 04 75 83 3e ab db 23 3d
       0.27908307 0.2611367 0.25675213 0.040004414
0002f0 69 1c 79 3d fa 38 45 be 5c 1f f1 bd 05 63 70 bd
       0.06081811 -0.19260016 -0.117735595 -0.058688182
000300 95 c1 7f 3d 0f f7 cb bc 52 98 88 3e 8f 66 7b 3e
       0.062440474 -0.02489808 0.2667871 0.24550842
000310 4b d1 96 3d aa fe 48 3e f8 61 b8 3e 80 b7 1d bd
       0.07364138 0.19628397 0.36012244 -0.038505077
000320 c3 a8 19 bf 7b 38 2a 3e 4b a4 1b be b5 74 e6 3d
       -0.60023135 0.16623108 -0.15199392 0.11252729
000330 53 ec 9b 3b 12 19 10 be 8a ae 4f 3c 1f d6 33 3c
       0.0047583967 -0.14072064 0.012675891 0.010976343
000340 99 57 ef bd 58 b6 fc 3e 9d 62 21 be 0a b3 fa 3d
       -0.1168663 0.49357867 -0.15760274 0.1224118
000350 5e 63 02 3d 74 b2 01 be 72 8b 4f 3e 8e f1 68 3d
       0.031833045 -0.1266573 0.20268038 0.05687099
000360 b9 9f 2d bd 2f 41 5b 3e 8e 0f bd 3e 7d 86 8a 3e
       -0.04238865 0.21411584 0.3692593 0.2705573
000370 87 fc af bd 49 b0 a5 bd c1 7d f4 bd c0 16 e5 bd
       -0.08593088 -0.08090264 -0.11938048 -0.1118598
000380 d0 87 cf 3c 19 d1 1f be ed de d9 bc 8a 69 bb bd
       0.025333315 -0.15607108 -0.026595557 -0.09150989
000390 d6 ac 9f 3e f6 6f 7d 3e 86 32 0f 3d 27 cd b0 3e
       0.3118655 0.24749741 0.034960292 0.3453152
0003a0 66 86 af 3c 84 ec 89 3d b9 7b b0 be 1c 8e 88 3d
       0.02142639 0.06734565 -0.34469393 0.0666773
0003b0 6a cd b9 be 41 10 3f be f3 65 0f bc 4f 88 00 3e
       -0.3628953 -0.18658544 -0.008752334 0.12551998
0003c0 de bd 3e 3d b4 bf f5 bc e6 d5 3d 3e b9 d6 af be
       0.04656779 -0.029998638 0.18538627 -0.34343508
0003d0 ce 7b 15 bf 67 cc c1 be cb 0f 00 bf 0f c8 26 be
       -0.58392036 -0.3785126 -0.500241 -0.16287254
0003e0 c7 3f 2a bf bf f3 42 be 60 e9 30 be 33 9e 8d be
       -0.66503567 -0.19038294 -0.17276525 -0.2765976
0003f0 47 66 74 3d 50 7b fe 3d bf 57 46 be 0f 42 ff be
       0.05966785 0.12425864 -0.1936941 -0.49855086

hidden_layers.0.bias f4 [256]
000000 d3 c7 ab 3c 1e 70 8b bd 55 b3 9d 3d e1 27 c3 be
       0.020969307 -0.06808494 0.077002205 -0.38116363
000010 10 9e b2 bb 24 d0 10 3e 94 c3 83 3d 50 f6 a8 bc
       -0.0054509714 0.141419 0.06433788 -0.020625263
000020 ce 01 09 be c3 f8 4e be 01 c1 21 be 35 b4 03 3d
       -0.13379595 -0.20212083 -0.15796281 0.03215428
000030 3b 45 fc bd d8 df ef bd 39 a7 5b be 76 c4 8e be
       -0.12317892 -0.11712617 -0.21450509 -0.27884263
000040 be c4 4d bc 6d c5 a9 bc 45 18 e0 3d 88 67 0a 3d
       -0.012559114 -0.020724023 0.10942129 0.03379014
000050 43 2a 49 be 95 d9 12 3d b3 54 4e bc 33 cf 53 3d
       -0.19645028 0.035852034 -0.012593436 0.051711272
000060 6a 39 b1 3d 85 c8 2c bd 9a a0 ed bb ed 96 17 3d
       0.08653529 -0.042183418 -0.007251811 0.03700917
000070 25 42 d2 be fb cf d5 be 97 0b f6 3b 71 4c bc 3d
       -0.4106609 -0.4176024 0.007508706 0.091942675
000080 69 d2 26 be 88 aa 96 bd c4 3d 13 3e b3 79 d9 bd
       -0.16291203 -0.07356745 0.1437903 -0.106189154
000090 ad fc 34 be 68 46 5a be 76 bf df bd c3 bd bc bd
       -0.17674513 -0.2131592 -0.1092519 -0.09215882
0000a0 5f a9 78 be d7 33 67 be 5e d4 ac bd f7 dd 4f 3e
       -0.2428336 -0.22578369 -0.08438943 0.20299517
0000b0 46 0b a1 3d 6f c0 9d bd d6 17 9b be 90 d3 ce 3d
       0.07863478 -0.077027194 -0.30291623 0.10098946
0000c0 14 5e cf bd 28 7f 41 3e 86 b5 65 bd c3 e4 6e be
       -0.10125366 0.18896163 -0.056081317 -0.23329453
0000d0 09 e5 f7 3d 89 4d 67 3d 38 d3 c6 be 7a 7d df 3d
       0.12104232 0.056470428 -0.38833022 0.10912605
0000e0 cc c9 25 bc ec 8a 72 bd 63 b4 bb bd 91 dc 6f bd
       -0.010118913 -0.059214517 -0.091652654 -0.058559958
0000f0 31 ee da 3d ad c0 bb bd df 25 12 be b5 c4 96 bd
       0.10689963 -0.09167609 -0.14272259 -0.07361738
000100 30 f8 28 bd 07 63 14 3e 41 06 8f 3d 3b 06 20 3e
       -0.041252315 0.14490901 0.06983615 0.15627377
000110 0d 89 b6 3d ab d3 1c 3e 63 0e e9 bd c3 52 ae bd
       0.08912859 0.1531512 -0.11379697 -0.08511879
000120 d3 10 49 3c 61 d5 87 3c e9 be 85 be 2a 94 f3 bc
       0.012272078 0.01658124 -0.26122215 -0.029733736
000130 32 97 64 be cb bc 00 bf b8 86 a2 bd c8 e5 52 be
       -0.22323301 -0.50288075 -0.07935852 -0.20595467
000140 7b 69 20 be 8e 3a 7e bd ba 4d 47 be b3 c2 1f be
       -0.15665238 -0.06206756 -0.19463244 -0.15601616
000150 51 a0 2b be 2f cf d8 bc 0e 6d b4 bc fe dc c5 3d
       -0.16760375 -0.02646598 -0.022024658 0.096612915
000160 a9 e3 b7 bc 0c 01 18 bd e7 21 10 be 3b 45 c8 bd
       -0.022447424 -0.037110373 -0.14075433 -0.0977883
000170 48 67 88 be dc e8 4a 3d b1 98 ad be c6 88 fc 3d
       -0.26641297 0.04953848 -0.33905557 0.12330775
000180 d7 18 0d bd f5 0b 73 be 3b 1c a9 3d 93 dc e3 bc
       -0.034447517 -0.2373503 0.08257338 -0.027815139
000190 62 8f 1e 3b 17 a0 5e 3d ed 7e a9 be 21 7c 8c bd
       0.002419435 0.054351892 -0.3310465 -0.06859613
0001a0 e3 56 cc 3d fa 5f 89 3d f7 b8 25 3e 00 c5 29 3e
       0.0997751 0.06707759 0.1618384 0.16579056
0001b0 45 85 bd be f6 a4 78 be 8f 97 fa b9 ee 73 aa be
       -0.3701574 -0.24281678 -0.00047796636 -0.33291572
0001c0 a9 18 37 3c 2e 1a 86 bd 03 4e 02 3e 33 05 50 be
       0.011175313 -0.06547962 0.12725072 -0.20314483
0001d0 5f eb 96 be 3e ff 57 bd ad 07 db bd a9 37 97 bc
       -0.2947645 -0.052733652 -0.106948234 -0.018459158
0001e0 cc cd 62 be 11 10 3f bd 49 e3 1e be ad 71 98 be
       -0.22148818 -0.04664618 -0.1551639 -0.29774228
0001f0 5d 8c c0 bc e5 19 af 3d d2 3f b6 3d 8d a5 f2 3c
       -0.02350443 0.08549861 0.088988915 0.029619956
000200 24 ef 24 3e 55 8a 88 3e 5a b6 04 bd b7 67 47 be
       0.1610685 0.2666804 -0.032400467 -0.19473158
000210 6b 38 a2 be ca 22 79 3b cb e4 a3 bd 2e ca 27 be
       -0.31683668 0.003801512 -0.08002623 -0.16385719
000220 8f 1f 38 3d bd d5 b2 bd 9d 28 b7 be 1e 89 14 3e
       0.04495197 -0.087321736 -0.35773173 0.14505431
000230 ad 6d 94 be fb 4b 72 3d a2 0f 25 be 57 15 b2 bd
       -0.28989926 0.059154492 -0.16119245 -0.086954765
000240 07 6a d5 bd 61 4d 34 be 77 bd d9 bd 67 73 88 be
       -0.10420614 -0.17607643 -0.10631841 -0.26650545
000250 f5 24 b5 3d 52 63 48 bd c1 a4 28 3d ed 7b 7d 3d
       0.088449396 -0.048922844 0.041172747 0.061885763
000260 d8 2f eb 3d ac ae 2e be ad 92 bf bd 2a 5e 25 be
       0.11483735 -0.1705882 -0.09354148 -0.16149202
000270 94 41 b7 3c b2 e4 98 be dd cb aa 3c a4 f2 89 bd
       0.022370137 -0.2986198 0.020849163 -0.06735733
000280 7f a9 06 3e 66 17 fe 3b bf ad 97 3d 97 1e 51 be
       0.13150595 0.007754254 0.07406186 -0.20421825
000290 cb 28 13 be 21 71 22 be e7 14 96 be 91 00 4a bd
       -0.1437103 -0.15863468 -0.29312822 -0.049316946
0002a0 6e f0 86 3e 00 91 ff bd 61 a7 85 bd 98 19 8b bd
       0.26355308 -0.124788284 -0.065260656 -0.06791991
0002b0 22 c0 1a be ce 44 84 bd 7c 00 2f 3d b2 e2 4e 3e
       -0.15112355 -0.06458436 0.04272507 0.20203665
0002c0 3e 00 1c 3e cb 70 13 be df 15 ca 3d 85 c5 aa be
       0.15234467 -0.14398496 0.09867453 -0.3335382
0002d0 4a 96 ae bc 35 e6 8f 3c 99 46 d1 3b b0 12 27 3d
       -0.021311898 0.017565826 0.0063865897 0.040789306
0002e0 87 50 9d bd 14 da da bd 6c b7 84 bd 27 43 16 be
       -0.07681375 -0.10686126 -0.064802974 -0.14674054
0002f0 0a 04 33 3d 57 0a b9 bd 70 f5 8a bd 58 0c 06 bf
       0.043705024 -0.09035175 -0.06785095 -0.52362585
000300 ac 7a f2 bd ed f1 dc 3d fd 64 d7 bd 3e 0d 57 be
       -0.11839804 0.10788331 -0.10517309 -0.21001145
000310 19 75 24 3e 51 98 3a be 35 ed ca bd 27 2e ad 3d
       0.16060294 -0.18222167 -0.09908525 0.084560685
000320 da 74 0b 3d 9c 92 bb be 34 e9 33 be 7f f7 5c be
       0.034046985 -0.36635292 -0.17569429 -0.21578787
000330 ab e9 c1 be 55 d3 85 be c9 23 2a bd 85 a1 27 be
       -0.37873587 -0.26137796 -0.041538034 -0.16370209
000340 ac e1 3b bd d7 bd d7 bd a4 0e c2 3d d3 60 05 3e
       -0.045869514 -0.10534256 0.09475449 0.13025217
000350 b1 0d c4 bc 92 20 d1 bd 96 8a 8a bd c0 3b 32 bd
       -0.02393231 -0.102112904 -0.067647144 -0.043514013
000360 91 65 2b be 70 df 74 bd 38 59 ce be a6 a1 0b bd
       -0.16737963 -0.0597834 -0.40302444 -0.034089707
000370 c3 e6 2e 3e dd 2e 21 bc a0 dc c2 bd 42 fe 82 be
       0.17080216 -0.009837833 -0.09514737 -0.25584608
000380 09 6b b8 be 15 8f 85 3d 75 75 6e bd 79 41 66 3d
       -0.3601916 0.06521431 -0.058217485 0.056214783
000390 8d f1 e2 bd 38 59 d9 bd 1c 36 b4 bd a5 4c 4b be
       -0.110812284 -0.1061272 -0.08799383 -0.19853456
0003a0 0a 0a 84 3b c0 b8 99 3d 37 36 ba bc db 1b 2a be
       0.004029517 0.075059414 -0.02273093 -0.16612189
0003b0 8f c1 a5 be 68 eb c7 3d 8c 6e 38 be a1 19 67 be
       -0.32374236 0.09761697 -0.1801092 -0.2256837
0003c0 d9 d3 b8 bd b4 84 ab be 87 0d 95 bc c7 01 e9 bd
       -0.09024782 -0.33499682 -0.018194927 -0.11377292
0003d0 cb 16 37 be 18 71 df bd 15 69 6b 3c 37 59 3b 3e
       -0.17879789 -0.10910243 0.014368315 0.18295752
0003e0 a3 9c c6 3d 4e b0 75 be b0 26 15 bf a8 17 28 be
       0.09697845 -0.23993036 -0.5826216 -0.16415274
0003f0 99 08 e8 be dc 94 f3 3c d4 f2 bf be 47 12 8d be
       -0.4531906 0.029734068 -0.3748995 -0.27553007

hidden_layers.1.weight f4 [256, 256]
000000 8d ed 08 be 8b 80 de 3b 06 b0 37 3e 42 65 b3 bd
       -0.13371868 0.006790226 0.17938241 -0.08759548
000010 06 49 21 3d 79 36 04 be 16 22 ff bd 68 2c c6 3b
       0.03937628 -0.12911405 -0.12457673 0.006047774
000020 7a af e1 bd dc b9 95 be 2a 63 af bd 3f 54 c8 bd
       -0.110197976 -0.29243362 -0.08563836 -0.09781694
000030 1a ea 41 bd f5 26 e3 3c 83 65 2f be a8 04 84 be
       -0.047342397 0.027728537 -0.17128567 -0.25784802
000040 23 f6 50 3d 21 4b 71 3d cc 0f 3a be 5d e8 54 bd
       0.051015984 0.05890954 -0.18170089 -0.05197941
000050 84 59 c9 bc 44 a3 a6 bd 21 30 c3 bd 85 96 3f bd
       -0.024578817 -0.08136609 -0.09530664 -0.046774406
000060 2e e2 0e 3e 88 31 3e 3c 95 2b f0 3c 61 b6 4f bd
       0.13953468 0.011608489 0.029317657 -0.05071104
000070 e9 08 0d be 39 a5 d4 bc 52 19 42 bc 1a bc 04 bd
       -0.1377293 -0.02595769 -0.011846857 -0.03240595
000080 54 72 d9 3d cb f4 26 be b7 b7 99 bd dc ee 50 3d
       0.106175095 -0.16304319 -0.07505744 0.051009044
000090 09 2c 05 3e 8d 50 42 be 6e a6 40 be f2 0e 11 3e
       0.1300508 -0.1897604 -0.18813488 0.14165857
0000a0 82 03 42 3e 2d dd d6 3d 35 6c 30 be b1 a2 73 3d
       0.1894665 0.10491405 -0.17228778 0.059481326
0000b0 73 a8 1d be cc 40 b7 3d 41 7e 11 3d da 87 be be
       -0.1539629 0.08947906 0.035520796 -0.37213022
0000c0 f2 24 df 3d ca 6a 15 be 91 12 1f 3c 3c a1 0f 3e
       0.10895719 -0.14591518 0.009709016 0.1402635
0000d0 bf 64 ac bd d0 fb 91 be bf b7 2b be 77 b0 2e be
       -0.08417653 -0.2851243 -0.16769312 -0.17059503
0000e0 a4 f6 b5 bd 1a ee 55 be ba f4 67 bd a3 37 e7 bd
       -0.088849336 -0.2089161 -0.056629874 -0.11289909
0000f0 36 e5 99 bd 66 07 fb 3d a1 ea af bd 75 3a ec 3c
       -0.07514422 0.122572705 -0.08589674 0.028836468
000100 61 c2 a1 be e8 a2 03 be d6 cf 0c 3d 5c 1a 1a 3d
       -0.31593612 -0.12855113 0.034377895 0.037622795
000110 8e ee 8d 3c df 56 69 be f2 b6 28 be c0 69 d6 bd
       0.017325666 -0.22787045 -0.16476038 -0.10469389
000120 cb 15 bf 3c 52 f6 bb bd da e1 3a 3d 9a 9b 19 3d
       0.023325821 -0.09177841 0.045625545 0.03750191
000130 c8 f9 06 be 8b d9 12 bd 4c d8 96 3d 71 ac 55 3e
       -0.13181221 -0.035851996 0.07365474 0.20866562
000140 c1 d4 34 bd fd 60 77 3d e6 ab 3b bd e7 fc 38 be
       -0.04414821 0.06039523 -0.045818232 -0.18065225
000150 8a a9 c1 3e 73 f3 b0 3c ca 04 3b bc 78 a7 a0 bc
       0.3782466 0.02160046 -0.011414716 -0.019611105
000160 e2 72 7a 3e 96 d4 b6 bd 5d 2b fd bc ac 66 7b 3e
       0.24457887 -0.08927266 -0.030904466 0.24550885
000170 30 43 99 be 93 52 1c 3e ff eb 56 be f3 9b 6c be
       -0.29934072 0.15265875 -0.20988463 -0.23106365
000180 e4 7a 29 be ab 3c 85 3e 4f d5 39 3e 18 8b 08 bf
       -0.16550785 0.26022848 0.18147777 -0.5333724
000190 83 66 3b 3e e1 f2 8c bd 59 19 e8 3d 01 51 00 be
       0.18300824 -0.06882263 0.1133296 -0.125309
0001a0 17 42 b1 be 18 4f 41 bc 74 09 8e bb 47 ef 22 be
       -0.34620735 -0.011798643 -0.004334623 -0.1591159
0001b0 77 33 30 3e f7 95 bc 3b dc f3 70 bd 25 18 a8 3d
       0.17207132 0.005755182 -0.058826312 0.0820773
0001c0 f1 d6 19 be 26 88 58 be 3e 77 87 3e 8a cc f5 bd
       -0.150234 -0.21145687 0.26458162 -0.12001903
0001d0 95 04 7a 3e f4 4b dc 3c 4b f8 c0 bd b9 31 20 be
       0.2441581 0.026891686 -0.09422358 -0.15643968
0001e0 89 7a 6d be 04 ac eb bd 62 9d d6 3d 4b 3f ea bc
       -0.23191275 -0.11507419 0.10479237 -0.028594634
0001f0 ea 0e 2f bd 3f c2 c0 3c b8 b0 9b bc f1 5a 08 3d
       -0.042738833 0.023530124 -0.019005165 0.033289853
000200 87 1b 3b 3d db a0 f1 3d cd 7c b9 be 3a d1 c1 bd
       0.04568055 0.11798259 -0.36228028 -0.09463735
000210 82 31 e8 bc 33 34 21 be b7 d8 de 3d b5 3c a1 bd
       -0.02834392 -0.15742569 0.10881179 -0.07872907
000220 08 9f 41 bd b1 ea 09 3e 32 49 ea bd 3a 13 0f bc
       -0.047270805 0.13468434 -0.11439742 -0.008732611
000230 67 bd 86 3d 86 8d 7e 3e a1 d3 de 3d 04 b9 e3 3b
       0.065790944 0.24858674 0.10880209 0.006949546
000240 07 87 8b 3e 85 43 1f 3e 8b 53 9c bd ae 73 23 bd
       0.27251455 0.155531 -0.07633122 -0.039905243
000250 a1 a8 79 bc b9 3a 98 be 25 22 25 3e 47 2b ee 3d
       -0.015237958 -0.29732302 0.16126306 0.11629348
000260 b7 d9 33 be d7 06 07 be 4e 0b 24 be 14 c7 29 be
       -0.1756352 -0.13186203 -0.16019937 -0.16579849
000270 d1 26 8e be 88 50 d7 bd b5 0f 03 3e fa 7c 07 be
       -0.2776399 -0.10513407 0.1279896 -0.13231269
000280 5f 02 02 bc c6 84 be bd 3a af 9d 3d 3a 95 94 be
       -0.007935136 -0.09302668 0.076994374 -0.290201
000290 b9 cd 9e 3d ba a9 27 3d d8 89 3d be 67 f6 07 be
       0.07754082 0.04093335 -0.18509614 -0.13277589
0002a0 a6 31 65 be 4d ae f4 3b 77 a5 5e 3d e5 a8 bf bd
       -0.2238222 0.0074670673 0.05435702 -0.09358386
0002b0 f0 51 73 3e eb a7 6d be 7b 27 a3 bd 8f c9 73 bd
       0.23761725 -0.23208587 -0.07966515 -0.059518393
0002c0 67 39 2a 3d f4 7c 91 be d7 85 4c 3d a6 ee 17 3e
       0.04155865 -0.28415644 0.049932327 0.14837131
0002d0 ee 1d 42 be 5b 86 01 3d d8 84 38 3e a0 e2 af 3d
       -0.1895673 0.031622272 0.18019426 0.08588147
0002e0 ee c1 aa be 38 ef bc 3c bc 85 8c bd 1f c5 59 be
       -0.33351082 0.023063287 -0.06861445 -0.21266602
0002f0 c9 9b c6 bd 93 fd 09 be c3 7f 34 3d 94 96 f7 3d
       -0.096976824 -0.13475637 0.044067156 0.120892674
000300 13 ac 48 bd f0 00 d7 bd a0 e9 55 3e cf cf 7a 3e
       -0.048992228 -0.10498226 0.20889902 0.24493335
000310 a1 5a 87 be a8 3d 6c bd 9e 65 83 3e 30 c1 03 3d
       -0.26436332 -0.057675987 0.25663465 0.03216666
000320 0e 90 2b 3e b0 f9 fc 3d c3 1c b5 3e ff 33 1e 3d
       0.16754171 0.123523116 0.35373506 0.038623806
000330 0e 9a 88 bd 95 02 d6 3d a1 8d 25 be b2 a3 87 3e
       -0.066700086 0.10449711 -0.16167308 0.26492077
000340 ea 66 be 3d 88 57 ca bd d6 fd b5 3d 51 a2 86 bd
       0.09296973 -0.098799765 0.08886306 -0.06573928
000350 77 07 4d be 99 de 4b be a0 c9 d9 be ed 9b 11 3e
       -0.20022379 -0.19909133 -0.4253664 0.14219637
000360 d5 32 81 3e 8a da 04 be 0e 0c 48 be 95 b1 e3 bd
       0.25234094 -0.12973991 -0.19535848 -0.111178555
000370 70 95 9a 3e 11 52 f1 bd 2d 67 1a 3e 4a f3 f0 3d
       0.30192137 -0.11783231 0.15078421 0.11765154
000380 3b 5d 02 be ad fa b3 bd 5c 97 64 be 9b d0 c6 be
       -0.12730877 -0.08788047 -0.22323364 -0.38831028
000390 94 cc c8 bd 32 a7 aa be 6a 21 bc be d2 be 56 3e
       -0.09804645 -0.33330685 -0.36744243 0.2097123
0003a0 1a 74 8e bd 4c 16 16 bf ad 40 d7 bc 40 77 d1 3c
       -0.06955738 -0.5862777 -0.026275957 0.025569558
0003b0 0e 31 04 be 26 f6 da 3d e1 3b 74 be 89 d7 95 be
       -0.12909338 0.1069148 -0.23850967 -0.29266003
0003c0 cd af 86 3d 18 6f f9 3d bf 11 3f bd ca 19 78 be
       0.065765 0.121793926 -0.046647783 -0.24228588
0003d0 5f 30 f0 bd 07 80 90 3d 6a 01 66 be 0a b8 96 bc
       -0.11727976 0.07055669 -0.22461477 -0.018398304
0003e0 bc a3 44 3d 3c c5 2d be b5 7f eb bc c8 94 0e bd
       0.04800771 -0.1696977 -0.028747419 -0.034809858
0003f0 0d d1 aa bd c7 36 18 be 07 3f 8d bd ff 26 23 3c
       -0.083406545 -0.14864646 -0.06896787 0.009958028

hidden_layers.1.bias f4 [256]
000000 ca 6b 3c bd df 27 bf bd a1 15 a7 bd ec 13 c0 bd
       -0.046001233 -0.09333777 -0.08158422 -0.093788
000010 58 7e 06 bd b1 66 2f bd 77 8d 44 bd 33 48 44 bd
       -0.032835335 -0.042822544 -0.047986474 -0.047920417
000020 5a 4e 2d be 95 69 45 be c1 d2 f8 3c fd c3 89 bc
       -0.1692442 -0.19278558 0.030373933 -0.016817087
000030 21 f7 18 3d c3 1c 35 be 38 38 4f be 59 c9 1d bd
       0.037345055 -0.17686753 -0.2023629 -0.0385221
000040 84 ce be bd 2c bf 4f bd 03 53 ab bc 43 2d b4 bd
       -0.093167335 -0.050719425 -0.020913607 -0.087976955
000050 d6 3a 5d bd a2 d9 9b bd 3b 95 06 be ac 34 83 bc
       -0.05401119 -0.076098695 -0.13142864 -0.016016327
000060 ba df af bd d0 03 d5 ba a5 41 a9 bd 1c d6 9f bc
       -0.08587594 -0.0016251747 -0.08264474 -0.019511275
000070 e3 db f4 bd 91 ed dc bd 32 9b bb bd cc c8 06 bd
       -0.119560026 -0.107875 -0.091604605 -0.03290634
000080 b7 04 6b bd 2c 98 1b be cd 19 64 bd d4 f4 8e bd
       -0.057377543 -0.15194768 -0.055688668 -0.06980291
000090 24 5f 56 bd 18 3d e2 bd c0 ac ad bd 1d 3c e3 bc
       -0.052336827 -0.11046809 -0.08480215 -0.027738625
0000a0 3a aa 1d 3c ba 71 5e 3c 35 9b 21 be 86 4f cc be
       0.009623105 0.013576919 -0.15781863 -0.39904422
0000b0 5e 30 97 bd 10 59 51 bc 85 28 a6 bd 08 b2 07 be
       -0.07382272 -0.012777582 -0.08113197 -0.13251507
0000c0 66 f8 6e be 9d 6d 05 be 14 f9 83 bd c0 97 19 be
       -0.23336944 -0.13030095 -0.06443992 -0.14999294
0000d0 c7 68 b6 bd 20 8f ca bd 53 3e 48 bd 9f 7f 8c bd
       -0.089067034 -0.0989058 -0.048887562 -0.06860279
0000e0 2d 57 09 bd 0e 37 3f bd 97 9c 0b 3c 23 d5 5e bd
       -0.033530403 -0.046683364 0.008521221 -0.05440248
0000f0 77 b9 ae bd 7d a3 39 bd 75 f6 31 bd d5 f9 95 bd
       -0.08531468 -0.04532193 -0.04344793 -0.07323042
000100 be f2 08 be e4 d4 c7 bd 13 6e 3c bd 51 0e 33 bd
       -0.13373849 -0.097574025 -0.046003412 -0.043714825
000110 39 9d a5 bd 46 a5 ea bd d7 b7 48 bd cd d5 11 bd
       -0.080866285 -0.11457305 -0.04900345 -0.035604287
000120 de 48 d4 bd 92 c6 db bd 01 34 0a be 35 73 72 bd
       -0.10365461 -0.10731234 -0.134964 -0.0591919
000130 6c 0c 81 bd f3 69 0c bc 55 c2 81 bd 46 1f 06 bd
       -0.063011974 -0.008570182 -0.06335894 -0.03274467
000140 0c d4 3c bd 67 c6 b5 bd 00 9b 83 bd 6a 41 13 3d
       -0.04610066 -0.08875733 -0.06426048 0.035951056
000150 c3 75 72 bd ab 58 b5 bd a3 48 52 bd 4e 23 b8 bd
       -0.059194338 -0.08854803 -0.051338803 -0.08991109
000160 1c c8 2d be 2a 8f ec bd 91 53 a9 bd a2 33 42 bd
       -0.16970867 -0.11550744 -0.08267892 -0.047412522
000170 ae 63 c1 bd ca bf 48 bd e9 b5 cb bd cb b8 9b bd
       -0.094428405 -0.04901103 -0.09946806 -0.07603606
000180 4b 79 38 bb b4 b7 1b be 1d 93 8e bd a3 3d 9e bc
       -0.0028148468 -0.15206796 -0.069616534 -0.0193165
000190 65 83 ba bd a0 b5 0e bd 79 c2 68 bd b1 16 da 3c
       -0.09107093 -0.03484118 -0.05682609 0.026622148
0001a0 fa 05 b7 bd 02 72 e4 bd 14 f1 05 3c 36 0c da bd
       -0.08936687 -0.11154558 0.008175153 -0.1064686
0001b0 cd c9 0e bb 86 5e 73 be 0a b6 6f 3c 51 f8 10 3a
       -0.0021787763 -0.23766527 0.014630804 0.0005530166
0001c0 e7 ff 77 bd ba 82 96 bc 1c 3b fb bd fe 40 01 be
       -0.060546782 -0.018372882 -0.122671336 -0.12622449
0001d0 30 3e 80 3d d3 0a 83 bc d3 12 8a bd 5d e9 d1 bd
       0.06261861 -0.015996372 -0.06741872 -0.10249589
0001e0 41 83 7e bd a0 31 1b 3b 46 c7 21 bd a8 93 bc bd
       -0.062136892 0.0023680702 -0.039496683 -0.09207851
0001f0 38 44 89 bc 48 44 f1 bd f8 a2 9e bc d7 54 f1 bd
       -0.016756162 -0.11780602 -0.019364819 -0.1178376
000200 87 26 ae bd 30 e7 f2 bd 6f 6f f0 bd 87 b3 e7 bd
       -0.08503442 -0.11860502 -0.11740004 -0.11313539
000210 c7 a5 5d bd 68 5d d8 bd 10 e0 8f bd 21 a4 da bd
       -0.054113176 -0.10564691 -0.070251584 -0.10675836
000220 14 3d cc bc 56 a4 12 be 63 a0 a1 bd 75 b6 f4 bd
       -0.024931468 -0.14320502 -0.078919195 -0.119488634
000230 29 b3 96 bd 19 cc 35 bd 4b f6 53 bd 55 a6 f1 bc
       -0.07358391 -0.044384096 -0.051748555 -0.029498259
000240 0f 2c 07 be cf 9d 21 3d 5f 58 b2 bd 35 87 ab bc
       -0.13200401 0.03945714 -0.08708262 -0.020938495
000250 51 3d 10 bd bf b7 84 bd 50 ed b3 bc 62 fd bc bd
       -0.035214726 -0.06480359 -0.021963745 -0.092280164
000260 95 10 dd bc 49 16 94 bd 04 ef 7c 3c b7 33 ec bd
       -0.026985446 -0.07230813 0.015437845 -0.11533301
000270 82 88 30 bc 70 12 ca bd 78 e6 21 bd 38 ac b1 bd
       -0.0107747335 -0.09866798 -0.039526433 -0.08675426
000280 bd 16 90 bd 0e c7 07 be db 3a 9c bd dc b4 9c bd
       -0.07035587 -0.13259527 -0.07628413 -0.07651684
000290 c2 75 4d bc 11 68 6e bd fc 04 4c bd 79 88 ee bd
       -0.012540283 -0.058204714 -0.04980944 -0.11647124
0002a0 bb 9d 06 bd e2 27 5a bd 6c 33 01 be 3a d1 aa bd
       -0.032865267 -0.05326069 -0.12617272 -0.08340688
0002b0 c1 58 7e bc 47 36 aa bd 80 84 fd bd 0d 39 35 bd
       -0.01552409 -0.08311134 -0.12378788 -0.04424386
0002c0 95 e8 85 bd da ba 19 3c 04 ac 8c bd 99 f9 ef bd
       -0.06538502 0.009382928 -0.06868747 -0.11717529
0002d0 03 19 98 3c 39 17 f0 bc 55 97 61 bd f7 73 53 bd
       0.018566614 -0.029307948 -0.055075962 -0.051624265
0002e0 07 c9 b4 bd f2 66 51 3c 59 87 cc bd 75 bd e2 bd
       -0.088274054 0.012780892 -0.09986753 -0.11071292
0002f0 70 38 45 3c 0d 48 6d 3d 5e 81 b7 bd 18 cd 08 3c
       0.0120373815 0.05793004 -0.08960222 0.008349679
000300 a9 af 03 bd ab 3b 31 be 8d ce b8 bd 6e 35 a2 bd
       -0.032149944 -0.17307918 -0.090237714 -0.07920347
000310 b6 86 19 be 4d f1 3b be c6 79 86 bd 8c 20 ee bd
       -0.14992794 -0.18353768 -0.06566195 -0.116273016
000320 67 11 b3 bd 45 a5 25 be 5c 03 0a bd e0 c4 c0 bc
       -0.087435536 -0.16176327 -0.03369461 -0.023531377
000330 46 af 15 3c c3 93 af 3c 95 31 a0 bd 68 0e 28 bd
       0.009136027 0.021432763 -0.07821957 -0.041029364
000340 7f 0b dc bd 4c ef 83 bd 7c 50 2c bd 6b 83 08 be
       -0.1074438 -0.06442127 -0.042068943 -0.13331382
000350 f7 43 ea bd 56 f2 57 bd 5c c6 63 bd 28 c9 c5 bd
       -0.114387445 -0.052721344 -0.055609092 -0.09657508
000360 09 6d 27 bd 1a 4f 0a bd 85 65 e2 bd 53 26 48 bd
       -0.04087547 -0.033766843 -0.110545196 -0.048864674
000370 21 2d 4b bd bb ae 70 bd 7a 71 36 bd d9 16 8f bc
       -0.049603585 -0.058760386 -0.044541813 -0.01746695
000380 b7 e9 a4 be 41 49 bd bd a1 01 e1 bd 28 d9 f2 bb
       -0.3220956 -0.09242488 -0.10986639 -0.007411141
000390 ef ae 0a be 62 ac 9c bd 17 38 60 bd 0a 7b 4a bd
       -0.13543294 -0.07650067 -0.05474099 -0.049433745
0003a0 3f 44 bc bd 60 bc 9c bc 6a 64 53 ba 60 97 6d bd
       -0.091927044 -0.019132793 -0.0008063974 -0.05800569
0003b0 08 a7 ca bd 57 26 9a bd 8c 9f 53 bd e0 3c 25 be
       -0.0989514 -0.07526844 -0.051665828 -0.16136503
0003c0 d6 71 56 bd 7f cb 48 bc fc fe b7 bd 36 35 17 3c
       -0.052354656 -0.0122555485 -0.08984181 0.009228995
0003d0 60 b4 b2 bd 02 c5 62 be ba 6c 22 bd 55 1d 68 be
       -0.0872581 -0.22145465 -0.03965447 -0.2266744
0003e0 5e 29 07 be c6 17 46 be c8 7c 82 bd d4 df 16 bd
       -0.13199374 -0.19345006 -0.063714564 -0.036834553
0003f0 8d 0f 8a bd eb fd 2a bd 41 5d e9 bd 9e 77 b2 bc
       -0.06741247 -0.04174606 -0.1139474 -0.021785554

output_layers.0.weight f4 [40, 256]
000000 04 7b ed 3d 1b 76 57 3e fd 6e b8 be 80 45 0e bd
       0.11595729 0.21041147 -0.36022177 -0.03473425
000010 da 12 14 3e ed 58 b7 bc 7d 87 a9 bd 6a 17 a3 be
       0.14460316 -0.02238127 -0.082777955 -0.318538
000020 03 a3 91 be 55 9e 00 be 24 62 8d 3c 49 30 fc bb
       -0.2844468 -0.12560399 0.017258711 -0.0076961857
000030 1d 08 68 3d 5b 20 09 bf a1 fb 2c 3d 13 69 b3 bc
       0.056648362 -0.53564996 0.04223216 -0.02190069
000040 0a ac 1c bc 52 29 0a 3f d3 5d 90 bc 47 11 d5 3d
       -0.009562502 0.539693 -0.017622864 0.10403686
000050 56 9a a2 3d b0 d6 57 be 06 92 a5 bd b7 5d c8 bc
       0.079395935 -0.2107799 -0.080844924 -0.02445875
000060 54 b4 6b 3b b0 87 d7 bd 2e 6f e9 bd b7 a4 35 be
       0.0035965638 -0.10523927 -0.11398159 -0.17738615
000070 49 c7 59 3e 2e 31 8a bc 85 87 11 3e aa ef c7 3b
       0.21267428 -0.016869154 0.14211853 0.006101568
000080 45 0a 07 3d 93 c0 34 ba 48 6a a3 3c ad 0f ab 3c
       0.03296878 -0.0006895151 0.01994814 0.020881498
000090 bc f7 c3 be 52 59 1e bf 17 d0 d7 bc 11 51 01 be
       -0.38274944 -0.6185504 -0.026344342 -0.1262858
0000a0 58 0a 56 bd 24 a5 53 bd 0c e3 c6 be f1 cb e4 be
       -0.05225596 -0.051671162 -0.38845098 -0.44686845
0000b0 c9 e7 8f 3e 70 c6 8b be e3 6c b1 be 08 aa 84 bd
       0.28106526 -0.27299833 -0.34653386 -0.064777434
0000c0 d1 1f 17 be 66 06 64 be 3c dd 3b bd f1 bb ea 3e
       -0.14758231 -0.22268066 -0.045865282 0.45846513
0000d0 d4 be 04 be 23 99 23 3e 82 69 32 bd bc 49 65 3e
       -0.1296342 0.15976386 -0.04355765 0.22391409
0000e0 a3 2c 52 be d3 d2 29 be 21 a1 0b 3e 50 ef 90 3e
       -0.2052484 -0.1658433 0.13635685 0.2830758
0000f0 01 d1 e0 bb d5 be c3 bd 4f c7 14 be 31 24 06 3e
       -0.0068608527 -0.09557883 -0.14529155 0.13099743
000100 8e 0d e0 bd 49 91 50 bd e4 15 cc bd e5 7c dd bd
       -0.10940085 -0.050919805 -0.09965113 -0.10814837
000110 2b 34 36 3d 4a 05 4d 3e ea a3 2f 3c 46 5a 0c be
       0.044483345 0.20021549 0.0107202325 -0.13706312
000120 d4 dd 76 3e 0d 36 90 3d 66 bf 3f be c1 48 f7 ba
       0.24108058 0.07041559 -0.18725356 -0.0018866287
000130 ab 83 74 be aa 40 1f be 81 a4 02 3e b9 c4 77 be
       -0.23878352 -0.15552011 0.12758066 -0.24196137
000140 25 f6 99 be 5e 50 a1 bd 8c 9f 19 bf 97 c2 af 3d
       -0.30070606 -0.07876657 -0.60009074 0.08582037
000150 9b 73 10 be 5b bd 38 be cd dc e1 3d bc 29 1c bd
       -0.141066 -0.18040983 0.110284425 -0.03812574
000160 38 df 6f bd 44 8d aa be 36 77 8e bd 04 4e 5a be
       -0.058562487 -0.33310902 -0.069563314 -0.21318823
000170 5a 0c 2c 3e c2 25 2f be fd 59 df be c1 99 13 bd
       0.16801587 -0.17104247 -0.43623343 -0.036035303
000180 18 1d 96 be 27 a7 ac bd 21 3e 21 be 36 a8 b5 bd
       -0.29319072 -0.08430319 -0.15746357 -0.08869974
000190 e5 b1 83 be 8a 50 77 3c f6 7f f9 3d a1 f1 a1 3e
       -0.2572166 0.015094886 0.1218261 0.3162966
0001a0 ac 9e f3 bd ac e4 9d bd 5a 45 02 3d 25 6a 0b 3e
       -0.11895499 -0.07709631 0.03180442 0.1361471
0001b0 ea 6a 20 bd 4a df b5 be e9 67 ad 3e c9 49 80 be
       -0.03916446 -0.3552192 0.3386834 -0.25056294
0001c0 23 ed 80 be 66 1c 39 bd 2a bf 83 be 4f 57 10 bd
       -0.2518092 -0.0451931 -0.25731784 -0.035239514
0001d0 f4 40 b9 3d 3d f3 99 bd a0 f1 5d 3d 86 98 6a be
       0.09045592 -0.07517097 0.05418551 -0.22909746
0001e0 17 2c 71 be fd 05 68 be 0b 80 f7 bd bd 6c 1f bd
       -0.23551975 -0.22658534 -0.12084969 -0.03892206
0001f0 7f 1b 9d be f8 e0 52 be b7 33 c2 bd 53 80 05 be
       -0.3068504 -0.20593631 -0.0948252 -0.13037233
000200 b7 ef 82 bd 5d 00 06 be d5 80 d3 be ed c5 fa 3c
       -0.06393378 -0.13086076 -0.4130923 0.030611956
000210 0e d8 33 be 75 02 98 bd 66 e7 d3 3e 5d 41 3f 3d
       -0.17562887 -0.07422344 0.4138748 0.046693195
000220 5f 80 6b be 79 f5 d6 bd c2 2e a4 3d 2d f9 d3 3d
       -0.22998188 -0.10496039 0.08016731 0.10350261
000230 8b 79 03 bf 4e fc 69 be 2c 33 b0 bd b8 3a ac bc
       -0.51357335 -0.22850153 -0.0860351 -0.021024093
000240 64 34 b0 be b3 e0 ad bd f2 fb 18 be 60 b9 16 bf
       -0.3441497 -0.084901236 -0.1493986 -0.5887661
000250 3b aa 42 be 7a a5 62 be 51 1b 64 3d 5a 92 2c be
       -0.1901025 -0.22133437 0.055690113 -0.16852704
000260 b9 b3 26 be 3e 9d b8 3b 14 ce 34 be 48 ef eb 3e
       -0.16279496 0.005633979 -0.17656738 0.46080995
000270 5a 96 cc bd 87 1f 48 be f8 20 22 3d c1 f6 83 3d
       -0.09989615 -0.19543277 0.039582223 0.06443549
000280 6d 98 7b bb db 20 f1 bd 34 37 ab bc 03 e2 a8 bd
       -0.0038390413 -0.11773845 -0.020900346 -0.08246233
000290 ea a9 e4 bc d9 07 80 bd 9a e7 d6 3b e1 ff 68 be
       -0.027913053 -0.06251497 0.006558371 -0.2275386
0002a0 12 2b 06 3e 3b 17 a0 3e 96 f5 c3 bc 6c 37 15 3d
       0.13102368 0.31267723 -0.023920815 0.036429808
0002b0 d7 94 92 be dd 77 45 be 82 39 39 bd 52 2d 4e bd
       -0.2862918 -0.19284005 -0.04522086 -0.05033619
0002c0 00 d4 29 be e8 f1 6d bd 78 cc 7e bb 2b 66 85 be
       -0.16584778 -0.058092028 -0.0038879197 -0.2605451
0002d0 11 05 49 3d b6 52 96 bd 73 85 30 bd ff 5a 0f be
       0.049077097 -0.073399946 -0.043096017 -0.13999556
0002e0 18 0a b5 3d 39 1c ac be 9f f6 0a bf e0 cd 84 ba
       0.08839816 -0.33615282 -0.54282564 -0.0010132156
0002f0 7d c7 23 be 19 25 28 be 48 33 1c bd 47 54 a7 bd
       -0.15994067 -0.16420402 -0.038134843 -0.081703715
000300 3e da ec be 5a bc e4 bd f3 d0 b9 bc bd 40 00 3d
       -0.46260256 -0.11168738 -0.022682643 0.03131174
000310 09 e3 20 be 87 87 66 be e1 54 04 be 41 8f 1e bd
       -0.15711607 -0.22512637 -0.12923004 -0.038710836
000320 8e d6 a4 3d 7c 4e 5e bd fc 5d 00 be 3a 37 4e 3d
       0.080487356 -0.054274067 -0.12535852 0.050345637
000330 de c9 4d be 29 c8 ab be f1 4a 85 be f0 09 07 bd
       -0.20096537 -0.33551148 -0.26033738 -0.03296846
000340 28 dd c0 bc 51 d7 30 3e 3a f4 9a be 08 57 47 3e
       -0.023542956 0.17269637 -0.30264455 0.19466794
000350 a1 6e 79 be 2e 30 bf 3c 4f 76 ce bc 5c d2 7c be
       -0.24358608 0.023338404 -0.025202898 -0.2468962
000360 2d b4 4a bc 4c 18 39 3d c5 c8 b4 be a4 cf 93 be
       -0.012372059 0.045189187 -0.35309425 -0.28869355
000370 a7 b7 a3 bd dc 5a cf bd 0b b5 ef bd fc 0b 92 3e
       -0.07994013 -0.10124752 -0.11704453 0.28524768
000380 1a 81 ce be 2c 9e 50 bd 5e 2f 4f be 80 51 6c be
       -0.40332872 -0.050932094 -0.20232913 -0.23077965
000390 a0 e7 b0 be 70 b5 8a be 32 8b 0b 3e 2f 5a 54 be
       -0.34551716 -0.2709155 0.13627318 -0.20737527
0003a0 1f bd fb be 48 5c 9b be cb a6 2a 3d 0f 84 5a bd
       -0.49167725 -0.30343843 0.041662972 -0.053348597
0003b0 0a ac 5d be 94 d2 4f 3d cc ce 37 be a0 1c 84 bb
       -0.21647659 0.050737932 -0.1794998 -0.0040317327
0003c0 bf 27 9a 3e ed 8e 1f be 6e 0f 2e 3e d7 ed 1f be
       0.3010845 -0.15581866 0.16998073 -0.15618072
0003d0 29 d0 bb be d5 48 1e bf 38 57 03 bd 7b 3e 89 be
       -0.3668225 -0.6182988 -0.0320656 -0.2680548
0003e0 45 6d 6d be bd 22 aa be 90 c0 90 3c ed df fa bd
       -0.23186214 -0.33229628 0.017669946 -0.12249742
0003f0 64 bc 3c be 43 e7 8e be f3 60 05 be 8b 56 52 be
       -0.1843124 -0.27910814 -0.13025264 -0.20540826

output_layers.0.bias f4 [40]
000000 14 d5 2a bf 30 a8 28 3f 7c 25 1b bf d6 6a 13 bf
       -0.6673138 0.65881634 -0.6060407 -0.57584894
000010 a3 7f aa 3e 5c 44 96 3d ac ce 66 3c 8c 74 26 bf
       0.33300504 0.07337257 0.01408736 -0.65021586
000020 64 9f ad 3d de 3f 97 3d 3e cc bc 3d 37 ba b3 be
       0.08477667 0.073852286 0.092186436 -0.35103008
000030 7e 26 9f 3e 08 7a ad 3e 46 b0 81 3e 9f 92 b1 3d
       0.31084055 0.33882165 0.25329798 0.08670544
000040 9b 07 93 3e 81 6b 11 3f 0f 40 be 3e 00 af 11 3f
       0.2871674 0.5680466 0.37158248 0.56907654
000050 03 77 a1 3e af 60 84 3e d7 57 a2 3d 65 54 69 3e
       0.3153611 0.25855014 0.0792691 0.227861
000060 72 18 e2 3d 4f 42 81 3e 65 80 87 3e ea 80 9b 3e
       0.11039819 0.25245902 0.26465145 0.3037179
000070 1f 64 01 3f 7d 69 c1 be 84 04 af 3e b3 5f a2 3e
       0.505434 -0.37775794 0.34183133 0.31713638
000080 ef c6 a6 3e 47 d3 26 bf c5 a4 61 3e ee e8 29 3e
       0.3257365 -0.65166134 0.22035511 0.16592762
000090 df f7 19 bf b2 a5 9b 3c d8 4d 27 bf c5 6b 0a 3f
       -0.60143846 0.018999908 -0.65353155 0.54070693
