MODELS/REWARD COMPARISON/SAC MASKED MODELS/11_2_actor_local_network.pt (torch, 411295 bytes, 6 tensors)

hidden_layers.0.weight f4 [256, 101]
0	0xbd911665	-0.070843495
1	0x3db4064d	0.08790264
2	0xbd0aeefc	-0.03391932
3	0x3e435af7	0.19077669
4	0x3d2d6498	0.04233226
5	0xbe486031	-0.19567944
6	0xbea0b576	-0.31388444
7	0xbe62a085	-0.22131546
8	0xbe293ba5	-0.16526659
9	0xbdb16735	-0.08662263
10	0x3c9078a0	0.017635643
11	0xbcb1cfdf	-0.021705566
12	0x3d63e180	0.055634975
13	0x3e0e5399	0.13899077
14	0x3d75e7a1	0.06003535
15	0x3ec75b38	0.38936782
16	0xbdeb2837	-0.1148228
17	0x3dbcaa0e	0.09212123
18	0xbe6f1921	-0.2334943
19	0xbf384026	-0.7197288
20	0x3e2fb895	0.17160256
21	0x3d19a3cd	0.03750973
22	0x3edd66f2	0.43242604
23	0x3ec18799	0.37798765
24	0x3c94f3fc	0.018182747
25	0x3e98dbac	0.29855096
26	0x3e1b1158	0.15143335
27	0x3edb9979	0.42890528
28	0x3c13e812	0.009027498
29	0x3df23c35	0.1182789
30	0xbcb79780	-0.022411108
31	0xbd28b2f8	-0.041186303
32	0xbd860376	-0.06543629
33	0x3e0aefc1	0.13568021
34	0xbc742e97	-0.014903686
35	0x3eb64678	0.35600638
36	0xbe6d8515	-0.23195298
37	0x3e24a20b	0.1607744
38	0x3e957fc3	0.29199037
39	0x3de03c9c	0.1094906
40	0x3e234617	0.15944706
41	0x3e5575db	0.2084574
42	0x3d2382c4	0.03991963
43	0x3cdbfe54	0.026854672
44	0xbde38364	-0.11109045
45	0x3e2ba3b3	0.16761665
46	0xbe1073c1	-0.14106657
47	0xbea370e0	-0.31922054
48	0xbec510f9	-0.38489512
49	0x3bb1c2a3	0.005424814
50	0xbde2b709	-0.110700674
51	0x3d981fac	0.07427916
52	0x3d8eb595	0.06968228
53	0x3e0cb9f2	0.13742808
54	0x3e0338e6	0.12814674
55	0x3db20cc4	0.08693841
56	0xbe2bc34c	-0.16773719
57	0xbe53ccab	-0.20683543
58	0xbe8e138a	-0.27749282
59	0x3c9164b5	0.017748216
60	0xbe40e85a	-0.18838635
61	0x3d915391	0.07096017
62	0x3e42388b	0.18966882
63	0x3ef4abfd	0.47787467
64	0x3eed67e9	0.4636834
65	0x3ea465dc	0.32108963
66	0xbe13cd3c	-0.1443376
67	0xbde933a7	-0.11386805
68	0xbd39be0c	-0.04534726
69	0x3d9244a3	0.07141998
70	0x3dfa3f99	0.122191615
71	0x3d0a2030	0.033722103
72	0xbe2678bc	-0.16256994
73	0xbdc24813	-0.09486403
74	0x3e9877c5	0.29778877
75	0xbec1870f	-0.37798354
76	0x3ccc4e35	0.024939636
77	0x3d7f6e09	0.062360797
78	0xbe883353	-0.26601657
79	0xbe4f185f	-0.2022414
80	0xbc24589b	-0.010030891
81	0xbde3b5d4	-0.11118665
82	0xbeb364a6	-0.35037726
83	0xbe21a209	-0.15784468
84	0x3d264872	0.040596433
85	0x3d55ef50	0.05223018
86	0xbe2a64b8	-0.16639984
87	0xbe243126	-0.16034374
88	0xbea3b274	-0.31972086
89	0x3e09008b	0.13379113
90	0x3da267ae	0.079299316
91	0xbb79504a	-0.003804224
92	0xbe9c13f4	-0.30483973
93	0xbe59e617	-0.21279179
94	0xbd8be299	-0.068303294
95	0xbee0f558	-0.43937182
96	0x3d9aa8e2	0.07551743
97	0x3e94ecc9	0.29086903
98	0x3e953e64	0.29149163
99	0x3e8f7833	0.28021392
100	0xbe05a6a9	-0.13051857
101	0x3dc73a3f	0.097279064
102	0xbdf19242	-0.117954746
103	0x3ca924b3	0.020647382
104	0xbd7a5dca	-0.0611246
105	0xbf1653f8	-0.58721876
106	0xbe829cd5	-0.25510278
107	0x3c631fb7	0.013862542
108	0x3cd32a8d	0.025777126
109	0xbc0fadfe	-0.00876951
110	0x3d2a89a8	0.041635185
111	0x3d01ccf7	0.03168961
112	0xbf107439	-0.5642734
113	0x3da1479f	0.07874989
114	0xbe0ba929	-0.13638748
115	0xbdcece2f	-0.1009792
116	0x3d1b7c41	0.037960295
117	0xbe051ae1	-0.12998535
118	0x3e6e059b	0.23244326
119	0xbe0904d0	-0.13380742
120	0x3e34ed2e	0.17668602
121	0xbcbc8289	-0.023011463
122	0x3d6a5779	0.057212327
123	0x3e31cc91	0.17363192
124	0x3e02c9de	0.12772319
125	0x3d3b668c	0.045752093
126	0xbe8ee774	-0.2791096
127	0xbc19c36a	-0.009384969
128	0x3e8ba618	0.27275157
129	0x3e707b58	0.23484552
130	0x3d742775	0.05960794
131	0xbe835379	-0.25649622
132	0x3dfc040c	0.123054594
133	0x3e26581e	0.16244552
134	0x3e45f64a	0.19332233
135	0x3d88c2c4	0.066777736
136	0xbe709a68	-0.23496401
137	0xbdf4e3fa	-0.119575456
138	0xbb09d626	-0.0021032183
139	0x3ee62cd8	0.44956088
140	0x3db0fc3c	0.0864186
141	0xbd931306	-0.07181363
142	0x3d5d74a6	0.054066323
143	0x3d4269c7	0.04746416
144	0xbe8dbab6	-0.27681512
145	0x3e5ccbae	0.21562073
146	0x3e34e907	0.17667018
147	0xbdf465ed	-0.11933503
148	0xbd17c3ff	-0.03705215
149	0x3c957bd4	0.018247522
150	0xbdeefe49	-0.11669595
151	0x3ccc532e	0.024942007
152	0xbce8cb96	-0.02841739
153	0xbe4f19e0	-0.20224714
154	0xbe79399d	-0.24338384
155	0xbde6cb66	-0.11269264
156	0xbd63dbcb	-0.055629533
157	0x3ed3a348	0.4133551
158	0xbe7cbe67	-0.24682008
159	0xbe85119a	-0.2598999
160	0xbe64269d	-0.22280355
161	0x3dc12c0b	0.09432229
162	0xbe74355e	-0.23848483
163	0xbd58657f	-0.05283117
164	0xbf00b9d5	-0.5028356
165	0xbce2ae38	-0.027670965
166	0xbe9bf357	-0.3045909
167	0xbe8a7488	-0.2704203
168	0xbe631bd5	-0.22178586
169	0xbe848513	-0.25882778
170	0xbc8c1e19	-0.017104195
171	0x3d4def3e	0.050276987
172	0xbec3a736	-0.3821351
173	0xbeb4da14	-0.3532263
174	0xbe66a55f	-0.22524022
175	0xbe0754a6	-0.13215885
176	0xbf16b380	-0.58867645
177	0xbef08007	-0.46972677
178	0xbe778864	-0.24173123
179	0x3e3c6237	0.18396841
180	0xbd9ac195	-0.07556454
181	0x3dff756b	0.124735676
182	0xbe4bafea	-0.19891325
183	0xbe922459	-0.28543356
184	0xbec3f525	-0.38272968
185	0xbecf2256	-0.40455884
186	0x3e03ab25	0.12858255
187	0x3d593656	0.053030334
188	0xbe02533e	-0.12727067
189	0xbea7bbe1	-0.32760528
190	0xbe919967	-0.2843735
191	0xbe0d05e8	-0.13771784
192	0xbe30418b	-0.17212503
193	0xbe7c7ed7	-0.2465776
194	0xbeacafa8	-0.33727765
195	0xbed3876e	-0.41314262
196	0xbeca5c18	-0.39523387
197	0x3ca2925a	0.019845176
198	0x3e27df3d	0.16393752
199	0xbe82ea21	-0.2556925
200	0x3e8bfd57	0.2734172
201	0xbe534596	-0.20632014
202	0x3e03fd1d	0.12889524
203	0xbc60a5e0	-0.013711423
204	0xbe810b67	-0.25204012
205	0xbd987c2f	-0.07445561
206	0xbc97a687	-0.018512024
207	0xbc3d3abc	-0.011549648
208	0xbe821df5	-0.2541348
209	0xbebb2eaf	-0.36559054
210	0xbadd4e6d	-0.0016884335
211	0x3dfcafd0	0.12338221
212	0x3e50cce0	0.20390654
213	0x3e10a99c	0.14127201
214	0xbd685204	-0.05671884
215	0xbe145fbd	-0.14489646
216	0xbcf0516f	-0.029335706
217	0xbea1e7bb	-0.3162211
218	0xbe64aef9	-0.22332372
219	0xbe88da68	-0.2672913
220	0xbeea3154	-0.4574076
221	0xbe983e95	-0.29735246
222	0x3b0b645e	0.002126954
223	0xbb5c1b03	-0.0033585436
224	0x3da998a8	0.0828107
225	0xbe29c4dc	-0.16579002
226	0xbee74f02	-0.45177466
227	0xbe74261a	-0.2384266
228	0x3cde9b65	0.027173707
229	0xbd89395f	-0.06700396
230	0xbed6541d	-0.41861048
231	0x3dd9acf1	0.10628689
232	0xbdbed12e	-0.093172416
233	0xbe4cf274	-0.20014364
234	0xbeaa16d6	-0.33220547
235	0xbe79f1a7	-0.2440859
236	0xbe81fd4d	-0.25388566
237	0xbc80e017	-0.015731854
238	0xbf065e67	-0.52487797
239	0xbe0da0f1	-0.13830926
240	0xbe56c456	-0.20973334
241	0xbe80d813	-0.25164852
242	0xbe56597b	-0.20932572
243	0xbd37d19e	-0.04487764
244	0xbe69969e	-0.22811362
245	0xbe7e8a00	-0.2485733
246	0xbee611ff	-0.44935605
247	0xbb36bc03	-0.002788306
248	0xbe93c1ad	-0.288587
249	0xbf067aa9	-0.52530915
250	0xbe7f9c9a	-0.24962083
251	0x3db981b0	0.09057939
252	0x3d8dc304	0.06921962
253	0x3b8cce95	0.0042970874
254	0xbe851d63	-0.25998983
255	0x3d4be254	0.04977639

hidden_layers.0.bias f4 [256]
0	0xbe1d6b95	-0.1537307
1	0xbdc6a862	-0.09700085
2	0x3e7e56f9	0.24837865
3	0xbe8f7db6	-0.28025597
4	0xbea67d11	-0.32517293
5	0xbe2146b0	-0.15749621
6	0xbcb5432a	-0.022126753
7	0xbe3c1bc5	-0.18369968
8	0xbe6d26c3	-0.23159318
9	0x3ae211be	0.0017247719
10	0x3e19776f	0.14986967
11	0x3b4ac438	0.003093971
12	0xbe1e2f58	-0.15447748
13	0xbdd2ad41	-0.10286952
14	0xbe2c6b18	-0.16837728
15	0x3da18a0c	0.078876585
16	0xbd77f126	-0.06053271
17	0xbe55dc31	-0.20884778
18	0xbeb7dcfc	-0.35910785
19	0x3da02e3d	0.07821319
20	0xbe1b1eea	-0.15148512
21	0xbec03f7e	-0.3754844
22	0xbdde08e9	-0.10841543
23	0xbd36ce35	-0.044630248
24	0xbe2aa0c2	-0.16662887
25	0x3d0e11f7	0.0346851
26	0xbe4a2169	-0.19739307
27	0x3db908e6	0.090349
28	0xbd8f679b	-0.07002183
29	0xbe5fcb9a	-0.21855012
30	0xbb9e62c2	-0.00483355
31	0xbeb8f2bc	-0.36122692
32	0x3c790add	0.015200344
33	0xbe3440fd	-0.17602916
34	0xbea111d3	-0.3145891
35	0xbe21df54	-0.15807849
36	0x3da9bcc0	0.08287954
37	0xbdc20be4	-0.09474924
38	0xbdde5134	-0.10855332
39	0x3db18536	0.08667986
40	0x3d5006bf	0.050787684
41	0xbed17fe1	-0.40917876
42	0x3d6c0be2	0.05762852
43	0xbe0a4d8c	-0.13506144
44	0x3dc17db2	0.094478026
45	0x3e03e783	0.12881283
46	0xbca79457	-0.020456476
47	0x3dd87cf5	0.10570709
48	0x3c13a1aa	0.009010712
49	0xbe5c6f43	-0.21526818
50	0xbe8de1ce	-0.27711338
51	0xbb7659e7	-0.0037590207
52	0x3d4cc27f	0.049990173
53	0xbe378b60	-0.17924261
54	0x3c980c04	0.018560417
55	0xbdb73215	-0.08945099
56	0xbcd0149a	-0.025400449
57	0xbe9111e5	-0.28333965
58	0xbe18decb	-0.14928739
59	0xbe2915f1	-0.16512276
60	0xbeb05e37	-0.3444688
61	0xbdd1bd8b	-0.102412306
62	0x3d9e50a5	0.077302255
63	0xbe2a6fb7	-0.16644178
64	0xbd9829cc	-0.07429847
65	0xbdf28a16	-0.11842744
66	0xbe5fc711	-0.21853282
67	0x3e3910f7	0.18072878
68	0x3d878f4c	0.066191286
69	0xbe6289d8	-0.22122896
70	0x3e07d357	0.13264214
71	0x3e6d59fb	0.23178856
72	0xbe8a03f4	-0.2695614
73	0xbd0b387c	-0.033989415
74	0x3d844bb3	0.06459751
75	0xbeb25961	-0.34833816
76	0xbe614007	-0.2199708
77	0x3e4d4c92	0.2004874
78	0x3dabaee2	0.083829656
79	0xbe2decf6	-0.16984925
80	0xbddecb82	-0.1087866
81	0xbcaf25b6	-0.021380287
82	0x3d18fb2e	0.03734892
83	0xbe09b8dd	-0.13449426
84	0xbe127e2b	-0.14305942
85	0x3d89f1aa	0.06735547
86	0xbe673e9d	-0.22582479
87	0xbe6698bc	-0.22519201
88	0x3cc40874	0.023929812
89	0xbe02a3c9	-0.12757792
90	0xbe925a4d	-0.2858452
91	0xbd66272f	-0.056189712
92	0x3d33e898	0.04392299
93	0xbe9565e7	-0.29179308
94	0x3e1d95c6	0.15389165
95	0xbd8f9e64	-0.070126325
96	0xbb9f3df7	-0.0048596817
97	0x3e16e39c	0.14735264
98	0xbe5e2f87	-0.21697818
99	0xbe01dfe0	-0.12683058
100	0x3e0cf97a	0.13767043
101	0x3d8d38b6	0.068955824
102	0x3c1f552d	0.009724897
103	0x3cd66aa1	0.026173891
104	0x3d397316	0.04527577
105	0x3d39865f	0.045294162
106	0xbd4a58a7	-0.04940095
107	0xbddb4a13	-0.10707488
108	0xbd2bf7a6	-0.041984223
109	0xbe26b514	-0.16280013
110	0x3dc9049c	0.09815332
111	0xbc09e59c	-0.00841656
112	0x3dad93e5	0.08475474
113	0xbdee9d49	-0.116510935
114	0xbe643759	-0.22286738
115	0x3d54d289	0.051958594
116	0x3d6e4299	0.05816898
117	0xbe8b31ba	-0.27186376
118	0x3e2999ae	0.1656253
119	0xbdd6e817	-0.104934864
120	0xbbb5a767	-0.0055436376
121	0xbddec64f	-0.10877668
122	0xbe8e8968	-0.27839208
123	0xbe177042	-0.14788917
124	0xbe876cd2	-0.2645021
125	0xbcf4d435	-0.029886344
126	0xbdc12c22	-0.09432246
127	0x3dbe9344	0.093054324
128	0xb890e059	-6.908243e-05
129	0xbde3b06d	-0.11117635
130	0xbdc04936	-0.09388964
131	0x3cde9d6a	0.02717467
132	0xbe19dc63	-0.15025477
133	0x3dc1d89a	0.094651416
134	0xbe036517	-0.12831531
135	0xbe71fe53	-0.23632173
136	0x3e363bd7	0.17796265
137	0x3e025e4c	0.12731284
138	0x3e789cad	0.24278517
139	0x3d9bf487	0.07614999
140	0xbdc9c7da	-0.09852572
141	0x3d0a3a69	0.03374711
142	0xbb3fea9e	-0.002928413
143	0x3c9fdd3a	0.019514669
144	0xbe23191e	-0.1592755
145	0xbd901609	-0.07035453
146	0xbd99453c	-0.074839085
147	0xbd3fc4a9	-0.04681841
148	0x3dfc6b9a	0.12325211
149	0xbe0bb4fd	-0.1364326
150	0xbe476a9a	-0.19474259
151	0xbdc38dfa	-0.09548564
152	0x3c2a644d	0.01039989
153	0x3dadb1a7	0.0848115
154	0xbd1cd88b	-0.03829245
155	0xbdfe3416	-0.12412278
156	0x3a8d395b	0.001077454
157	0x3da5d2d0	0.0809685
158	0xbe90ed24	-0.28305924
159	0xbcad0e26	-0.02112491
160	0x3d4f265f	0.050573703
161	0x3d54e5e7	0.051977064
162	0xbe403ef7	-0.18774019
163	0x3e58b735	0.21163638
164	0xbc8c67db	-0.017139366
165	0xbeb6efb6	-0.3572976
166	0x3dce1c3f	0.10063981
167	0xbd93797f	-0.07200908
168	0xbe7bcd34	-0.24589998
169	0xbdd26624	-0.10273388
170	0xbdc147fe	-0.094375595
171	0x3c60ebf8	0.013728134
172	0x3e698902	0.2280617
173	0x3bed4a0a	0.007241492
174	0xbea73b79	-0.32662562
175	0x3dbd3d34	0.09240189
176	0xbf000f05	-0.5002292
177	0x3e318675	0.17336448
178	0xbe591d42	-0.21202567
179	0x3ded2731	0.11579741
180	0xbe5c0c68	-0.21489108
181	0xbe886659	-0.26640585
182	0x3daeb818	0.08531207
183	0x3e52e188	0.20593846
184	0xbe7f5ea5	-0.24938448
185	0xbdfd8821	-0.1237948
186	0xbd266b0a	-0.040629424
187	0xbe963a16	-0.2934119
188	0xbea259bd	-0.3170909
189	0x3e01367c	0.1261844
190	0xbe1bcd58	-0.15215051
191	0xbe0ff98b	-0.14060037
192	0xbcfd06d0	-0.030887038
193	0xbe1f0dba	-0.1553258
194	0xbe85097c	-0.25983799
195	0x3d7b5e1d	0.06136905
196	0xbcad45c1	-0.021151425
197	0x3c81fda2	0.015868012
198	0x3e3ffb91	0.18748309
199	0xbdd52c60	-0.104088545
200	0xbdaa52b3	-0.08316555
201	0x3dd5dc69	0.104424305
202	0xbde7b6a1	-0.113141306
203	0x3df53bd2	0.119743004
204	0xbebd9978	-0.3703115
205	0xbe4027f1	-0.18765236
206	0xbe27e6f1	-0.16396691
207	0x3d80644c	0.0626913
208	0x3c9d8a37	0.019230945
209	0xbe74fb31	-0.23923947
210	0xbe3f553f	-0.18684863
211	0xbd8fd833	-0.070236586
212	0xbd9116f5	-0.07084457
213	0xbd31b2e7	-0.043383505
214	0x3e7cc2f3	0.24683742
215	0xbd2b2912	-0.041787215
216	0xbdea404e	-0.114380464
217	0x3ae3cfbc	0.0017380635
218	0xbd873dc1	-0.066035755
219	0xbd170495	-0.036869604
220	0x39f6085f	0.00046927013
221	0xbe3464c3	-0.17616563
222	0xbb9a6665	-0.0047119134
223	0xbdda80dd	-0.1066911
224	0xbddb6d84	-0.10714248
225	0xbe745b56	-0.23862967
226	0xbd832c47	-0.064049296
227	0x3cea8bfb	0.028631201
228	0x3bb46075	0.0055046626
229	0xbdd7168c	-0.10502347
230	0xbd9bd776	-0.07609455
231	0xbda32f4c	-0.079680055
232	0xbe0f7ace	-0.1401169
233	0xbb8a4a83	-0.0042203083
234	0x3d2931d0	0.04130727
235	0xbeb50a56	-0.35359448
236	0x3deeaf16	0.11654489
237	0xbe3fdbc1	-0.18736173
238	0x3e2c0128	0.16797316
239	0xbdc43a5a	-0.09581442
240	0xbe6c5a4e	-0.23081324
241	0xbc173224	-0.009228263
242	0xbe568a0a	-0.20951095
243	0xbe38e86e	-0.18057415
244	0x3d80f996	0.06297605
245	0xbde6511a	-0.11245938
246	0xbe50905f	-0.20367573
247	0xbdcb1e36	-0.09917872
248	0x3e245119	0.16046561
249	0x3e45b123	0.19305854
250	0x3dfc541f	0.12320732
251	0xbdc443e7	-0.09583264
252	0x3d201c68	0.03908959
253	0xbc2e5f95	-0.010642906
254	0xbdb29600	-0.087200165
255	0xbc058efa	-0.008151764

hidden_layers.1.weight f4 [256, 256]
0	0xbd9c9546	-0.07645659
1	0x3d67a5fe	0.056554787
2	0xbb3aa2a5	-0.0028478291
3	0xbd36c07c	-0.04461716
4	0xbe18ff1e	-0.1494107
5	0x3d9a3d53	0.07531228
6	0xbe019298	-0.12653577
7	0xbdd9aa21	-0.10628153
8	0xbdde983f	-0.108688824
9	0xbe90310c	-0.2816242
10	0x3e91683b	0.28399834
11	0xbdc49765	-0.09599189
12	0x3e56209a	0.20910874
13	0xbe4c1c87	-0.19932757
14	0xbdd23a9c	-0.10265085
15	0x3cc9b181	0.024620773
16	0x3dacd55e	0.08439134
17	0xbd39fd7e	-0.045407765
18	0xbce5e76f	-0.028064458
19	0x3e8c9cc1	0.27463344
20	0xbe944c3b	-0.2896441
21	0xbc6f278f	-0.014596834
22	0x3e0e30a3	0.13885741
23	0x3e3216a3	0.17391448
24	0xbe599111	-0.21246745
25	0x3db9479f	0.09046864
26	0x3e1524e7	0.14564858
27	0x3d89afe4	0.067230016
28	0xbd6431a2	-0.055711396
29	0xbe8833ba	-0.26601964
30	0xbd89919d	-0.06717227
31	0xbe398523	-0.18117194
32	0xbe8ff36d	-0.28115407
33	0xbd5a4a61	-0.05329359
34	0xbdebc617	-0.11512392
35	0xbd4cdcd7	-0.050015297
36	0x3d999f77	0.07501119
37	0x3e1793af	0.1480243
38	0xbea951b6	-0.33070153
39	0x3dd3624a	0.103214815
40	0x3e732e8b	0.23748223
41	0xbc976c4c	-0.018484257
42	0xbea73c9e	-0.32663435
43	0x3d21a02b	0.03945939
44	0x3dd16dd7	0.102260284
45	0x3ce1243e	0.027483102
46	0x3e846ce2	0.2586432
47	0x3dc24eff	0.094877236
48	0xbd2de82b	-0.04245774
49	0xbe99c031	-0.30029443
50	0xbe33b0d0	-0.17547917
51	0xbdd76a82	-0.10518362
52	0x3daf18a7	0.08549624
53	0xbe8a6afc	-0.27034748
54	0x3dae5e5f	0.085140936
55	0xbd958742	-0.07301189
56	0x3e0d4b46	0.13798246
57	0xbe99b754	-0.3002268
58	0xbe47f679	-0.19527616
59	0xbdbe66d9	-0.092969604
60	0xbe48a57a	-0.19594374
61	0xbda948d3	-0.08265843
62	0xbe0f1dc4	-0.13976198
63	0xbeb3096c	-0.34968126
64	0xbc9eeecf	-0.019400982
65	0xbe8c4899	-0.27399138
66	0xbe4d93ce	-0.20075914
67	0x3e2d2caf	0.16911577
68	0xbdac8ff2	-0.08425893
69	0xbd93205a	-0.07183905
70	0xbce985c2	-0.028506164
71	0x3d8df124	0.069307595
72	0xbd6d219d	-0.057893384
73	0xbe237c72	-0.15965441
74	0xbeb134ea	-0.34610683
75	0xbd7e2aab	-0.06205241
76	0xbe0ad008	-0.1355592
77	0xbd684d38	-0.056714267
78	0xbdc5ff42	-0.09667827
79	0x3e7c03e5	0.2461086
80	0xbe002e47	-0.12517653
81	0x3df51836	0.119675085
82	0xbe0f461b	-0.13991587
83	0xbe277590	-0.1635344
84	0xbd94d311	-0.0726682
85	0x3d7cace2	0.06168831
86	0xbdeac9b3	-0.11464252
87	0x3e366612	0.17812374
88	0xbe45e87e	-0.1932697
89	0x3db7468e	0.08949004
90	0xbe9b34e8	-0.30313802
91	0xbe1e0842	-0.15432838
92	0xbea4323f	-0.32069585
93	0xbe6bad3a	-0.230153
94	0xbcf1aa72	-0.02950022
95	0xbe1297f0	-0.14315772
96	0x3d03f752	0.032218285
97	0xbd5ef4c5	-0.05443265
98	0xbdcf8825	-0.101333894
99	0xbe06e819	-0.13174476
100	0xbde89fec	-0.11358628
101	0xbd6f09c7	-0.058358934
102	0xbe24ded8	-0.16100633
103	0xbe3831f3	-0.17987804
104	0x3d9ac58f	0.075572126
105	0x3d3fda54	0.046839073
106	0xbd4a8b36	-0.04944917
107	0xbe4ca432	-0.1998451
108	0x3d143935	0.03618737
109	0x3dcecb14	0.10097328
110	0xbda680b9	-0.08130021
111	0x3db705f5	0.08936683
112	0x3e3f778d	0.18697949
113	0xbe5d63f5	-0.21620162
114	0xbe44b176	-0.19208321
115	0xbe73025d	-0.2373137
116	0xbe002411	-0.12513758
117	0xbe30c211	-0.1726153
118	0xbcf21fcf	-0.029556183
119	0xbedd7931	-0.43256524
120	0x3e60774b	0.21920507
121	0xbe5ba9f7	-0.21451555
122	0xbe2539e9	-0.16135372
123	0xbd9eb998	-0.07750243
124	0xbde12acc	-0.10994491
125	0x3db6dfb3	0.08929386
126	0xbdc35733	-0.09538116
127	0x3d283ec4	0.041075483
128	0x3b95fe90	0.0045774654
129	0xbd31b295	-0.0433832
130	0xbe109db2	-0.14122656
131	0xbd808b28	-0.06276542
132	0xbd0e1edf	-0.03469741
133	0x3d4eebc7	0.050517824
134	0x3e277580	0.16353416
135	0x3d278615	0.040899355
136	0xbe3cb240	-0.18427372
137	0xbda7bab5	-0.081899084
138	0x3e66cf6d	0.22540064
139	0x3d71ee54	0.059065178
140	0x3c16bf51	0.009200887
141	0xbd7892e4	-0.06068696
142	0x3e797ab2	0.24363211
143	0xbe98c9f2	-0.29841572
144	0x3dbee78e	0.09321509
145	0xbe8755c3	-0.26432618
146	0xbc159781	-0.00913036
147	0x3d500bf6	0.050792657
148	0x3d140a23	0.03614248
149	0xbe532775	-0.2062052
150	0xbcb864be	-0.022508975
151	0x3e1bc912	0.15213421
152	0x3e1cded8	0.15319383
153	0x3de0414c	0.109499544
154	0x3e8d8092	0.27637154
155	0xbe6f630d	-0.23377629
156	0x3e01517f	0.12628745
157	0x3e7b4c91	0.24540927
158	0x3e68ca42	0.22733405
159	0x3db717e3	0.08940103
160	0x3de350ce	0.11099397
161	0xbe84ec58	-0.25961566
162	0x3e0d82ee	0.13819477
163	0xbd0c69b7	-0.034280505
164	0xbdd636f7	-0.104597025
165	0xbdeadab8	-0.114674985
166	0xbddadeeb	-0.106870495
167	0x3d1945f0	0.037420213
168	0xbdd16b35	-0.10225526
169	0xbcfa7498	-0.030573174
170	0xbd2c4085	-0.042053718
171	0x3e30f8ea	0.17282453
172	0xbbf3bd95	-0.0074383714
173	0x3e43af0f	0.19109748
174	0x3b6c3547	0.0036042498
175	0xbd9661c7	-0.07342868
176	0xbd675fb7	-0.056487765
177	0x3c364140	0.011123955
178	0xbe101bfe	-0.14073178
179	0x3d92f5e8	0.07175809
180	0xbd94af8b	-0.07260045
181	0xbd55b279	-0.052172158
182	0xbe08a530	-0.13344264
183	0xbe0a69c3	-0.13516907
184	0x3b8dfa79	0.004332837
185	0xbd88655e	-0.06659959
186	0xbd169df9	-0.03677175
187	0xbe1b0d88	-0.1514188
188	0x3e215541	0.15755178
189	0x3cfeb7de	0.031093534
190	0xbd4d7921	-0.050164346
191	0xbdfd549d	-0.12369654
192	0xbd0fa23e	-0.035066836
193	0x3c9838a9	0.018581705
194	0xbe69e122	-0.22839788
195	0xbe934a78	-0.28767753
196	0xbdc44073	-0.09582605
197	0xbd7979a2	-0.060907014
198	0x3e7cae71	0.24675919
199	0x3d64de04	0.055875793
200	0x3e8e722d	0.27821484
201	0xbd5415d2	-0.051778622
202	0xbdff4303	-0.12463953
203	0x3e0cf931	0.13766934
204	0x3d6bf18c	0.057603404
205	0xbdbef13d	-0.09323356
206	0xbe3038c0	-0.17209148
207	0xbd5b7ef8	-0.053587884
208	0xbd07b702	-0.033133514
209	0x3be9d09b	0.0071354634
210	0xbe7a052f	-0.2441604
211	0x3dbdfa14	0.09276214
212	0x3e687a69	0.22702946
213	0xbdf1cc05	-0.11806492
214	0xbe278e65	-0.16362913
215	0x3bbff025	0.005857485
216	0x3dd9b017	0.106292896
217	0xbdf0f7c8	-0.117660105
218	0x3c583e70	0.01319848
219	0xbd31c505	-0.043400783
220	0xbda1f48e	-0.07907973
221	0xbd204e06	-0.03913691
222	0xbd96f609	-0.07371146
223	0xbcd46ccf	-0.02593079
224	0xbe2b3e37	-0.16722952
225	0xbdaa23cc	-0.08307609
226	0x3e514855	0.20437749
227	0x3e552223	0.20813803
228	0x3dc22c89	0.09481151
229	0x3b3dfd10	0.0028989948
230	0x3ddb9fa8	0.107238114
231	0x3d877d0f	0.0661565
232	0xbcfe715c	-0.031059913
233	0x3e0f7f1e	0.14013335
234	0x3db4e162	0.08832051
235	0x3d2b1907	0.041771915
236	0x3e08bfaf	0.13354371
237	0xbe66c74a	-0.2253696
238	0xbd7f48f3	-0.06232543
239	0x3de29a52	0.110645905
240	0x3be16fb8	0.006879773
241	0x3c9e2503	0.019304758
242	0xbe38529a	-0.1800026
243	0x3d752700	0.059851646
244	0x3d5773e1	0.052600745
245	0xbdf6bd7f	-0.12047862
246	0x3dfc4d00	0.12319374
247	0xbda516e8	-0.0806101
248	0xbe9f17f5	-0.31072965
249	0x3c889411	0.016672166
250	0xbd4d45c6	-0.05011537
251	0xbe667bbf	-0.22508143
252	0x3dd7d85f	0.105393164
253	0xbdf17e9e	-0.117917284
254	0x3e20017f	0.1562557
255	0xbd0cefb9	-0.034408305

hidden_layers.1.bias f4 [256]
0	0xbe37b5ff	-0.1794052
1	0xbd8d6aa5	-0.069051065
2	0xbe26eb68	-0.16300738
3	0xbc605f99	-0.013694667
4	0xbda288b2	-0.07936229
5	0xbde825df	-0.11335348
6	0x3cec0f69	0.028815942
7	0xbe03f009	-0.12884535
8	0xbd3d232a	-0.046176113
9	0xbc75046a	-0.014954666
10	0xbe224f79	-0.15850629
11	0xbd622881	-0.05521441
12	0xbbdc4de0	-0.0067231506
13	0xbdb5f44a	-0.08884485
14	0xbd4312ce	-0.047625355
15	0xbdff7265	-0.12472991
16	0xbe23ad8e	-0.15984175
17	0xbd9a70b2	-0.07541026
18	0xbdfb4268	-0.12268525
19	0xbe3b9e45	-0.18322094
20	0xbdc1a775	-0.09455768
21	0xbdab7890	-0.08372605
22	0xbe4b1d52	-0.19835404
23	0xbd1938b0	-0.037407577
24	0xbd5cf9a7	-0.053949025
25	0xbd4c59a0	-0.04989016
26	0xbdd75655	-0.105145134
27	0xbdaaf8f3	-0.083482645
28	0xbdb98f54	-0.09060541
29	0xbe1ec5c2	-0.15505126
30	0x3bccf925	0.0062552863
31	0xbe0377d2	-0.12838677
32	0xbd79a8e9	-0.0609521
33	0xbd8d5249	-0.0690046
34	0xbdaf1b1e	-0.08550094
35	0xbdfadf98	-0.122496784
36	0xbd4fd596	-0.0507408
37	0xbde6a7c7	-0.1126247
38	0xbd6ee236	-0.0583212
39	0xbd4845f2	-0.04889483
40	0xbe2b4b4d	-0.16727944
41	0xbd96ce80	-0.073636055
42	0xbd5f5e3e	-0.054533236
43	0xbd0bc6f5	-0.034125287
44	0x3b6c40d6	0.0036049387
45	0xbd904308	-0.07044035
46	0xbdeba67c	-0.11506364
47	0xbe016ca7	-0.12639104
48	0xbd1f959e	-0.038961045
49	0xbcc7935b	-0.024362257
50	0xbe2ae67c	-0.16689485
51	0x3b8dad37	0.0043236273
52	0xbdf722ef	-0.1206721
53	0xbd8a8c74	-0.067650706
54	0x3bf8075f	0.007569238
55	0xbe118976	-0.14212593
56	0xbddd2856	-0.10798709
57	0xbdc393f4	-0.09549704
58	0xbd11be6d	-0.035581995
59	0xbe27d4ff	-0.16389845
60	0xbdf6a55b	-0.12043258
61	0xbe50608f	-0.20349334
62	0xbe0692a5	-0.13141878
63	0x3c85e1ad	0.016342962
64	0xbe3114e4	-0.17293125
65	0xbe8a50e3	-0.27014837
66	0xbd8edee1	-0.069761045
67	0xbdd3b19f	-0.10336613
68	0x3cc0c3e1	0.023530902
69	0xbd94a61f	-0.072582476
70	0xbe208794	-0.15676719
71	0xbd46bb55	-0.048518497
72	0xbd205dee	-0.03915208
73	0xbdf5d6af	-0.12003838
74	0xbe019e50	-0.12658048
75	0xbd8e8b35	-0.069601454
76	0xbd5c7a54	-0.0538276
77	0xbda7ecb1	-0.08199442
78	0xbdb6e891	-0.08931077
79	0x3c94ab79	0.01814817
80	0xbc939c2d	-0.018018806
81	0xbd5b8dc5	-0.053602
82	0xbd80df0c	-0.06292543
83	0xbdd27630	-0.10276449
84	0xbdd2309f	-0.1026318
85	0xbe0bc7d0	-0.13650441
86	0xbcff3935	-0.031155208
87	0xbcf5a442	-0.02998555
88	0xbc88c8c7	-0.0166973
89	0xbcd74d2a	-0.026281912
90	0xbd9ed501	-0.07755471
91	0xbda63055	-0.08114687
92	0x3c9e656f	0.019335477
93	0xbd775dcb	-0.060392182
94	0xbe1790ee	-0.1480138
95	0xbc39ef17	-0.011348507
96	0xbd86d5cd	-0.06583748
97	0xbe0a5d0d	-0.13512059
98	0xbdc668f9	-0.09687991
99	0xbd9bca16	-0.07606904
100	0xbe379256	-0.17926916
101	0xbde18bbf	-0.110129826
102	0xbcf5d7a8	-0.03001006
103	0xbdc2ab4a	-0.09505327
104	0xbd7a20de	-0.0610665
105	0xbd2a98b4	-0.041649535
106	0xbdc83f1e	-0.09777664
107	0xbdb07f8e	-0.08618079
108	0xbd9e6601	-0.077342995
109	0xbc5de935	-0.01354437
110	0xbe1a7448	-0.1508342
111	0xbd68481d	-0.056709398
112	0xbe310c5b	-0.1728987
113	0xbd2ee4d6	-0.042698704
114	0xbe064e5c	-0.13115829
115	0x3cd8b672	0.026454184
116	0xbc3fad58	-0.011699043
117	0xbbd989f0	-0.006638758
118	0xbe424514	-0.18971664
119	0xbce1716c	-0.027519904
120	0xbe0c3efa	-0.13695899
121	0xb9db7736	-0.00041859754
122	0xbd7b91ff	-0.06141853
123	0xbd86c773	-0.06581011
124	0xbd7aaffa	-0.06120298
125	0xbd93fed2	-0.072263375
126	0xbde9a80b	-0.11409005
127	0xbd63f752	-0.055655785
128	0xbccdc8d3	-0.025120175
129	0xbe5ed9a5	-0.21762712
130	0xbc249e1f	-0.010047465
131	0xbd751ff2	-0.05984492
132	0xbe4c9a13	-0.1998065
133	0xbd429ad7	-0.047510948
134	0xbd8594b1	-0.06522501
135	0xbdca76b0	-0.09885919
136	0xbd7b38bd	-0.061333407
137	0xbc8ca384	-0.017167814
138	0xbe345bcc	-0.17613143
139	0xbda04d03	-0.07827189
140	0xbcbb0a43	-0.022832042
141	0xbd246ecd	-0.04014473
142	0xbd858fdf	-0.06521582
143	0xbcc88007	-0.02447511
144	0xbe1748c0	-0.14773846
145	0xbe042837	-0.12905966
146	0xbce8e125	-0.02842767
147	0xbded8247	-0.11597114
148	0xbd832626	-0.064037606
149	0xbd93bfa3	-0.07214286
150	0xbd474b0c	-0.048655555
151	0xbdbedcbb	-0.09319445
152	0xbd0f1bc7	-0.0349386
153	0xbda873dc	-0.082252234
154	0xbdc0e240	-0.09418154
155	0xbcb9e972	-0.022694323
156	0xbd810631	-0.06300009
157	0xbda6db59	-0.08147306
158	0xbd82687b	-0.06367584
159	0x3bb81eac	0.0056188907
160	0xbcfb0a82	-0.030644659
161	0xbe0e4d95	-0.13896783
162	0xbd22d75f	-0.039756175
163	0xbe360a1c	-0.17777294
164	0xbdbc5ad6	-0.09197013
165	0xbd5eadc5	-0.05436494
166	0xbd11723a	-0.035509326
167	0xbd10cc01	-0.035350803
168	0x3bf870b0	0.007581793
169	0xbcdc6b6e	-0.026906695
170	0xbda4a71f	-0.08039688
171	0xbde499fc	-0.11162183
172	0xbd9e28b3	-0.077226065
173	0xbda0c5bd	-0.078502156
174	0xbdfe95a9	-0.12430889
175	0x3c323314	0.010876436
176	0xbe072958	-0.13199365
177	0xbde51b7d	-0.111868836
178	0xbe0e8076	-0.13916191
179	0xbe09ea87	-0.13468371
180	0xbd5af5d0	-0.05345708
181	0xbd07c025	-0.033142228
182	0xbd26422f	-0.04059046
183	0xbcc48c72	-0.02399275
184	0xbd6f861a	-0.0584775
185	0xbd231968	-0.03981915
186	0xbd10e00b	-0.035369914
187	0xbe0fafb8	-0.14031875
188	0xbe381e6b	-0.17980354
189	0xbd58fed4	-0.052977398
190	0xbe40804c	-0.18798941
191	0xbcf44a1a	-0.02982049
192	0xbd17634a	-0.036959924
193	0xbd57dd29	-0.05270115
194	0xbc8b27d9	-0.016986774
195	0xbe144822	-0.14480641
196	0xbe2e52f2	-0.17023829
197	0xbd983be0	-0.07433295
198	0xbd78e315	-0.060763437
199	0xbd667651	-0.05626518
200	0xbde02bdc	-0.109458655
201	0xbdc7c3bd	-0.09754131
202	0xbe086f2a	-0.13323656
203	0xbdc4fa13	-0.0961801
204	0x3d2bd7da	0.0419539
205	0xbdc91276	-0.09817974
206	0xbd4cf222	-0.050035603
207	0xbd8e349c	-0.06943628
208	0xbe6fcbde	-0.23417613
209	0xbcc1ef57	-0.023673696
210	0xbc7d9dc2	-0.015479507
211	0x3bd5d9aa	0.0065261917
212	0xbd5ef230	-0.054430187
213	0xbe0cc79c	-0.1374802
214	0xbdaf65c4	-0.08564332
215	0x3c1e7271	0.00967084
216	0xbdfe8172	-0.124270335
217	0xbd253567	-0.04033413
218	0xbdf1586f	-0.117844455
219	0xbdbfaf49	-0.09359605
220	0xbdfdb68c	-0.12388334
221	0xbba344a8	-0.0049825497
222	0xbd323a76	-0.043512784
223	0xbd2c543a	-0.042072512
224	0xbdafede1	-0.08590294
225	0xbde0d81c	-0.109787196
226	0xbd81a507	-0.063303046
227	0xbb30c48d	-0.0026972622
228	0xbda33343	-0.07968762
229	0xbd742bca	-0.059612073
230	0xbda0d599	-0.078532405
231	0x3c0e6da1	0.00869313
232	0xbdfb9f9f	-0.12286305
233	0xbd9e1fe1	-0.07720924
234	0xbe13513d	-0.14386459
235	0xbe1d9877	-0.15390192
236	0xbdefcf36	-0.11709444
237	0xbdda5fe6	-0.106628224
238	0x3c9c5580	0.019083738
239	0xbd093b03	-0.033503544
240	0xbdbfdfd2	-0.09368862
241	0xbbd0b687	-0.006369415
242	0x3c67a823	0.014139208
243	0xbd8e37db	-0.06944247
244	0xbd9e2d24	-0.07723454
245	0xbc847f33	-0.016173935
246	0xbd9d70d8	-0.07687539
247	0xbe4631c2	-0.19354919
248	0xbdfeb4ab	-0.124368034
249	0xbc5fff5e	-0.013671724
250	0xbc95cb1d	-0.018285329
251	0xbe16507d	-0.14679141
252	0xbdd71b24	-0.105032235
253	0xbe027982	-0.12741664
254	0xbd9aa5eb	-0.075511776
255	0xbd7d1af0	-0.061793268

output_layers.0.weight f4 [40, 256]
0	0xbe606969	-0.21915211
1	0xbeb3ad20	-0.3509302
2	0xbe0a9ebb	-0.13537113
3	0xbde7f699	-0.11326332
4	0xbf08262e	-0.5318326
5	0xbe254bf0	-0.16142249
6	0x3e8a1893	0.26971874
7	0xbbf55e85	-0.0074880742
8	0xbddccbd6	-0.10781066
9	0xbd23d043	-0.039993536
10	0xbd7c85cc	-0.061651036
11	0xbde2e100	-0.110780716
12	0xba3b2a52	-0.000713979
13	0xbdb43e57	-0.08800953
14	0xbe6119fd	-0.2198257
15	0xbda72ba1	-0.081626184
16	0x3d128ac8	0.035776883
17	0x3e500a3b	0.20316403
18	0x3d852819	0.06501789
19	0xbd9789bc	-0.073993176
20	0x3c1f97a4	0.009740744
21	0xbd06ae8f	-0.032881316
22	0xbe4ad995	-0.19809563
23	0xbea4245b	-0.32058987
24	0x3cca7c04	0.024717338
25	0xbe68ff71	-0.22753693
26	0x3d0990ef	0.033585485
27	0x3d5cb7d2	0.053886242
28	0x3dc37e9f	0.095456354
29	0x3ddfc9fc	0.10927197
30	0xbedc04b8	-0.4297235
31	0xbec5ac52	-0.38608032
32	0xbe356d50	-0.1771748
33	0xbeee17a7	-0.4650242
34	0x3d0785aa	0.033086456
35	0x3d95c90f	0.073137395
36	0xbf0c942d	-0.549136
37	0xbc9bf41d	-0.0190373
38	0xbee73f65	-0.45165554
39	0xbdf39672	-0.118939295
40	0x3e69b055	0.22821172
41	0xbecccfa8	-0.4000218
42	0xbe6d0c71	-0.23149277
43	0xbe10228a	-0.14075676
44	0x3e30e221	0.17273761
45	0xbe4d8f6a	-0.2007424
46	0xbe317b7f	-0.17332266
47	0xbe0d93e1	-0.13825943
48	0xbe1cf2d8	-0.15327013
49	0xbddb7d4a	-0.10717256
50	0xbcad30b5	-0.02114139
51	0xbba9a58b	-0.005177205
52	0xbe661be7	-0.22471581
53	0xbe3a2d9d	-0.18181463
54	0xbe00d70c	-0.12582034
55	0xbdd585b2	-0.10425891
56	0xbe1b7938	-0.1518296
57	0xbea63a24	-0.32466233
58	0xbe51d1cc	-0.20490187
59	0xbe855570	-0.26041746
60	0xbdc909fa	-0.09816356
61	0xbea05fcc	-0.31323087
62	0xbec8fe40	-0.39256477
63	0xbe8350eb	-0.25647673
64	0xbdb27a60	-0.087147474
65	0xbea59c2b	-0.3234571
66	0xbde5102b	-0.111847244
67	0xbd54ef5f	-0.051986095
68	0xbdff49b6	-0.12465231
69	0xbc1d7178	-0.009609573
70	0xbf26ea4d	-0.65201265
71	0xbd157222	-0.0364858
72	0xbe81011b	-0.25196156
73	0x3def3087	0.11679178
74	0xbd494568	-0.049138457
75	0x3e8207de	0.25396627
76	0xbe583a89	-0.2111608
77	0xbdefa7f4	-0.117019564
78	0xbe5df1b8	-0.2167424
79	0xbbfb3730	-0.007666491
80	0xbeb2f2c5	-0.34950843
81	0xbddb502d	-0.10708652
82	0xbe54f102	-0.20795062
83	0xbeb94b4c	-0.3619026
84	0x3e8fbf7a	0.28075773
85	0xbdf023a9	-0.11725552
86	0xbc9b3b03	-0.018949037
87	0xbe1242b7	-0.14283262
88	0xbdab8fae	-0.08377014
89	0xbe22686a	-0.15860143
90	0xbe453bc7	-0.19261084
91	0x3c1dd230	0.009632632
92	0x3ee659b1	0.44990304
93	0xbdc80422	-0.09766413
94	0xbef17138	-0.47156692
95	0x3e7319ca	0.23740306
96	0xbd592836	-0.053016864
97	0xbf00a955	-0.5025838
98	0x3d9755d6	0.07389419
99	0x3cfe8362	0.031068508
100	0xbed1e0a5	-0.40991703
101	0x3c0ddd75	0.0086587565
102	0x3d5fa5ea	0.054601587
103	0xbea6ac97	-0.3255355
104	0xbe91ed86	-0.28501529
105	0xbe738394	-0.23780662
106	0xbe6541af	-0.22388338
107	0xbdc1e774	-0.09467974
108	0xbe2649fe	-0.16239163
109	0xbe108a2c	-0.14115208
110	0xbec8ff68	-0.3925736
111	0x3bcea770	0.006306581
112	0xbe43cbd3	-0.19120722
113	0xbd4ad737	-0.04952165
114	0xbe4df7f2	-0.20114115
115	0x3d9fb36f	0.07797896
116	0xbe1a7f15	-0.1508754
117	0xbd943bd2	-0.07237972
118	0xbd97a9b0	-0.07405412
119	0xbe2d2362	-0.16908029
120	0xbd89b8dd	-0.06724713
121	0xbda1f691	-0.07908357
122	0x3ddd7be7	0.10814648
123	0xbe3fb059	-0.18719615
124	0xbd164217	-0.036684122
125	0xbe4a8956	-0.19778952
126	0x3d46d972	0.048547216
127	0xbdf577ca	-0.119857386
128	0xbe30734c	-0.17231482
129	0xbdb672d2	-0.08908619
130	0xbc6fe685	-0.0146423625
131	0x3d0b95cb	0.0340784
132	0xbec851a4	-0.39124787
133	0xbe5f5fc9	-0.21813883
134	0xbee38d9a	-0.4444397
135	0xbe800fe0	-0.25012112
136	0xbd2933b9	-0.041309092
137	0xbe772357	-0.24134575
138	0xbe468001	-0.19384767
139	0x3e00ab8f	0.12565444
140	0x3e924142	0.28565413
141	0xbe8b4628	-0.27201962
142	0xbe799f59	-0.24377193
143	0xbdc1bb30	-0.09459531
144	0xbe3bad4c	-0.18327826
145	0xbe6d31ec	-0.23163575
146	0x3e93f01a	0.2889412
147	0x3d65f898	0.05614528
148	0x3e528430	0.20558238
149	0xbe6251f6	-0.22101578
150	0xbdc920de	-0.09820722
151	0xbbe06df9	-0.0068490473
152	0xbebae00d	-0.36499062
153	0xbde7b582	-0.11313917
154	0xbe389357	-0.18024956
155	0xbe3798a0	-0.17929316
156	0x3d48484b	0.04889707
157	0xbdc4e5e1	-0.096141584
158	0x3d656099	0.056000326
159	0xbd2a5e91	-0.04159409
160	0x3d9d67ed	0.07685838
161	0xbe3601a3	-0.17774062
162	0xbd5d9c37	-0.054104056
163	0xbe814cf5	-0.25254026
164	0xbb040dd3	-0.0020149841
165	0xbd878b94	-0.06618419
166	0xbea222fe	-0.31667322
167	0xbe838995	-0.25690904
168	0x3ba32612	0.0049789036
169	0xbdf84d94	-0.12124172
170	0xbe84cfe3	-0.25939855
171	0xbeacee24	-0.33775437
172	0xbe5c30df	-0.21503018
173	0xbcaca56b	-0.021074971
174	0xbde676da	-0.11253138
175	0xbeb1dcff	-0.3473892
176	0xbe1114a1	-0.14168026
177	0xbe1e7209	-0.15473188
178	0xbea1bd6b	-0.31589827
179	0xbe0c8954	-0.13724262
180	0xbe16c6c1	-0.14724256
181	0x3c186368	0.009301044
182	0xbe931878	-0.28729606
183	0xbe83b332	-0.25722653
184	0x3c4a3b77	0.012343279
185	0xbe10f45f	-0.1415572
186	0xbe272eb5	-0.16326411
187	0x3e73e54a	0.23817936
188	0xbeb7f610	-0.35929918
189	0xbc55a34c	-0.013039421
190	0xbebf235c	-0.37331665
191	0xbe82a3f8	-0.25515723
192	0xbea0830e	-0.31349987
193	0x3c945ea7	0.01811154
194	0xbe5e3eb1	-0.21703602
195	0xbdb4c7b3	-0.08827152
196	0xbded3946	-0.1158319
197	0xbd271710	-0.04079348
198	0xbdbc5afd	-0.09197042
199	0xbb640e7d	-0.0034798675
200	0xbe15db2c	-0.14634389
201	0x3d2da280	0.0423913
202	0xbdcbb330	-0.09946287
203	0xbe3f80f0	-0.1870153
204	0x3cda76c8	0.026667967
205	0xbe2f6bdc	-0.17130989
206	0xbea368b4	-0.3191582
207	0xbe260f98	-0.16216886
208	0xbeea083d	-0.4570941
209	0x3d183fff	0.037170406
210	0xbe4e053d	-0.20119186
211	0x3bcf687f	0.0063295956
212	0x3d4afa2f	0.049555
213	0xbe8d4e8a	-0.27598983
214	0x3d44643a	0.047947146
215	0x3d6ead7a	0.05827091
216	0xbe6ad519	-0.22932853
217	0xbd80e4c8	-0.062936366
218	0xbe2322b8	-0.15931213
219	0xbd809f68	-0.06280404
220	0xbe350953	-0.17679338
221	0xbdd14230	-0.102177024
222	0xbed00bde	-0.40634054
223	0x3c55e02f	0.013053938
224	0xbe4dadd6	-0.20085844
225	0xbd6c1c57	-0.057644214
226	0xbd10c2ba	-0.035341956
227	0x3e73af74	0.23797399
228	0xbc227fb8	-0.009918146
229	0x3a87eff4	0.0010371194
230	0xbc09a7e5	-0.008401846
231	0xbde47276	-0.11154644
232	0x3d793f75	0.060851533
233	0xbee5242d	-0.44754162
234	0xbdbc0868	-0.09181291
235	0xbe0b61c1	-0.13611509
236	0xbe8902e2	-0.26760012
237	0xbf15e43f	-0.585514
238	0xbe50b37b	-0.20380966
239	0x3d8a809c	0.067628115
240	0xbca66560	-0.020312011
241	0x3d05cbc8	0.032665044
242	0xbf190edf	-0.59788316
243	0xbcd7de51	-0.026351126
244	0xbe59c84f	-0.21267818
245	0xbd4701a1	-0.048585538
246	0x3c92bfe9	0.017913776
247	0xbeac692e	-0.33673996
248	0xbe77614f	-0.24158214
249	0xbce7e683	-0.028308159
250	0xbdf24d0b	-0.11831101
251	0xbe33286f	-0.17495893
252	0x3dfce35d	0.123480536
253	0xbe389396	-0.1802505
254	0xbe8d9b23	-0.27657422
255	0xbe982fd2	-0.29723984

output_layers.0.bias f4 [40]
0	0xbf39ccd7	-0.72578186
1	0x3eb5fa5d	0.35542575
2	0xbf1c6182	-0.61086285
3	0x3db0fcdf	0.08641981
4	0x3e95075d	0.2910718
5	0x3e009837	0.12558065
6	0x3e63c4e6	0.2224308
7	0xbed27565	-0.4110519
8	0x3de7c02c	0.11315951
9	0x3e5fef0a	0.2186853
10	0x3ec70005	0.38867202
11	0xbdefd66f	-0.11710822
12	0x3f476f89	0.77904564
13	0x3ee53d60	0.44773388
14	0x3dc1dc68	0.09465867
15	0x3ebedf67	0.37279817
16	0x3e8a01f2	0.2695461
17	0x3ee50fe0	0.44738674
18	0x3ec981eb	0.39356932
19	0xbcaecec6	-0.021338832
20	0x3ea7f3ff	0.32803342
21	0x3e8f2c64	0.27963555
22	0xbe259070	-0.1616838
23	0x3e823e1c	0.2543801
24	0x3f26554f	0.6497392
25	0x3e515d30	0.20445704
26	0x3ec723af	0.38894412
27	0x3ed63954	0.41840613
28	0x3ef519ea	0.47871333
29	0xbec9df2d	-0.39428082
30	0x3e364a92	0.17801884
31	0x3eecd875	0.46258894
32	0x3e42a095	0.1900657
33	0xbf2c3e39	-0.67282444
34	0x3e8f41a3	0.27979764
35	0x3db7fa18	0.089832485
36	0xbf2f9dc1	-0.6860009
37	0xbf203f96	-0.62597024
38	0xbf31ef7d	-0.69506055
39	0x3f5655c6	0.8372463
