MODELS/REWARD COMPARISON/SAC MASKED MODELS/2_3_critic_target_network.pt (torch, 411303 bytes, 6 tensors)

hidden_layers.0.weight f4 [256, 101]
000000 4d de 63 3e 54 f4 99 3d be c0 2f 3e 12 99 74 3d
       0.2225277 0.07517305 0.17163369 0.05971629
000010 f3 da 94 bc 20 85 ab be 5f b1 b0 3e 8b 7c 49 be
       -0.01817081 -0.33500004 0.34510323 -0.19676416
000020 bb 8b 6a bd bf 43 98 bd 25 db 39 3e 39 49 85 bd
       -0.057262164 -0.074347965 0.18150003 -0.06508107
000030 49 9c 45 bd 0d ae f5 be 2c 5a cf be c9 4c b2 be
       -0.04824475 -0.47984353 -0.40498483 -0.34824207
000040 7d a4 7c be b1 b4 69 be 0e fc 96 bd fe 0c 33 be
       -0.24672122 -0.22822835 -0.07372294 -0.17485425
000050 02 69 15 bd b4 27 5d be 2e b0 83 be c5 10 a8 3d
       -0.036477096 -0.21597177 -0.25720352 0.082063235
000060 2a 07 f6 bd c8 90 fa bc a0 06 55 be 9d bc 96 be
       -0.12013085 -0.030586615 -0.20803308 -0.29440776
000070 e8 02 e5 bd 7f 65 0c bf 39 fb e0 bd d0 04 0c 3e
       -0.11182195 -0.5484237 -0.10985417 0.13673711
000080 4e ad 34 be 54 b6 bf bd 2c d7 f3 3d 1f af 9e 3e
       -0.17644235 -0.09360948 0.11906275 0.30992982
000090 37 6d b7 be b9 b7 8b bd 17 e0 0a be 35 01 87 be
       -0.35825512 -0.06822152 -0.13562046 -0.26368108
0000a0 8e 58 97 bc 53 1e 4c 3e 37 4f d5 3d 52 8b 6d be
       -0.018474843 0.19933443 0.104155 -0.23197678
0000b0 ff bb 99 be 96 67 5e 3e bb 80 41 be 7a 1e ee bc
       -0.30026242 0.21719202 -0.18896763 -0.029067267
0000c0 38 d3 1a 3e 32 10 d1 be 42 d1 24 be 34 24 93 3d
       0.15119636 -0.4083267 -0.1609545 0.071846396
0000d0 f8 8c 37 3e 8d b2 7f be 9b 1b cc 3d e3 20 29 be
       0.17924869 -0.24970455 0.09966203 -0.16516452
0000e0 ec 2d af be b8 57 c6 bd 6e 24 32 be 60 2b d9 3d
       -0.34214723 -0.096847 -0.1739671 0.10603976
0000f0 f6 13 6b 3d 80 76 48 3e 7e a2 aa be 9d ce 28 3d
       0.057392083 0.19576454 -0.33327097 0.041212667
000100 56 8f 54 3d fb c1 f5 bd d8 7c ba bd 84 74 ee bd
       0.05189451 -0.119998895 -0.09105843 -0.11643317
000110 d6 2b 77 bd 00 67 03 3e 19 3c af 3d 3a db d8 be
       -0.06034454 0.1283226 0.085563846 -0.42354757
000120 ac 66 14 be 2a 5f ab be aa d1 09 bf 69 75 d4 3c
       -0.14492291 -0.33471042 -0.53835547 0.025934892
000130 a7 7b 00 be 28 51 cd bb 8f 5a 7a 3d 20 8d 4b bd
       -0.1254717 -0.006265778 0.06112152 -0.049695134
000140 b0 8c 43 bd ca 56 05 3e 4e 10 92 be 77 7e 33 bd
       -0.047741592 0.13021389 -0.28528064 -0.04382178
000150 e1 8d 32 be 3f f1 9b bc 6d 6f b6 be 60 ce 9f be
       -0.17436935 -0.019035934 -0.35631886 -0.3121214
000160 87 f9 36 be 47 c2 3a be 04 31 cf 3c 33 91 f9 3d
       -0.17868625 -0.18238173 0.025291927 0.12185898
000170 b4 ee e2 bd 24 60 43 bd 58 dd d4 bd c9 54 6d 3c
       -0.11080685 -0.04769911 -0.103937805 0.014485546
000180 93 85 5c 3e 00 27 53 bd 92 79 87 3d f1 8c ab be
       0.2153533 -0.051550865 0.066149846 -0.33505967
000190 3f da f1 3d dd f5 e2 3d 75 7b 8e 3c 02 95 c4 bd
       0.11809205 0.11082051 0.017392853 -0.095987335
0001a0 5e 9c 9d be 2f 8e e8 3b 87 de 67 3e 8e 07 c1 3d
       -0.3078336 0.0070970277 0.22643481 0.09425269
0001b0 aa 4f 9b 3e 20 da 23 be 4d 24 46 bb 34 18 37 3e
       0.30334216 -0.16001177 -0.003023404 0.17880327
0001c0 ad 6e 1f be 33 04 81 3d e3 88 d8 be 14 b7 9f bd
       -0.15569563 0.06299629 -0.42291936 -0.07798591
0001d0 f4 3d 85 3c b8 ca 70 3e de c8 c3 bd d5 7e e7 bd
       0.016264893 0.23514831 -0.09559797 -0.11303488
0001e0 91 b7 33 be e7 8f 2d 3e 5f 66 cf be 65 57 02 bf
       -0.17550494 0.16949426 -0.4050779 -0.50914603
0001f0 c0 19 87 be ce 8e 0b bc 84 73 16 be 85 c7 a7 3d
       -0.26386833 -0.008517934 -0.14692503 0.08192352
000200 5f 9f f5 bd 2b db bc 3d c3 01 4b be 3f 08 eb bd
       -0.11993288 0.092214905 -0.19824891 -0.11476182
000210 87 9b dd 3d 91 ff 01 bf dc a5 f3 bc 88 c4 bb bd
       0.1082068 -0.5078059 -0.029742174 -0.09168345
000220 1f 13 d9 3e f6 de c4 bd ca dc 1d be 53 e2 4c be
       0.423974 -0.09612839 -0.15416256 -0.20008211
000230 d0 a0 3c 3e ec a7 4c be 25 94 21 be 2e 32 46 bd
       0.1842072 -0.19985932 -0.15779169 -0.0483877
000240 2d 96 c6 bc c0 3d 7e 3d 51 77 aa bc 3d 88 20 3e
       -0.024241531 0.06207061 -0.020808848 0.15676971
000250 73 37 8d be 6d 99 e2 bb 72 32 1d 3e 3b cc 03 be
       -0.27581367 -0.0069152624 0.15351275 -0.12870876
000260 71 96 8d 3e 06 b0 f9 bc 70 92 6d 3d ba e2 9b 3d
       0.2765384 -0.030479442 0.05800098 0.07611604
000270 c4 77 73 be dc 29 87 be d0 66 74 be 65 b9 3c be
       -0.23776156 -0.26399124 -0.23867345 -0.18430097
000280 45 5d c5 3d 16 4c 20 3d 66 69 2c 3c 6f 64 5e 3e
       0.096369304 0.03913506 0.010523176 0.21718
000290 f2 5b f1 bd 85 02 b4 be 1e 10 90 be 34 b1 f8 bd
       -0.11785115 -0.35158172 -0.28137296 -0.12143174
0002a0 35 56 77 3d 97 01 26 be 32 30 08 3e 50 cf b3 3b
       0.060384948 -0.16211544 0.13299635 0.00548736
0002b0 bd c5 a7 bd 3e 70 21 bf c3 e7 94 bb a4 43 fa 3d
       -0.081920125 -0.63061893 -0.0045442297 0.12219933
0002c0 af 3b 8b bd 22 3a 68 3e 6c 61 a6 3e fa d2 81 3b
       -0.06798493 0.22678426 0.32496202 0.003961918
0002d0 09 fb 2c be f3 8d 86 bc 69 d0 1e be 70 eb f2 bd
       -0.16892637 -0.016425109 -0.1550919 -0.118613124
0002e0 39 37 ca be 88 4f f9 bd 1e 8b 74 be c8 e9 44 be
       -0.39495257 -0.121733725 -0.23881194 -0.19229805
0002f0 d5 49 32 3d d1 f8 3f be 35 ee 44 3e 7f 19 8e 3d
       0.043527443 -0.1874726 0.19231494 0.06938457
000300 dc 26 71 3d 21 b6 9b be b7 1f 1f 3b 26 84 95 bd
       0.05887495 -0.3041239 0.0024280378 -0.07300596
000310 c2 31 09 bf 0d 1d 98 be 5c 4d de bb bd 57 ca bd
       -0.5359155 -0.29709664 -0.0067841243 -0.09880016
000320 1a bf 3f 3d f7 00 a4 bd 3d 1f 85 be 56 83 59 3d
       0.046813108 -0.080079965 -0.26000395 0.053103767
000330 1e 68 24 3e c8 9a a3 3e 0c e3 23 be 50 ea 13 3e
       0.16055343 0.31954026 -0.1600458 0.14444852
000340 fa 4f 83 3c a8 f3 64 bc f4 9e ac bd 3e 96 88 3d
       0.016029347 -0.013974108 -0.084287554 0.066692814
000350 2a 9b 40 bd 83 ed ac 3e a7 32 8d be 7e 80 86 3e
       -0.047022976 0.33774957 -0.27577707 0.26269907
000360 f8 db 4f 3b dc f1 5c 3e 4f 8f d5 3d 6c 93 4c 3e
       0.0031716805 0.21576637 0.104277246 0.19978112
000370 d0 ba 89 3e ce 23 99 be 47 2c a2 bc 28 7d 38 3e
       0.2690034 -0.2991013 -0.019796504 0.18016493
000380 04 9a 01 3e e8 ef d3 3e 08 69 41 3d 29 6d 23 ba
       0.12656409 0.4139397 0.047219306 -0.00062342227
000390 de 34 24 3d 1b 54 89 3e f1 85 f0 bd df 9e 75 bd
       0.04008948 0.2682198 -0.11744297 -0.059965964
0003a0 55 3f 46 be fb c4 02 3f 37 5d c2 bb d0 30 8b 3e
       -0.19360097 0.5108182 -0.005931522 0.27185678
0003b0 95 25 a3 3e 48 8a e0 3e 76 17 1d be 2c 64 97 bd
       0.3186461 0.438555 -0.15340981 -0.07392153
0003c0 76 63 f4 3c 8a e9 3c 3e b5 a4 01 38 62 db 8e 3d
       0.029832583 0.18448463 3.0909392e-05 0.06975438
0003d0 36 3a bd 3e 75 79 70 bc c8 0c 3f 3e ee a8 af bd
       0.36958474 -0.014677395 0.1865722 -0.08577143
0003e0 87 40 6c be 88 92 cd 3d 6c ec 2d be 05 6d 34 3e
       -0.2307149 0.10037714 -0.16984719 0.17619713
0003f0 e7 9b 37 3c 2e 64 a0 3e f1 00 ed 3e 76 55 4c 3e
       0.011206604 0.3132643 0.4628978 0.19954476

hidden_layers.0.bias f4 [256]
000000 a2 9a 84 bc 74 24 6a 3d 06 da f9 bc 65 c0 fc 3c
       -0.016187016 0.05716367 -0.03049947 0.03085346
000010 8a 1a 87 bd 96 a6 d1 3d 62 ec b0 3d 51 68 5d 3d
       -0.06596859 0.10236852 0.086388364 0.054054562
000020 66 33 47 bd 23 5e 5d 3e 50 d8 b0 3d 1c 9d ee bd
       -0.048633 0.21617942 0.08635008 -0.1165106
000030 33 f2 b6 bc 79 66 06 be 08 b8 c1 bc ef ee 24 be
       -0.022332286 -0.13125028 -0.023647323 -0.16106771
000040 65 39 c7 3c 54 93 c2 bd 66 c0 19 3d 9d 25 fc bd
       0.02431936 -0.09500757 0.037537 -0.12311862
000050 99 27 2b 3e 51 94 02 3e 23 f3 6f 3d 9f f9 b8 3c
       0.16714324 0.1275189 0.058581483 0.022579966
000060 cd c2 0e 3d de 6b f8 3d a4 5f ce 3d 44 fd 64 bd
       0.034853745 0.12129949 0.10076836 -0.055905595
000070 ae 81 75 bd 0d e8 5c bd 97 58 71 ba 58 3a 1d 3d
       -0.059938125 -0.05393224 -0.00092066213 0.03838572
000080 6f 0b a5 3d a3 7a 29 3e 1b 73 33 be a5 dc 41 3a
       0.080588214 0.16550688 -0.17524378 0.00073952443
000090 1d 78 97 3c 26 44 a7 3d a9 93 0c be 92 05 3c 3d
       0.018489892 0.08167295 -0.13728203 0.04590375
0000a0 a8 dc fd bc b1 ff 33 3d 75 73 af 3c 5a 93 2a bd
       -0.030989006 0.04394502 0.021417359 -0.04164443
0000b0 42 02 d3 bd cd 24 81 3b aa 57 ce bd df 08 9e 3d
       -0.10303165 0.0039411546 -0.10075314 0.07716536
0000c0 4b 8e 0c 3e 7d 2d 09 be 95 80 c0 bd 8b 51 ec 3c
       0.13726155 -0.13396259 -0.09399525 0.028847476
0000d0 81 9c 39 3d 7c f8 c2 bd e8 07 02 bd 20 87 01 bd
       0.04531527 -0.09520051 -0.03174582 -0.031623006
0000e0 27 65 10 bd 0a 4a 09 bc 84 8c 3c 3e f5 54 18 bb
       -0.035252716 -0.008379469 0.18412977 -0.0023243998
0000f0 d8 b9 c7 bc e9 dc da 3c f4 c6 ce bd 03 18 67 bd
       -0.02438061 0.026716666 -0.10096541 -0.056419384
000100 e8 6d 88 bd 62 83 5b be 85 32 a9 bb 67 04 e5 bd
       -0.06661588 -0.21436837 -0.005163493 -0.1118248
000110 b4 f8 65 3d 04 63 ae 3d 60 d4 29 bd 53 2f 76 3d
       0.056145385 0.085149795 -0.041462302 0.060103726
000120 95 6f cb bc 82 c8 e7 3d 26 9a 36 bd 49 f2 9c bd
       -0.02483348 0.11317541 -0.0445806 -0.076634
000130 1c 3f d5 bd 2a 44 3f bc 9e 44 03 be a2 a7 9a 3d
       -0.10412428 -0.011673966 -0.12819144 0.07551505
000140 04 cc 5c 3d 42 ae 1d be 60 f2 dc 3c 7a b0 65 3d
       0.053905502 -0.15398505 0.026971042 0.056076504
000150 7e ce 8a 3b 7c ac 1c 3d c5 dd f7 3c 87 9d 12 3e
       0.0042360416 0.03825043 0.030257115 0.14317904
000160 15 35 96 3d c7 cf 5d bb ac 8d 64 be e5 7d 12 3e
       0.07334343 -0.0033845769 -0.22319669 0.14305837
000170 38 37 85 be 0b 31 c8 bd 6e 14 03 bd 0c bf 8b bb
       -0.2601869 -0.09774979 -0.032001905 -0.004264718
000180 9c 4a 38 3d d4 20 bf 3c c1 8d ab bd 58 f2 58 3d
       0.044993028 0.023331083 -0.08376647 0.052965492
000190 4c 53 3b 3d 9c ca 33 3e a0 1c b8 bc a0 24 f6 3d
       0.045733735 0.17557758 -0.022474587 0.120187044
0001a0 31 c9 0b 3e 8a 56 c2 bc 50 e8 a2 be 80 7b 1f bc
       0.13650967 -0.023722906 -0.31817865 -0.009734035
0001b0 e0 60 b8 3c 0a 92 b3 3d 35 09 5d ba 13 6f b1 3c
       0.022507131 0.08768089 -0.0008431853 0.02165941
0001c0 91 16 8b 3d 44 a3 92 3d 03 64 13 bd 53 b5 6c bc
       0.067914136 0.07160047 -0.03598405 -0.014447528
0001d0 8f 94 0b be 4b 73 58 3c 22 94 1e bd 01 f9 31 3e
       -0.1363089 0.013211082 -0.03871549 0.17380144
0001e0 19 0d 3b 3d d0 73 ca 3c 3e 01 7c bc 7c eb ca 3d
       0.045666788 0.024713427 -0.015381156 0.09908196
0001f0 94 4e d1 3c 96 f5 f2 3c 25 22 0b 3e bb ee 35 be
       0.025550164 0.02965812 0.13587244 -0.1776685
000200 f0 34 26 bc cf 38 7d 3d 81 7f bf 3d 6a cf 14 be
       -0.010144457 0.061821755 0.09350491 -0.14532247
000210 d2 c9 8c bc 5b 0f 79 bc f0 f1 f4 bd 04 e7 81 bd
       -0.01718608 -0.015201415 -0.119602084 -0.06342891
000220 12 4b 23 3d 0b f1 39 3d 59 a2 20 3d 06 93 fc 3c
       0.039866515 0.045395892 0.039217327 0.030831825
000230 10 48 63 3d 81 91 13 bb 5c b7 ee 3d b9 36 35 3e
       0.055488646 -0.0022517147 0.11656067 0.17696656
000240 0f ff 58 bb 7c c0 1d 3d 86 fe fd bb 12 eb 65 3d
       -0.003311101 0.038513646 -0.007751289 0.056132384
000250 d8 7a 99 3d c4 df 99 3c a2 de b5 3d fe 2c 13 3d
       0.07494134 0.018783458 0.088803545 0.03593158
000260 9b 28 e6 bc 9f 04 5d bd b3 c1 00 bd a3 01 aa ba
       -0.028095534 -0.053959485 -0.031434726 -0.0012970458
000270 3a e7 a3 3d 93 91 24 be 7f 5a 6c 3d b2 b7 70 3d
       0.08003087 -0.16071157 0.05770349 0.058768936
000280 e2 50 38 bc 81 42 cb bd 70 91 78 3d 7f eb 0f be
       -0.011249753 -0.09924794 0.060685575 -0.14054678
000290 2f 19 8a 3d 8a 96 14 be b3 3e 03 bd 95 8f af 3d
       0.06743085 -0.14510551 -0.032042217 0.08572308
0002a0 cc 3e ab bd 37 43 3c 3d a3 32 46 bd f6 0e d7 bc
       -0.08361587 0.04596254 -0.048388135 -0.026252251
0002b0 c2 fd 7a 3d 63 89 29 3c 2b 98 99 3b 6f 91 da bd
       0.06127716 0.010347697 0.0046873293 -0.106722705
0002c0 e2 9d 04 bc bf b5 22 bd 8f 7a 89 bd a5 1d e9 bd
       -0.008094283 -0.039724108 -0.06712829 -0.11382607
0002d0 23 14 7e 3c 8e e0 38 be 18 98 7f bc d5 1a a8 3d
       0.015507731 -0.18054411 -0.015600227 0.08208243
0002e0 25 c3 df 3c 0f 81 b6 bc 9c ef 29 bc 97 40 25 bd
       0.027314732 -0.022278337 -0.010372069 -0.0403448
0002f0 1a ea a1 3d a3 c3 98 3d 0b 7b 94 3d f6 90 06 3e
       0.079059795 0.0745919 0.07250031 0.13141236
000300 21 56 d4 3a 95 a9 04 be b1 92 64 be 6c 31 f2 3d
       0.0016199985 -0.12955315 -0.22321583 0.11825833
000310 67 fc a9 bd 2a 9b 31 bc a1 b3 07 3e 5a b3 45 be
       -0.08300095 -0.010840217 0.13252117 -0.19306698
000320 9e be 4e bd c1 93 9e 3d a5 f3 aa bd 1a b2 a9 3c
       -0.050474755 0.077430256 -0.08347253 0.020714808
000330 31 8d 6e 3c fb 97 fd bd ec af 84 3d 2f 2e 14 be
       0.01456003 -0.123825036 0.06478867 -0.14470743
000340 f1 fd 47 3d d5 65 8f 3d 1e a7 fe bc 70 83 92 3d
       0.04882616 0.07001845 -0.031085547 0.07153976
000350 61 05 82 bd 96 d8 d0 3d 43 71 0b bc 45 2b 18 bd
       -0.06348682 0.101975605 -0.00851089 -0.03715064
000360 57 a1 88 bd 2e 66 99 bc 9a 10 71 bd d1 05 5d 3d
       -0.06671398 -0.01872548 -0.058853723 0.053960625
000370 7d e9 a0 bd 4a 62 08 3e fa 38 86 bc 55 cd 20 3d
       -0.07857034 0.13318744 -0.01638459 0.03925832
000380 c4 a9 07 be 1c 43 da 3d 28 c2 fa 3b 5e f3 58 3b
       -0.13248354 0.10657331 0.0076525398 0.0033104043
000390 dc 88 cb 3d 61 31 a4 bd 62 a7 10 3d f3 69 1f be
       0.09938213 -0.08017231 0.03531588 -0.1556776
0003a0 d5 60 41 3d b8 d8 34 39 31 d4 2d 3d c2 5b fa 3c
       0.047211487 0.00017246872 0.04243869 0.030561332
0003b0 d6 47 56 bb 8f b9 dd bd 0d 6f a7 bd d5 7f b1 bd
       -0.0032696626 -0.10826408 -0.08175478 -0.0866696
0003c0 4d 85 8a bd 55 90 76 bd 27 c2 83 bc 11 f2 2d bc
       -0.06763706 -0.06019624 -0.01608379 -0.010616795
0003d0 66 48 4c bd dc 15 cb bb 40 5d c8 bd 3b 47 36 be
       -0.049873732 -0.006197674 -0.09783411 -0.1780061
0003e0 36 80 41 3d 3a 50 a4 3d 54 d7 02 be 21 53 db 3c
       0.047241412 0.080231145 -0.12777454 0.026773037
0003f0 9b 6e 03 3d 73 23 60 3d a0 46 a6 bd 02 fb d7 ba
       0.032087903 0.054721307 -0.081189394 -0.0016478004

hidden_layers.1.weight f4 [256, 256]
000000 9c af a2 bd 4b c7 1e be d5 f9 88 bd 65 98 55 3d
       -0.07943651 -0.15505712 -0.06688277 0.052147288
000010 5d a9 5f 3a 3f 00 bd 3a c5 c4 ec bd 65 bb 33 3e
       0.0008532012 0.0014419629 -0.11560968 0.17551954
000020 a2 c1 a7 3d 9d 3e 10 bd 50 19 ca bd 10 81 86 be
       0.081912294 -0.035215963 -0.09868109 -0.26270342
000030 99 9c 89 bd 56 3b fe bd 4e e6 6d bd 4e 1b ce bd
       -0.06719322 -0.12413661 -0.058080964 -0.10063802
000040 6c f8 71 be f7 b9 0c bd 38 3e 6c bd 50 53 55 3c
       -0.23629922 -0.034357037 -0.057676524 0.0130203515
000050 bf 8d 93 3e c9 fe 30 be 5a 58 a6 bc 55 0f ab bc
       0.2881908 -0.17284693 -0.020305801 -0.020881334
000060 14 ca 9d bc 31 19 fa bc 1a 07 93 3d a6 94 90 bd
       -0.019261397 -0.03052959 0.07179089 -0.070596024
000070 e8 c3 2b be 03 78 92 3d 56 0c 40 bd d4 3b 68 be
       -0.16773951 0.07151797 -0.046886764 -0.22679073
000080 69 44 5e be c8 6f 2d bd d8 92 08 bd 5d 51 b1 3d
       -0.21705784 -0.04234293 -0.033343166 0.08658097
000090 d8 44 bf 3d fa 44 0d be eb a9 65 3c 4a af 08 be
       0.09339303 -0.13795844 0.014017562 -0.13348117
0000a0 13 f9 ca bd a3 fb 03 be aa 81 d3 bd a6 c9 a3 bd
       -0.099107884 -0.1288896 -0.10327466 -0.07997446
0000b0 d6 b1 07 bd 72 64 2f 3d 62 b6 0d be b7 ba c7 bd
       -0.033128582 0.0428204 -0.13839105 -0.0975241
0000c0 2f e0 31 be d9 84 1f be f1 61 95 be 49 52 99 bb
       -0.17370676 -0.15578021 -0.29176286 -0.0046789986
0000d0 cd be 8c 3d 81 70 c1 3d c1 df f9 b9 e7 d0 a4 3d
       0.0687233 0.094452865 -0.0004765969 0.080476575
0000e0 21 de ef ba 80 43 3c bd ac 52 95 bd 97 0e c3 bd
       -0.0018300453 -0.04596281 -0.07291159 -0.09524267
0000f0 41 df 94 3d 82 c8 65 bd a7 c2 99 3c e2 95 86 3d
       0.07269145 -0.056099422 0.018769575 0.06571557
000100 8f c6 13 bd e7 73 9a bd 97 ed 27 3e de d8 ad bd
       -0.036078032 -0.07541638 0.16399227 -0.0848863
000110 c8 4f 1e 3d 99 66 b2 bc 76 0d 0b 3e ad 45 a7 bd
       0.038650304 -0.021777438 0.13579354 -0.081675865
000120 1d 38 bf 3c 2d 8d 87 bc 29 ab b9 bd 5b 15 11 bd
       0.023342187 -0.01654681 -0.09065849 -0.035420757
000130 3c 2d d9 bc 2c b2 75 be 69 3e 92 bd 43 da 1b be
       -0.026510827 -0.23993748 -0.0714081 -0.15219979
000140 ec 59 66 bd bd 54 0a 3e aa ac e7 bc c3 2b 67 be
       -0.0562381 0.13508888 -0.028280575 -0.22575288
000150 6f 70 0c bc 36 67 81 bd b7 ea bb 3b 28 24 a0 be
       -0.008571728 -0.06318514 0.0057347673 -0.31277585
000160 a8 1a ee bd eb 03 41 be 6c 77 2f 3e 56 2b f3 bd
       -0.11626178 -0.18849151 0.171354 -0.118735
000170 48 aa 4d 3d df ae 0b be 3c 11 92 bd aa 06 13 be
       0.05021122 -0.13640927 -0.071321934 -0.14358011
000180 d4 2b e8 bd 46 d6 19 3e 87 f2 34 3d 3f d6 8a bd
       -0.113364846 0.15023145 0.044176605 -0.067791454
000190 3f 76 07 3e d4 36 ec 3c 37 4a 43 be 95 df 5b be
       0.13228701 0.028834738 -0.1907128 -0.21472009
0001a0 a8 10 d3 3d 64 05 bb bc e5 e0 8f be d9 6d 6b bd
       0.10305911 -0.022829719 -0.28101268 -0.057477806
0001b0 fe 7d 32 be fa c1 a5 bc d9 37 5a bd bd ec f1 3c
       -0.17430875 -0.020234097 -0.053275917 0.02953183
0001c0 d8 5e a7 bd cd 1e b7 bd 72 6a 80 3d cb b8 74 3c
       -0.08172387 -0.08941422 0.06270303 0.014936636
0001d0 3a e9 3d 3e 00 80 80 be 69 c4 04 3c 04 bc 3e bb
       0.18546 -0.25097656 0.008103468 -0.0029103765
0001e0 49 74 60 be 14 c6 d7 3d 49 f8 bd bd 09 80 f2 bc
       -0.2191936 0.10535827 -0.09275872 -0.029602068
0001f0 cc 5b 12 be d3 8b 11 3e 99 70 22 bd 13 7e b7 bb
       -0.1429283 0.14213495 -0.039658163 -0.005599746
000200 58 b2 be 3d da ca 81 3d 67 17 1c be 0a 4a 90 bc
       0.0931136 0.06337519 -0.15243302 -0.01761343
000210 72 84 b2 bd dd 79 9e bb d7 ae 50 be 82 34 c4 3c
       -0.08716668 -0.0048363046 -0.20379196 0.023950819
000220 13 1d 98 bd c2 a2 3b be 47 9c ea 3d e2 e7 fd 3d
       -0.074274205 -0.18323806 0.11455589 0.12397744
000230 a2 2a 54 be 07 15 47 be c0 6e e9 bd a8 48 dc bd
       -0.20719388 -0.19441615 -0.11398077 -0.107560456
000240 06 95 0e be 1b 8f d7 bd 72 45 df 3d e8 62 65 bd
       -0.13924035 -0.10525342 0.109019175 -0.056002527
000250 01 17 03 be 44 bc d6 bd 1f 98 38 bd db e8 84 3d
       -0.12801744 -0.104851276 -0.04506695 0.06489726
000260 a9 97 88 bc 16 a5 cc 3d 2f eb 71 be 63 88 9f 3c
       -0.01667388 0.09992425 -0.23624872 0.019474214
000270 f7 38 59 bd 9f 16 00 be db e1 3a bd f1 26 fd bd
       -0.05303284 -0.1250863 -0.04562555 -0.12360943
000280 eb d8 cb bc 2d 5f 35 be 25 db a1 3d 23 83 23 bd
       -0.024883708 -0.17712088 0.079031266 -0.039919984
000290 93 53 f7 bd bc b5 1d bd 58 28 95 bc e0 9a a5 bd
       -0.120764874 -0.038503394 -0.018207714 -0.08086181
0002a0 3b a6 a7 3d 88 48 81 be 1b c4 b6 bc cc e6 a5 3d
       0.08186003 -0.2525065 -0.022310307 0.08100662
0002b0 fa 27 2a bb 16 95 69 bd 9e 5a 2b 3d 1f ed 05 bd
       -0.002596377 -0.057026945 0.041834466 -0.03269684
0002c0 6c f5 a1 3d bd 69 07 be bf 91 dc bd 3d c7 ff bd
       0.07908139 -0.1322393 -0.10769986 -0.124891736
0002d0 e5 e5 6c bb f7 6a e3 3c 77 43 1b be 25 f8 46 bd
       -0.003614777 0.027760966 -0.15162455 -0.048576493
0002e0 40 28 7f bd 72 5b b8 3c f3 ad 43 3c cd 96 b0 3d
       -0.062294245 0.022504542 0.011943328 0.08622513
0002f0 34 14 79 bd 4d c7 53 bd 33 3b 12 3e af 74 4f bd
       -0.060810283 -0.05170374 0.14280395 -0.050648388
000300 82 53 00 be e8 d6 0c be fa 1c 31 3d 9a ad 4d 3d
       -0.12531856 -0.13753855 0.043240525 0.050214387
000310 b6 27 15 3d ff 08 09 3d f8 92 43 be ca 58 3c be
       0.036414824 0.033455845 -0.19099033 -0.18393245
000320 af 11 2d 3c b1 f3 02 3e a0 fa bf bd 6d 13 5a be
       0.010563298 0.12788273 -0.09373975 -0.21296473
000330 b5 26 f2 bd a7 14 36 3c b2 3e 19 3c a3 74 8f be
       -0.11823789 0.011113322 0.009353327 -0.28018674
000340 f6 60 84 be a5 57 28 3e 4b 02 d6 bc 61 d9 d3 3c
       -0.25855225 0.16439684 -0.02612414 0.02586049
000350 df 1f 67 be 64 0a 86 be f0 87 0a be 56 31 bc bc
       -0.22570752 -0.26179802 -0.13528419 -0.022972744
000360 1c 14 4d 3e ed 04 10 3e de 4e 9e bd f3 e9 8e bd
       0.20027202 0.14064379 -0.077298865 -0.06978216
000370 20 4b 61 be c4 ad 34 bd cc b9 2e be 28 09 bc 3c
       -0.22001314 -0.04411103 -0.17063063 0.022953585
000380 a4 05 c4 3c db b8 40 be 50 ad 3a be 84 f9 19 be
       0.02392847 -0.18820517 -0.18230176 -0.15036589
000390 b1 ca e0 3b 8f 8d 05 bd 88 b4 80 3d a4 62 a1 bd
       0.0068601 -0.032605704 0.062844336 -0.07880142
0003a0 aa c3 95 3d 3d 5f 14 3d ec a1 49 3c c3 96 87 bd
       0.073127106 0.03622364 0.012306672 -0.066205524
0003b0 6a 85 47 3d 19 ad 0a be db 1b ba bc 43 b7 9c 3d
       0.048711218 -0.13542594 -0.02271836 0.07652142
0003c0 08 8a 60 be 33 e6 b2 bd db 90 80 bd 0e ce 45 3c
       -0.21927655 -0.08735313 -0.06277629 0.012073053
0003d0 e7 77 23 bd 5d 5d 6a 3c 4d f0 c4 3d 86 2c 14 bb
       -0.03990927 0.014304486 0.09616146 -0.0022609546
0003e0 83 92 05 be 0c a8 31 3d b0 6a 31 be 19 c0 2f be
       -0.13044171 0.043373153 -0.17325854 -0.17163123
0003f0 85 ea a3 3c b3 22 c1 3c 55 b2 89 3c 40 b1 2d be
       0.020009289 0.023576116 0.016808668 -0.16962147

hidden_layers.1.bias f4 [256]
000000 68 73 f0 bd b3 c3 e2 bb a5 84 eb bd 49 84 0a be
       -0.11740762 -0.006920302 -0.11499909 -0.13527025
000010 b2 87 79 bc 4d 3b e5 3c 11 f9 10 be 8d f5 a6 bd
       -0.015230106 0.027982378 -0.14157511 -0.08152304
000020 4b c1 08 bb ae 0e f1 bc 56 a3 1a bd 57 83 32 be
       -0.0020867165 -0.029425945 -0.037753426 -0.17432915
000030 d3 34 c5 bd 70 82 3d bd 88 c0 df bd 3d 31 ee bd
       -0.09629216 -0.046266973 -0.10925394 -0.11630485
000040 5a af 9f bd 29 31 00 be cc 29 b3 bd e5 ee 97 bd
       -0.077971175 -0.12518753 -0.087482065 -0.074186124
000050 40 53 4e 3d 85 56 50 bd 78 fd b8 bd fb ef 55 bd
       0.050372362 -0.05086376 -0.0903272 -0.052230816
000060 72 c7 02 be 46 c0 4f bc 1b 55 aa bd c0 06 d8 bd
       -0.12771395 -0.012680119 -0.08317014 -0.105481625
000070 ac c9 bd bd 51 fc b9 bd 5a 7c fc bd 5c ca 80 bd
       -0.092669815 -0.09081329 -0.12328406 -0.06288597
000080 d9 ec 36 bd 05 0e 7f bd c1 b4 9f bd 93 fc d4 bc
       -0.04465947 -0.06226923 -0.07798148 -0.025999343
000090 c1 0c 27 bd a0 ce 6e bc d4 96 07 be 72 1e a3 bd
       -0.040783647 -0.01457563 -0.1324113 -0.07964791
0000a0 f3 70 c1 bd a6 95 24 bd 4a 5d 16 be b4 af 8a bd
       -0.094453715 -0.04018178 -0.14684024 -0.06771794
0000b0 8c d6 85 bd 12 85 07 be fc 08 2e bd 9b 41 15 bd
       -0.06535062 -0.13234356 -0.042489037 -0.03643952
0000c0 0f 2d aa bd 84 78 46 bd ac d0 19 bd 7c cb 17 be
       -0.083093755 -0.048454776 -0.03755252 -0.14823717
0000d0 10 a6 a7 bd 75 5d 07 be 45 3b c2 bd ec 55 9a 3d
       -0.08185971 -0.13219245 -0.09483961 0.075359195
0000e0 5c eb 91 bd 45 11 d5 bd 3c 43 8f bd c0 64 39 bd
       -0.07124969 -0.104036845 -0.06995246 -0.0452621
0000f0 18 c3 64 bd ee 83 6c 3d 77 bd 7d bd 0a 13 2b bd
       -0.05585012 0.057743005 -0.061948266 -0.041766204
000100 70 15 35 3d 29 b7 c4 3c 6f 5d af bc 3b 54 7f bd
       0.044209898 0.024013119 -0.021406857 -0.062336188
000110 05 df c4 bd 03 6b ed bc 91 db 9f bd 52 e1 81 bd
       -0.0961285 -0.028981691 -0.07805551 -0.063418046
000120 ec 65 00 bd b5 eb 2b 3b b9 42 37 ba b7 b4 8b bd
       -0.0313472 0.0026233022 -0.00069908384 -0.06821578
000130 4d 9f a5 bc 83 7b cd 3c f5 2c e3 bd 05 d2 c2 bd
       -0.020217562 0.025083309 -0.11092559 -0.09512714
000140 4c 6c 03 be 11 9f 95 bd 61 3d f5 3d 78 57 09 be
       -0.1283428 -0.0730573 0.11974598 -0.13412273
000150 82 f4 a6 bd fa 43 d9 bd 22 4c ca bd 32 2d 1d bd
       -0.08152105 -0.106086686 -0.098778024 -0.03837318
000160 8e fe da bd 26 0f b2 3d a7 e7 fa bd 7d 54 84 bd
       -0.10693084 0.086942956 -0.122512154 -0.06461427
000170 33 d7 10 be cb 43 91 bd 58 52 fa 3d 9c 13 70 3d
       -0.14144592 -0.070930086 0.12222737 0.05861245
000180 65 bf 20 3e ec ce 48 bd da c2 cc bd 7e 83 7b bd
       0.15698011 -0.04902546 -0.099981025 -0.061404698
000190 e2 11 01 bc 1e 72 d3 bd 8c f7 12 be 11 d6 d8 3c
       -0.007877799 -0.103245005 -0.14352244 0.026469262
0001a0 8f 41 8b bd c2 4a cb bd 80 f6 e7 bc fe e5 57 bd
       -0.06799614 -0.09926368 -0.028315783 -0.052709572
0001b0 c7 08 29 be 41 ea ea bc 04 ce a3 b9 d2 82 bb bd
       -0.16507255 -0.028676154 -0.00031243276 -0.09155811
0001c0 be ea e8 3d 0b 37 b5 bd 2e c1 72 bd 22 f1 f4 bd
       0.113728985 -0.08848389 -0.05926626 -0.11960055
0001d0 d4 bc 56 bd 67 fc 25 be b8 58 81 bd 59 6a b6 bd
       -0.052426174 -0.16209565 -0.0631575 -0.08907003
0001e0 c5 a0 1e be a7 bb 8e bd 24 75 5f 3c f1 44 4f bd
       -0.15491016 -0.069693856 0.013638768 -0.050602857
0001f0 fa 63 b4 bd 49 13 a0 bd 1e 71 e1 bd 28 eb 7f 3d
       -0.088081315 -0.07816178 -0.110079035 0.06248012
000200 91 dd 9a 3d 72 b2 36 be 75 0b 84 bd 6e 1b 50 bd
       0.07561792 -0.17841509 -0.06447498 -0.05080741
000210 e3 fc 2e bd 49 04 d0 bd 8e cb 45 bd 84 14 a5 bd
       -0.04272164 -0.10157067 -0.048289828 -0.08060554
000220 ef 33 14 be b9 6f a7 bd 4e cf 10 bd 48 12 4c bd
       -0.14472936 -0.08175606 -0.03535395 -0.04982212
000230 9b 3d 9e bd 51 be b2 3d 43 d6 33 bd 28 a2 31 3d
       -0.07726594 0.08727706 -0.043905508 0.043367535
000240 fa 42 a2 bd 83 5a 06 be 42 b7 f0 bd 99 e4 82 bc
       -0.07922931 -0.13120465 -0.11753704 -0.015978144
000250 69 e3 3c bd 6b 07 92 bd aa 44 06 bd ef 06 c0 bd
       -0.046115313 -0.07130321 -0.032780327 -0.093763225
000260 a8 d8 7c bd 62 fa dc bd bd 77 8c bd 1a 19 97 3d
       -0.061730057 -0.10789944 -0.06858776 0.073778346
000270 20 53 a8 3d 89 61 6c bd 3a 39 cb bd 94 b8 a4 bd
       0.0821898 -0.057710204 -0.099230245 -0.08043018
000280 c9 f3 02 3e 25 ca 1a be 36 c4 40 bd 74 19 26 be
       0.12788309 -0.15116175 -0.04706212 -0.16220647
000290 dd 56 c6 bd 3b 63 76 bd 61 b0 69 bd 91 28 9c bc
       -0.096845366 -0.060153227 -0.057052974 -0.019062312
0002a0 bb 0a 42 be e5 9b fe bd e8 af e5 bd fc 72 38 bc
       -0.18949406 -0.12432078 -0.11215192 -0.011257883
0002b0 2a 5f 08 be 64 9b ac bd 4d b8 c1 bc 60 45 ad bd
       -0.13317552 -0.08428076 -0.023647452 -0.08460498
0002c0 ab 80 b9 bd 50 9b d0 bd 12 b9 fe bd b1 99 e6 bd
       -0.090577446 -0.101858735 -0.12437643 -0.11259783
0002d0 41 9b 9a bc b8 38 bd bb ca 81 17 be 8a 25 02 bd
       -0.018872859 -0.0057745837 -0.14795604 -0.03177408
0002e0 11 68 27 bd 7e 08 e0 bd 4a 68 0b be 7d f9 a5 bd
       -0.04087073 -0.1093912 -0.13614002 -0.08104227
0002f0 82 0e 80 3d cc be c4 bd b7 66 17 be 92 8f c6 bd
       0.06252767 -0.09606704 -0.14785276 -0.096953526
000300 d8 ff 07 3d 74 d0 35 bd f3 49 32 bd ef 12 0c be
       0.033202976 -0.04438825 -0.043527555 -0.13679098
000310 df 54 56 bd 89 03 e8 bd 15 6a f2 bd 6b 40 1e 3d
       -0.052327033 -0.11328799 -0.1183664 0.038635653
000320 a0 82 36 bd 3d f4 dd bd 6d ae c1 bd eb 51 90 bd
       -0.044558167 -0.108376004 -0.09457097 -0.070468746
000330 54 4c b8 bd d4 dc 0b bd a3 12 1f be 7c 72 04 be
       -0.089989334 -0.034146145 -0.15534453 -0.12934297
000340 1b ae f1 bd c0 fe 5e bc b2 49 d0 bd 23 c8 22 bd
       -0.11800786 -0.013610542 -0.10170306 -0.039741646
000350 0d 52 c4 bb ac 2e e0 bd bd 94 b3 3a 3e d0 22 be
       -0.0059912265 -0.10946402 0.0013700944 -0.1589975
000360 84 d5 92 bd ff be 4c 3d 9a 70 4d bd 8c c8 97 bd
       -0.07169631 0.049986836 -0.050156213 -0.07411298
000370 00 1c a2 bb a4 75 81 bd 71 90 d2 3d ec d3 18 be
       -0.0049471855 -0.06321266 0.10281456 -0.14924592
000380 89 6b a1 bd c6 dc 27 bd 3f 0e 67 bc 3e 06 8e bb
       -0.07881839 -0.04098203 -0.014102518 -0.00433424
000390 a4 32 77 bd e7 21 43 bd 8e 97 8d bd 8f 78 f7 bd
       -0.06035103 -0.047639754 -0.069136724 -0.120835416
0003a0 ee 7d a4 bd fb e9 ae bd 95 b6 ec bd 34 36 ce bc
       -0.08031832 -0.08540722 -0.11558262 -0.02517233
0003b0 72 66 32 3c 7e 6d 89 bd fa ab 34 ba e4 15 3a bd
       0.010888683 -0.06710337 -0.00068920816 -0.045431033
0003c0 77 31 93 bc d0 dc 04 be 93 8a 9e bd ee 10 95 bd
       -0.017967923 -0.12974858 -0.07741275 -0.0727862
0003d0 30 05 03 3d f0 91 a7 bd d6 1a fa bd 2f 56 94 bc
       0.03198737 -0.08182132 -0.1221215 -0.018107502
0003e0 fb f9 1b bd b9 ca ed 3c 43 4e e9 bd 32 dc 48 bd
       -0.038080197 0.02902733 -0.1139188 -0.04903812
0003f0 77 df f9 bd 18 b1 b5 bd 0e cb 14 be 35 75 fb bd
       -0.12200826 -0.088716686 -0.14530584 -0.12278215

output_layers.0.weight f4 [40, 256]
000000 5a b4 1d bb bc 7b e0 bd da f9 b2 3d 23 cc 88 be
       -0.0024063797 -0.109611005 0.08739062 -0.26718244
000010 ef e9 52 bd 51 87 39 bd 24 fe 47 bb df 78 cb bd
       -0.051492628 -0.045295063 -0.003051647 -0.09935164
000020 2e 22 13 bd 03 a4 1f 3d a1 6e 5a bd 4c 09 b1 3c
       -0.03592127 0.038974773 -0.05332816 0.021610878
000030 79 de 37 bd 0b 1a a3 bd f4 c5 d7 3d 4b d9 1c bd
       -0.0448899 -0.07963952 0.105358034 -0.038293164
000040 a6 b9 b9 bd 0c 15 6f bd fc 64 85 bd 3c ba 64 bd
       -0.09068613 -0.05836968 -0.06513402 -0.05584167
000050 00 ff 68 bd 5f 5d 94 3d 0b 8f 19 3e 69 78 30 be
       -0.056883812 0.072443716 0.14995973 -0.17233433
000060 7f 58 9a 3d 5f 15 2c 3d d4 45 92 bd 87 e8 c9 3d
       0.075364105 0.04201257 -0.07142225 0.09858804
000070 1c e0 e2 bc 57 f0 c5 bd 53 3a 70 bd af 88 b5 bd
       -0.027694754 -0.09664982 -0.058649372 -0.08863961
000080 58 73 1d bd 68 b1 bd 3c 2a bb 71 bc e5 f2 b2 bb
       -0.03844008 0.023155883 -0.014754096 -0.005461084
000090 18 0a 2a 3e ff ba db bd 87 e9 07 3e c6 f5 ea 3d
       0.16605413 -0.10729026 0.13272677 0.11472659
0000a0 18 99 e5 3d dd ff bd 3d 6a 41 a3 3d 87 a9 d1 bd
       0.11210841 0.09277318 0.07971461 -0.10237413
0000b0 f0 8c ec bd 16 bd 87 3d 23 c0 a1 3d 32 3c 40 3d
       -0.11550319 0.06627862 0.07897975 0.046932407
0000c0 c7 3d 32 3e 68 6b 5b be ad 41 b7 bd ae eb b1 bd
       0.17406379 -0.21427691 -0.089480735 -0.086875305
0000d0 37 cf 51 be 81 25 02 3e 31 5f 2d 3d 3b 55 ee bc
       -0.20489202 0.12709619 0.04232711 -0.029093375
0000e0 3a 1d ea bc 07 d3 47 be 7c fd 07 be 4b 0e c0 3d
       -0.02857839 -0.19514094 -0.1328029 0.09377726
0000f0 00 ba 0c 3e 4f c1 81 bd aa 77 5b 3e 36 14 3c 3e
       0.13742828 -0.06335699 0.21432367 0.18367085
000100 62 c1 39 bd 6b df ce bc e3 c8 ea bd a4 a7 4d 3e
       -0.04535044 -0.025253018 -0.11464097 0.20083481
000110 96 31 bb 3d 49 c7 20 bd 7d 4b 16 be 4a 13 92 3d
       0.09140317 -0.039252553 -0.14677234 0.07132585
000120 43 7f 10 bd 98 e3 18 bd 57 c1 c2 3d 25 33 78 3c
       -0.035277616 -0.037326425 0.09509533 0.015148913
000130 da 7a 85 bd 3a 9c b5 bd 8e 55 c9 bd d4 3e 25 bc
       -0.06517573 -0.088676885 -0.098307714 -0.01008578
000140 ef 2a 4a bd e1 af 3a be fb e3 07 bd fd 76 82 bc
       -0.04935735 -0.18231155 -0.033176403 -0.015925879
000150 66 09 7d 3c b7 ad a0 bc ec f6 3e bd 70 34 0a bd
       0.015444135 -0.019614084 -0.0466222 -0.033741415
000160 ed 96 d6 bc 77 76 c5 bc 35 f9 56 3e 5a 81 c1 3c
       -0.026195014 -0.02410434 0.20993502 0.02362125
000170 8f cd 01 3e e2 98 1e be cc 35 02 bd 91 fe 17 bd
       0.1267607 -0.15488008 -0.031789586 -0.037108008
000180 ec e8 20 bd ba 74 f4 3c cc 77 8b 3d 1b 45 b9 bd
       -0.03928463 0.029840816 0.06809959 -0.09046384
000190 e8 45 22 be 55 58 c2 3a 13 a6 17 3d 1c ef 31 bd
       -0.1584698 0.001482735 0.037023615 -0.043440923
0001a0 f9 6e 44 bc 37 19 fe bb bf d1 e9 bd 3d c3 3c bd
       -0.011989349 -0.0077544707 -0.11416959 -0.04608463
0001b0 27 26 2e be c7 cd 2d 3d 4b e9 98 bd dc f0 30 3e
       -0.17006741 0.042432573 -0.07466372 0.1727938
0001c0 80 2f 03 bd cf f2 74 3c 59 fe 06 bc 91 17 3b 3e
       -0.03202772 0.014950468 -0.008239352 0.18270709
0001d0 54 a0 6f bd 49 82 bc bd 62 43 48 be b4 5b b6 bd
       -0.05850251 -0.092045374 -0.19556955 -0.0890421
0001e0 74 b0 7b 3d 8e 9f 27 3e 1d d0 91 bc 63 80 1c bd
       0.061447576 0.16369459 -0.017799431 -0.038208377
0001f0 97 dd 08 be 4a fd 81 3d ba 76 aa bd b4 7c ac bd
       -0.1336578 0.06347139 -0.083234265 -0.08422223
000200 f3 14 ff bc 3d fe 63 3d 6b 6e 5c 3e 2e 73 6f bd
       -0.031137919 0.055662382 0.21526496 -0.058459453
000210 a6 5b aa 3c 4b 12 d2 bc 4b 1c 20 be ee 1e c8 3c
       0.020795655 -0.025643488 -0.15635793 0.02442881
000220 6b ad ba bd 31 1e eb 3c 5f b8 22 be a0 88 72 bd
       -0.09115108 0.02870092 -0.15890644 -0.059212327
000230 2c a4 33 3d 91 0e e7 bc bb e9 82 be bc e8 cc bc
       0.04385774 -0.028205188 -0.25568947 -0.02501332
000240 b5 d0 66 bc 8e 22 07 3d ab f3 4c 3d 14 7b ef 3d
       -0.014087846 0.03299194 0.050037067 0.11693397
000250 20 cf 7e 3e 57 bf 03 bd c8 bb c5 bd b2 62 be bd
       0.248837 -0.032164898 -0.09654957 -0.092961684
000260 83 f4 43 bc 58 11 fb 3c 4c ed 09 be 73 36 f8 bc
       -0.011960152 0.030647919 -0.13469428 -0.0302994
000270 6e 2b d9 bc d7 90 53 bd ce 18 3a 3e 27 2d bd 3d
       -0.026509967 -0.051651802 0.18173525 0.09237128
000280 55 46 b5 bc 15 be 5c 3e 64 f3 94 be 4e c4 a7 bd
       -0.022128263 0.21556886 -0.29091942 -0.08191739
000290 20 21 0f be 50 91 b0 3d b5 a3 08 3e 93 bc 09 bd
       -0.1397748 0.08621466 0.133437 -0.033627104
0002a0 fc 97 69 3d 76 31 a4 3c d8 6e 83 bd 15 f6 42 3d
       0.05702971 0.020043116 -0.06417626 0.047597963
0002b0 80 d0 0d 3e f9 2e 16 bd fd 90 bf bd c2 0c 4d bd
       0.13849068 -0.03666589 -0.09353826 -0.050060995
0002c0 75 c1 18 3e 84 11 b8 3a eb d4 63 3c f0 df 51 3e
       0.14917548 0.0014043306 0.013905744 0.20495582
0002d0 e5 d8 b3 3d 2c 55 bd bc 71 f6 4c 3d 9d d0 04 bd
       0.08781604 -0.023111902 0.050039712 -0.03242551
0002e0 c0 36 34 3d 70 8d 17 3e 0d 24 03 3e bf e2 e4 3c
       0.043997526 0.14800048 0.12806721 0.027940152
0002f0 7a 77 9a bc 36 a6 5d 3c 29 36 dd bd 16 6e 1a bd
       -0.018855799 0.013528397 -0.10801346 -0.037702642
000300 75 02 e2 bc b6 a8 9f 3d 3b d4 eb 3d fb 50 e4 3c
       -0.027589062 0.07795851 0.11515089 0.027870646
000310 46 6f 6c 3e 7c 6f 49 3e 55 fe bd 3d 26 7a 52 bd
       0.23089322 0.19671434 0.092770256 -0.05138602
000320 ad ce ea bd 3b 3e 85 3e c0 10 0a be 64 78 51 bd
       -0.114652015 0.2602404 -0.13482952 -0.051140204
000330 90 24 16 3d 37 53 fa 3d 07 8a 83 bd 3d c8 06 be
       0.036655962 0.12222903 -0.06422811 -0.13162322
000340 31 4f f0 3d 54 93 e4 3d b6 0a 0a 3e 31 11 ab 3d
       0.117338546 0.11160913 0.13480648 0.083528884
000350 b9 af 65 bb d8 e8 9a 3d c7 f4 0f bd 82 ab 34 be
       -0.0035047366 0.07563943 -0.035145547 -0.1764355
000360 67 eb d1 3d 5d 59 1d bd 12 68 2b 3d 85 e5 87 bc
       0.102499776 -0.0384153 0.041847296 -0.016588936
000370 e4 2d b5 3c 1c ce 2a 3d 07 11 c2 bc 63 11 c5 3c
       0.022116609 0.041700467 -0.02368976 0.024056142
000380 f0 cf 2d 3e 3e 21 fc bd 44 8c d1 be 6b 4c 74 bc
       0.16973853 -0.12311028 -0.40927327 -0.014910798
000390 a7 b9 b2 bc 73 bf e3 bc a1 d9 d6 3c d1 f8 64 bb
       -0.021817042 -0.027801251 0.02622682 -0.0034938345
0003a0 c2 2a 08 3e 14 87 8a bd 04 f0 11 be a1 b8 07 3e
       0.13297561 -0.06764045 -0.14251715 0.13254024
0003b0 0d e4 3b bd 5c fe 81 bc dd 65 48 be 35 f3 b0 3c
       -0.045871783 -0.015868358 -0.19570108 0.021600345
0003c0 30 28 aa bd 10 3b bf bc 47 ce ba 3d fb 6f 54 3c
       -0.083084464 -0.023343593 0.091213755 0.012966151
0003d0 36 f8 2f bd b5 4d 63 3d 72 c2 00 3e a5 dc 97 bc
       -0.04296132 0.05549403 0.12574175 -0.018537829
0003e0 37 48 57 bd 02 fb e3 bc 9c 09 6f bd d4 48 81 bd
       -0.052559104 -0.02782965 -0.058358774 -0.06312719
0003f0 dc 93 35 bd 5a b7 a5 bd df b7 07 be 3b 12 84 3c
       -0.044330463 -0.08091612 -0.13253735 0.016121974

output_layers.0.bias f4 [40]
000000 3b fa 61 be 4d 92 bd be 69 0f 26 be 80 23 75 bf
       -0.22068112 -0.3702568 -0.16216816 -0.95757294
000010 84 6c a0 be 9b 9f 95 be 29 9a d1 be 25 25 bd bd
       -0.3133279 -0.29223332 -0.40937927 -0.092356004
000020 a4 0a 9f be 3b 6a 9e be b0 e9 99 be e4 ea 42 be
       -0.31062806 -0.30940422 -0.30061102 -0.19034916
000030 a3 41 64 be 4b ef b2 be e9 f4 9f be 78 1e ad be
       -0.22290663 -0.3494819 -0.3124154 -0.33812308
000040 dc a9 99 be 98 23 84 be d2 41 95 be 6b 94 af be
       -0.30012405 -0.25808406 -0.2915178 -0.3429292
000050 f0 10 73 be b1 d5 a9 be a4 5a 89 be 27 bb 85 be
       -0.2373693 -0.33170846 -0.26826966 -0.26119348
000060 9f 49 80 be 2b f0 a1 be 1a 9f a2 be 80 47 8b be
       -0.25056168 -0.31628546 -0.3176201 -0.27202988
000070 79 ba 8c be 60 c4 68 be a1 d7 a6 be 74 30 8c be
       -0.27486017 -0.22731161 -0.32586387 -0.27380717
000080 49 2d 9c be 05 ad 65 be a5 9b a7 be df 0d 5a be
       -0.305033 -0.22429283 -0.32735935 -0.21294354
000090 79 4c 61 be 7b 2e 77 bf 50 de a5 be 72 7a f8 be
       -0.22001828 -0.965553 -0.32396173 -0.48530918
