MODELS/REWARD COMPARISON/SAC MASKED MODELS/3_1_actor_local_network.pt (torch, 411287 bytes, 6 tensors)

hidden_layers.0.weight f4 [256, 101]
0	0x3d55b1e8	0.052171618
1	0xbe6f9435	-0.2339638
2	0xbe8b2a4e	-0.27180713
3	0xbe14fe46	-0.14550123
4	0x3e7899c3	0.24277405
5	0x3d891ddf	0.066951506
6	0xbe360aa5	-0.17777498
7	0xbd16cad2	-0.03681452
8	0x3d5637f3	0.05229945
9	0xbd88d284	-0.06680778
10	0x3eb114be	0.34586138
11	0x3c10f0cf	0.008846476
12	0x3dc25876	0.09489529
13	0xbebde865	-0.37091365
14	0x3d1fd9aa	0.03902594
15	0x3d25b4b5	0.04045554
16	0x3e3db09f	0.18524407
17	0xbe916b3b	-0.28402123
18	0xbe0ab172	-0.13544253
19	0x3cd1b5ff	0.025599478
20	0x3e1ee557	0.15517174
21	0x3b9b0620	0.0047309548
22	0x3e58496f	0.21121763
23	0x3bb745f4	0.005593056
24	0xbea302ae	-0.31837982
25	0xbe5a4804	-0.21316534
26	0x3dd84ca6	0.105614945
27	0x3e244722	0.1604276
28	0xbe72abc5	-0.23698337
29	0xbdc50036	-0.09619181
30	0xbdccf8e3	-0.10008409
31	0xbe4ec072	-0.201906
32	0x3da12acf	0.07869493
33	0x3da2d673	0.07951059
34	0xbea85f53	-0.32885227
35	0xbec33477	-0.38125965
36	0xbe80f0f1	-0.25183824
37	0x3de1ac0d	0.11019144
38	0x3dec24d0	0.11530459
39	0x3e21c47b	0.15797608
40	0xbdd83cd4	-0.10558477
41	0x3db146ec	0.086561054
42	0x3eedfc75	0.46481672
43	0xbdd94ba6	-0.10610132
44	0xbeb0b443	-0.3451253
45	0xbedd2d32	-0.43198544
46	0xbe7b48c8	-0.24539483
47	0x3e33657e	0.17519185
48	0xbe47877a	-0.19485274
49	0x3e7bc391	0.24586321
50	0x3dc2a350	0.09503806
51	0xbe8eb0e8	-0.27869344
52	0x3f054e18	0.52072287
53	0xbdf0589e	-0.117356524
54	0x3dac8dc7	0.084254794
55	0x3ae2e0d8	0.001730944
56	0x3dfb5ed3	0.12273946
57	0x3f1e0df1	0.6174002
58	0xbdcf6760	-0.10127139
59	0xbf1049eb	-0.5636279
60	0x3d79689b	0.060890775
61	0xbcbbdf0f	-0.022933511
62	0x3bd3a106	0.0064584045
63	0x3df6dece	0.12054215
64	0xbbb6e5bd	-0.005581586
65	0x3e23002d	0.15918036
66	0x3dca5dc7	0.09881168
67	0x3c76f862	0.0150738675
68	0x3e13b35a	0.14423886
69	0xbe10f84e	-0.1415722
70	0xbd7d5ced	-0.0618562
71	0xbe89c697	-0.26909325
72	0xbec4d5f7	-0.38444492
73	0xbed0706c	-0.4071077
74	0xbe87b0ce	-0.2650208
75	0x3e224dcb	0.15849988
76	0xbeacff39	-0.3378847
77	0x3e7aaa7c	0.24479097
78	0xbf3e76f9	-0.7440029
79	0xbf0db33b	-0.5535161
80	0x3d828629	0.06373245
81	0x3d9d1b54	0.07671228
82	0x3d03550f	0.03206354
83	0xbdeb979e	-0.11503528
84	0xbe7dd3df	-0.24787854
85	0x3b2fc40c	0.0026819734
86	0x3cc4bdcc	0.024016283
87	0x3eea52fa	0.4576643
88	0x3db3ff50	0.08788931
89	0xbe3aec84	-0.18254286
90	0xbc9ac5a0	-0.018893063
91	0x3e0b1ffc	0.1358642
92	0xbe94988a	-0.29022628
93	0xbe7de978	-0.24796093
94	0xbe03d1b9	-0.12872972
95	0xbf0f7cc0	-0.5604973
96	0x3d35a40b	0.044345897
97	0xbd4bd5a6	-0.049764298
98	0x3f124a57	0.57144684
99	0x3d88d66b	0.06681522
100	0x3e768794	0.24075156
101	0xbd445103	-0.04792882
102	0x3df0cf0d	0.11758242
103	0x3e4c0390	0.19923234
104	0x3dc9998f	0.09843742
105	0xbdb52f27	-0.08846884
106	0xbe28bc26	-0.16478023
107	0xbeac69f3	-0.33674583
108	0x3c0b810a	0.008514652
109	0x3e85f200	0.26161194
110	0xba6a0303	-0.00089268404
111	0xbe85a015	-0.26098695
112	0x3e002a3c	0.12516111
113	0x3e4529dd	0.19254251
114	0x3dc377fc	0.095443696
115	0x3f1f32d0	0.6218691
116	0x3d6d09f3	0.057870816
117	0x3da6e823	0.08149745
118	0x3e953e5e	0.29149145
119	0xbe5c82fb	-0.2153434
120	0xbea084f2	-0.3135143
121	0xbe682ef1	-0.22674157
122	0x3e364bb0	0.1780231
123	0x3f05d372	0.52275765
124	0xbe4bc8a3	-0.19900756
125	0xbf1ad5b8	-0.6048236
126	0x3d124003	0.035705578
127	0xbe1126ab	-0.14174907
128	0xbf19d363	-0.60088176
129	0xbedec777	-0.43511555
130	0xbf013218	-0.5046706
131	0xbd3f2fdf	-0.046676513
132	0x3ee0c65c	0.43901336
133	0x3f13fc4c	0.5780685
134	0x3ee5e2a8	0.44899487
135	0x3d8feafe	0.07027243
136	0xbedbf898	-0.429631
137	0x3e1021e9	0.14075436
138	0xbe900776	-0.28130692
139	0x3d8116a3	0.06303146
140	0xbeead7bc	-0.45867717
141	0x3e51d34e	0.20490763
142	0xba817898	-0.0009877859
143	0x3b92bcdb	0.0044780797
144	0x3ef457cf	0.47723243
145	0x3eb50e98	0.35362697
146	0xbe1bed6e	-0.15227291
147	0x3dfd471c	0.12367079
148	0xbe9d8a3c	-0.30769527
149	0xbe8b4ba4	-0.27206147
150	0x3ea3f380	0.32021713
151	0x3ca6e283	0.020371681
152	0xbe83fe38	-0.2577989
153	0xbedb2123	-0.4279872
154	0xbd8ee00c	-0.06976327
155	0xbe973d3c	-0.29538906
156	0x3d9017ad	0.07035766
157	0xbe33c9e0	-0.17557478
158	0xbe541607	-0.20711528
159	0x3e2d66e4	0.16933781
160	0x3ef9220a	0.48658782
161	0xbeae56b2	-0.34050518
162	0xbe8a3059	-0.2699001
163	0xbd1ec7a2	-0.038764603
164	0xbcef14ca	-0.029184718
165	0xbe81d106	-0.25354785
166	0xbe4230c2	-0.18963912
167	0xbd587200	-0.052843094
168	0x3f26648f	0.6499719
169	0x3e0f608f	0.14001678
170	0x3f137841	0.5760537
171	0x3e2a2919	0.1661724
172	0x3df82111	0.12115682
173	0x3e1d0159	0.15332545
174	0x3e913679	0.28361872
175	0x3e638d14	0.22221786
176	0x3e25a56f	0.16176389
177	0x3ee6eabf	0.45100972
178	0x3f197449	0.5994306
179	0x3eb5fa81	0.35542682
180	0xbe81d1ab	-0.25355276
181	0xbe05c1d8	-0.13062227
182	0x3e9d0708	0.30669427
183	0x3e5eddd5	0.2176431
184	0xbbc92f92	-0.006139704
185	0xbe5469ab	-0.20743434
186	0xbb819172	-0.003954106
187	0x3b373337	0.002795411
188	0xbec83fe6	-0.3911125
189	0xbd45a220	-0.048250318
190	0xbecbcb14	-0.39803374
191	0x3e409675	0.18807395
192	0x3d0389ed	0.03211396
193	0x3e1c85e8	0.15285456
194	0xbec2e301	-0.38063815
195	0xbdd98577	-0.106211595
196	0xbec083e7	-0.37600634
197	0xbe1d1247	-0.15339004
198	0xbe65661d	-0.22402234
199	0xbe9514d7	-0.29117462
200	0xbe8b4965	-0.27204433
201	0xbe3597a8	-0.17733634
202	0x3da5899e	0.08082889
203	0xbe964562	-0.2934981
204	0x3c009638	0.007848315
205	0xbed84bad	-0.42245236
206	0xbd3a7dee	-0.045530252
207	0x3d6a8371	0.05725426
208	0xbe4278cf	-0.18991397
209	0xbe833fe5	-0.25634685
210	0xbed02f59	-0.40661123
211	0xbe9ebb44	-0.31002247
212	0x3ba74e32	0.005105757
213	0xbde3f42e	-0.11130558
214	0xbea80759	-0.32818106
215	0xbe4aa54b	-0.19789617
216	0xbd17a9f2	-0.037027307
217	0xbdce43b0	-0.10071504
218	0xbeb84856	-0.35992688
219	0xbe98d993	-0.29853496
220	0xbe789194	-0.24274284
221	0xbe9452da	-0.2896946
222	0x3d880944	0.06642392
223	0xbdb9ffc6	-0.09081988
224	0xbdb3726b	-0.08762058
225	0xbe5f5dd5	-0.21813138
226	0xbe8abb86	-0.27096194
227	0xbe6eb1f1	-0.23310067
228	0xbf0ae058	-0.5424857
229	0xbede3c72	-0.4340549
230	0xbebaf07f	-0.3651161
231	0xbe7cac82	-0.24675182
232	0x3dc17aac	0.09447226
233	0x3e882854	0.26593268
234	0xbce808bf	-0.028324483
235	0xbec635fa	-0.38713056
236	0x392da04c	0.00016558281
237	0xbeb5cf86	-0.3550989
238	0xbf090959	-0.5352989
239	0xbe8605b7	-0.26176235
240	0xbf0a2498	-0.5396209
241	0xbcb110b6	-0.021614414
242	0xbe040db8	-0.12895858
243	0x3e3ba03e	0.18322846
244	0x3dc6d978	0.097094476
245	0xbddbe654	-0.10737291
246	0x3d6acf7b	0.057326775
247	0xbe8a7fec	-0.27050722
248	0xbe8537d1	-0.26019147
249	0xbe1f7534	-0.15572053
250	0xbe47bbbe	-0.19505212
251	0xbdb418cc	-0.08793792
252	0x3dac9855	0.084274925
253	0xbe7e8c4e	-0.2485821
254	0xbe5c97af	-0.21542238
255	0x3d26dcfd	0.040738095

hidden_layers.0.bias f4 [256]
0	0xbf083b12	-0.53215134
1	0xbefc7046	-0.49304408
2	0x3e94106e	0.28918785
3	0xbd5c387b	-0.0537648
4	0xbde2b2e7	-0.11069279
5	0xbe0fb7d6	-0.14034972
6	0xbea603be	-0.3242473
7	0xbe4bf164	-0.19916302
8	0x3e595100	0.21222305
9	0x3d8e19b7	0.069384985
10	0xbe144490	-0.1447928
11	0x3d48632f	0.048922714
12	0x3d3d08fd	0.04615115
13	0xbeb87501	-0.36026767
14	0x3dcf3f59	0.101195045
15	0xbdfe0a64	-0.124043256
16	0x3d73670c	0.059424445
17	0xbde24493	-0.11048236
18	0xbe4cdd40	-0.20006275
19	0x3d264ba6	0.040599488
20	0xbe55deb1	-0.20885731
21	0xbec2ba22	-0.38032633
22	0xbde9ddf6	-0.11419289
23	0x3e72d4d3	0.23713998
24	0xbe2e7f72	-0.17040804
25	0xba93ea80	-0.0011285096
26	0x3e749e2d	0.23888464
27	0xbf1a778e	-0.60338676
28	0x3d84cf7c	0.06484887
29	0x3e93feba	0.28905278
30	0xbea80112	-0.32813317
31	0x3c863a0a	0.016385097
32	0xbee28b1f	-0.44246766
33	0xbee91f4b	-0.45531687
34	0x3d0fd3e0	0.03511417
35	0x3e8a132b	0.2696775
36	0xbe562306	-0.20911798
37	0x3e11a599	0.14223327
38	0x3ccf0cca	0.025274653
39	0xbe20c763	-0.1570106
40	0xbe97d834	-0.29657137
41	0x3df02d55	0.117273964
42	0x3de0ef1b	0.10983106
43	0xbe04e1e1	-0.12976791
44	0x3dedc6a3	0.116101526
45	0xbe9a3875	-0.30121198
46	0xbd68aae0	-0.056803584
47	0x3d7b8626	0.06140723
48	0x3cbcc5bb	0.023043504
49	0xbebc9559	-0.36832693
50	0xbed8027e	-0.421894
51	0xbf2fa730	-0.6861448
52	0xbdc272c2	-0.094945446
53	0xbe8f0591	-0.27933934
54	0x3d4e299b	0.050332647
55	0xbeb04732	-0.34429318
56	0xbd99491e	-0.07484649
57	0xbc9e7fb2	-0.019348
58	0xbdb70037	-0.08935588
59	0x3e4b292b	0.19839923
60	0xbf160103	-0.58595294
61	0xbd8f161a	-0.069866374
62	0xbeb95d69	-0.3620408
63	0xbf06ed9b	-0.5270631
64	0xbd158ff6	-0.036514245
65	0xbd8b47c4	-0.068007976
66	0x3dc36c12	0.09542097
67	0xbd9e4d2b	-0.07729562
68	0xbed25a96	-0.41084737
69	0xbee6ebbb	-0.45101723
70	0xbe2d28da	-0.16910115
71	0xbecee9f7	-0.40412876
72	0xbe3a88b9	-0.18216218
73	0xbeadd54c	-0.33951795
74	0xbea0a86d	-0.313785
75	0xbd773b33	-0.06035919
76	0xbef163d9	-0.4714649
77	0xbde6d277	-0.11270612
78	0xbd4ae461	-0.049534205
79	0xbed98d08	-0.4249041
80	0xbe7ee416	-0.24891695
81	0xbea1840b	-0.31546053
82	0xbec4580e	-0.3834843
83	0xbe63aefd	-0.22234721
84	0xbeaf8160	-0.34278393
85	0x38be1f7c	9.0657704e-05
86	0xbf05b598	-0.52230215
87	0xbea3de4d	-0.3200554
88	0xbdd7a0a5	-0.105286874
89	0xbe7f5811	-0.24935938
90	0xbe2d1734	-0.16903383
91	0xbd946809	-0.07246406
92	0x3d5356b8	0.051596373
93	0xbdb8f3c1	-0.09030867
94	0xbe50eb2d	-0.20402212
95	0xbf1d54e1	-0.6145764
96	0xbd70baa4	-0.058771744
97	0xbecd65b0	-0.40116644
98	0xbebff5e8	-0.374923
99	0xbeee5517	-0.46549293
100	0xbddfc1f1	-0.10925663
101	0xbed247c7	-0.41070387
102	0x3c0cdb31	0.008597181
103	0xbf024a9c	-0.50895095
104	0xbe9aa9a0	-0.3020754
105	0xbef457b2	-0.47723156
106	0xbd9b387c	-0.07579133
107	0xba91b414	-0.001111629
108	0xbe9dd937	-0.30829784
109	0xbf1b701f	-0.6071796
110	0xbdfd5676	-0.12370007
111	0xbdc5550d	-0.09635363
112	0x3d9e2258	0.07721394
113	0xbe1f5060	-0.15558004
114	0xbeadb042	-0.33923537
115	0xbd88ba47	-0.066761546
116	0x3e39de2c	0.18151158
117	0xbe69318b	-0.22772805
118	0xbd4b2fc4	-0.0496061
119	0xbdeb1031	-0.11477698
120	0xbd0d1a4c	-0.034448907
121	0xbeb7e623	-0.35917768
122	0x3dd5d6e5	0.104413785
123	0x3d99fc6c	0.07518849
124	0x3e0abd1a	0.13548699
125	0xbea1345c	-0.3148526
126	0xbefcdcc4	-0.4938718
127	0xbf2e35b5	-0.680507
128	0xbeb52fa5	-0.35387912
129	0x3c851a1b	0.0162478
130	0x3e663ff7	0.22485338
131	0x3db744d9	0.089486785
132	0x3e2b7ffe	0.16748044
133	0xbe9537bc	-0.29144084
134	0xbe4998fc	-0.19687265
135	0x3dd6b8a7	0.104844384
136	0xbce92c95	-0.028463641
137	0xbea69454	-0.3253504
138	0xbee6d3b9	-0.45083407
139	0xbf02ca00	-0.5108948
140	0xbf1ed5eb	-0.6204516
141	0xbd3b1822	-0.04567731
142	0x3d270b09	0.04078201
143	0xbf0081f9	-0.5019832
144	0x3e48b4a2	0.19600156
145	0xbddb0c1a	-0.106956676
146	0xbe232470	-0.15931869
147	0xbe9f9d40	-0.3117466
148	0xbf22b887	-0.63562816
149	0xbe71638e	-0.23573133
150	0xbe89b4b1	-0.2689567
151	0x3e0e2613	0.13881712
152	0xbe14856d	-0.14504023
153	0xbd9fbfa6	-0.07800226
154	0x3dcdae24	0.1004298
155	0xbeecf444	-0.4628011
156	0xbeb25f95	-0.34838548
157	0xbe696285	-0.22791488
158	0xbe0e772f	-0.13912652
159	0xbe46c247	-0.19410048
160	0x3b61d13e	0.0034456993
161	0xbebbbb7e	-0.36666483
162	0xbee1ee12	-0.44126946
163	0x3ab6f27d	0.0013957765
164	0x3e926822	0.28595072
165	0xbbb0c0ee	-0.0053940928
166	0xbea70c78	-0.326267
167	0xbf0dbaa1	-0.553629
168	0xbf1ef371	-0.6209021
169	0xbe3cbfb5	-0.18432505
170	0xbeeb1340	-0.45913124
171	0x3d1c8d8f	0.03822094
172	0xbed3c9e0	-0.41364956
173	0xbe78e562	-0.24306253
174	0xbe1bfd5a	-0.15233365
175	0xbd93916f	-0.07205474
176	0xbe92c9ac	-0.28669488
177	0xbee22aea	-0.44173366
178	0xbed83aaf	-0.42232272
179	0xbe4b5053	-0.1985486
180	0xb644d880	-2.9332296e-06
181	0xbe804abb	-0.25057015
182	0xbe10c02e	-0.1413581
183	0x3cc59780	0.024120092
184	0xbde94ad5	-0.11391226
185	0xbeb93f7b	-0.36181244
186	0xbe853d55	-0.26023355
187	0xbd4b5aa8	-0.049647003
188	0xbe2d467b	-0.16921417
189	0xbe73d65a	-0.23812237
190	0xbeb19891	-0.3468671
191	0x3d26ecf8	0.040753335
192	0xbed33320	-0.41249943
193	0x3dbff897	0.093735866
194	0xbef02de6	-0.46910018
195	0xbe90af74	-0.2825886
196	0x3d818c16	0.063255474
197	0xbf0b9878	-0.54529524
198	0xbe90cad5	-0.2827975
199	0xbdc96cd2	-0.09835209
200	0xbdd4c45c	-0.10389015
201	0xbe71f975	-0.23630317
202	0xbe984220	-0.2973795
203	0x3dfac83b	0.12245222
204	0xbe6f09e7	-0.23343621
205	0x3e14869a	0.14504471
206	0xbea75cf1	-0.32688096
207	0xbe403b5d	-0.18772645
208	0x3e3a69da	0.18204442
209	0xbf1ddee6	-0.6166824
210	0x3e7b560d	0.24544545
211	0xbeecf788	-0.462826
212	0x3cca86b8	0.024722442
213	0xbee21b49	-0.44161442
214	0xbe85faac	-0.2616781
215	0xbf1745ba	-0.5909077
216	0xbdbf14ec	-0.093301624
217	0xbe3aed5a	-0.18254605
218	0x3ee2724c	0.44227827
219	0xbe2c7a5c	-0.16843551
220	0xbec76c45	-0.3894979
221	0x3cdeaead	0.027182901
222	0xbf2a35b5	-0.664882
223	0xbe73c52e	-0.23805687
224	0x3e43b6bc	0.19112676
225	0xbd80d345	-0.062902965
226	0x3cd91dea	0.026503522
227	0xbe404f56	-0.18780264
228	0x3df56dca	0.11983831
229	0xbdec90d9	-0.11551065
230	0xbd9a28ea	-0.07527335
231	0xbe55ee4d	-0.20891686
232	0xbe7c4c88	-0.2463857
233	0xbd02da40	-0.03194642
234	0x3dd8bd8b	0.105830275
235	0xbf05dea1	-0.5229283
236	0xbe68c87f	-0.22732733
237	0xbe6aeb4e	-0.22941324
238	0xbd47c0e7	-0.04876795
239	0x3da29177	0.079379015
240	0xbe804092	-0.25049263
241	0x3c352e5d	0.011058417
242	0x3e51112a	0.20416704
243	0x3d9f89ba	0.07789941
244	0x3e43f239	0.1913537
245	0xbe03236e	-0.12806484
246	0xbea198b1	-0.31561807
247	0xbdddcf7a	-0.10830589
248	0x3d1d7e22	0.038450368
249	0x3e3be6c9	0.18349756
250	0xbec4cca2	-0.38437372
251	0xbea659fe	-0.32490534
252	0xbe7838de	-0.24240443
253	0xbe88db41	-0.26729777
254	0xbec175fd	-0.3778533
255	0xbf366690	-0.7125025

hidden_layers.1.weight f4 [256, 256]
0	0xbc744131	-0.014908121
1	0xbc8cab7c	-0.017171614
2	0x3e0059ac	0.12534207
3	0xbe84500c	-0.2584232
4	0xbdbe7fb1	-0.09301699
5	0x3d0d131a	0.034442045
6	0xbdb3ebf8	-0.08785242
7	0x3de347a7	0.11097651
8	0x3d75ae14	0.059980467
9	0x3d10f2f5	0.035387952
10	0x3c96c2d6	0.018403452
11	0xbc430168	-0.011902191
12	0xbd496705	-0.049170513
13	0xbd9df3e4	-0.07712534
14	0x3cef5c71	0.029218884
15	0x3d2add5c	0.04171501
16	0xbe708efd	-0.23492046
17	0x3d81b4df	0.063333265
18	0xbddc20e3	-0.1074846
19	0x3c0afeac	0.00848357
20	0x3d9e1722	0.07719256
21	0x3d403af4	0.046931222
22	0x3e51cd53	0.20488481
23	0xbdb10073	-0.08642664
24	0xbc50219d	-0.0127033265
25	0x3dcda4d0	0.10041201
26	0x3e17339d	0.14765783
27	0xbe184368	-0.14869463
28	0x3cc26ed8	0.023734495
29	0x3e94ca26	0.29060477
30	0xbdecb9a8	-0.115588486
31	0x3e40e2af	0.18836473
32	0xbe347e75	-0.17626365
33	0xbca6bb68	-0.020353034
34	0x3e58d3f7	0.21174608
35	0xbdab05a4	-0.08350685
36	0xbdc3c2f8	-0.09558672
37	0xbdd9f885	-0.106431045
38	0x3d90838c	0.070563406
39	0xbd167c25	-0.036739487
40	0xbdfd8932	-0.123796836
41	0x3df21cc0	0.1182189
42	0x3df63192	0.120211735
43	0x3d314296	0.043276392
44	0xbea0516f	-0.3131213
45	0x3cc32cf6	0.02382515
46	0x3a7d6fca	0.0009667842
47	0x3b8504c4	0.004059406
48	0x3e3e3205	0.18573768
49	0x3ce7c218	0.028290793
50	0x3e735e4e	0.23766443
51	0xbe19335b	-0.14960997
52	0xb9adaeb9	-0.0003312731
53	0xbe7fbdcd	-0.24974747
54	0xbe463627	-0.19356595
55	0x3d7f1f1a	0.06228552
56	0x3c8ca3cf	0.017167954
57	0x3c815d1e	0.015791472
58	0x3b8a3999	0.004218292
59	0xbc5ad814	-0.013357181
60	0xbd7d22c6	-0.06180074
61	0x3dae4d54	0.08510843
62	0xbdda4218	-0.10657138
63	0xbdcc0cd3	-0.099633835
64	0x3cc7c1b0	0.02438435
65	0x3c201880	0.009771466
66	0xbd3e8443	-0.046512853
67	0x3def92d2	0.116979256
68	0xbc51eff4	-0.012813557
69	0xbc7308f8	-0.014833681
70	0xbd82e71b	-0.06391736
71	0x3db00dce	0.08596383
72	0x3e8b28c9	0.27179554
73	0xbd10df0e	-0.03536897
74	0xbdb0c848	-0.086319506
75	0x3d0dce13	0.034620356
76	0xbdd2a42e	-0.10285221
77	0x3e259450	0.16169858
78	0x3e73bbf6	0.2380217
79	0xbd851a39	-0.06499142
80	0x3d5f095d	0.05445229
81	0x3d674f2c	0.05647199
82	0x3d486d1e	0.048932187
83	0xbd322ee2	-0.043501742
84	0xbbee745c	-0.0072770547
85	0xbe1d82f8	-0.15381992
86	0xbdb74ce7	-0.08950215
87	0xbd81e9fe	-0.063434586
88	0xbe09c4cf	-0.13453983
89	0x3b17e9bd	0.002318009
90	0x3c8429c7	0.016133202
91	0xbdc80ec8	-0.09768444
92	0xbd501c9d	-0.050808538
93	0xbe8a7177	-0.27039692
94	0xbe83f597	-0.25773308
95	0x3d98c502	0.07459451
96	0x3dfa12d4	0.122106224
97	0x3e154746	0.1457797
98	0xbd944fc3	-0.07241776
99	0xbe581eb0	-0.21105456
100	0xbda8331f	-0.082128756
101	0xbc68cb2c	-0.014208596
102	0xbdadae1b	-0.084804736
103	0x3d971e04	0.07378772
104	0xbccf7353	-0.025323546
105	0xbc24bd65	-0.010054921
106	0x3e4df7ff	0.20114134
107	0xbbc57ed3	-0.0060270815
108	0x3d87e347	0.066351466
109	0xbe04337f	-0.12910269
110	0xbe306701	-0.17226793
111	0xbdbfb75f	-0.09361147
112	0x3e04204f	0.1290295
113	0x3e357f34	0.17724305
114	0xbd0e84d3	-0.03479464
115	0x3e123b66	0.14280471
116	0x3e0867a1	0.13320781
117	0x3e116835	0.14199908
118	0x3e1319b2	0.1436527
119	0xbe9f6194	-0.31129134
120	0x3e0873b5	0.13325389
121	0xbdad52c4	-0.08463052
122	0x3d191b8d	0.03737979
123	0xbd92f9fc	-0.07176587
124	0x3d397e57	0.045286503
125	0xbe121ea1	-0.14269497
126	0x3d633fae	0.05548065
127	0xbe63b49b	-0.22236864
128	0x3dd8ed83	0.10592177
129	0x3d1be982	0.038064487
130	0x3e7c651e	0.24647948
131	0x3d90848c	0.07056531
132	0x3c2dcdfe	0.010608194
133	0x3daf9d10	0.08574879
134	0xbe02c626	-0.127709
135	0x3c6f8cf8	0.014621012
136	0xbd24f318	-0.040270895
137	0xbe90786a	-0.2821687
138	0xbdbffb6b	-0.09374126
139	0xbe453978	-0.19260204
140	0xbe82f74b	-0.25579295
141	0xbe136313	-0.14393263
142	0xbe13ca99	-0.14432754
143	0x3bb90816	0.005646716
144	0x3d2391fd	0.039934147
145	0xbd809e5c	-0.06280205
146	0xbdb93051	-0.09042419
147	0xbe58f4aa	-0.21187082
148	0xbd28cc2d	-0.041210342
149	0x3c9922ed	0.018693412
150	0x3cce5515	0.025187055
151	0x3e451829	0.19247498
152	0xbe41637e	-0.1888561
153	0x3cd3bc5d	0.025846655
154	0x3e259baa	0.16172662
155	0xbcafac48	-0.021444455
156	0xbdee3500	-0.11631203
157	0xbcb6487c	-0.02225136
158	0x3d0ba6a7	0.03409448
159	0x3dba391e	0.090929255
160	0xbe585b3b	-0.21128552
161	0xbe380ba6	-0.17973194
162	0xbe1079c0	-0.14108944
163	0x3e3c5906	0.18393335
164	0xbde07042	-0.109589115
165	0x3d4cafb5	0.049972255
166	0xbdce8d0b	-0.100854956
167	0x3cbe782d	0.023250664
168	0xbdb466e4	-0.08808687
169	0x3e128c34	0.14311296
170	0xbe24a5fe	-0.16078946
171	0xbe3b4c1e	-0.18290755
172	0xbd571478	-0.052509755
173	0xbe2e47c0	-0.17019558
174	0xbdfd7a55	-0.123768486
175	0xbe5faad4	-0.2184251
176	0xbee5c344	-0.44875538
177	0xbd8693e3	-0.06571176
178	0xbdd9892b	-0.10621866
179	0x3ca07337	0.019586189
180	0xbd0b98f5	-0.034081418
181	0xbcebf4f4	-0.028803326
182	0xbc8a1183	-0.016854053
183	0xbec33b78	-0.3813131
184	0xbce63145	-0.028099665
185	0xbc57f54c	-0.013181042
186	0x3c483cd6	0.012221536
187	0xbe070cb0	-0.13188434
188	0x3de67f1d	0.11254714
189	0xbdd371b6	-0.10324423
190	0xbebe5d17	-0.37180397
191	0xbe497b06	-0.19675836
192	0xbe5903b9	-0.21192826
193	0xbe2b6713	-0.16738538
194	0xbe9a8ecf	-0.3018708
195	0xbe020b3a	-0.12699595
196	0xbe826af4	-0.25472224
197	0xbe522eb1	-0.20525624
198	0x3d8df88e	0.06932174
199	0xbde8715d	-0.11349747
200	0xbcabe5a2	-0.02098352
201	0xbdd2bc63	-0.10289838
202	0xbbdd59e3	-0.0067551
203	0x3c8b928f	0.017037658
204	0xbe2a4774	-0.1662882
205	0xbd6c8e8d	-0.057753135
206	0xbe362064	-0.17785794
207	0xbbe8a770	-0.007100038
208	0xbd8f6bae	-0.0700296
209	0xbd5d4937	-0.0540249
210	0x3c9677ab	0.018367609
211	0xbe0e54e9	-0.13899578
212	0x3ca04c1b	0.01956754
213	0xbcdd52e6	-0.027017068
214	0xbe01c983	-0.12674527
215	0xbdabd15b	-0.08389541
216	0x3d457e47	0.04821613
217	0x3ddf5c73	0.10906305
218	0x3e2c4b8f	0.16825698
219	0xbd408fff	-0.047012325
220	0xbe176a0e	-0.1478655
221	0x3de311db	0.1108739
222	0xbde08d0a	-0.10964401
223	0xbe26f75a	-0.16305295
224	0x3e567524	0.20943123
225	0xbd173801	-0.036918644
226	0xbeb269f1	-0.34846452
227	0x3e08ec04	0.13371283
228	0xbd48f647	-0.049062993
229	0x3df51164	0.119662076
230	0xbd4fa35a	-0.050692894
231	0xbd8bcf40	-0.06826639
232	0x3e0a74b6	0.13521084
233	0xbe11a402	-0.1422272
234	0x3e1de4e2	0.15419343
235	0x3def05ca	0.11671026
236	0xbde49f3b	-0.11163183
237	0xbe10743e	-0.14106843
238	0xbd512b26	-0.05106654
239	0x3d59b349	0.053149495
240	0xbe753e9d	-0.23949666
241	0x3bbb2efa	0.005712387
242	0x3d0dd770	0.034629285
243	0x3c5cc273	0.013474095
244	0x3e4a35fe	0.19747159
245	0xbd9480f4	-0.07251158
246	0xbb33825b	-0.002739093
247	0x3d0f3a3f	0.034967657
248	0xbcc0266a	-0.023455817
249	0xbdc39b51	-0.09551109
250	0x3dd76718	0.105177104
251	0x3873fc02	5.8170415e-05
252	0x3e02b732	0.12765196
253	0xbdd80350	-0.10547507
254	0xbe210e8e	-0.15728208
255	0xbc90a3d4	-0.017656244

hidden_layers.1.bias f4 [256]
0	0xbd194fc2	-0.03742958
1	0xba1e6d1b	-0.00060434797
2	0xbc54a452	-0.01297863
3	0xbdcf9c19	-0.10137195
4	0xbdbc229a	-0.09186287
5	0xbd1e3cef	-0.03863233
6	0x3cadf256	0.021233719
7	0xbd2c7712	-0.04210574
8	0xbcc23776	-0.023708086
9	0xbc713222	-0.014721425
10	0xbe0e8555	-0.1391805
11	0x3d82cca3	0.063866876
12	0xbdb2fce6	-0.08739643
13	0xbc41b6cb	-0.011823366
14	0xbd230213	-0.0397969
15	0x3c1e0055	0.009643634
16	0xbd5eb9c9	-0.054376397
17	0xbdde7e50	-0.10863936
18	0xbd8590f3	-0.065217875
19	0x3d7f3fb6	0.06231662
20	0xbeb513db	-0.3536671
21	0xbeaf856e	-0.34281486
22	0xbe24edf8	-0.16106403
23	0x3c369429	0.011143723
24	0xbb7100b1	-0.0036774094
25	0x3d0dbe0a	0.034605063
26	0xbcbdb337	-0.023156745
27	0xbd0c7b03	-0.034297
28	0xbc49432c	-0.012284081
29	0xbe14679b	-0.14492647
30	0xbe9b6c83	-0.30356225
31	0x3a4a8f8f	0.00077270804
32	0xbc2e63a6	-0.010643875
33	0xbda81e26	-0.08208875
34	0xbc21b7df	-0.009870498
35	0xbeb751e0	-0.35804653
36	0xb981ba70	-0.00024743704
37	0xbd26390c	-0.040581748
38	0xbdbab883	-0.09117224
39	0xbee2ece0	-0.44321346
40	0xbd4914fb	-0.049092274
41	0xbe1d5cb5	-0.15367396
42	0xbe2d2895	-0.16910012
43	0xbde8dce9	-0.1137026
44	0xbb814a25	-0.0039456063
45	0xbdc2a6f9	-0.09504504
46	0xbcfa6ed7	-0.03057043
47	0xbd23cc54	-0.039989784
48	0xbde3e8bd	-0.11128376
49	0xbd37a22a	-0.044832386
50	0xbdfb8920	-0.12282014
51	0xbdd3f566	-0.103495404
52	0xbbc5e563	-0.006039308
53	0x3d6f5cbc	0.058438048
54	0xbdad0297	-0.084477596
55	0xbdd52802	-0.104080215
56	0xbdee09d2	-0.11622967
57	0x3d402751	0.046912495
58	0xbd98bbf4	-0.07457724
59	0xbd85631f	-0.065130465
60	0xbd825e97	-0.06365698
61	0xbd9146a9	-0.070935555
62	0xbb44aedc	-0.003001145
63	0x3c94a3f5	0.018144587
64	0xbce872a5	-0.02837498
65	0xbddf07d8	-0.10890168
66	0xbb1da7d8	-0.0024056341
67	0xbe0a37c7	-0.1349784
68	0xbd50f535	-0.051015098
69	0xbcc838c8	-0.024441138
70	0xbe16778e	-0.14694044
71	0xbc8dc4ef	-0.01730582
72	0x3d2d6649	0.042333875
73	0x3cd116b4	0.025523521
74	0xbe11650f	-0.14198707
75	0x3d063363	0.03276385
76	0xbd7b0df0	-0.06129259
77	0xbd3d1f23	-0.046172272
78	0x3bfd83a5	0.0077366405
79	0xbdf23f04	-0.118284255
80	0xbd420dd2	-0.04737646
81	0xbeb67665	-0.35637203
82	0xbde37907	-0.111070685
83	0xbdbf78b6	-0.09349196
84	0xbcd1ff42	-0.025634412
85	0xbd7cb8ea	-0.061699785
86	0xbcc62cac	-0.024191223
87	0xbda4b039	-0.08041424
88	0xbdcd9520	-0.10038209
89	0xbdb9fff1	-0.0908202
90	0x3b7afb36	0.0038296706
91	0xbd3af491	-0.045643393
92	0xbdb56797	-0.08857649
93	0xbdcae558	-0.09907025
94	0x3d283841	0.041069273
95	0xbdd8077e	-0.10548304
96	0x3d87d02a	0.06631501
97	0xbd12be20	-0.03582585
98	0xbe64f9c8	-0.22360909
99	0xbd8b6d99	-0.068080135
100	0xbe3db067	-0.18524323
101	0xbdfbd9d0	-0.12297404
102	0x3cee8316	0.029115241
103	0xbdf8d6ae	-0.12150322
104	0xbdf5f335	-0.12009279
105	0x3c0b02f2	0.008484589
106	0xbd065d98	-0.0328041
107	0xbd686acb	-0.05674247
108	0xbecfc039	-0.40576342
109	0xbdfc9adc	-0.123342246
110	0xbe2c25a4	-0.16811234
111	0xbe0a6052	-0.13513306
112	0xbe14b973	-0.14523868
113	0xbda1d7cb	-0.07902487
114	0xbd9fd479	-0.07804198
115	0xbca469f4	-0.020070054
116	0xbe0bbc7f	-0.13646124
117	0xbdd916ff	-0.10600089
118	0xbd81c8b2	-0.06337108
119	0xbd961e53	-0.07330003
120	0xbdacae3a	-0.084316686
121	0xbc00b7af	-0.007856294
122	0xbc3f4917	-0.011675141
123	0xbda27e70	-0.07934272
124	0xbbfd3241	-0.007726938
125	0xbc918923	-0.017765587
126	0xbbb81779	-0.0056180325
127	0xbdaf6704	-0.085645705
128	0x3d6bd7f6	0.057579003
129	0xbd76febc	-0.060301527
130	0xbd9df018	-0.0771181
131	0xbe3072fa	-0.1723136
132	0xbe0084d4	-0.1255067
133	0xbb5f2b34	-0.003405285
134	0x3b2b4e3a	0.0026139156
135	0x3c7f9e3d	0.015601692
136	0xbbaaf1af	-0.005216799
137	0xbe2b5ca0	-0.16734552
138	0xbc52f241	-0.012875141
139	0xbdff1742	-0.12455608
140	0xbe1b473a	-0.1516389
141	0xbd85de3e	-0.0653653
142	0xbe15fc7e	-0.146471
143	0xbbd3bec4	-0.00646195
144	0xbd634000	-0.055480957
145	0xbcb05ff9	-0.021530138
146	0xbdd1ce3d	-0.10244415
147	0xbd5ec979	-0.054391358
148	0xbdcfca00	-0.1014595
149	0xbcb2bcf0	-0.021818608
150	0xbdfa1e1d	-0.12212775
151	0x3c972fbd	0.01845538
152	0xbda29b4c	-0.07939777
153	0x3c950eca	0.018195529
154	0xbe0bff6e	-0.13671657
155	0xbcf01233	-0.029305553
156	0xbd9469e4	-0.072467595
157	0xbe865e39	-0.2624376
158	0xbd543c7f	-0.051815506
159	0x3d46be91	0.048521582
160	0x3ce72e6e	0.028220382
161	0xbd64a681	-0.055822853
162	0xbe012e1e	-0.12615249
163	0xbdacae0f	-0.084316365
164	0xbe319498	-0.1734184
165	0xbd9fe930	-0.07808149
166	0xbd2a8425	-0.04162993
167	0xbda30c14	-0.07961288
168	0x3c3889c8	0.011263318
169	0x3d993365	0.07480506
170	0xbc4cf241	-0.01250893
171	0xbd9357d4	-0.07194486
172	0x3c6da3e2	0.014504405
173	0xbd556508	-0.052098304
174	0x3d23748f	0.03990608
175	0xbd5802e2	-0.052737124
176	0x3c57dbe3	0.013174984
177	0xbddec933	-0.108782195
178	0xbbaff889	-0.005370204
179	0xbdfd495a	-0.12367506
180	0xbbcad598	-0.006190013
181	0x3d5a1187	0.05323937
182	0x3cc1216f	0.023575513
183	0xbe54f953	-0.20798235
184	0xbe9b2fb1	-0.30309823
185	0xbd99eef5	-0.075162806
186	0xbd10d0ae	-0.035355262
187	0x3c464589	0.012101539
188	0xba5a227f	-0.00083211804
189	0xbc4f7944	-0.012663189
190	0xbdff932c	-0.12479243
191	0xbe14b77c	-0.14523119
192	0x3d77f53d	0.06053661
193	0xbdbdf142	-0.09274532
194	0xbb2e2520	-0.0026572421
195	0x3abfc444	0.0014630635
196	0xbd7bac06	-0.06144335
197	0x3b7dd9cb	0.003873455
198	0xbe01fb1d	-0.12693448
199	0xbd05fefd	-0.03271388
200	0xbe041254	-0.12897617
201	0xbd562a6f	-0.05228656
202	0xbcd1b5d5	-0.0255994
203	0xbdeaa8dc	-0.114579886
204	0xbd7693e9	-0.060199652
205	0xbd4cb1ed	-0.04997437
206	0xbd8c39e9	-0.06846983
207	0xbdac682e	-0.08418308
208	0xbd3eebb3	-0.0466115
209	0x3c7a62dd	0.01528236
210	0xbddda326	-0.10822134
211	0xbd32b6a7	-0.043631222
212	0xbe2f9f60	-0.1715064
213	0xbb12e962	-0.002241694
214	0x3dd0297d	0.10164163
215	0xbdc4e925	-0.09614781
216	0xbd85ae1c	-0.06527349
217	0xbd92d917	-0.07170313
218	0x3ca5de0b	0.02024748
219	0x3db360a8	0.0875867
220	0x3db0da4d	0.086353876
221	0xbdc4d130	-0.09610212
222	0xbd555857	-0.0520862
223	0xbd838880	-0.0642252
224	0xbd9e8395	-0.07739941
225	0xbd4a2bce	-0.04935818
226	0xbda00ce1	-0.078149565
227	0x3ce3cc4c	0.027807377
228	0xbd7e83aa	-0.062137283
229	0xbddd436e	-0.10803877
230	0xbcd9c555	-0.026583353
231	0xbd7bc54c	-0.061467454
232	0xbda6357f	-0.08115672
233	0xbe05453f	-0.13014697
234	0xbda76f65	-0.08175544
235	0x3d1193c5	0.035541315
236	0xbd542507	-0.051793125
237	0x3cd26709	0.025683897
238	0xbda8b2f4	-0.082372576
239	0xbd7f9d37	-0.06240579
240	0xbdca2b4c	-0.098715395
241	0xbd58ba88	-0.052912265
242	0xbd921bfd	-0.071342446
243	0x3cd45ff2	0.025924657
244	0xbd982815	-0.0742952
245	0xbd87268b	-0.06599148
246	0xbdadc12d	-0.08484111
247	0xbd7bc12c	-0.06146352
248	0xbd877653	-0.066143654
249	0xbd80c688	-0.06287867
250	0xbd7644ad	-0.060124088
251	0xbe0086b1	-0.1255138
252	0xbd28848a	-0.041142024
253	0xbdf82985	-0.12117294
254	0xbe30f4b3	-0.17280845
255	0x3cb14c15	0.021642724

output_layers.0.weight f4 [40, 256]
0	0x3e16b36f	0.14716886
1	0xbcfee9ee	-0.031117406
2	0x3d3911e6	0.045183085
3	0x3edd64dd	0.43241015
4	0x3e4f8ba1	0.20268108
5	0x3e35f3f8	0.17768848
6	0xbd8ebb0d	-0.06969271
7	0x3de9504f	0.11392271
8	0xbe2c11c7	-0.16803657
9	0xbd5d13d5	-0.05397399
10	0xbe6fa3f9	-0.23402394
11	0xbdb0778e	-0.08616553
12	0x3dc4f038	0.096161306
13	0xbcc3d7aa	-0.023906548
14	0x3d4635bf	0.0483911
15	0xbce69b60	-0.02815026
16	0x3e76835c	0.24073547
17	0x3e46ffa0	0.1943345
18	0xbd3ebc72	-0.046566434
19	0x3d91ba19	0.071155734
20	0xbeee429e	-0.465352
21	0xbf20a8bb	-0.6275746
22	0x3dd94d36	0.1061043
23	0xbea2dc39	-0.31808642
24	0x3e8a6966	0.27033538
25	0xbb695ed6	-0.0035609505
26	0x3d581ce1	0.052761916
27	0xbc07ab01	-0.008280517
28	0xbdcd4bed	-0.10024247
29	0x3dd8ae4a	0.10580118
30	0xbf36e492	-0.7144252
31	0xbdf96b76	-0.121787
32	0x3db1691b	0.086626254
33	0xbc04e106	-0.00811029
34	0x3e20f166	0.15717086
35	0xbf48c899	-0.7843109
36	0x3dcd6b64	0.10030249
37	0x3e65994e	0.22421762
38	0x3ec7ca5b	0.39021572
39	0xbf58b964	-0.84657884
40	0x3e3de753	0.18545274
41	0x3e5dcf7c	0.2166118
42	0x3de6847d	0.11255739
43	0x3e7a6833	0.24453811
44	0xbe4c8985	-0.19974335
45	0x3db62a67	0.08894806
46	0xbeb13606	-0.3461153
47	0xbde4084e	-0.111343965
48	0xbcfbb0b8	-0.030723915
49	0xbe9abbed	-0.302215
50	0x3e64ee42	0.22356513
51	0x3e439d15	0.19102891
52	0x3ea526d7	0.32256195
53	0x3d6c2dbe	0.05766081
54	0xbd7ae594	-0.0612541
55	0x3e157cd7	0.14598404
56	0x3dbc50c9	0.09195096
57	0xbdf90f96	-0.12161176
58	0x3d0c13e3	0.034198653
59	0x3e4fe819	0.20303382
60	0x3dbb46ab	0.09144338
61	0x3e692af4	0.22770292
62	0x3e35d0ec	0.17755479
63	0xbe2986cc	-0.16555327
64	0xbe95cfb8	-0.2926004
65	0x3e6c8ebe	0.23101327
66	0x3e4515ad	0.1924655
67	0x3e041c37	0.12901388
68	0x3e4ca238	0.19983757
69	0x3e3945bc	0.18093008
70	0x3de916f7	0.11381333
71	0x3ea664ff	0.3249893
72	0x3dfdf056	0.12399356
73	0xbcedfc7b	-0.029051056
74	0x3e37d390	0.17951798
75	0x3e4dcb5f	0.20097111
76	0xbee1801a	-0.44043046
77	0x3e7ff228	0.24994719
78	0x3c443529	0.011975565
79	0x3e841719	0.25798872
80	0x3e351420	0.17683458
81	0xbf587247	-0.84549373
82	0xbedee844	-0.4353658
83	0x3ec2875f	0.37993905
84	0x3e83b2eb	0.2572244
85	0xbb84a116	-0.0040475233
86	0xbd282b62	-0.041056998
87	0x3db4674d	0.088087656
88	0x3c9f05c2	0.019411925
89	0x3e10e0a9	0.14148201
90	0x3e7d4d6c	0.24736565
91	0x3dc4a4fa	0.09601779
92	0x3dca5354	0.09879175
93	0x3da55267	0.080723576
94	0xbe805ec7	-0.2507231
95	0xbe824643	-0.2544423
96	0xbe6269b2	-0.22110632
97	0x3d0d7ad8	0.03454098
98	0xbf0522e5	-0.5200637
99	0xbd382d64	-0.044965163
100	0xbd85c95c	-0.06532547
101	0xbf000ad8	-0.50016546
102	0x3e5e8622	0.21730855
103	0x3dad3d1a	0.0845892
104	0xbbec0bba	-0.0072035464
105	0x3e7b1386	0.24519166
106	0x3e9a0c3a	0.30087453
107	0x3e34b6f0	0.1764791
108	0xbf872e78	-1.0561056
109	0x3e35687a	0.17715636
110	0xbe9179d1	-0.2841325
111	0x3e0ba77c	0.13638109
112	0x3e918a1a	0.28425676
113	0x3df421aa	0.119204834
114	0x3e611238	0.21979606
115	0xbdacfdbd	-0.08446834
116	0xbee95d3a	-0.4557894
117	0xbe2b3cc5	-0.167224
118	0xbf11819d	-0.568384
119	0x3cbf3dd5	0.023344913
120	0x3e6aa207	0.22913371
121	0x3e90ef8a	0.28307754
122	0x3e5a6426	0.21327266
123	0xbd654fd0	-0.05598432
124	0x3ea25ccd	0.31711426
125	0x3e062c75	0.13102897
126	0x3df021bc	0.11725184
127	0xbdd7b7c4	-0.105330974
128	0xbe2f93b4	-0.17146188
129	0xbe92f892	-0.2870527
130	0x3e8de49e	0.27713484
131	0x3e7cbae2	0.24680665
132	0xbe2ec0a9	-0.17065682
133	0xbdccee56	-0.100063965
134	0x3e095d42	0.13414481
135	0x3e0a573e	0.13509843
136	0x3dfca8a5	0.12336854
137	0xbd0b90a7	-0.034073498
138	0x3ba4312e	0.0050107455
139	0x3d8d1798	0.06889266
140	0x3e34b71e	0.17647979
141	0x3ed8f1ef	0.4237208
142	0x3d00a666	0.03140869
143	0x3e6a32a2	0.22870877
144	0x3e92e7bc	0.28692424
145	0xbd054f49	-0.032546315
146	0x3d18ba2a	0.037286915
147	0x3e8af03a	0.27136403
148	0x3f083e94	0.53220487
149	0x3eeb455f	0.45951363
150	0x3e1aa736	0.15102848
151	0x3e3f1de3	0.18663745
152	0x3e356b15	0.1771663
153	0x3e9383ca	0.28811485
154	0x3e3829d2	0.17984703
155	0xbdb9a909	-0.09065444
156	0x3d89cd4e	0.06728612
157	0xbf4243ac	-0.7588451
158	0x3e123714	0.14278823
159	0xbe4c3798	-0.19943082
160	0xbe8e22a5	-0.27760807
161	0x3e67cfae	0.22637817
162	0x3e6df794	0.23238975
163	0x3e604855	0.21902592
164	0x3bfbbb76	0.007682259
165	0x3e4121ba	0.18860522
166	0xbdf08e14	-0.11745849
167	0x3c1c2930	0.009531304
168	0xbece6332	-0.40310055
169	0x3ea3a8fa	0.31964856
170	0x3d5e72b2	0.0543086
171	0x3dddcf61	0.1083057
172	0xbdae17f5	-0.08500663
173	0xbdffa7c0	-0.12483168
174	0x3e7e58d6	0.24838576
175	0xbe707773	-0.23483066
176	0x3e05f1a4	0.1308046
177	0x3e1b0866	0.15139922
178	0xbcacb966	-0.021084499
179	0xbe86c3e2	-0.26321322
180	0xb9d2b102	-0.00040186202
181	0xbe5da250	-0.21643949
182	0x3ebaf0db	0.36511883
183	0x3be3cdd2	0.006952026
184	0xbf3d8a8f	-0.7403955
185	0x3e96b3ef	0.29434153
186	0x3e14a8e0	0.14517546
187	0x3e357a34	0.17722398
188	0x3eb3ad4f	0.3509316
189	0x3ea2d4f7	0.31803104
190	0xbed7990d	-0.42108956
191	0xbd4256f5	-0.04744621
192	0x3e54490b	0.20730989
193	0x3e8a4872	0.27008396
194	0x3e54331e	0.20722625
195	0xbe890236	-0.267595
196	0x3ea09b44	0.31368458
197	0xbeaaed45	-0.33384147
198	0x3ea42499	0.32059172
199	0x3eb21190	0.34779024
200	0xbb4ee793	-0.0031571134
201	0xbca1925a	-0.019723106
202	0x3e30fc35	0.1728371
203	0xbe62521e	-0.22101638
204	0x3dec3bf7	0.11534875
205	0x3e0207df	0.12698315
206	0x3e03526a	0.12824407
207	0x3e872bcf	0.2640061
208	0xbf09ec7b	-0.53876466
209	0x3e657c14	0.22410613
210	0x3e8d173f	0.27556798
211	0x3e0de2e2	0.1385608
212	0xb9dcc522	-0.00042108545
213	0x3ec070c9	0.37586048
214	0x3e7d1884	0.24716383
215	0x3e0ed261	0.1394744
216	0xbd784030	-0.06060809
217	0x3edf89b3	0.43659744
218	0xbce44b21	-0.027867856
219	0x3e6cabd1	0.23112418
220	0xbc860fd6	-0.016364973
221	0x3dd13b51	0.10216392
222	0xbe3fa643	-0.18715768
223	0x3e3301da	0.17481175
224	0x3df0dd58	0.11760968
225	0x3e49d5bc	0.1971044
226	0xbd407383	-0.04698516
227	0x3ebecc0e	0.37265056
228	0x3eab6d33	0.3348175
229	0x3e21b305	0.15790947
230	0x3d54ba6e	0.051935606
231	0xbed22d45	-0.41050163
232	0x3e8bab1b	0.2727898
233	0x3cd1383a	0.025539506
234	0x3b51f1df	0.0032035036
235	0xbda686ac	-0.08131155
236	0x3ddac83b	0.10682722
237	0xbeaca15d	-0.3371686
238	0xbe3e3e5e	-0.18578479
239	0x3c91a51b	0.017778924
240	0x3e24f8aa	0.16110483
241	0x3f05a196	0.52199686
242	0xbc99ea2a	-0.018788416
243	0xbe504b09	-0.20341124
244	0x3e50676d	0.20351954
245	0x3e21bac4	0.15793902
246	0xbe85b0d8	-0.26111484
247	0x3e3c77d4	0.18405086
248	0x3e58d06f	0.21173261
249	0xbdc5382c	-0.096298546
250	0x3e4c9738	0.1997956
251	0xbde78784	-0.113051444
252	0x3f0d2e36	0.5514864
253	0x3e74af4b	0.23894994
254	0x3e22b71c	0.15890163
255	0x3f08102c	0.53149676

output_layers.0.bias f4 [40]
0	0xbeed1836	-0.46307534
1	0xbea37e2c	-0.319322
2	0xbe4687bc	-0.19387716
3	0x3f9b26f2	1.212126
4	0xbed57dfe	-0.41697687
5	0xbe2baec6	-0.1676589
6	0xbda60d6a	-0.08108027
7	0xbea8bfc0	-0.32958794
8	0xbe106ed9	-0.14104785
9	0xbd8dd5ab	-0.069255196
10	0x3e569532	0.20955351
11	0xbe6af3c5	-0.22944553
12	0xbe906d24	-0.28208268
13	0xbe877122	-0.264535
14	0xbc7e9063	-0.015537354
15	0xbe373b74	-0.17893773
16	0xbe916dcb	-0.28404078
17	0xbe38ace2	-0.180347
18	0x3cbe85b8	0.023257121
19	0xbe8ef21b	-0.27919087
20	0xbdfce6f6	-0.1234874
21	0xbe9c032e	-0.30471176
22	0x3db141f9	0.086551614
23	0xbe05aed2	-0.1305497
24	0xbdf850e5	-0.121248044
25	0xbd88568b	-0.06657132
26	0x3de551a1	0.1119721
27	0xbd9756ae	-0.0738958
28	0xbdd40838	-0.1035313
29	0xbdb5360d	-0.088482
30	0x3e2a6a77	0.16642176
31	0xbe7f63b8	-0.24940383
32	0xbda2464f	-0.079235666
33	0xbed04732	-0.40679318
34	0xbe1fc397	-0.15601955
35	0xbda663f8	-0.08124536
36	0xbe056ab8	-0.13028991
37	0xbf543bf6	-0.82903993
38	0xbeafb7d3	-0.34319934
39	0xbef6b0dd	-0.4818181
