MODELS/REWARD COMPARISON/SAC MASKED MODELS/3_3_critic_local_2_network.pt (torch, 411311 bytes, 6 tensors)

hidden_layers.0.weight f4 [256, 101]
00000000: 00c1 b73d 765b ce3e 6484 133e fbe0 083e
00000010: d273 f93e 5c60 863d 5d0e 863e 6002 123f
00000020: df41 283f 196a c7be dcaa b43d c1ef cb3e
00000030: 58f0 0ebe 5ae7 073f cbae c43e efb8 833d
00000040: ee48 023e 63be f4be 4eae 253e 1903 bfbd
00000050: 98e0 3f3d ca3e 163d 8ac3 69bd 2c1e 8ebe
00000060: 0aac 93be 2b94 9abe cba8 07bf bb05 fe3d
00000070: 5f36 31be 7b7a eabc 9126 9a3d ab9e d13e
00000080: 7cfc 343e b114 943d 8e3e 683e 03bb e4be
00000090: 6e56 063d 9459 a13e 67ed 763d 118e 0dbe
000000a0: 255d 283e 62af 46be cf3c cb3d 7e3a c53d
000000b0: bdd0 59bf 8796 0cbf 4146 4c3e 6ab7 133e
000000c0: d99e ac3e 2786 b3bc 9c38 b03d 4f7a 47be
000000d0: 0858 d73e 6d04 6c3e 23b4 ae3d 11b3 c7be
000000e0: e4b8 0e3f ee61 613e c066 7d3e 91b7 c33d
000000f0: 4bbb 82bc 774b d1be 7b95 523c 80a3 90bd
00000100: 18fc e23c 26fc 01bf 4a81 59be d3a2 a13e
00000110: d704 743e 0d89 ef3d d5a0 fcbd 254c acbd
00000120: bbec bebd 0c48 303f f5ef 6b3e 1d95 4ebe
00000130: 1f08 1b3e 4107 62be 80f5 6e3d 49eb 0b3e
00000140: 3529 acbd c35e bebd da77 8abd 2ec1 3bbe
00000150: d6c9 d83d 5573 8abd f555 823d c280 9ebd
00000160: 6770 8dbe 217c d53d cabe 8a3c 57b8 93be
00000170: 1ed3 9ebe 923f 193d 227f 003e 4751 673e
00000180: f8b6 cbbe c594 f73e e0fb 353f de6c 5cbe
00000190: 517d ea3c 12bf 7abc 2ca8 55bd 1ca1 34be
000001a0: d64d 3a3e e5ff 41bd 6d80 ce3e 5737 3ebe
000001b0: 30b9 32be 1c72 9439 0212 c1be 1fe3 2dbe
000001c0: cd45 0ebb 82a0 a4be f44f 36be f931 0d3e
000001d0: 290a ba3e 9ffd d13d acdb 093f 5d1a d03e
000001e0: be66 363e 83ea 923e 350a a43a 1896 223e
000001f0: c0e9 14be c524 a0be 9ade 3cbe 81b2 d4bd
00000200: c907 45be b0fc 85bd 39cc b23e 9ed9 203e
00000210: 4b41 593e c9c4 1dbe 49b9 8cbe bf30 153d
00000220: d9b2 3e3d 5abb 3bbf 8b73 b43a 139a 8bbe
00000230: 50e3 f53e bd1a 87bb ddd3 173e c3c2 873e
00000240: 70f5 d13d 73f0 69be f8fe ff3d 3b66 42bf
00000250: db97 273d 3a79 5cbe c0a6 62be 12bd 0b3e
00000260: 677b c0bd 9366 aabe 03d5 ba3b a740 9bbe
00000270: 7d20 8bbe 854c 05be dde7 b3bd 3415 793e
00000280: 4549 493f 89b6 19bd e18f 053e 50d1 e4be
00000290: 1119 72bf 2a00 ddbe 0ca7 bb3e 22a5 41be
000002a0: b5eb 42bf ab0b 0cbf fe38 7e3e 1871 adbd
000002b0: 79c0 89bd 8dd7 ecbe b3c8 02bf ace8 a0be
000002c0: f49a c8bd 2ffd a73e ca33 083f e39f 0fbf
000002d0: c58b 343e 8938 4e3d 3093 143e 5202 86be
000002e0: 13e5 8cbe 41ec d13e ae21 903c 13d4 343f
000002f0: cff7 eb3e de99 3f3e d981 253e 0d23 83be
00000300: 3387 17be f265 32bd 06c3 6a3e ae26 873e
00000310: 10d2 c23e e1bc ce3e 7a6d 9e3e e426 c13c
00000320: f563 e63e 0505 76be 82eb f0bd e51d a93c
00000330: d189 c8bd 9add 8f3e a079 f3bd ea79 23be
00000340: 5dc6 68be 48f5 52bf c196 d0bd 5b7a d43d
00000350: 7499 903e a796 39bd 196e e6bd a366 a33d
00000360: fd1b 8fbe 2dcc 5fbe 0f42 96be ac8f 58bf
00000370: f537 5ebf eb5b 6bbe 4a07 ab3d 3817 b23e
00000380: 2f7c a93c 2ff9 4b3d 9da6 293e f698 623e
00000390: f0ee 1ebd f444 03bf 7cd2 14bf 7e25 9c3d
000003a0: 69ea 2dbd 1c52 5f3d 4e54 a6be 7716 cbbe
000003b0: 9d46 803e 3a7f 84be 8cdc 473d 78d5 18bf
000003c0: 4e96 0abf fd37 95be 91bd 473e e6cb 65bd
000003d0: 9bc5 8abd 0013 09be 4eba c8be 796e 10bf
000003e0: 1cd1 233d 506a 13bf da95 15bf eef4 0cbd
000003f0: d47f 3bbe 6828 0a3d fe40 11be 524c 86be
0.08972359 0.40304154 0.14405972 0.13367073 0.48721176 0.06561348 0.26182833 0.57034874
0.6572551 -0.38948134 0.08821651 0.39831355 -0.13958871 0.5308739 0.38414606 0.06431758
0.12723133 -0.47801504 0.16179773 -0.09326763 0.04684505 0.036680974 -0.057071246 -0.27757394
-0.28842193 -0.30191168 -0.5299193 0.12403437 -0.17305897 -0.028622856 0.07526887 0.40941367
0.1767444 0.07230509 0.22680113 -0.4467393 0.03279727 0.31513655 0.060285 -0.13823725
0.16441782 -0.1940284 0.09923708 0.09630297 -0.85084134 -0.54917186 0.19948675 0.14425436
0.3371494 -0.021914555 0.086045474 -0.19480251 0.4205935 0.23048563 0.08530452 -0.39003804
0.5575087 0.22010013 0.24746227 0.09556497 -0.015958449 -0.40877888 0.012853022 -0.07062435
0.027708098 -0.50775373 -0.21240726 0.31569538 0.23829971 0.11696062 -0.12335364 -0.08412961
-0.093224965 0.68859935 0.23040755 -0.2017407 0.15139817 -0.2207308 0.058339596 0.13663973
-0.08406297 -0.09295418 -0.06761141 -0.18335411 0.10585372 -0.06760279 0.06364051 -0.07739402
-0.2762482 0.10424066 0.016936678 -0.28851578 -0.31020445 0.03741414 0.12548497 0.22589599
-0.39788032 0.4835569 0.71087456 -0.21525905 0.028624209 -0.015304344 -0.052162334 -0.17639583
0.18193755 -0.04736318 0.40332356 -0.18575798 -0.17453456 0.00028313778 -0.3770905 -0.16981171
-0.0021709085 -0.32153708 -0.17803937 0.13788594 0.36335877 0.102534525 0.5385082 0.40645114
0.1781263 0.28694543 0.0012515249 0.15877569 -0.14542294 -0.31278053 -0.18444291 -0.103856094
-0.19241251 -0.06542337 0.34921435 0.15708014 0.21216314 -0.15407099 -0.2748511 0.03642344
0.04655728 -0.7333275 0.0013767345 -0.27265987 0.48024988 -0.0041230605 0.14826913 0.2651578
0.102518916 -0.2284563 0.12499803 -0.7593724 0.040916305 -0.2153062 -0.22133923 0.13646343
-0.09398537 -0.33281383 0.0057016625 -0.30322763 -0.27173224 -0.13017471 -0.08784459 0.24324495
0.78627425 -0.037527595 0.13043167 -0.44690943 -0.945695 -0.43164188 0.36650884 -0.1891065
-0.7614091 -0.54705304 0.24826428 -0.084688365 -0.06726164 -0.46258202 -0.5108749 -0.31427515
-0.0979518 0.3281035 0.53204024 -0.5610334 0.17631443 0.050346885 0.14509273 -0.26173645
-0.2751852 0.4100056 0.017594185 0.706361 0.460875 0.1871104 0.16162814 -0.2561268
-0.14797668 -0.043554254 0.22925958 0.26396698 0.3805089 0.40378478 0.309429 0.023578115
0.44998136 -0.24025352 -0.117636696 0.020644138 -0.097919114 0.28098756 -0.118884325 -0.15964475
-0.2273192 -0.8240552 -0.10185004 0.103749 0.28242075 -0.04530969 -0.11251468 0.07978561
-0.2795104 -0.2185523 -0.29347274 -0.84594226 -0.86804134 -0.22984283 0.08351 0.3478334
0.020689098 0.049798187 0.16567464 0.22128662 -0.038802087 -0.5127709 -0.58133674 0.076243386
-0.04245988 0.054521665 -0.32486194 -0.39665577 0.25053874 -0.25878316 0.048794314 -0.5970073
-0.54135597 -0.29144278 0.19505908 -0.056102656 -0.067759715 -0.13386154 -0.3920464 -0.5641857
0.039994344 -0.57584095 -0.5843178 -0.03441327 -0.18310481 0.03372994 -0.14184949 -0.26230103

hidden_layers.0.bias f4 [256]
00000000: 370f d5be 17f2 13bd 032c 5d3e 984d a7bd
00000010: 4fe1 cabe 8b5e 88be f182 023d 3cd2 09bf
00000020: 0efa 173e eb41 86be 6ea0 3dbe 429d a5bc
00000030: a8a3 10be 72b8 4dbb 1451 11be 93a9 8d3e
00000040: aabe a3be 6048 d5be e36c bebd e784 183d
00000050: 924e d6bb 7d6b 47be 02e7 233d 2b42 8abc
00000060: d302 3f3d a7d3 18bf 2d2c b9be ffab 97be
00000070: 650c f8bd 2ef7 29be 5629 90bd fb28 10bf
00000080: eaf5 06bf 72d4 00be d1b5 633e dc55 6b3e
00000090: 8097 d4bc 5db7 dabe 68e7 74be 3c7d 50be
000000a0: 551c 173e 8146 1b3e 9ecc c8be 2411 43be
000000b0: 1c00 f63d d5d9 843d c582 acbd 4a18 e3be
000000c0: 3530 99be 0280 763d cbb6 2fbe 8d19 0b3d
000000d0: 9fe3 77be a273 92bb 7746 85be 7148 823e
000000e0: 0b41 2c3d 01c8 43be e74d b0be 13cc 863d
000000f0: 94ef 61bd 5f76 d1be 8da7 e23d 536e 75bd
00000100: ce24 00bf 4d85 90be 3e8f c8bd 4943 fc3d
00000110: 2127 b6be 0082 92be 8188 10be 32f5 e0bd
00000120: 78c4 8c3e 7209 a93d f8a8 a7be 5b39 87be
00000130: 6ac6 8dbe 0618 7dbe c344 9bbe 0e79 9bbd
00000140: 2616 edbd 6bbb a73c ac61 4c3d a2d3 88bc
00000150: 4deb 23be 4006 a2bd d876 85be 1a76 06bd
00000160: 06bc 19be fa7d 27be 5d32 29be ac24 6bbe
00000170: 22a8 3f3d b86f 503d c63b 97be dea2 cebd
00000180: 398a 34be c5e8 7bbd d7ef b7be 05e3 bdbe
00000190: ebb9 e7bd 4cda 35be 0ae0 613e dd67 14bd
000001a0: 87c2 97be a038 cbbd 8b6f d6bd 34d2 863d
000001b0: 4fcf 3bbd 7e46 31bc 5651 493e 7cf6 3a3c
000001c0: 1041 9cbe e2a1 c4be ef68 553e 9fe9 6dbe
000001d0: 0811 1d3c b931 ef3d a4b7 99be 50f4 b2be
000001e0: 8423 45be bbce e1be 65d4 92be eb2d 86bc
000001f0: 6539 85be 68a7 383e 0412 bc3d 8ab9 77be
00000200: 0c49 7b3b 6a35 5b3d 8d4f cfbe 57b9 bfbe
00000210: c1a7 143e 9df7 2a3e 3aca a0be 4cb5 94bd
00000220: c5c0 e4be b375 863a 09ad b13d f8ae e53c
00000230: 7742 69be 3528 94be 8232 22be 1873 1abd
00000240: 46e5 2cbe 9bc5 7cbe 6c64 cabc 7b3b eb3d
00000250: 6fcf e4be 4dae a5be 03ab 3cbe 7d0a 9cbc
00000260: b609 68be 133d da3d 6380 71be b096 70be
00000270: ca80 c0be e078 d43d 4e36 23be c127 48be
00000280: 4fc0 633e 6e08 f5be ecdc 4ebe 76c7 bdbe
00000290: 42f7 3c3e 0293 b6bd b6a9 abbe 8c42 be3d
000002a0: 8594 463e 2d06 96be fd9a b63e 4c83 9f3e
000002b0: 3e3b eabc 2ec2 72be ce6d 183c 4cab cbbe
000002c0: 8112 0dbe 0791 9abe 56fa b4bd b03d 093e
000002d0: 2503 5a3d 919e c03c 8243 bfbd 7fd9 0bbf
000002e0: e252 bd3d 98f5 fe3c e3b6 d6bd 895f ed3d
000002f0: 2bd7 98be f7a5 98bd 61c4 8e3d b7f7 983d
00000300: 5fc1 9abe de99 debe 0d38 9ebe 6bb9 623d
00000310: 725a 933d 86d6 d1be a1d2 4f3e e67e 39bb
00000320: 81d9 523e 8407 44be 42ea 94be d82f 273d
00000330: f9aa 5abe 237d c0bd 75cd 63be 4542 913e
00000340: 65d8 1ebe 15f0 73be 72a9 173e 4798 65be
00000350: a10e 85bc 1cf5 da3d fe91 e3be ca3b 0bbd
00000360: dff8 72be 22e1 e9be 85ad b4be de1f 89be
00000370: a255 09be ccaf 26be 3574 06be a2ed e0be
00000380: 0e74 74be 44b8 d3bd b217 c03e cbd1 04bf
00000390: 585d b4be c6d4 0abd aca0 66be dc78 1abe
000003a0: da7f 59be 2ded 11bf e83b 10be b7f5 fd3d
000003b0: dcbc 95be e50a 993e 6365 17be 4c09 f73b
000003c0: 4dd5 04bd d8d9 7d3e f7f1 063e 0276 693d
000003d0: 96d8 dfbe 8705 0fbe 1677 88be 6a3e 90bd
000003e0: 1100 eebd 1114 2fbe d223 333d 2514 debe
000003f0: 2a5a 403e a594 e8bd 5ec2 1dbf 5208 1cbf
-0.4161317 -0.036119547 0.2159882 -0.08169097 -0.39625022 -0.2663463 0.031863157 -0.5383642
0.14841482 -0.26222166 -0.1851823 -0.020216588 -0.1412493 -0.0031390456 -0.14191085 0.27668437
-0.31981403 -0.4165678 -0.09298112 0.03723612 -0.006540128 -0.19474597 0.040015228 -0.016877254
0.046633553 -0.59697956 -0.36166516 -0.2962341 -0.12111739 -0.16598198 -0.07039134 -0.5631253
-0.52718985 -0.12581041 0.22237326 0.22981972 -0.025951147 -0.4271802 -0.239164 -0.20360273
0.14756902 0.15163614 -0.3921861 -0.19049507 0.120117396 0.06486861 -0.0842338 -0.4435447
-0.29919592 0.06018067 -0.17159574 0.033959914 -0.24207924 -0.004469351 -0.26030323 0.25445893
0.042054217 -0.19119264 -0.34434435 0.06581893 -0.05516012 -0.40910622 0.11067114 -0.059919666
-0.5005616 -0.282267 -0.09792946 0.12317521 -0.35576728 -0.28614807 -0.14114572 -0.10984267
0.27493644 0.08253755 -0.327461 -0.26410946 -0.2769044 -0.24716195 -0.303259 -0.07591449
-0.1157649 0.02047511 0.049897835 -0.016702477 -0.16007729 -0.07911348 -0.26067233 -0.032827474
-0.15013131 -0.1635665 -0.16523118 -0.22963208 0.046791203 0.050887793 -0.2953779 -0.10089658
-0.17630853 -0.061501283 -0.3592517 -0.37087265 -0.11314758 -0.17759055 0.2205812 -0.036231864
-0.296406 -0.0992291 -0.10470494 0.06583062 -0.045852 -0.010820029 0.19659933 0.0114113055
-0.3051839 -0.38404757 0.2084081 -0.2323365 0.00958658 0.11679406 -0.3002292 -0.3495202
-0.1925183 -0.44103035 -0.2867767 -0.016379317 -0.2602035 0.1803261 0.09183124 -0.24191871
0.00383431 0.053517736 -0.4049038 -0.3744609 0.14517118 0.1669602 -0.31404287 -0.07261142
-0.4467832 0.0010258466 0.08675582 0.028037533 -0.2277926 -0.28936926 -0.1583958 -0.03770742
-0.16884336 -0.24684756 -0.024706088 0.114859544 -0.4468951 -0.32359543 -0.18424611 -0.01904797
-0.22659954 0.1065618 -0.23584132 -0.23494983 -0.37598258 0.103746176 -0.15938684 -0.19546415
0.22241329 -0.47857994 -0.20201463 -0.3706624 0.18453696 -0.08914758 -0.33527917 0.092900366
0.19392593 -0.29301587 0.35665122 0.3115486 -0.028592702 -0.23706886 0.009303523 -0.39779127
-0.1377659 -0.30188772 -0.0883681 0.13402438 0.053225655 0.02351311 -0.09339048 -0.5462875
0.09244324 0.031122968 -0.104841016 0.115904875 -0.2985166 -0.0745353 0.0697105 0.07469123
-0.30225655 -0.43476766 -0.30902138 0.05535261 0.071949854 -0.4098398 0.20295192 -0.0028304397
0.20590784 -0.19143492 -0.29084975 0.04081711 -0.21354283 -0.09398868 -0.22246344 0.28370872
-0.15512235 -0.23822053 0.14810732 -0.2242137 -0.016242327 0.10691282 -0.4444732 -0.033992566
-0.2372775 -0.45679575 -0.35288635 -0.26782125 -0.13411573 -0.16277999 -0.13130267 -0.439313
-0.23872396 -0.1033788 0.37518078 -0.5188262 -0.35227466 -0.033894323 -0.22522229 -0.15085167
-0.21240178 -0.57002527 -0.14085352 0.12400382 -0.2924565 0.29891124 -0.1478477 0.00753895
-0.032429982 0.24790132 0.1317824 0.056997307 -0.4371993 -0.13966952 -0.26653355 -0.070431545
-0.116211064 -0.17097498 0.043735333 -0.43374744 0.18784395 -0.11356477 -0.61624706 -0.60950196

hidden_layers.1.weight f4 [256, 256]
00000000: 996d eabc c5d0 9ebd f6d2 3bbe 7c44 d8bd
00000010: 6e58 99be e2f0 4f3d ce6f 2ebe eed9 1dbe
00000020: 54e4 243e a4c4 ed3b 3ed2 753d 1593 c8bd
00000030: 085e 43be 77d7 7a3e 8ea6 08be 5df7 e53d
00000040: e7b0 8abc de30 28be 73f1 b5be 8225 08bd
00000050: aca2 ecbd 5163 8c3e 0b54 39be 16fe 473b
00000060: 45bd db3d ced4 fcbc e91e 523e dde9 5ebc
00000070: ea52 82be afa3 01be 6782 b93d 7d39 96bd
00000080: 28e8 11be 7935 37bd fdc4 0abe e68d c73d
00000090: 43de 843e b919 03be eb92 83bc ec22 e03c
000000a0: 406c 9cbc fd4b 86bc d546 f9bd a356 b8bd
000000b0: fa2f cabd cfab 1dbd 12ee babe 59e1 8f3c
000000c0: f665 c13d d05b bd3e 143b 48bd b49f 38be
000000d0: 2c2c 0f3d 3ae2 803e fb2c a43d 2d9f 47be
000000e0: 0d34 9c3d c78b efbd 9f96 353d a69e 04be
000000f0: 5cdd bcbc 0359 e93c ad07 46bd 27eb 503d
00000100: 0935 9cbd f3bb 9c3b 6001 4c3e 62ad 30be
00000110: 0510 1a3c d96d 17be ee8d 893d 651f d1bc
00000120: 3ba6 1ebe 8824 d93d fdab 3b3d 043d d1bd
00000130: e905 363e 701b f23d 554f f9bb 8868 3fbc
00000140: 1b57 d0bd 095c 60bd 6e0c bd3d eb8e babe
00000150: 82a2 0ebd 06e4 98be 6ebb ff3d 7cc2 8d3d
00000160: ff74 4c3d 911c 82bd 3cf1 ecbc 251c d8bd
00000170: 1a66 1f3c 7bd6 a93d 6aa6 393e ca72 f33d
00000180: 21b8 a0be 55b7 9bbd 5302 c0bc ab5e 243c
00000190: ba25 50be 3a09 94bd a4fd 9a3d 4528 9ebe
000001a0: bd1c 7ebe 3c0b a2be 49a7 bfbd 42b7 5cbc
000001b0: 47ca 863d 3dfc 18bd 737c 46bd eb33 eabd
000001c0: f389 9abc 0e94 c13d a466 083e 4493 98bd
000001d0: 509f 35be 2e2f 8cbe 24a6 5dbe 8208 c4bc
000001e0: a735 333d 4e38 66be 3e1d 0a3e 85fe 18be
000001f0: de71 6bbd 843a 3ebd 123f 61bd dccc c4bd
00000200: 4061 8fbd dbb0 7cbe 4b69 663e cd22 59be
00000210: 9ed3 9a3c fbfc 8f3c 51e4 8bbc 8244 f83d
00000220: 2c1d fdbd 89ec 453e cdc9 7abd 80ad 1bbe
00000230: 3ea9 38bd 5b8e 01be 7c2a 21bd c60c 89bd
00000240: 0688 2dbe acbf 03be 8a15 11bb dc19 053e
00000250: fc6c 53be c909 0f3e f064 4abe a6f5 4f3e
00000260: e3f7 183c 57b7 58bd 9bcf a93a 1064 3d3a
00000270: 42c2 f03d 41d2 0b3c 9feb 74bd ec3b 24be
00000280: 850b 03be 98f6 e33d 2c8c 7bbd 4a7b 81bc
00000290: 189a bf3e 2532 8cbe f257 683d 1554 bebd
000002a0: bcd1 063e 1e16 163e 0dff a6bd 26a9 65be
000002b0: f2f4 883d 1649 0ebd 194e 35be ac95 2d3e
000002c0: 3684 e23b e75c e03d 8bf9 93be 08ae 49be
000002d0: 980c 823e 75c6 d13d a10a 04be 2a5b 4fbe
000002e0: 4ec5 87bc d9bd e5bd be7d d7bd 8bcc b83d
000002f0: 1592 5bbe d9c6 b83d 569a a7bd 9e0c ad3c
00000300: 51ea 97bd 15db 72bd 7257 98bb e821 d0bd
00000310: 9f19 bebd b4ff 67bd 6447 36bc b3ab 1abd
00000320: a8b0 153d 08a9 debd 57d3 653c 26a6 273d
00000330: 8512 babd 535f 143e 80c8 883d 4c3e 17be
00000340: d4fb 14be 82a7 81be 76af ffba d94b 873d
00000350: 29df 533d 4646 c5bb ef4a 47bd 4add 803d
00000360: be88 ab3d 45c1 17be a516 51be 1537 9abd
00000370: ce92 d3bd 41de dc3d 2f54 1e3e 2ddd 053d
00000380: f420 27be 1607 e1be 4d41 4d3e 4521 c8bd
00000390: a908 7d3d ae72 833d 0a16 66bd b0f2 223e
000003a0: be76 b8bd 95be f33d 2510 02be 2a2a 18bd
000003b0: 4aea 923d cefc efbb 836b 8b3d 3f81 373e
000003c0: f7ea 703a 012b 693e 774e 20be adfc 29be
000003d0: 9d6d 303e 78ac 7b3d d15c 07be b482 f73c
000003e0: 5adc d3bd cdb6 b93d 815b 3a3e 46d9 ccbd
000003f0: ea27 d9bd b4fa 5ebc e8e4 74be 5051 f63d
-0.028616713 -0.077546634 -0.18342194 -0.10559937 -0.2995028 0.050766833 -0.17034838 -0.15415165
0.16102725 0.0072561074 0.060014956 -0.09793679 -0.19078839 0.24496256 -0.13344786 0.112288214
-0.016930057 -0.16424891 -0.35535774 -0.033238895 -0.11554465 0.27419522 -0.18098466 0.0030516437
0.1072946 -0.030863192 0.20519604 -0.013605562 -0.25453883 -0.12660097 0.090580754 -0.07335184
-0.14248717 -0.04472873 -0.13551708 0.09743862 0.25950822 -0.12802781 -0.016061267 0.027360402
-0.019094586 -0.016393656 -0.12171713 -0.090009 -0.09872432 -0.038493928 -0.36509758 0.017563509
0.09443276 0.3698411 -0.048884466 -0.18029672 0.034954235 0.25172597 0.08016392 -0.19494314
0.076271154 -0.11696582 0.044333097 -0.12951145 -0.023054771 0.028484827 -0.048347164 0.05100551
-0.07627303 0.0047831475 0.199224 -0.1725364 0.009403233 -0.14787997 0.06716524 -0.025527665
-0.154931 0.10602671 0.045818318 -0.10216716 0.17775692 0.118216395 -0.007608334 -0.011682637
-0.10172864 -0.05477527 0.092308864 -0.36437163 -0.03482295 -0.29861468 0.12486921 0.069218606
0.049916264 -0.06353105 -0.028923623 -0.10552243 0.009728933 0.08292862 0.18129888 0.11887129
-0.3139048 -0.07603327 -0.023438608 0.010032336 -0.20326892 -0.07228322 0.07567909 -0.30890098
-0.2481565 -0.31649196 -0.09358079 -0.013471426 0.0658155 -0.03734993 -0.048458528 -0.11435684
-0.018864607 0.09452067 0.13320404 -0.07449964 -0.17736554 -0.27379745 -0.21645409 -0.023929838
0.04375234 -0.22482416 0.13487718 -0.14940841 -0.05748164 -0.046442524 -0.05499179 -0.09609386
-0.07000971 -0.2467684 0.22501104 -0.21204682 0.018899735 0.017576685 -0.017076643 0.12122442
-0.1235908 0.19328512 -0.06122761 -0.15202904 -0.045083277 -0.1265196 -0.039347157 -0.066918895
-0.1694642 -0.12866086 -0.0022138082 0.12998146 -0.20647043 0.13968576 -0.19765067 0.20308551
0.009336445 -0.05290922 0.0012955548 0.00072246883 0.11755802 0.008534015 -0.05979502 -0.16038483
-0.12797363 0.111310184 -0.061412975 -0.01580586 0.37422252 -0.27382007 0.056724496 -0.09293381
0.13165945 0.14656875 -0.08154116 -0.22427806 0.066873446 -0.03473767 -0.17705573 0.16951627
0.0069127334 0.1095522 -0.28901324 -0.19695294 0.25400233 0.10242931 -0.1289468 -0.2024962
-0.016573574 -0.11217851 -0.1052203 0.090233885 -0.21442445 0.09022302 -0.08183734 0.02112418
-0.07417739 -0.059290964 -0.004649096 -0.10162717 -0.092822306 -0.056640342 -0.011125419 -0.0377614
0.036545426 -0.10872084 0.014027438 0.040929936 -0.090855636 0.14489488 0.06678867 -0.14769858
-0.1454919 -0.2532311 -0.0019507247 0.06606264 0.051726494 -0.00602034 -0.048655447 0.062922075
0.08375691 -0.1481982 -0.20418794 -0.07530037 -0.10330735 0.10784579 0.15461801 0.032681633
-0.16321164 -0.4395072 0.20044442 -0.09771971 0.061775837 0.06418358 -0.05617336 0.1591289
-0.09007023 0.11901585 -0.12701471 -0.037149586 0.07173593 -0.007323838 0.068076156 0.17920397
0.0009190286 0.22770311 -0.15654932 -0.16600294 0.17229314 0.061443776 -0.13219 0.030213691
-0.10344763 0.090680696 0.18198968 -0.10002379 -0.10603316 -0.013609577 -0.23915446 0.12027228

hidden_layers.1.bias f4 [256]
00000000: 362c 15be 07db 1abe 7cd9 d3bd ae9d b9bd
00000010: 1f1e b5be 2b1b 0fbe e677 0cbe 9131 013c
00000020: a016 8ebd 13c1 c4bc 79ae 14be b265 f0bd
00000030: 21ce 5d3c fa6d 72bd 374c 293c 789e 95bc
00000040: e220 8b3c 2c97 3d3d a36a aabd 5647 d1bc
00000050: 798f 6fbd 59ca 9dbd 98e5 59be 6eed 9fbd
00000060: 8a99 c1bd 2822 d0bd 75ee 6cbc c1d6 0d3b
00000070: 7487 dfbd 85d9 ffbc f23e b4bd 1054 5dbd
00000080: bc02 62be 3b7b 8dbc 3812 70bd 27d5 76bd
00000090: 1e55 f2bd 825b f3bd cd48 9abd ff83 dcbd
000000a0: 28ee 17be ca4c 86bd dba1 24bd c36f 9abe
000000b0: f730 473b 4dcb cabd 0050 18bc e0f7 58bc
000000c0: 6850 60be 7f33 ee3b 0b3c 32be 5212 59bd
000000d0: 0ff7 17be af3a cabd f7ca aebd 41e0 96bd
000000e0: 0c32 16be 2422 7ebd f3d4 5b3d e5d7 29bd
000000f0: f619 76bd 4789 a1bb aebc afbd 0925 11be
00000100: 8199 033d e596 41be 8b1e 24be 03f9 2bbe
00000110: 4b90 6d3d 8d23 20be 5de0 7bbd 8d65 d7bd
00000120: b99d cfbd 6bd4 1dbd bb3c 2c3c 4af3 08be
00000130: 6f24 27bd f5a3 5dbd 766c 8ebd e531 d4bc
00000140: e9f6 d53b 2fd2 5cbe 129f 3dbe c07c 5236
00000150: 3aab 623c 28eb 99bc 860e 32be ae33 a4bd
00000160: 4f51 61bc f357 8abd b085 e3bd 4b1d a2bd
00000170: 5823 b739 c44f 26be 314d 52bd 14e4 4c3d
00000180: 4975 ccbd 34eb e1bd 5d65 a4be 0361 f0bc
00000190: 7fa2 92bd 445e 18be 2f23 d8bd b394 85bd
000001a0: a1f7 25be 7673 38be 8eae fdbd 59d2 8ebd
000001b0: a872 86bd c6e1 093d a9a5 ddbd e153 15bd
000001c0: 1d09 08be b0a8 6fbd af0f 54bd d5bd 8fbd
000001d0: 13d8 12bd 26e3 82bd 59c5 15be 96a8 dcbd
000001e0: 612a 70be d91c 56be f813 83bd 8627 0abe
000001f0: 42d0 16be 98f0 4b3c a977 9fbd 012b 47bd
00000200: e085 ab3c a8df 12be 5188 e8bd b8af 9dbe
00000210: f3e4 a5bd 3543 adbc af79 4fbd b1e7 4cbd
00000220: 24de 41be 13f2 50bd 6b12 c9bd 3b23 1dbe
00000230: c512 f3bd 4604 4c3b 7ae3 39bd d0cb b6bb
00000240: 61c1 47bd e762 3abd 7940 3f3b 7cb9 b3bd
00000250: b0ce 95bd fb9f 2dbe e2a7 e7bd ea64 50be
00000260: af29 3f3d 11b6 093c 6192 25be aaf3 09bd
00000270: fa2c 1cbe 8fe4 f1bd ada0 1cbe 502a afbd
00000280: bf9b 49be 5bcc 58be 893c 12be 400f a23d
00000290: eff0 dcbd 9965 1d3d 55a0 22be 0701 adbd
000002a0: 4105 75bd d43b 9cbd 0ec0 57be ca52 48be
000002b0: 4f84 cb3c 92d8 3fbe 41ae b2bd 4464 3ebe
000002c0: d654 22be 5185 20be 17df d8bd fb59 b8bd
000002d0: b0f7 65bd 719f d7bd ded8 02bd 59b8 3bbe
000002e0: e0c7 10be a775 ebbd 4a4c efbd f94a 4ebe
000002f0: bdb9 f7bd 1851 d6bd b96d 35be 3d50 37be
00000300: ce30 adbc 0933 c0bc b439 99bd 7aa6 c1bd
00000310: af1f c9bc 0c17 57bd ab58 3abd a577 bbbd
00000320: 65b7 c03a c3aa a4bd 80d4 9cbd 7be6 6ebd
00000330: 9fe8 08bd f8a0 38be 05ba 6dbe 8370 3cbe
00000340: d980 f0bd 1fe9 aabd ed56 32be 78b8 4ebe
00000350: 76da 483d d241 a2bd 7c03 e9bd fd9a 23bd
00000360: 5f0c a5be 6207 0dbe 956d a8bc 24aa e3bd
00000370: 660f bbbd ae08 be3d 16c4 57bd 6b82 f43a
00000380: deaf dbbd b383 ebbd e19a febd 31d3 4fbe
00000390: 1711 d33b 7368 d7bd 8de8 aebd d919 abbc
000003a0: c2b6 07bc 6632 47bd c1af 31bc 16b4 16bd
000003b0: bff2 01be d476 d6bd 5a63 1ebe f55c cbbd
000003c0: 1c1c 02be 34e4 873c 6682 87bd 2aaa acbd
000003d0: dcb3 17be b0c3 eebd 348e 1abe 1e89 11be
000003e0: f759 883b 10b6 cebd 1a91 24be 9efa d1bd
000003f0: e025 16be 88dd bfbd 2427 c5bd 7226 8cbd
-0.14567646 -0.15122615 -0.10344216 -0.09063278 -0.35374543 -0.13975208 -0.13717613 0.007885353
-0.06937909 -0.024017846 -0.14519681 -0.11738147 0.0135379145 -0.059186913 0.010333112 -0.01826404
0.016983453 0.046286747 -0.083211206 -0.025546711 -0.058486436 -0.077046104 -0.2127899 -0.07808958
-0.094531134 -0.10162765 -0.014461149 0.0021642896 -0.109145075 -0.031231651 -0.08801068 -0.054035246
-0.22071356 -0.017270675 -0.058611125 -0.06026187 -0.11832641 -0.11882688 -0.07533417 -0.10767364
-0.14836943 -0.06557615 -0.04019342 -0.30163392 0.0030394176 -0.09902058 -0.009296417 -0.013242692
-0.21905673 0.0072693224 -0.17405717 -0.052995987 -0.14840339 -0.09874474 -0.08534806 -0.07366992
-0.14667529 -0.062044278 0.05366988 -0.04146566 -0.060083352 -0.004929695 -0.0858091 -0.14174284
0.032128815 -0.18905218 -0.16027276 -0.16794209 0.057998937 -0.15638562 -0.061493266 -0.10517416
-0.10137505 -0.038532656 0.010512526 -0.13374057 -0.04080623 -0.05411144 -0.06954281 -0.025902698
0.006529678 -0.21564554 -0.18517712 3.1365053e-06 0.013834769 -0.018788889 -0.17388353 -0.080176696
-0.013752296 -0.06755056 -0.11109483 -0.079157434 0.00034930813 -0.16241366 -0.051343147 0.0500222
-0.09983308 -0.110311896 -0.32108584 -0.029343134 -0.071599 -0.1487971 -0.10553586 -0.06522503
-0.16207744 -0.18012795 -0.12386809 -0.069737144 -0.06564838 0.03366258 -0.10822613 -0.036456946
-0.13284726 -0.058510482 -0.05177277 -0.070186295 -0.035850596 -0.063909814 -0.14626063 -0.10774343
-0.23453666 -0.20909442 -0.06400293 -0.1349164 -0.14727882 0.012447499 -0.07786495 -0.048624996
0.02093786 -0.1434313 -0.11354125 -0.30798125 -0.08100309 -0.02115021 -0.050653156 -0.050025646
-0.18932396 -0.05101211 -0.09817966 -0.1534547 -0.118688144 0.0031130477 -0.045382954 -0.0055784956
-0.048768405 -0.045504477 0.0029182716 -0.08775613 -0.07314813 -0.16955559 -0.11311318 -0.20350996
0.046670612 0.008405224 -0.1616912 -0.03367964 -0.15251532 -0.11811172 -0.15295668 -0.08552992
-0.19688319 -0.21171705 -0.14280905 0.07913065 -0.10788142 0.03842697 -0.15881474 -0.084474616
-0.059819464 -0.07628599 -0.21069357 -0.19562832 0.024843363 -0.18734959 -0.087246425 -0.18592936
-0.15852675 -0.15675856 -0.10589426 -0.090015374 -0.056144416 -0.10528458 -0.031945102 -0.18332042
-0.14138746 -0.1149705 -0.11684473 -0.20145787 -0.12095974 -0.10464686 -0.17717637 -0.17901702
-0.021141436 -0.023461835 -0.07481709 -0.09455581 -0.02455124 -0.052512214 -0.045494717 -0.0915368
0.0014703093 -0.08040383 -0.07657719 -0.058325272 -0.03342497 -0.18030155 -0.23215492 -0.18402295
-0.11743326 -0.083452456 -0.17415972 -0.20187557 0.049036466 -0.079227105 -0.11377618 -0.03994273
-0.32236 -0.13772348 -0.020560065 -0.11116436 -0.091337964 0.09278999 -0.052677236 0.001865459
-0.107269034 -0.11499729 -0.124318846 -0.20295407 0.0064412463 -0.10517969 -0.08540449 -0.020886349
-0.008283319 -0.048632048 -0.010845126 -0.036792837 -0.12690257 -0.104718834 -0.15467587 -0.099298395
-0.12706035 0.016588308 -0.066166684 -0.08430894 -0.14814705 -0.11658418 -0.15093309 -0.14212462
0.0041611153 -0.100933194 -0.16070977 -0.102528796 -0.14662886 -0.093684256 -0.09626606 -0.0684327

output_layers.0.weight f4 [40, 256]
00000000: d7d6 083e 38bb 063d 77b7 9b3e 96b4 083e
00000010: 4f28 69be 2318 493e fffc f1bc 22fc b3be
00000020: ecf1 28be 41c3 42be abe0 bcbd 25ee 943d
00000030: f7ef cfbd 31b6 26be d58c 003e a46c c6be
00000040: ca08 c53d 0872 2f3e 8fcb fd3d ebb6 d53d
00000050: 4457 4e3d 7502 50be b0c7 003e d37f 753e
00000060: 090b 123e 3478 723e 9fed 03bc fa64 53bc
00000070: 4a56 203e 3016 abbe 7fc1 10be a6ca 063a
00000080: ce53 8a3e 695d c9bd aba5 883d d566 233e
00000090: b6fd 983e 3267 0b3e 8778 893d e1ad a1be
000000a0: 1e1f 493d 2322 5b3d 473e 2c3d 76a1 d53d
000000b0: 413f a73d dc76 cb3c 861f a3be fe14 1a3e
000000c0: 4a80 e43d a1bb f43d d48d a93c 3b9e 61bd
000000d0: fefa 49be c949 17be c5e3 653d 6b90 d23d
000000e0: 204e ba3d 2f1b d7bc 1e73 113e 1c99 b03d
000000f0: 6876 fcbd 993b 4d3e 7a70 39bd ecf6 6e3d
00000100: 29ea 41bc 47f5 2b3d ae5c ac3d d3c7 193d
00000110: 2e37 27be 8ad5 8e3d 7601 bbbd df43 01bd
00000120: f77a 3e3c 37b4 5d3d e096 18be 7ab8 623d
00000130: 869f 8a3d 3a9b 56be 1e2e 113e 6ba9 1f3e
00000140: a64a 993d 384a 4e3e badf ec3d 1174 1b3d
00000150: 14a8 a93d 902e 2ebe 4a48 3d3d a4a0 4c3e
00000160: d1bd 1f3e d6f2 40be 925d 94bc b326 373d
00000170: 8ef3 4f3e 70b6 e73c 74cb 34bd 9359 553d
00000180: fb65 023d 6813 04bf 0346 85be 9433 4f3e
00000190: 2651 1b3e 85e9 f83d 8439 35bd 348a 333e
000001a0: 6cf5 e53c 91af 193d 9e25 7fbd 14fa e43c
000001b0: 8408 863c 6711 603e 11c6 743c 740b abbd
000001c0: 2c48 2c3e 2d61 903e 9178 c6bd 48d0 763d
000001d0: 00f0 73be 2761 1fbd 89ee e1bd 4bd5 103e
000001e0: 0fba 8ebe 670d 033e 71f7 923c b1b8 2a3e
000001f0: dc54 283e 414a 8e3e a97e 233e 0b75 fb3d
00000200: 4e62 f1bd fcc4 cabd d50b 7d3d 2cc3 ef3d
00000210: a9f2 5fbc cb27 6e3e 29e3 a2be 838d 65bd
00000220: b5be 5eba b88f 87bd 7029 50be 8e91 f03d
00000230: 77b3 bcbd 6910 a3bd a46c 20bd 3ff1 e93d
00000240: 5194 38bd 34ac be3d f515 e53c f56a be3c
00000250: 6ee4 17bd f855 963d 2416 08be ba58 3dbe
00000260: b160 c5bd 66e2 81be a5bc 113d 3b2d 3cbd
00000270: e92a 9d3d c3d2 0e3e c141 043e a007 d1bd
00000280: 859d a43d 6acf 7abe 2764 bc3b b107 c33d
00000290: 3271 013d 1c7f b83e aaf6 e63d 14cf babd
000002a0: 8f46 77be b482 2abe ef58 c83d 7db6 4dbe
000002b0: 8307 d6bd 2ff7 a53d 5d6c b7bd 4b2d b83d
000002c0: f4c4 d93d 2615 f73c 3ff9 d53d 1d6d 0f3e
000002d0: ae29 3b3e c451 bf3d 834c 5c3d 1feb 5e3d
000002e0: aed0 ecbc c885 283d d034 fcbd 0632 973d
000002f0: eaff 9bbc 2690 5ebd 583d b13d 8984 a9bd
00000300: 544e d3bd 46b7 2c3d b740 553d 8c1f 69bd
00000310: 3416 21be 2617 f7bd 3443 8c3d 5961 2abe
00000320: e4db dfbd 9ec8 123e 25a8 a53c c1e2 acbd
00000330: 616d af3e ba84 303e 566e 523e c605 8a3e
00000340: 2542 96bb 3079 d6bd e571 843d 17f1 493e
00000350: ba36 9dbe f986 493c e0b5 533d 5731 3c3e
00000360: 77f9 b5be b344 0b3e f972 293c f2c8 f93d
00000370: 78eb 94bd b341 e5bc 99ac 86be 958c 533d
00000380: 5279 16bb 0cc6 423e ea9d 8a3d 1a00 c93d
00000390: 9aba 2dbd aa61 a2bd ae92 e2bb f573 8bbe
000003a0: d857 39bd b55d 1f3e 4c80 013e 9252 823e
000003b0: 3547 523e ba24 07be 6479 1e3e c538 323e
000003c0: 6eb8 033d 022d 803e d26c 9a3e a8b8 9ebd
000003d0: b03c 44bd da75 503e 9944 73bd ee05 93bd
000003e0: f07d 9dbc 1866 9b3d ba59 b63d 72d9 a7bd
000003f0: 0383 4cbd 861b 113e b927 643e 5792 063e
0.13363205 0.03289339 0.3041341 0.13350138 -0.22769283 0.19638114 -0.029539583 -0.351533
-0.16498536 -0.19019796 -0.092225395 0.07271985 -0.101531915 -0.16280438 0.12553723 -0.3875476
0.09620817 0.17133343 0.12392341 0.104352795 0.05037619 -0.20313437 0.12576175 0.23974542
0.14262022 0.23678666 -0.008052259 -0.012902493 0.15657917 -0.33415365 -0.14136313 0.00051418913
0.27017063 -0.0983227 0.06672224 0.15957196 0.29881066 0.13613585 0.06712442 -0.31577972
0.04910194 0.053499352 0.04205158 0.10431187 0.081663616 0.02483695 -0.31859988 0.1504707
0.11157282 0.1194985 0.020697512 -0.05508254 -0.19724652 -0.1477424 0.05612542 0.10281452
0.090969324 -0.02625808 0.1420407 0.08622953 -0.12327272 0.20042266 -0.04527328 0.05834095
-0.011835613 0.04198196 0.08416115 0.037544083 -0.16329643 0.06974323 -0.09131138 -0.031558868
0.011625997 0.054126944 -0.14901304 0.05535171 0.06768708 -0.20957652 0.14177749 0.15591972
0.07484941 0.201455 0.1156611 0.037952486 0.082840115 -0.1700995 0.04621152 0.19983155
0.15599753 -0.18842635 -0.018111024 0.04471464 0.20307752 0.028285235 -0.04413934 0.052087378
0.031835537 -0.5159211 -0.26029977 0.20234519 0.15167674 0.12153915 -0.044244304 0.17533189
0.028071128 0.03752095 -0.062291734 0.027951278 0.016361482 0.21881638 0.014939801 -0.08351794
0.16824406 0.2819914 -0.09690965 0.060257226 -0.23822021 -0.03891101 -0.11031825 0.14143865
-0.27876326 0.12798081 0.017940255 0.16672017 0.16438621 0.27791026 0.15966286 0.122781835
-0.11786328 -0.09900853 0.061778862 0.11707148 -0.0136686945 0.23257367 -0.31813934 -0.05604316
-0.00084970455 -0.06619209 -0.20328307 0.11746512 -0.09213918 -0.07962114 -0.039166108 0.11422967
-0.04506332 0.09310189 0.027964571 0.02324436 -0.037083082 0.07340616 -0.13289696 -0.18490878
-0.09637583 -0.2536804 0.035580296 -0.045941573 0.076742 0.13947587 0.12915708 -0.102065325
0.08037857 -0.24493185 0.005749244 0.095229514 0.031602092 0.36034477 0.11277516 -0.09121528
-0.2414801 -0.16651422 0.09782588 -0.20089145 -0.104506515 0.08103787 -0.089562155 0.08993014
0.10633269 0.030161452 0.104479305 0.14006467 0.18277618 0.093417674 0.053783905 0.054423448
-0.0289081 0.04114321 -0.12314761 0.07382588 -0.019042928 -0.05433669 0.086542785 -0.08277232
-0.10317674 0.04216697 0.05206367 -0.05691485 -0.15731126 -0.12064962 0.068487555 -0.16638698
-0.10930613 0.14334342 0.02022178 -0.084416874 0.34263137 0.17238131 0.20549902 0.2695753
-0.0045855218 -0.104723334 0.06467036 0.19720875 -0.30705816 0.012300246 0.05168712 0.18378197
-0.3554189 0.13600425 0.010342353 0.121965304 -0.072714746 -0.02798543 -0.26303557 0.05164774
-0.0022960496 0.19020861 0.06768401 0.098144725 -0.042414285 -0.07928784 -0.0069144582 -0.27236906
-0.04524979 0.1556309 0.12646598 0.2545362 0.20534976 -0.13197604 0.15475994 0.17404468
0.032158308 0.25034338 0.30161148 -0.07750064 -0.04790944 0.20357457 -0.05939159 -0.071788654
-0.01922509 0.07587832 0.08903833 -0.08195771 -0.04992963 0.14170656 0.22280778 0.13141762

output_layers.0.bias f4 [40]
00000000: 3587 8b3e d1de 75bc 195e 843e 9e33 603f
00000010: 4a9a cdbd 235d 5dbd 1a19 91bb 5c72 a93d
00000020: b025 86bd ec3a 0b3d 5b76 af3b e9d6 923c
00000030: 972c c5bb 2daf 31bd 2d77 f13b 963e 67bd
00000040: c312 b2bd 22da 3bbd d5ac 903c 9092 2ebd
00000050: bb3d 54bd c72c 27bc e7fc bdbc 56d1 52bd
00000060: 5885 c4bd 7a0c a2bd 759c 023d c812 72bd
00000070: 2cd7 793c 55ca 8b3d ff51 023d 6d2b a6ba
00000080: e5d8 25bd 6f93 9f3d 8068 7dbd 39bd 56bd
00000090: 823d 233e 8fc7 683f 69e0 763e 41e7 ffbd
0.27251592 -0.015006737 0.2585304 0.8757876 -0.10039194 -0.0540439 -0.004428041 0.082737654
-0.06550157 0.03399174 0.0053546852 0.017924743 -0.0060172784 -0.04337995 0.007368943 -0.05645617
-0.08694985 -0.045862325 0.017660538 -0.04262024 -0.051816683 -0.010203547 -0.023191882 -0.05146917
-0.09595746 -0.07912536 0.03188749 -0.059099942 0.015249055 0.06825701 0.03181648 -0.0012677737
-0.04049005 0.077917926 -0.061867237 -0.05242655 0.15941432 0.909295 0.24109043 -0.1249528
