MODELS/REWARD COMPARISON/SAC MASKED MODELS/4_3_critic_local_2_network.pt (torch, 411311 bytes, 6 tensors)

hidden_layers.0.weight f4 [256, 101]
0	0x3d1cf2de	0.038317554
1	0xbdf6a955	-0.12044016
2	0xbdea9bad	-0.11455474
3	0xbded02cb	-0.11572798
4	0x3ebe7845	0.37201133
5	0xbe9489f3	-0.29011497
6	0x3f5ba917	0.85804886
7	0x3cac7833	0.02105341
8	0xbca08e29	-0.019599037
9	0xbe76a220	-0.24085283
10	0xbbead52f	-0.0071665267
11	0xbe9ce6c3	-0.30644807
12	0xbedf1dcd	-0.43577424
13	0x3eb5c654	0.35502875
14	0xbb5886ee	-0.0033039409
15	0xbe277250	-0.163522
16	0x3e557123	0.2084394
17	0xbe518316	-0.20460162
18	0xbeca4770	-0.39507627
19	0xbc45b3bd	-0.012066779
20	0x3da289ec	0.07936463
21	0xbed8f0f7	-0.42371342
22	0x3d29b0e8	0.041428477
23	0x3f14eef4	0.58177114
24	0x3e90267d	0.28154364
25	0x3d895d7d	0.067072846
26	0xbd7158da	-0.058922626
27	0x3e8306a6	0.2559101
28	0x3e96dd9a	0.29465944
29	0x3d1fb0d2	0.03898699
30	0xbe49da9a	-0.19712296
31	0x3741ae08	1.1544216e-05
32	0x3f0d2c27	0.55145496
33	0xbd39abb7	-0.045329776
34	0xbea7e656	-0.3279292
35	0xbf13098c	-0.5743644
36	0xbf3d9448	-0.74054384
37	0xbf0cc94f	-0.5499467
38	0x3ebfb540	0.3744297
39	0x3d2d7e2c	0.042356655
40	0x3e394d49	0.18095888
41	0xbe916aaa	-0.2840169
42	0xbeb4b304	-0.35292828
43	0xbea0f928	-0.3144009
44	0x3e9e6494	0.3093611
45	0x3d948450	0.07251799
46	0x3dafbbc0	0.08580732
47	0x3e903773	0.28167304
48	0x3e90183c	0.2814349
49	0x3f0a1378	0.53935957
50	0xbe00ba8e	-0.12571165
51	0xbe5224df	-0.20521878
52	0x3e240614	0.16017944
53	0xbf1606e6	-0.58604276
54	0xbe0049bd	-0.12528129
55	0xbd843f6f	-0.064574115
56	0xbec9edf0	-0.39439344
57	0x3e2b0d9f	0.16704415
58	0xbe189bb2	-0.14903143
59	0xbef8d98e	-0.4860348
60	0xbc0738ac	-0.008253258
61	0xbd6489b2	-0.05579538
62	0xbf03d5dc	-0.514982
63	0xbf03eb83	-0.5153124
64	0xbf1b6d99	-0.6071411
65	0xbe8273ee	-0.25479072
66	0xbe94dd7e	-0.29075235
67	0x3d54bedc	0.05193983
68	0xbf7013db	-0.937803
69	0x3d4035a4	0.046926156
70	0x3e485935	0.1956528
71	0xbdecc3b1	-0.11560763
72	0x3e0028ff	0.12515639
73	0xbf0c42f9	-0.5478969
74	0xbe89dde0	-0.2692709
75	0xbe4ff8fb	-0.20309822
76	0xbd2455ea	-0.040120997
77	0x3cc35b37	0.023847206
78	0xbe40d80c	-0.18832415
79	0xbeb16b36	-0.34652108
80	0xbdfe6765	-0.12422065
81	0x3ece9f5a	0.4035595
82	0x3f1c030a	0.6094214
83	0x3f2df8b3	0.6795761
84	0x3eaccc19	0.33749464
85	0x3e9c8e6c	0.3057741
86	0xbe7bdb39	-0.24595346
87	0x3d4e71bf	0.050401445
88	0x3f274c61	0.6535092
89	0x3e1efbe1	0.15525772
90	0x3d79c497	0.0609785
91	0x3d9bf973	0.07615938
92	0xbda1d531	-0.07901991
93	0x3e3b8b72	0.18314913
94	0x3e7c4bbd	0.24638267
95	0x3ed8870c	0.42290533
96	0xbdacbcf1	-0.08434475
97	0x3ed93a9e	0.42427534
98	0xbd5e1cb2	-0.054226585
99	0xbf050fc8	-0.51977205
100	0xbd6b7c46	-0.057491563
101	0xbddde4bc	-0.10834643
102	0x3f0f9945	0.56093246
103	0x3e274e50	0.16338468
104	0xbdf5818c	-0.119876
105	0x3effcb85	0.4995996
106	0xbe8e428e	-0.27785152
107	0xbe1e3181	-0.15448572
108	0xbf8e0901	-1.1096498
109	0xbe42e124	-0.19031197
110	0x3e66073a	0.22463694
111	0xbda823a7	-0.08209925
112	0x3e7e5b02	0.24839404
113	0xbec1207b	-0.37720093
114	0x3e8da17c	0.27662265
115	0x3e245e0b	0.160515
116	0xbe351ac1	-0.17685987
117	0x3d9cd9b3	0.0765871
118	0xbf04ae8c	-0.5182884
119	0xbf0b6c82	-0.54462445
120	0xbe1977ef	-0.14987157
121	0x3e98b553	0.2982584
122	0x3d480e81	0.048841957
123	0xbe0230eb	-0.12713973
124	0x3df38b66	0.118918225
125	0x3de0847d	0.1096277
126	0x3eee01b7	0.46485683
127	0xbe0abab8	-0.1354779
128	0xbdae3b50	-0.08507407
129	0xbf7b7041	-0.9821816
130	0x3d473756	0.048636757
131	0xbbc212b3	-0.0059226393
132	0x3f2086ad	0.627055
133	0x3e4c442f	0.19947885
134	0xbebee59d	-0.37284556
135	0xbf60d234	-0.87820745
136	0xbeaeffe0	-0.34179592
137	0x3ecea017	0.40356514
138	0x3e6d6994	0.23184806
139	0xbe5067c3	-0.20352082
140	0x3f6e235b	0.930227
141	0xbe0a5072	-0.1350725
142	0xbd86db2d	-0.06584773
143	0xbe3c941a	-0.18415871
144	0xbe7af66b	-0.24508063
145	0xbf25cbb6	-0.64763963
146	0xbbad8409	-0.005295281
147	0xbe856ca4	-0.2605945
148	0xbd8a4cff	-0.06752967
149	0xbed4a660	-0.41533184
150	0xbc2b32a0	-0.010449082
151	0xbe0dc0b2	-0.13843039
152	0xbd70597d	-0.058679093
153	0xbe43b88d	-0.1911337
154	0xbda264f5	-0.07929412
155	0xbe0b7c27	-0.13621579
156	0x3f4108ef	0.75404257
157	0x3e25b140	0.16180897
158	0x3f0b6a52	0.54459107
159	0xbe08094c	-0.13284796
160	0x3e76444f	0.24049495
161	0xbdf58d47	-0.11989837
162	0xbd37aad8	-0.044840664
163	0xbed4c2f8	-0.41555
164	0xbee8e59f	-0.45487687
165	0xbee9ff5a	-0.4570263
166	0x3d386c09	0.045024905
167	0x3d1d6ec5	0.038435716
168	0x3e7a1ac2	0.2442427
169	0xbf2993f2	-0.6624137
170	0x3d9ed586	0.0775557
171	0x3d1d2161	0.03836191
172	0x3d126616	0.035741888
173	0xbe229432	-0.15876845
174	0xbf1f2cb9	-0.62177616
175	0xbea20157	-0.31641647
176	0xbe9f4639	-0.31108263
177	0x3c92fe56	0.017943542
178	0xbe824326	-0.25441855
179	0xbf1e1513	-0.61750907
180	0x3e00c627	0.12575589
181	0xbe734d3d	-0.23759933
182	0xbeed9131	-0.46399835
183	0xbe32187b	-0.17392151
184	0xbe78f10a	-0.24310699
185	0x3e05f0fc	0.1308021
186	0x3dbbdea6	0.09173326
187	0xbc399a3a	-0.011328274
188	0xbd5d6c05	-0.054058094
189	0xbf06d11b	-0.5266282
190	0xbed2163e	-0.41032594
191	0xbea1b8f3	-0.31586418
192	0xbdf035d3	-0.11729016
193	0xbd93b467	-0.072121434
194	0xbf008262	-0.5019895
195	0xbf2e93df	-0.68194383
196	0xbf3bf13e	-0.7341498
197	0xbe9feba2	-0.3123446
198	0x3e3298b8	0.1744107
199	0x3f0f1b8f	0.55901426
200	0x3edde042	0.43335158
201	0x3df22c99	0.118249126
202	0x3e8df8f0	0.27728987
203	0xbe3bdec8	-0.18346703
204	0xbe948c69	-0.29013374
205	0x3eac8aec	0.3369974
206	0xbdc2fb6e	-0.09520613
207	0x3d428e0b	0.047498744
208	0xbed8a83a	-0.42315847
209	0x3f212838	0.62951994
210	0xbce7de51	-0.02830425
211	0xbd435640	-0.047689676
212	0x3daea0f7	0.08526795
213	0xbe46a5bf	-0.19399165
214	0xbe8820ee	-0.26587623
215	0xbd0b01d1	-0.03393728
216	0xbe01b9c3	-0.12668519
217	0xbdc4f3e7	-0.09616833
218	0x3e518d1d	0.20463987
219	0x3ceb6a59	0.028737234
220	0x3ec695ef	0.38786265
221	0xbe93844f	-0.2881188
222	0x3e16360f	0.14669059
223	0xbef28d49	-0.47373417
224	0xbed27ea3	-0.4111224
225	0xbf1b45e8	-0.60653543
226	0x3e8e7e47	0.27830717
227	0xbe339417	-0.1753696
228	0x3f057f4e	0.52147377
229	0xbe87ce35	-0.2652451
230	0x3f27d7ce	0.65563667
231	0xbea98fb1	-0.3311744
232	0xbcf3f000	-0.029777527
233	0xbea5c746	-0.32378596
234	0xbf32fade	-0.6991404
235	0xbeae3ce8	-0.34030843
236	0xbe830e6e	-0.25596946
237	0x3e9a29b5	0.30109945
238	0xbe34e2e6	-0.1766468
239	0xbd028313	-0.031863283
240	0xbd97ac01	-0.07405854
241	0xbf5590a2	-0.8342382
242	0xbe54963a	-0.20760432
243	0x3db73506	0.0894566
244	0xbeacf9bc	-0.33784282
245	0xbeb3e071	-0.35132173
246	0xbdff6bd2	-0.12471737
247	0xbf2064b3	-0.62653655
248	0xbf5003bf	-0.81255716
249	0x3e7767ef	0.24160741
250	0x3eb62cf6	0.35581177
251	0x3de61b52	0.1123568
252	0x3ce081f0	0.027405709
253	0x3ed117da	0.4083851
254	0x3c9a7b7c	0.01885771
255	0xbe094a54	-0.1340726

hidden_layers.0.bias f4 [256]
0	0xbe629038	-0.22125328
1	0x3dd360a6	0.103211686
2	0xbdb2fda6	-0.08739786
3	0xbe32c30e	-0.1745722
4	0xbe52b441	-0.20576574
5	0xbd9861d0	-0.07440531
6	0xbeacf9a1	-0.33784202
7	0xbe99425f	-0.2993345
8	0xbe9cbfc3	-0.30615053
9	0x3dfc6025	0.123230256
10	0x3d00c605	0.031438846
11	0xbd7fab8d	-0.062419463
12	0xbe9399dd	-0.28828326
13	0xbe7d302c	-0.24725407
14	0x3c889e3f	0.01667702
15	0xbf16faad	-0.5897625
16	0xbe52c6ad	-0.20583601
17	0xbf11628d	-0.56791
18	0xbe07bc51	-0.13255431
19	0x3c746450	0.0149164945
20	0xbeb2b7c7	-0.34905836
21	0xbd0edc73	-0.034878206
22	0x3dfc80fd	0.1232929
23	0x3d46f0ac	0.048569366
24	0x3cfdd42b	0.030984959
25	0xbda66b40	-0.08125925
26	0xbea5bd2b	-0.32370886
27	0xbe015c50	-0.1263287
28	0x3e014d79	0.1262721
29	0xbdb1fe43	-0.08691075
30	0xbebd7920	-0.37006474
31	0xbeb55e44	-0.3542348
32	0xbe215f8b	-0.15759103
33	0xbeec3caa	-0.46140033
34	0xbeb80f5d	-0.3594922
35	0xbe88c6dc	-0.26714218
36	0xbe36c96f	-0.17850278
37	0xbe863521	-0.2621241
38	0x3ea0635a	0.313258
39	0xbe23af7d	-0.15984912
40	0xbd2afccb	-0.04174499
41	0xbba7528f	-0.0051062773
42	0xbe4d06a2	-0.20022061
43	0xbf121eb8	-0.57078123
44	0xbee7dc8d	-0.45285454
45	0x3de67981	0.11253644
46	0xbe831560	-0.25602245
47	0x3ad8bb06	0.001653523
48	0xbe8752b2	-0.2643028
49	0x3cbb6651	0.022875937
50	0xbe5cb058	-0.21551645
51	0xbdd32cf5	-0.10311309
52	0x3d20c78c	0.039252803
53	0xbdd46ec0	-0.103726864
54	0xbe57058c	-0.2099821
55	0x3df73d00	0.12072182
56	0xbefb4fcb	-0.49084315
57	0x3e18feb0	0.14940906
58	0x3d7556d2	0.05989725
59	0xbe84b4ef	-0.2591929
60	0xbee96028	-0.45581174
61	0x3d2e3d74	0.042539075
62	0xbda73596	-0.081645176
63	0xbe856fa0	-0.26061726
64	0xbe93e6f3	-0.28887138
65	0x3c9fb285	0.019494304
66	0xbf15061e	-0.5821246
67	0xbe9db4ff	-0.30802152
68	0xbc2dceb0	-0.01060836
69	0xbe971c05	-0.29513565
70	0x3cafe58c	0.021471761
71	0xbd9e26fa	-0.07722278
72	0xbe4005bd	-0.18752189
73	0xbe3df35a	-0.18549863
74	0x3dd662c6	0.10468058
75	0xbf022923	-0.5084402
76	0x3d84cf47	0.064848475
77	0xbf06b2c7	-0.5261654
78	0xbe84b7f7	-0.25921604
79	0xbe471a07	-0.19443522
80	0xbe959645	-0.2921621
81	0xbdcf858f	-0.10132896
82	0x3e81a312	0.25319725
83	0xbe08f4fb	-0.13374703
84	0xbec62cba	-0.38706
85	0xbed0f8b8	-0.40814757
86	0xbf08e5a6	-0.53475416
87	0xbee05591	-0.43815282
88	0x3e9ec4b1	0.3100944
89	0xbe1bdd1a	-0.15221062
90	0xbe305485	-0.17219742
91	0xbdf98bac	-0.121848434
92	0xbe78abe2	-0.24284318
93	0x3dfa9fd0	0.12237513
94	0xbdf60a4c	-0.12013683
95	0x3dbbd266	0.0917099
96	0xbe66be38	-0.225335
97	0xbe77a6bd	-0.241847
98	0xbede2e13	-0.43394527
99	0x3d92ec0c	0.071739286
100	0xbe40217b	-0.18762772
101	0x3e25661f	0.16152237
102	0xbd976bd8	-0.073936164
103	0xbcca154d	-0.02466836
104	0xbe1d20e6	-0.15344581
105	0xbe94fd7a	-0.29099637
106	0x3dd50a93	0.104024075
107	0xbc1c5c88	-0.009543546
108	0xbe03d4cf	-0.12874149
109	0xbeb95d0b	-0.362038
110	0xbebfd01f	-0.3746347
111	0xbea2d889	-0.31805828
112	0xbcf03143	-0.029320365
113	0xbe893157	-0.26795456
114	0xbeedd037	-0.46447918
115	0xbdcbcacb	-0.09950789
116	0xbe68a929	-0.2272078
117	0xbea4fb2c	-0.3222288
118	0x3d6807d6	0.056648098
119	0xbe591733	-0.21200256
120	0x3dde11bb	0.108432256
121	0xbd6bfaab	-0.057612102
122	0x3da9b408	0.08286291
123	0xbeb8baba	-0.3607996
124	0xbe87de85	-0.26536956
125	0xbf082e04	-0.53195214
126	0xbd7ef5d3	-0.062246155
127	0x3e029b27	0.12754498
128	0xbf15c6b3	-0.58506316
129	0x3d6b43db	0.05743776
130	0x3d25339b	0.040332418
131	0x3c8a2f08	0.01686813
132	0xbe1a9900	-0.15097427
133	0x3e3c3f53	0.18383531
134	0x3d470c44	0.04859568
135	0x3ca0eb9f	0.019643603
136	0xbe535f0d	-0.20641728
137	0xbe8f1a4f	-0.2794976
138	0x3d7bc471	0.061466638
139	0xbf0025b3	-0.50057524
140	0xbe747767	-0.23873673
141	0xbe969669	-0.2941163
142	0xbe7ec628	-0.24880278
143	0xbea01f16	-0.31273717
144	0xbe24e284	-0.16102034
145	0xbe176fec	-0.14788789
146	0xbf0cd4cb	-0.55012196
147	0xbe2dc8ec	-0.16971177
148	0xbba1d237	-0.0049383896
149	0xbdfe9cfe	-0.12432288
150	0xbdbf2947	-0.09334045
151	0xbe7cd98e	-0.24692366
152	0xbe0b17b1	-0.13583256
153	0x3e2276e9	0.15865673
154	0x3ded4240	0.11584902
155	0xbe38efec	-0.18060273
156	0xbef84514	-0.48490202
157	0xbe783422	-0.24238637
158	0xbe8614f0	-0.2618785
159	0xbe6630e0	-0.22479582
160	0xbda20b84	-0.07912353
161	0x3e1ecbd3	0.1550744
162	0xbe0ff612	-0.14058712
163	0xbd39a64f	-0.04532462
164	0x3e839157	0.25696823
165	0x3d67d204	0.05659677
166	0xbe23bc8f	-0.15989898
167	0x3c090364	0.008362625
168	0xbe1299c1	-0.14316465
169	0xbed875ea	-0.4227746
170	0xbb810fa1	-0.0039386307
171	0xbe68e8fe	-0.2274513
172	0x3d0e68d5	0.034767944
173	0xbe0be9ca	-0.13663402
174	0xbe97b70e	-0.29631847
175	0xbe2d605e	-0.16931292
176	0xbed93d76	-0.42429703
177	0xbde8c3c9	-0.11365468
178	0x3ed77d62	0.42087847
179	0xbdfa6721	-0.122267015
180	0xbea72d3f	-0.32651708
181	0xbe9087fa	-0.28228742
182	0x3dc55ecc	0.09637222
183	0xbde61864	-0.11235121
184	0xbec3baa0	-0.3822832
185	0xbe83ed07	-0.25766775
186	0xbf3072b6	-0.68925035
187	0x3de9221e	0.113834605
188	0x3d6b2061	0.057403926
189	0xbe275974	-0.16342717
190	0xbe80fd95	-0.25193468
191	0xbe0a6e7e	-0.13518712
192	0xbc72d2d4	-0.014820773
193	0xbe9d5d74	-0.30735362
194	0xbc150196	-0.009094616
195	0x3e3fec1e	0.18742415
196	0xbe0734dc	-0.13203758
197	0x3ccf2bc7	0.02528943
198	0xbe6608dd	-0.22464319
199	0xbe94aaac	-0.29036462
200	0xbea8507a	-0.328739
201	0xbebd71af	-0.37000796
202	0x3e10d517	0.14143787
203	0x3e731767	0.23739396
204	0x3dbc87bb	0.09205576
205	0xbed13b70	-0.4086566
206	0x3e07e18e	0.13269636
207	0x3dfec371	0.12439621
208	0x3da46ce0	0.08028579
209	0xbe60a17d	-0.21936603
210	0xbbcdd2ff	-0.006281256
211	0xbd8b2408	-0.06793982
212	0xbecad141	-0.39612773
213	0xbef41067	-0.47668764
214	0xbdcbaedc	-0.09945461
215	0x3d44b7ad	0.04802673
216	0xbe5cfd01	-0.21580888
217	0x3e43d7a4	0.19125229
218	0xbe599b12	-0.21250561
219	0xbee3154c	-0.44352186
220	0x3c068a0f	0.008211627
221	0x3cfa7304	0.030572422
222	0xbf09a041	-0.53760153
223	0xbcbc8b51	-0.02301565
224	0xbe34419e	-0.17603156
225	0xbe8156f9	-0.25261667
226	0xbf13cc6b	-0.5773379
227	0xbe30db21	-0.17271091
228	0x3ba2decd	0.0049704076
229	0xbc74f19f	-0.014950185
230	0xbd52f334	-0.051501468
231	0xbef07538	-0.4696443
232	0xbed2b385	-0.41152588
233	0xbdafe22b	-0.0858806
234	0xbeb9d2c2	-0.36293608
235	0x3e2a78e6	0.16647682
236	0xbe6dbc85	-0.23216446
237	0xbe68f54e	-0.22749826
238	0xbd7341ef	-0.05938905
239	0xbe08f846	-0.13375959
240	0xbeca087f	-0.39459607
241	0xbee6d924	-0.4508754
242	0xbe8b8953	-0.27253208
243	0xbed662be	-0.4187221
244	0x3db776b1	0.089581855
245	0xbdf32735	-0.118727125
246	0x3d996db6	0.07491629
247	0xbe38cac1	-0.18046094
248	0x3e422a05	0.18961342
249	0xbe188bbd	-0.14897056
250	0xbf0ebdf9	-0.55758625
251	0x3e28e090	0.16491914
252	0xbe5b4080	-0.21411324
253	0xbd468dea	-0.048475184
254	0xbedf7d06	-0.43650073
255	0xbe910fe1	-0.28332427

hidden_layers.1.weight f4 [256, 256]
0	0xbe7c16c4	-0.2461806
1	0x3edee12e	0.43531173
2	0x3bcf8243	0.006332667
3	0xbe12e85d	-0.14346452
4	0xbe823467	-0.25430605
5	0x3dc7c72e	0.097547874
6	0xbe393b84	-0.1808911
7	0x3df68788	0.12037569
8	0x3e81ff16	0.25389928
9	0x3eddf63e	0.4335193
10	0xbd478aee	-0.048716478
11	0x3e82d79b	0.2555512
12	0x3dd87424	0.10569027
13	0x3bc8635c	0.00611536
14	0x3ddc75f0	0.10764682
15	0xbe802fcc	-0.25036466
16	0xbe082ff9	-0.1329955
17	0xbe05f827	-0.13082944
18	0xbe9c5d3f	-0.3053989
19	0xbe2372cd	-0.15961762
20	0x3eebf76d	0.46087208
21	0xbca225b5	-0.01979337
22	0xbe327843	-0.17428689
23	0xbddd891d	-0.10817168
24	0xbc8725e8	-0.016497567
25	0x3d99f3ac	0.0751718
26	0xbe2795f4	-0.16365796
27	0xbe5eb488	-0.21748555
28	0xbd18a31f	-0.03726494
29	0xbe33b733	-0.17550354
30	0x3d80f07b	0.06295868
31	0xbd818036	-0.063232824
32	0xbe8d7d8f	-0.27634856
33	0x3e088a65	0.13334043
34	0x3d8523ba	0.06500955
35	0xbe8366b7	-0.25664303
36	0xbe0e988e	-0.13925382
37	0x3e894c2d	0.2681593
38	0xbe1c50f4	-0.15265256
39	0x3c3c21a4	0.01148263
40	0xbdc7ba3c	-0.09752318
41	0xbe346953	-0.17618303
42	0x3df38c3d	0.11891983
43	0x3bac6734	0.005261326
44	0xbb3978d1	-0.0028300772
45	0x3d3b6bac	0.04575698
46	0xbd9b380e	-0.07579051
47	0x3c5559da	0.013021911
48	0x3bc92d49	0.0061394316
49	0xbe3cb389	-0.18427862
50	0xbc88d9e2	-0.016705457
51	0xbe6da658	-0.23207986
52	0xbc68b13a	-0.01420241
53	0x3ead6930	0.33869314
54	0xbe4dc59e	-0.20094916
55	0xbe370d23	-0.17876105
56	0xbd8603be	-0.065436825
57	0xbdad3c43	-0.0845876
58	0x3ceb53b7	0.028726442
59	0xbe1d4041	-0.15356542
60	0xbd1138f2	-0.035454698
61	0xbe36d0ab	-0.17853038
62	0xbe5313e3	-0.20613055
63	0xbe77b81a	-0.24191323
64	0x3e1f88d5	0.15579541
65	0x3c821ccc	0.015882872
66	0xbdbff525	-0.093729295
67	0x3d9455dc	0.07242939
68	0xbe48a3ba	-0.19593707
69	0xbe200e9e	-0.15630576
70	0x3d3e4c6b	0.046459597
71	0x3d74b68a	0.059744395
72	0xbe013452	-0.12617615
73	0x3ec2d321	0.38051704
74	0xbe289e44	-0.16466624
75	0xbd8ae093	-0.067811154
76	0xbe2fee45	-0.17180736
77	0x3df70dc8	0.120631754
78	0x3d85aab9	0.065267034
79	0xbe2b5612	-0.16732052
80	0xbdc7ac0d	-0.09749613
81	0xbea0cea6	-0.3140766
82	0xbd3783dd	-0.04480349
83	0xbe09fd38	-0.13475502
84	0x3dd7c89e	0.105363116
85	0x3e7180be	0.23584267
86	0x3d6cca0f	0.057809886
87	0x3cdb43b6	0.026765686
88	0xbda2a85f	-0.079422705
89	0xb9fb06af	-0.0004787943
90	0xbd0389b7	-0.032113757
91	0xbdc326d0	-0.09528887
92	0xbe5cf8e7	-0.21579324
93	0xbdcc967d	-0.09989641
94	0x3bf3a886	0.007435861
95	0x3e7101e7	0.23535882
96	0xbe66c4e6	-0.22536048
97	0xbdde41df	-0.10852408
98	0xbdda1277	-0.10648053
99	0xbd341580	-0.043965816
100	0xbe7d6fa6	-0.24749622
101	0xbd814987	-0.06312852
102	0x3cd72ab4	0.02626548
103	0x3e5ab934	0.21359712
104	0xbe3815fd	-0.17977138
105	0xbd91991e	-0.07109283
106	0x3d5b1b27	0.05349269
107	0xbc48d80c	-0.012258541
108	0x3e53aa63	0.20670466
109	0xbea13d59	-0.31492117
110	0x3d89af02	0.06722833
111	0x3d95361b	0.072857104
112	0xbe41c92e	-0.189244
113	0xbd0e517e	-0.034745686
114	0xbdb2d338	-0.08731693
115	0xbdb052a8	-0.086095154
116	0xbe282fd9	-0.16424502
117	0xbd87a0a6	-0.06622438
118	0xbe9003c3	-0.2812787
119	0x3d96bfc2	0.07360794
120	0x3bbd9f13	0.0057867854
121	0x3def7a52	0.116932526
122	0x3d139c84	0.036037937
123	0x3deb24d7	0.11481636
124	0xbe88ac1f	-0.26693818
125	0x3e77db79	0.24204816
126	0x3e4b7b8a	0.19871345
127	0xbe00ed02	-0.12590411
128	0x3d5aa9a2	0.05338443
129	0x3e5a0f0d	0.21294804
130	0xbde6565e	-0.11246942
131	0xbdc0ae9f	-0.09408306
132	0xbe21dd1e	-0.15807006
133	0xbeb1f2a9	-0.34755448
134	0xbd2b372a	-0.041800655
135	0xbdfba29e	-0.12286876
136	0xbcdc78cd	-0.026913071
137	0xbe992336	-0.29909676
138	0xbe304930	-0.17215419
139	0x3c727793	0.0147990165
140	0x3d4c2e01	0.04984856
141	0x3defff33	0.11718597
142	0xbe5e930d	-0.21735783
143	0xbe898d59	-0.26865652
144	0xbe6eba92	-0.23313358
145	0x3ebfcd71	0.37461427
146	0x3b959885	0.004565301
147	0xbd4bdf1f	-0.04977333
148	0x3cc08f3a	0.023505796
149	0x3e1c57ac	0.15267819
150	0x3cd9771b	0.026546052
151	0xbec46ebc	-0.38365734
152	0x3ddd922f	0.10818898
153	0xbe2e683f	-0.17031954
154	0xbe6f5b24	-0.23374611
155	0x3d44acb9	0.048016284
156	0xbdfb21f2	-0.12262334
157	0xbdda90d2	-0.106721535
158	0x3d8efbab	0.069815956
159	0x3ddac50b	0.10682114
160	0x3d2b890d	0.04187875
161	0x3d7c6081	0.06161547
162	0xbcb613e2	-0.022226278
163	0xbe3fdefd	-0.18737407
164	0xbe52654f	-0.20546459
165	0xb7b2d8b4	-2.1320164e-05
166	0xbe3e81c7	-0.18604194
167	0x3dd9e225	0.10638837
168	0xbd920b5a	-0.071310714
169	0xbcea9245	-0.0286342
170	0xbda13311	-0.07871068
171	0xbe3f2669	-0.18666996
172	0x3be3f9ce	0.0069572693
173	0xbd150169	-0.036378298
174	0xbe3c8536	-0.18410191
175	0xbe5d5451	-0.21614195
176	0xbcb4e809	-0.0220833
177	0xbd033956	-0.0320371
178	0xbdaaf738	-0.083479345
179	0xbdb8d64a	-0.090252474
180	0x3e16db50	0.14732099
181	0xbdeec77b	-0.11659142
182	0x3bccef0d	0.006254083
183	0x3d3fba77	0.046808686
184	0x3d5eabca	0.05436305
185	0xbcf9928d	-0.030465389
186	0x3a909b38	0.0011032587
187	0x3d3d7daf	0.04626244
188	0xbd07fb6d	-0.033198763
189	0x3d9da66b	0.07697757
190	0xbe2222ba	-0.1583356
191	0xbd06b61a	-0.03288851
192	0xbe313245	-0.17304333
193	0x3e1426b1	0.14467885
194	0x3d51d48e	0.0512281
195	0x3d35d264	0.044390097
196	0xbe9ea98e	-0.30988735
197	0xbe717298	-0.2357887
198	0x3dccfb27	0.10008841
199	0xbe8a0ea3	-0.26964292
200	0xbd0cc33b	-0.034365874
201	0xbde2cc7a	-0.11074157
202	0xbe6f2c33	-0.23356704
203	0xbe57cd3b	-0.21074383
204	0x3da8e5f3	0.08246984
205	0xbe13c7d8	-0.14431703
206	0x3d5d4b1e	0.054026715
207	0x3d90052a	0.07032235
208	0xbd97d825	-0.07414273
209	0xbe38e2a4	-0.18055207
210	0xbe36fbe2	-0.17869523
211	0xbe48cf69	-0.1961037
212	0xbd8e7631	-0.06956137
213	0x3cc92e5d	0.02455824
214	0x3da0f504	0.07859233
215	0x3e2dbad5	0.16965802
216	0xbe7afc69	-0.2451035
217	0xbe8e574f	-0.27800986
218	0xbdd3e27b	-0.10345932
219	0xbe1fc7eb	-0.15603606
220	0xbe97e585	-0.29667297
221	0x3d9dce77	0.07705396
222	0x3d4946ef	0.049139913
223	0xbe1f419a	-0.15552369
224	0xbe801c34	-0.25021517
225	0xbe556e8f	-0.20842956
226	0xbd6cdd50	-0.057828248
227	0x3da5668b	0.08076199
228	0xbe8fa096	-0.28052205
229	0xbe253525	-0.16133554
230	0xbe61fa65	-0.22068174
231	0x3e180789	0.14846624
232	0x3d62afca	0.055343427
233	0x3ca0e137	0.01963864
234	0xbdd60e2e	-0.10451923
235	0xbecaef83	-0.39635858
236	0xbe7defdc	-0.2479853
237	0xbde584c7	-0.11206966
238	0x3e11397b	0.14182083
239	0xbea3722a	-0.31923038
240	0x3d7ff30f	0.062487658
241	0xbdae567b	-0.085125886
242	0x3e0d4cc2	0.13798812
243	0x3b0b4fea	0.002125735
244	0xbd80a2d8	-0.0628106
245	0x3da1cf44	0.07900861
246	0xbe348685	-0.1762944
247	0xbe29129c	-0.16511005
248	0x3e63c7d4	0.22244197
249	0x3e186f7d	0.1488628
250	0xbe3a5ded	-0.18199892
251	0x3cdc6b79	0.026906716
252	0x3e63aad2	0.22233132
253	0xbcabe689	-0.020983951
254	0xbe088670	-0.13332534
255	0x3de4f0d1	0.111787446

hidden_layers.1.bias f4 [256]
0	0xbdc04e29	-0.09389908
1	0xbe2917e6	-0.16513023
2	0xbdc37137	-0.095430784
3	0xbde70824	-0.112808496
4	0xbd2f5437	-0.042804923
5	0xbd9bfd2f	-0.0761665
6	0xbe27610b	-0.16345613
7	0xbd87fc71	-0.06639946
8	0xbe447b32	-0.1918762
9	0xbdd33909	-0.10313613
10	0xbe1b88d3	-0.15188913
11	0xbe3381c5	-0.17529972
12	0xbe11b56e	-0.14229366
13	0xbdd037bd	-0.10166881
14	0xbda6d484	-0.08146003
15	0xbda1ca17	-0.07899874
16	0xb8c786a8	-9.514141e-05
17	0xbd618638	-0.05505964
18	0xbe5d31e3	-0.21601062
19	0xbcf31cca	-0.029676814
20	0xbe358b06	-0.17728814
21	0xbd460ef6	-0.04835411
22	0xbd886142	-0.066591755
23	0xbde5e256	-0.11224811
24	0xbc761a86	-0.015020972
25	0xbd496a12	-0.049173422
26	0xbd984722	-0.074354425
27	0xbe311abc	-0.17295355
28	0xbdeaaf47	-0.11459213
29	0xbe04ea58	-0.1298002
30	0xbbc83658	-0.006109994
31	0xbd1defc1	-0.038558725
32	0xbdf3a94c	-0.11897525
33	0xbdceb7e5	-0.10093669
34	0xbd81ccf0	-0.06337917
35	0xbd94d20f	-0.07266628
36	0xbe2c8132	-0.16846159
37	0xbdc4ee4a	-0.096157625
38	0xbd69646a	-0.056980528
39	0xbddc8849	-0.10768182
40	0xbda05198	-0.07828063
41	0xbd133990	-0.035943568
42	0xbda68b43	-0.08132031
43	0xbd83c936	-0.06434862
44	0xbcf02c63	-0.02931804
45	0xbe1200ec	-0.14258164
46	0x3a512f0f	0.00079797296
47	0xbe1681c0	-0.14697933
48	0xbd9a9f94	-0.07549968
49	0xbdfd3fd9	-0.123656936
50	0xbe015a13	-0.12632017
51	0xbceaaeb7	-0.028647764
52	0xbe077d8c	-0.13231486
53	0xbd074670	-0.03302616
54	0x3b850302	0.0040591964
55	0xbe6e2bef	-0.23258947
56	0xbe715af8	-0.23569858
57	0xbe41a9b3	-0.18912391
58	0xbe55f338	-0.20893562
59	0xbe3e3bde	-0.18577525
60	0xbd11eead	-0.03562801
61	0xbe257b02	-0.16160205
62	0xbe01b7bb	-0.12667744
63	0xbdc2e403	-0.09516146
64	0x39e3f405	0.00043478623
65	0xbcca670b	-0.024707338
66	0xbde795af	-0.11307847
67	0xbdd6c45c	-0.10486671
68	0xbd1dc29c	-0.038515672
69	0xbd7a9021	-0.06117261
70	0xbe49b870	-0.19699264
71	0xbd5c3946	-0.053765558
72	0xbe11439a	-0.14185944
73	0xbddd491e	-0.108049616
74	0x39caec71	0.00038704605
75	0xbc953a9c	-0.018216424
76	0xbcf0421e	-0.029328402
77	0xbdbc915b	-0.09207412
78	0xbdcb23fe	-0.09918974
79	0xbd8e72ff	-0.069555275
80	0xbd1215e3	-0.035665404
81	0xbd902109	-0.07037551
82	0xbd793ff9	-0.060852025
83	0xbe6a3d4d	-0.22874947
84	0xbe3944ec	-0.18092698
85	0x3d869d8d	0.06573019
86	0xbe052eca	-0.1300613
87	0xbdcfc926	-0.10145788
88	0xbdc55a30	-0.096363425
89	0xbe0f0c2f	-0.13969491
90	0x3a976823	0.0011551421
91	0xbe0ab28a	-0.1354467
92	0xbd495211	-0.04915053
93	0xbe22f3ce	-0.15913317
94	0xbd034788	-0.03205064
95	0xbe058415	-0.13038667
96	0xbd5f1a90	-0.05446869
97	0xbcc87799	-0.024471091
98	0xbdd40620	-0.10352731
99	0xbde6b4ba	-0.112649396
100	0xbdaebb69	-0.085318394
101	0xbb9ab357	-0.004721086
102	0xbdf07f11	-0.11742986
103	0xbcbce5ca	-0.02305879
104	0xbb1866af	-0.0023254564
105	0x3d8520db	0.06500407
106	0xbe3f378f	-0.18673538
107	0xbe2ac88b	-0.16678064
108	0x3b820211	0.0039675315
109	0xbdb2bfd5	-0.08727995
110	0xbd942896	-0.07234304
111	0xbdcb79e7	-0.099353604
112	0xbcd3a68a	-0.025836248
113	0xbcfc89ac	-0.030827366
114	0xbe5282c8	-0.20557702
115	0xbd997801	-0.07493592
116	0x3cc4f5e7	0.024043037
117	0xbdd3ea4c	-0.10347423
118	0xbdfb4b75	-0.12270252
119	0xbdedaed0	-0.116056085
120	0xbe49f530	-0.19722438
121	0xbda00632	-0.07813682
122	0xbe23ca32	-0.159951
123	0xbe670c7b	-0.22563355
124	0xbe1e535e	-0.1546149
125	0xbdb6b0f8	-0.08920473
126	0xbe20b549	-0.15694155
127	0x3d3dbb90	0.04632145
128	0xbd793992	-0.06084592
129	0xbd967a95	-0.073475994
130	0xbe79a195	-0.24378045
131	0xbd86756e	-0.06565367
132	0x3d123db9	0.035703395
133	0x3c076c22	0.008265527
134	0xbdf90eb1	-0.12161005
135	0xbd74fd62	-0.059811957
136	0x3db3baf4	0.08775893
137	0x3cb55431	0.022134872
138	0xbd4e0150	-0.05029422
139	0xbe1abcbf	-0.15111063
140	0xbcc41255	-0.023934523
141	0xbd0cf1a7	-0.034410145
142	0xbb8db612	-0.004324683
143	0xbe30c831	-0.17263867
144	0xbd688728	-0.05676952
145	0x3b0b57e6	0.0021262108
146	0xbe8d8f56	-0.2764842
147	0xbe4c6f39	-0.19964303
148	0xbe0e88ed	-0.1391942
149	0x3d6b032a	0.057376064
150	0xbded9c9f	-0.11602139
151	0xbd3b7f67	-0.045775797
152	0xbe2223c5	-0.15833957
153	0xbd5a0322	-0.053225644
154	0xbd98280a	-0.07429512
155	0xbdeb1b45	-0.114798106
156	0xbd7c18eb	-0.0615472
157	0xbd7cafc1	-0.06169105
158	0xbb8a7af6	-0.004226084
159	0xbdf35d4e	-0.11883031
160	0x3c2dd5f3	0.0106100915
161	0xbe1504f5	-0.14552672
162	0xbe36e965	-0.1786247
163	0xbd852e5b	-0.06502982
164	0xbddacc28	-0.10683471
165	0xbd3a1cdc	-0.04543768
166	0x3cfa8f18	0.03058581
167	0xbe14a191	-0.14514758
168	0xbe1ff14a	-0.15619388
169	0xbdd75427	-0.10514098
170	0x3d0aa799	0.03385124
171	0xbe411a36	-0.18857655
172	0xbd6f73d1	-0.05846006
173	0xbd3c1ac2	-0.045923956
174	0xbd0f31ab	-0.034959476
175	0xbd755921	-0.059899453
176	0x3d363705	0.044486064
177	0xbd86a30c	-0.065740675
178	0xbd63e2d7	-0.055636253
179	0xbe040864	-0.12893826
180	0xbd8650b3	-0.06558361
181	0xbceb1059	-0.028694319
182	0xbd9fb231	-0.07797659
183	0xbe0f86b4	-0.14016229
184	0xbe55d0dc	-0.20880455
185	0xbdccfd95	-0.100093044
186	0xbd141c18	-0.036159605
187	0xbddcb7eb	-0.10777267
188	0xbdee87cc	-0.11646995
189	0xbde0395b	-0.1094844
190	0xbdb7e76d	-0.08979688
191	0x3cf2a80d	0.029621148
192	0xbd5e5b75	-0.05428644
193	0xbe1a12c3	-0.1504622
194	0xbe3e6c33	-0.18595962
195	0xbe2be6c3	-0.16787247
196	0xbe476520	-0.1947217
197	0x3a1491a4	0.0005667454
198	0xbda88286	-0.0822802
199	0xbe38557a	-0.18001357
200	0xbd0e283a	-0.03470633
201	0xbe2ff887	-0.1718465
202	0xbdc7c0bf	-0.0975356
203	0xbe3856a9	-0.18001808
204	0xbdfd98e4	-0.12382677
205	0xbdef6e01	-0.116909035
206	0xbb92966b	-0.0044734976
207	0xbd7b9b96	-0.061427675
208	0xbdf627b2	-0.1201929
209	0xbde110a5	-0.10989503
210	0xbdad4fc3	-0.08462479
211	0xbda92ed2	-0.082608834
212	0xbe226f3a	-0.15862742
213	0xbe438a2e	-0.1909568
214	0xbd89b12d	-0.06723247
215	0xbe1b70d1	-0.15179755
216	0xbe196ec8	-0.14983666
217	0xbc434e04	-0.011920456
218	0xbe391991	-0.18076159
219	0x3d08fdfb	0.03344534
220	0xbda3541d	-0.07975028
221	0xbd162abe	-0.036661856
222	0xbdb688dc	-0.089128226
223	0xbe09b138	-0.1344651
224	0xbd903863	-0.07042005
225	0xbda61d94	-0.0811111
226	0xbdb8fb88	-0.09032351
227	0xbd9956f2	-0.074872866
228	0xbdbc0473	-0.09180536
229	0x3d1b7ccd	0.037960816
230	0xbe08a67b	-0.13344757
231	0x3dce11a5	0.10061959
232	0xbd8cf679	-0.068829484
233	0xbe0ad52a	-0.13557878
234	0xbdc03167	-0.09384423
235	0xbbb5244b	-0.005528008
236	0xbd607763	-0.054801356
237	0xbe73dd5f	-0.23814915
238	0xbda275fd	-0.07932661
239	0xbe0d0966	-0.13773116
240	0xbd6ed077	-0.058304276
241	0xbe270246	-0.16309461
242	0xbd5551d6	-0.052079998
243	0xbd7570d1	-0.059922043
244	0xbe0b997a	-0.13632765
245	0xbd24459d	-0.04010545
246	0xbe8de99a	-0.27717286
247	0xbdc75f81	-0.09735013
248	0xbdbf9120	-0.09353852
249	0x3bbe9712	0.005816349
250	0xbc4f8baf	-0.0126675805
251	0xbd9b6f17	-0.07589548
252	0xbda2ccbf	-0.079492085
253	0xbe3c63ba	-0.18397418
254	0xbdf27d4d	-0.118403055
255	0xbdcd8253	-0.10034623

output_layers.0.weight f4 [40, 256]
0	0x3dbbd206	0.09170918
1	0x3e873843	0.26410112
2	0x3dae0f9d	0.08499072
3	0x3d02436e	0.031802587
4	0x3cac05b3	0.020998811
5	0xbe537960	-0.2065177
6	0x3c6ead04	0.014567617
7	0x3e0e3e87	0.1389104
8	0xbea035be	-0.31291002
9	0x3d43d38f	0.04780918
10	0x3e14bf2b	0.1452605
11	0x3dde1ae5	0.108449735
12	0x3e187fb3	0.14892463
13	0x3e2b0f58	0.16705072
14	0xbdb87517	-0.09006708
15	0xbe1123d7	-0.14173828
16	0x3db95f4c	0.090513796
17	0x3e5495c1	0.20760252
18	0x3d676525	0.056492943
19	0xbdea4565	-0.11439017
20	0x3e52b374	0.20576268
21	0xbe1df9e9	-0.15427364
22	0x3d95a4d0	0.07306826
23	0x3d371c4e	0.044704728
24	0x3e08ab73	0.13346653
25	0xbd7d4b50	-0.0618394
26	0x3ddc6088	0.107605994
27	0xbe5cedc2	-0.21575072
28	0x3e066186	0.1312314
29	0xbe21ae14	-0.15789062
30	0xbb7bbfe3	-0.0038413934
31	0x3e043d96	0.12914118
32	0x3dc965e5	0.09833888
33	0xbdffa3ba	-0.124824
34	0xbe03ca88	-0.12870228
35	0xbdfcd321	-0.12344957
36	0x3dc0ccf2	0.0941409
37	0x3d19ea3e	0.037576906
38	0x3d74865a	0.05969844
39	0xbcef6dd6	-0.029227179
40	0x3d7fffa7	0.06249967
41	0x3ca6a3a5	0.020341704
42	0x3d8b918c	0.0681487
43	0x3eaa4a1a	0.3325966
44	0x3db64875	0.08900539
45	0x3cf1b3ba	0.029504646
46	0xbc9de08d	-0.019272113
47	0x3e11bfa8	0.14233267
48	0x3cf60c03	0.030035025
49	0xbe38a098	-0.18030012
50	0xbe3c08f4	-0.1836279
51	0x3b6b5f3f	0.0035914925
52	0x3dfe7521	0.12424684
53	0xbd19f9ab	-0.037591618
54	0xbecff74a	-0.40618354
55	0xbe69e645	-0.22841747
56	0x3e8fbcca	0.28073722
57	0x3e48453c	0.19557661
58	0xbe6ff735	-0.23434146
59	0x3e1fd039	0.15606774
60	0xbe6024f6	-0.218891
61	0x3e4411fc	0.19147485
62	0xbcbff8f1	-0.023434134
63	0x3dc4afab	0.096038185
64	0xbdc6ddfa	-0.097103074
65	0xbe07caae	-0.1326091
66	0x3e43b42e	0.19111702
67	0xbd2edc9d	-0.042690862
68	0xbd23d8dc	-0.040001735
69	0xbec256bb	-0.37956795
70	0x3e0fc4a9	0.14039864
71	0x3e41a712	0.18911389
72	0x3e869812	0.26287895
73	0x3ceac975	0.028660515
74	0xbd159287	-0.036516692
75	0x3decca87	0.115620665
76	0x3e58e1c9	0.2117988
77	0xbc4cb581	-0.012494446
78	0x3dbbc8e7	0.091691785
79	0x3dd046b7	0.10169738
80	0xbdcc39b1	-0.09971941
81	0x3e00f6d9	0.12594165
82	0xbda0fc3e	-0.078606114
83	0x3e1b9b5a	0.1519598
84	0x3d32f1e1	0.043687705
85	0x3e2f5ede	0.17126033
86	0x3ccea775	0.025226334
87	0x3d2e4815	0.04254921
88	0x3cf13dbd	0.029448384
89	0x3d56a376	0.052401982
90	0xbe033cd2	-0.1281617
91	0x3e24ac01	0.1608124
92	0x3dee8683	0.1164675
93	0xbdba0e15	-0.09084717
94	0x3da29813	0.07939162
95	0x3e588e3e	0.21148011
96	0x3e341615	0.17586549
97	0x3e3691f3	0.17829113
98	0x3e152480	0.14564705
99	0x3d6f5e58	0.058439583
100	0x3d5bae22	0.053632863
101	0x3d5985b3	0.05310602
102	0xbd61a962	-0.055093177
103	0xbe0bbd18	-0.13646352
104	0x3e998ea0	0.29991627
105	0xbd8b0491	-0.0678798
106	0x3e1426d4	0.14467937
107	0x3e1bedbe	0.1522741
108	0xbd66462a	-0.056219257
109	0x3ddfd58f	0.10929405
110	0x3d59629d	0.05307256
111	0x3dbaa249	0.09112985
112	0xbe2b6ffe	-0.1674194
113	0xbe3182aa	-0.17335
114	0x3e08bf42	0.13354209
115	0x3e33dbb0	0.17564273
116	0xbe09a37b	-0.13441269
117	0xbbd647f6	-0.00653934
118	0x3b1cfac7	0.0023953186
119	0xbe80d886	-0.25165194
120	0xbadfdf50	-0.0017080102
121	0x3e61af64	0.22039562
122	0x3ddae703	0.10688593
123	0x3e70c13e	0.23511216
124	0x3dcaf497	0.09909933
125	0xbcae0ef9	-0.021247374
126	0x3d8a0d52	0.06740822
127	0x3c6e4296	0.0145422425
128	0x3cb16af6	0.021657448
129	0xbe5042ee	-0.20338032
130	0x3e2aa4a0	0.16664362
131	0xbdb8a8ba	-0.09016557
132	0x3d217952	0.03942234
133	0xbd26d4a5	-0.040730137
134	0xbdbab5ed	-0.09116731
135	0x3e5fb8c9	0.21847834
136	0xbe696793	-0.22793417
137	0xbb0994dc	-0.0020993268
138	0x3d69c0af	0.057068523
139	0x3e0c8121	0.13721134
140	0x3d95d62d	0.073162414
141	0xbdeedb40	-0.11662912
142	0xbd9b6d62	-0.075892225
143	0x3db4d951	0.08830512
144	0x3cad408e	0.021148946
145	0xbe0a3f5c	-0.13500732
146	0x3e286090	0.16443086
147	0xbe946ab3	-0.28987655
148	0xbe2ebd74	-0.17064458
149	0x3daa9f76	0.08331196
150	0x3dd35b02	0.10320093
151	0xbe80acb5	-0.25131765
152	0x3d8b9848	0.06816155
153	0x3d1caedd	0.0382527
154	0x3dd867f5	0.10566703
155	0x3cd26695	0.02568368
156	0x3e36a17f	0.17835043
157	0xbf05a514	-0.52205014
158	0xbdf7ca91	-0.12099183
159	0x3d831424	0.06400326
160	0x3d2e981a	0.042625524
161	0xbe12906f	-0.1431291
162	0x3e219b08	0.15781796
163	0x3ec34eea	0.38146144
164	0x3e0e58ee	0.13901111
165	0x3da8cdc7	0.08242374
166	0x3d462f75	0.048385102
167	0x3c435361	0.011921735
168	0xbcdcfe5c	-0.026976757
169	0xbddd7e09	-0.10815055
170	0xbe5ec62f	-0.21755289
171	0x3e1faf3b	0.15594189
172	0xbc4c45f1	-0.012467847
173	0xbe049d7f	-0.12950705
174	0xbc982a62	-0.018574897
175	0xbd086c6c	-0.033306524
176	0x3db7114a	0.089388445
177	0x3e15e3ce	0.14637682
178	0xbe5035c7	-0.20333014
179	0x3d8b4e7f	0.06802081
180	0xbe374b21	-0.17899753
181	0xbd79e88b	-0.061012786
182	0xbc37bf88	-0.011215098
183	0xbe52a272	-0.2056978
184	0x3e192941	0.14957143
185	0xbcc76ceb	-0.024343928
186	0x3d2fa84f	0.04288512
187	0x3e3472c6	0.17621908
188	0xbc9d4cd3	-0.019201672
189	0x3d2df99e	0.04247438
190	0x3e3b05c5	0.1826392
191	0x3e254992	0.16141346
192	0x3e1a25a3	0.1505342
193	0x3e28e2e9	0.1649281
194	0x3df0dc5a	0.11760779
195	0xbe6ea0a8	-0.23303473
196	0xbd7a722f	-0.06114405
197	0x3e71a6c8	0.23598778
198	0xbdabdfe0	-0.0839231
199	0x3d5334b4	0.051563933
200	0xb9311a04	-0.00016889727
201	0xbce22c11	-0.027608903
202	0x3d72202f	0.059112724
203	0x3e38f4e5	0.1806217
204	0x3c68eb24	0.014216218
205	0x3de7fe96	0.11327855
206	0x3d843de0	0.06457114
207	0xbdf646b5	-0.12025205
208	0xbdd08d22	-0.10183169
209	0x3e40f4e2	0.18843415
210	0xbd449035	-0.04798909
211	0xbcd09d37	-0.02546559
212	0x3daef10d	0.085420705
213	0x3dd4b860	0.10386729
214	0xbd195eef	-0.03744405
215	0x3daed478	0.08536619
216	0x3e726f75	0.2367533
217	0xbe516df0	-0.20452094
218	0xbe65a5a6	-0.22426471
219	0xbdef5df7	-0.11687844
220	0xbd13fc45	-0.036129255
221	0x3e01bb6c	0.12669152
222	0xbdbceb0c	-0.09224519
223	0x3df7bc67	0.12096482
224	0xbd615b3f	-0.05501866
225	0x3dd1534e	0.10220967
226	0x3e0253a9	0.12727226
227	0x3de5ebee	0.11226641
228	0x3d39a315	0.045321543
229	0xbdbfa957	-0.09358471
230	0x3cbb3d60	0.022856414
231	0xbb123d15	-0.002231424
232	0x3e17559f	0.14778756
233	0xbd80570c	-0.06266603
234	0x3e29585d	0.16537614
235	0xbdd58c18	-0.104271114
236	0xbdc9e5bf	-0.09858274
237	0xbe6010b8	-0.21881378
238	0xbe548420	-0.20753527
239	0x3d6458ab	0.055748623
240	0x3dcc2209	0.09967429
241	0x3e0b6dc4	0.13616091
242	0x3e91acf1	0.28452256
243	0x3d00156b	0.031270426
244	0xbe2acdad	-0.16680022
245	0xbe63f086	-0.22259721
246	0x3e281114	0.16412765
247	0xbe0e361d	-0.1388783
248	0xbdba6db9	-0.09102959
249	0xbe400b95	-0.18754418
250	0xbe937cd0	-0.28806162
251	0x3e63e30c	0.2225458
252	0xbecbb91e	-0.3978967
253	0x3e0af118	0.13568532
254	0xbe82ab72	-0.25521427
255	0x3e310e2c	0.17290562

output_layers.0.bias f4 [40]
0	0x3e9763c7	0.29568312
1	0xbda51844	-0.08061269
2	0x3e5e482b	0.21707217
3	0x3f733792	0.9500667
4	0xbd789871	-0.060692254
5	0xbc6665b1	-0.014062331
6	0xbd477038	-0.048691005
7	0x3df1d2e3	0.118078016
8	0x3d5f4d19	0.054516885
9	0x3acf783c	0.0015828679
10	0x3c584942	0.01320106
11	0x3c939bb4	0.018018581
12	0xbccb516d	-0.0248191
13	0xbcd03c07	-0.025419248
14	0x3a1aba94	0.0005902436
15	0xbd5ecc4c	-0.05439405
16	0xbd3bd221	-0.04585469
17	0xbd0e2b99	-0.034709547
18	0x3d480a0a	0.0488377
19	0xbd57dbeb	-0.052699964
20	0xbd4041ec	-0.046937868
21	0x3d1ecfe2	0.03877247
22	0x3cd09ed8	0.025466368
23	0xbc8f1391	-0.017465385
24	0xbcd1e14e	-0.025620129
25	0xbdaddc25	-0.08489255
26	0x3db12ff9	0.08651728
27	0xbd496e7c	-0.04917763
28	0x3cffc3b0	0.03122124
29	0x3c93a52a	0.018023092
30	0x3d20df20	0.03927529
31	0xbc7d4cdb	-0.015460218
32	0xbc685cba	-0.014182264
33	0x3d78a0ef	0.060700353
34	0xbc49bb25	-0.012312685
35	0xbba5c8b6	-0.005059327
36	0x3e425663	0.18978266
37	0x3f574b29	0.8409906
38	0x3eca4627	0.39506647
39	0xbe1667cf	-0.14688037
