MODELS/REWARD COMPARISON/SAC MASKED MODELS/5_1_critic_target_network.pt (torch, 411303 bytes, 6 tensors)

hidden_layers.0.weight f4 [256, 101]
00000000: 818b 4a3d 0747 963d c956 443a b357 f23d
00000010: 4c3c 373e 96c4 03bd bc22 90bd affc abbe
00000020: 5621 873d 06bd aa3c 927f a1bd e7a0 0b3c
00000030: e09f fa3d a530 9f3d 4445 ea3e 304a 883e
00000040: 167e 593d 5194 04be a18f 2dbe 0db5 cfbd
00000050: 0dcf 7bbe ef8d 043e 92e7 abbe 97cd 6d3c
00000060: 2569 193d 484d 90be 248d bb3e c2bb aebe
00000070: 6d20 abbe f643 2bbf dd24 f1be 0f79 a83e
00000080: 7e37 973e 304f c63e 0c2e 1abe 5a1f 9a3e
00000090: 9307 02be 4dcb 50bc 11a5 28bc dab7 a6be
000000a0: 9346 543e ada9 51be 92ac 403e 0eca 233f
000000b0: 40cb a33e 682a 813e 7348 6c3e 3c7d 51be
000000c0: aa59 3cbd 7773 4cbd 92d8 acbd be37 e7bd
000000d0: 2cb1 193f 307f 203f e0ac efbd 6e17 123c
000000e0: e6f3 8bbe 8899 483d 3f06 8e3e b12e c8bd
000000f0: f428 2a3e 1728 c73e e450 113f 78be f53e
00000100: 3d23 d2ba fc95 f8be daa3 8c3d af4b 60be
00000110: 2ca5 3cbe e284 4a3e eaad 7fbd 9fda 333d
00000120: 6edb 9fbe 044e 52be a4d0 60be 339e e8be
00000130: 1f7d 80bd 4691 6dbc b130 a43c f290 45be
00000140: 51e2 bbbc 8dcb 543d b68c ac3d 6e18 983b
00000150: 5590 42be f141 c03e fd7b 5dbe ab33 dcbe
00000160: 5bd1 ed3e 89a4 73bd 7570 c7bd 358f d5bd
00000170: c7e4 8dbe c13e 1a3e 48c2 dcbd 168d 0bbf
00000180: aa0a 3abf 2295 8dbe 18f8 ebbe 2c10 77be
00000190: 6473 7e3c 9c59 ccbd db4f fb3d efe0 c43d
000001a0: 5d83 9b3e cdbc 68be ba54 5b3d 5728 ad3c
000001b0: d942 2bbe 93c5 d3be 2c6d 60bb 6faa 5c3e
000001c0: c9d5 c8be d896 a63e 13c2 173e 94aa 093e
000001d0: ce97 3dbc c537 c4be b4f2 f03e c7a8 b7be
000001e0: f6e4 02bf fc4c 043e 33f0 9dbe 079a 973e
000001f0: e0db f1bd 2666 8f3e c58f 213f 30e1 2dbe
00000200: 7d11 d43d 647f bbbe 9219 ffbe 38a9 173e
00000210: 8282 1ebf 154e 213d 047e dc3c e6e6 393e
00000220: 831b dfbd 8582 80bc a743 193e 2d0d 0dbf
00000230: 5b90 723d db18 d73d 5d9c 983e 001b 04bf
00000240: b884 ebbc 097e 33bd 7871 01be e52e 0dbf
00000250: 478e 91bd 1937 b7be 9bd8 2fbe 419f 2dbd
00000260: 99bd 70bd 85d8 8cbe d301 e0be 26cd c63d
00000270: 146d 853e cf99 c63e 5a9f 263f ba11 3bbc
00000280: a57f dabe d1ca 283e 6ce8 0fbf fe3a dbbe
00000290: bf99 2fbe 359e bbbd 66df 523f d5bb 643e
000002a0: 0d5f 4d3d 1502 1d3e 3cb8 08be be80 d03c
000002b0: 3d8b 58bd fdd5 023f 2091 4e3e 6800 d93e
000002c0: 4edc 853e e15d f7bd f37e 06bd 7cc2 86be
000002d0: 3c96 ea3c 96a1 27be ad81 34bd 5f57 d93d
000002e0: c5ed cabd 6677 4dbb f8cb a0be 077b d7be
000002f0: ab7c 633e cc56 e1bd c564 083f 16bb 23bc
00000300: 1686 69be 814d fa38 6387 353d bff6 d53d
00000310: a59e 893d 9dbc 273f 6359 183f 8fc3 a33e
00000320: c636 2dbf f475 16bd 5f3e d93a e4d6 cbbc
00000330: b9c5 40bc 701f 15be 48d4 3abe 9825 65be
00000340: 04a4 2b3e 998e 443e 4f49 12be 3c86 203d
00000350: b339 80bd e1cc 32be 78da a5be 01f3 edbe
00000360: 8e9c 0cbe 4d1d e9be 916e 54be 01be 4ebc
00000370: 8691 443e 17b4 91bd 9f56 0cbe 0c3a 583c
00000380: 4339 9abe 8f5c 17bf a931 0ebf 3818 343d
00000390: 8388 b03e 0e1f 813e 6e8c ab3e 300b 4d3e
000003a0: 31d5 c9be 2462 80bc 817a 1b3e 2656 653e
000003b0: d3f5 08be 3564 4e3d b89b 133e a083 053f
000003c0: 7e09 25bd e526 b7bd af42 0a3e 13ec fe3d
000003d0: dd89 f63b 9b22 acbd a759 20bf 0db2 93be
000003e0: 105b a7bb 4eff 0f3e ef26 5cbd 0146 e2ba
000003f0: def8 a8bb ce5c a1be 210b 47be 5022 bcbe
0.049449448 0.07337766 0.00074897386 0.118331335 0.17894095 -0.0321699 -0.07037875 -0.3359122
0.06598155 0.020842087 -0.0788566 0.008522249 0.12237525 0.0777295 0.4575597 0.266191
0.05309876 -0.12947203 -0.16949321 -0.101419546 -0.24590702 0.12944768 -0.33575112 0.0145143485
0.03745379 -0.2818396 0.3663112 -0.34127623 -0.33423176 -0.66900575 -0.47098437 0.3290486
0.29534525 0.3873229 -0.15056628 0.30102044 -0.12698202 -0.012743783 -0.010293261 -0.32562143
0.20730047 -0.20474882 0.1881583 0.63980186 0.31991005 0.25227666 0.23074512 -0.2045793
-0.045983948 -0.049914803 -0.08439745 -0.11289929 0.6003597 0.6269407 -0.11702895 0.008916719
-0.27334517 0.048974544 0.2773914 -0.09774531 0.16617185 0.38897774 0.56764054 0.4799688
-0.001603223 -0.4855193 0.0686719 -0.21903871 -0.18422383 0.19777253 -0.062421717 0.043909665
-0.312221 -0.20537573 -0.2195459 -0.45433196 -0.06273865 -0.014499968 0.02004275 -0.19293573
-0.022935065 0.051951934 0.08425276 0.004641584 -0.19000371 0.3755031 -0.21629329 -0.4300817
0.46448788 -0.059483085 -0.09738246 -0.10427705 -0.27713606 0.15063001 -0.10779244 -0.54512155
-0.7267252 -0.27652842 -0.46087718 -0.24127263 0.015530441 -0.09978029 0.122710906 0.09613215
0.3037366 -0.22728272 0.0535476 0.0211374 -0.16724719 -0.41361675 -0.003424476 0.2154939
-0.39225605 0.3253696 0.14820127 0.13443977 -0.011571838 -0.383238 0.47060168 -0.35870954
-0.51130617 0.12919992 -0.3084732 0.296097 -0.11809516 0.2800762 0.6311 -0.16980433
0.10354898 -0.3662063 -0.49824196 0.14810646 -0.6191789 0.039381105 0.026915558 0.18154487
-0.10893919 -0.015687237 0.14967214 -0.5509823 0.0592197 0.10502788 0.29806796 -0.516037
-0.028749809 -0.04382137 -0.12640941 -0.5514968 -0.071072154 -0.35784224 -0.17172472 -0.042388204
-0.058774564 -0.2750894 -0.43751392 0.09707098 0.26059783 0.38789222 0.650869 -0.011417801
-0.4267551 0.16483618 -0.5621402 -0.42818445 -0.17148493 -0.09161035 0.8237213 0.22337277
0.050139476 0.15332825 -0.1335153 0.025452014 -0.052867163 0.5110777 0.20172548 0.42383122
0.26144642 -0.12078453 -0.032835912 -0.26320255 0.02863609 -0.16370234 -0.04406898 0.10612368
-0.09908632 -0.0031351685 -0.31405616 -0.4208605 0.22215526 -0.11002883 0.5327876 -0.009993335
-0.22805056 0.00011935365 0.044318568 0.10447454 0.06719712 0.65522176 0.59511393 0.31985137
-0.676617 -0.036733583 0.0016574374 -0.024882741 -0.011765891 -0.14562774 -0.18245041 -0.22377622
0.16761786 0.19195022 -0.14285778 0.039190516 -0.06261005 -0.17460968 -0.3239324 -0.4647446
-0.13731596 -0.45530167 -0.20745303 -0.012618543 0.19196138 -0.071144275 -0.13704918 0.013197433
-0.30121812 -0.5912561 -0.55544525 0.04396841 0.3447915 0.25219005 0.33505577 0.20023799
-0.39420465 -0.015671797 0.1518345 0.22396144 -0.13375024 0.050388534 0.1441487 0.5215397
-0.040292256 -0.089429654 0.13502 0.12447371 0.007523759 -0.08405038 -0.626368 -0.2884678
-0.005107291 0.14062235 -0.053748067 -0.0017263294 -0.0051566204 -0.31516117 -0.19437839 -0.36744928

hidden_layers.0.bias f4 [256]
00000000: 28d7 14be 7349 b03d c076 0cbe 7e53 fb3c
00000010: 49c7 0e3e 5b5e 713e 964b 853c 2606 343e
00000020: bcc4 c8be 16aa 063e 6190 b6bd a109 c0be
00000030: 7a63 59be d8e1 dcbc b555 febd c593 1ebe
00000040: c644 32be 4ba4 90be f3e0 38be 5cad b33d
00000050: 0e87 7e3d bd21 f6bc c14f 42be 6f56 0bbe
00000060: 3c74 a2bd fbb1 f63c 2ab3 8dbe 7db5 db3d
00000070: bbcd 433e dc8d d838 6416 50be 8e17 a63b
00000080: e8c5 b43d d2e7 aa3d 00c1 233e f715 69be
00000090: 2797 36bd 1e3b 783d 2da0 d6be d5d9 2cbe
000000a0: 87fa e83b 094e fc3d b44e 89be fada 913d
000000b0: c2e3 08be 9a78 4cbd 8034 93be cc00 573e
000000c0: e091 b33d 9e0e 1abe 13a5 28be 5f78 a73d
000000d0: be85 adbe 2a73 fe3d 619e 27be d601 a13c
000000e0: 342c 873d f9f9 e1bd d414 e2bd a9b7 dfbd
000000f0: 9c0b 33bd da32 1abe ac91 46be 66f5 70be
00000100: 0f2b 293e 1c53 3fbe c132 10be cca0 56be
00000110: 8b6f d1be e69b 8a3e de8d 9bbd 2707 c1bd
00000120: 773b d2bd 4cc6 fcbd 7d17 08bd fedc 8abe
00000130: 7d01 db3c f84f 0a3e 8ba5 86be e400 eabd
00000140: 1667 593c 450c dbbe 4ca0 e4bd c1d3 1cbe
00000150: 75dd a83d ee26 7fbe 75e7 cabe 7d9c 603e
00000160: 9fdf e0bc 1d79 6cbe 16fc 97bc fd51 bebe
00000170: 9491 d23d f9c6 33be 20bd 32be 3fd2 8fbd
00000180: 0f74 89bd b410 b63d 1110 923d 0ea8 cebe
00000190: d4ff 233e 875b 78be af20 28be 4262 92be
000001a0: e055 6ebe a4fe c53d a585 61be 7e81 91be
000001b0: db7d 93be 6ac9 f1be d7aa 4cbd 50d7 053d
000001c0: c787 a0bd 37fe 8bbe 0679 bebd 4e33 16be
000001d0: 87b7 3dbe ee5f fabc 9596 d0be f2b7 053e
000001e0: 70a9 c3be 70b1 71bd f9d6 3a3e 16c4 62bd
000001f0: 57ae 69be 2190 61be 7c22 b5be 9129 30be
00000200: c0e3 dcbe f791 87be 6650 05be 1782 f03d
00000210: 4185 2fbe 9f54 c33d 0508 193e 43c8 97bd
00000220: d1f5 79bb 95ed 213e bfd3 9bba b900 aabd
00000230: a187 1dbe 50b8 3f3e 8675 1ebe 0f3b d5bd
00000240: cb33 9bbc 877c b7bd 0b4e 833e c906 05bf
00000250: f156 373d ec2a 913d 2532 d0be 604f 103e
00000260: d590 1b3e df7d 10be 927f 9abe f804 1c3e
00000270: 3f89 ebbc 95f4 1cbe df6d af3c 9a65 3fbd
00000280: 656e debe 7b1e c0bc 63c2 263e 720a f3bd
00000290: fe2f 6bbe dcb9 b3be 29ca 12be 7e84 103e
000002a0: 94b7 34be 8019 9cbe 32c8 13be 417c 97bd
000002b0: f73e 03bd b3d7 173d 2c74 3bbd 708e dbbd
000002c0: 0600 5c3d 1965 173d d0a1 67be 4d7e 4a3d
000002d0: bd5a f53c f862 f23d c1f5 bdbe 73b9 87bd
000002e0: f3e3 0bbe b094 f43d 9318 a8be 3720 9fbe
000002f0: 9ed6 c4be 19ab 1dbe b49a 1d3e 60da 85be
00000300: e430 65be f2b0 81be 7bd2 c4be a2ef 1a3e
00000310: f9ce 58be 13e3 7ebe 8274 78be 60f7 84bd
00000320: 7329 c5be f9c8 a9be 0f73 883d 71cd 88be
00000330: 493e 873d 053d d63d 4a91 c9be b3fa 2abe
00000340: e917 d6bd 9382 44be 87c6 0abe ffc3 c43d
00000350: d411 1a3d 1690 b6be eecf 86be 44ae 53be
00000360: 0a4b a43d 117a a3bd 7981 3fbe 78d5 393e
00000370: c52f dfbd 2896 4abe dcbf 2fbe 3fa3 83be
00000380: 1eea 7bbd c831 4cbe 72d6 04be 9a54 c83c
00000390: 3a28 94be 3f58 b8be 2cfd 35ba 5e38 9abe
000003a0: b827 1cbe 8929 783d 1813 5dbd 84d3 c3be
000003b0: f83a 71be cce4 bf3d 7d51 4a3d 14a4 03be
000003c0: 508c f6bd 63b5 bfbb f080 443d c1d0 0dbe
000003d0: f14e 343d 3c45 38be 8563 673d 978b e6bc
000003e0: 7545 f5bc 594f 2b3e 4aba 83bd cf48 2f3d
000003f0: 546d 3cbe 3bd2 8b3d f01b e6bd cb03 a7bd
-0.145352 0.08607759 -0.13717175 0.03067946 0.13943209 0.2357115 0.016271394 0.1758047
-0.39212596 0.1315082 -0.08914257 -0.37507346 -0.21229354 -0.02696316 -0.12418691 -0.15486057
-0.17409047 -0.28250346 -0.18054561 0.087733 0.062140517 -0.030045385 -0.18975736 -0.1360719
-0.07932326 0.030114165 -0.27675754 0.107279755 0.19121449 0.00010326106 -0.20321041 0.005068726
0.0882681 0.083449975 0.15991592 -0.22762285 -0.044577744 0.060603254 -0.4191908 -0.16879971
0.0071099433 0.123195715 -0.26817858 0.071218446 -0.13368133 -0.049919702 -0.28750992 0.20996398
0.08768058 -0.15044639 -0.16469221 0.08177256 -0.338911 0.124243096 -0.1636901 0.019654196
0.06600228 -0.110340066 -0.11039129 -0.10923702 -0.043712243 -0.15058461 -0.19391507 -0.23531112
0.16520332 -0.18684047 -0.14081861 -0.20959777 -0.40905413 0.27072066 -0.075954184 -0.09425192
-0.10265248 -0.123425096 -0.033225525 -0.2712173 0.026734108 0.13507068 -0.26298174 -0.11425951
0.0132692065 -0.42782798 -0.11163387 -0.15315153 0.082453646 -0.24917194 -0.39629713 0.21934696
-0.02745038 -0.23093076 -0.018552821 -0.37171927 0.10281673 -0.17556371 -0.17454958 -0.07022523
-0.067115895 0.088899046 0.07131971 -0.4036259 0.1601556 -0.24253665 -0.16418718 -0.2859059
-0.23274946 0.096677095 -0.22023638 -0.28419107 -0.28806958 -0.4722398 -0.049967613 0.03267604
-0.078383975 -0.27342388 -0.09300427 -0.14668009 -0.18527041 -0.030563321 -0.40739885 0.13058451
-0.38215208 -0.05900711 0.18246068 -0.055362783 -0.22820412 -0.22027637 -0.35377872 -0.17203356
-0.4314251 -0.2647855 -0.13018951 0.11743563 -0.17140676 0.095376246 0.14944465 -0.07411244
-0.0038140903 0.15813287 -0.0011888667 -0.08300919 -0.1538377 0.18722653 -0.15474519 -0.10411655
-0.018945595 -0.089592986 0.2564548 -0.5196348 0.04476065 0.07088265 -0.40663257 0.14092779
0.15191968 -0.14110516 -0.30175453 0.1523627 -0.028751967 -0.15327676 0.021414695 -0.046727754
-0.434436 -0.023452034 0.1628509 -0.11867227 -0.22967526 -0.35102737 -0.1433493 0.14113042
-0.17648154 -0.30488205 -0.14431837 -0.073967464 -0.03204247 0.03707094 -0.045765087 -0.10720527
0.05371096 0.03696165 -0.2262032 0.049436856 0.029950494 0.11835283 -0.37101558 -0.066271685
-0.13661174 0.119424224 -0.3283125 -0.31079265 -0.3844499 -0.153973 0.15391046 -0.2614317
-0.22381932 -0.2533031 -0.38441834 0.15130475 -0.21172704 -0.2489131 -0.24263194 -0.064924955
-0.38508186 -0.33161142 0.06662571 -0.2671924 0.06603677 0.10460857 -0.3936866 -0.16697197
-0.10453779 -0.19190435 -0.13552295 0.09607696 0.03761466 -0.35656804 -0.26330513 -0.20671946
0.08022125 -0.07982267 -0.18701734 0.18147838 -0.10897783 -0.19783843 -0.17163032 -0.25710484
-0.06150257 -0.19940865 -0.1297243 0.024454404 -0.2893694 -0.36004826 -0.00069423276 -0.3012113
-0.15249527 0.060586486 -0.053973287 -0.3824731 -0.23557651 0.093698114 0.04939412 -0.1285556
-0.12038481 -0.0058504804 0.047974527 -0.13849165 0.044020597 -0.17995161 0.056491394 -0.028142733
-0.029940346 0.16729487 -0.06432016 0.042794045 -0.1840108 0.06827208 -0.112357974 -0.0815502

hidden_layers.1.weight f4 [256, 256]
00000000: 164f 8dbd 9922 4abe 8ae0 903c 7190 1cbe
00000010: 8107 bbbb 1d6f 9e3c de34 0b3e a15f dcbd
00000020: 7c70 85be 4d3d 5fbd 3f10 143d 1810 3cbe
00000030: db37 31bb d233 7a3b 557e 19bd 4e87 b6bd
00000040: 4903 e0bd 33c4 84bd dd09 20bc c5ac f8bd
00000050: 3062 6cbd 38ed 9a3d a150 b5be b4bb 11be
00000060: 8f7c 6fbd f757 93be a868 063b 837f af3d
00000070: 959a bf3b 41ac 463e ab6e 7bbd b6b3 da3d
00000080: f89c 4b3e 0556 083e ee45 debd 0093 89be
00000090: ed6c b03d 0f07 9bbd 48a7 57be 27e2 9fbd
000000a0: 3536 283e 866a 963c a6dc 03bc 2b8c 7abd
000000b0: 8775 00be 175b e93d 0d45 75bd 1576 6e3d
000000c0: 852b 0ebd b504 4ebd 6c6b 27be 3105 cf3d
000000d0: 8f0b 4d3d 0ee0 47bd 6eb8 dabd b67b 1fbe
000000e0: 120e 57be dae5 d8bd a603 fbbd 3126 63bd
000000f0: 4def 30bd 7cb6 d3bc fbe8 833b 52d7 05be
00000100: dda8 60be b242 71be b708 55bd 482b 0b3d
00000110: 0872 9abd 39fd 5d3d e814 183d 505d 88bd
00000120: afd2 b1bb fad3 8dbd 4d25 4dbe 24a8 083e
00000130: d51b 06bb aad6 46bc 01e3 e53c cbeb 50bc
00000140: db7e 32bd 0cb2 25be 012c 20bd f5d2 13be
00000150: 0e73 0fbe 4291 583e d57d 4abd 8427 eb3d
00000160: 9c16 e5bc e065 6ebd d676 babd dadd 56be
00000170: d0ce e73c 1dbf 04be 86a5 5c3d 5a55 22be
00000180: bd5c e03d 015e 303d 49c4 9e3d 9e08 5bbe
00000190: f410 8dbc 74ca 84bd 1d58 45be 44f5 20be
000001a0: 139c 85bd 0d77 cd3d 564f 9ebe 4784 4f3d
000001b0: 7ef2 dfbb 15ef 6ebe d451 aabd 4483 5bbd
000001c0: 87fb d83c 8834 97bd e6a7 12be 1cfb a8be
000001d0: a459 ce3a 25b8 31be 7c6b 5dbe 95b7 323d
000001e0: 8b9b 6bbe 687c 81bd aa8f 9a3d 1296 89ba
000001f0: 3f4b 5abe 932b f4bd ef86 e63c f121 2fbb
00000200: 7078 97bd 281f 71be 79d9 6b3d 8cdc 36bd
00000210: 81c9 59bd 8059 8fbd 4c65 9abc 81f9 a8bd
00000220: 0847 413d 27bb a9bd 7c77 87bd 9337 a83c
00000230: 6781 ec3d 990c b23c 7edf 92bd 5da8 35be
00000240: 0bb4 a1bd 7f24 03be 79c8 2cbd 662d a0be
00000250: 6f80 10bd 9808 20be b82c 7abe aef8 de3d
00000260: 8871 a53c 9f10 8c3e afe1 f5bc 33b6 783d
00000270: 7d5d 0d3c a1f1 223e 2981 9d3c c281 c0bd
00000280: e4cb a7bd 2deb c23c 8658 b1bd e2ea 31be
00000290: 7ad8 30be ae07 12be ce5a f83c 6cb8 90bd
000002a0: 6627 45bd cd67 32be ee65 b2bc 2705 02be
000002b0: 8796 4abd 69bf 02be 9926 43ba 42aa 66bd
000002c0: 0352 d5bd 95e4 043d f941 d4bd ff40 2fbe
000002d0: 8a5f 08bd bff5 61bd 3d7b dbbb 3a77 3dbe
000002e0: 8015 f5bd be79 92bd 0823 07bd fa62 23be
000002f0: 0dcb c2bc 72ef 54be a9ad a0bd f110 17bd
00000300: 7744 3bbd 1ed2 07bd 213f 62bd b7df 5dbd
00000310: 2fda afba a3a8 413c 10d1 09be 2c2a 54bb
00000320: d51a afbd 89a2 573b e8a4 243d 5547 cdbd
00000330: 9e4d be3d 1956 5ebe 7562 8b3d b15c a43b
00000340: e6bb afbc 64e2 74be 7619 55be ef89 0e3d
00000350: 949e 973d 9683 04be 365a 43be edfa fabc
00000360: b413 d93d 541e cabd 51c2 d9bd 65f1 2ebd
00000370: 45d0 18be b5d3 3dbc 109b b0bd fa8a fabd
00000380: 95c0 5b3e adc4 57be 216b 173d 1d52 5d3d
00000390: f589 54be ca2a 34be c17f 603d faf8 6ebe
000003a0: f0e5 adbd 33f2 683d bd97 923d 1907 36be
000003b0: fb9f ed3b 0592 d13a 2311 15bd c21f c83d
000003c0: 51ca 87bb 6e5e 9ebb 1c9a 2dbe d76d 7d3c
000003d0: 6af2 c0bb f0d1 1fbe 4bd6 b93d 838f d03d
000003e0: 92f7 163d f224 2e3c ec78 d2bc 7a68 663d
000003f0: e9ec f0bd d1a5 0c3d c799 f73c 9262 62be
-0.0689985 -0.1973976 0.017685194 -0.15289475 -0.0057076816 0.019340092 0.13594386 -0.10760427
-0.2606238 -0.05450182 0.036148306 -0.18365514 -0.002704135 0.003817786 -0.037473995 -0.08912526
-0.109381266 -0.064827345 -0.009767977 -0.12142328 -0.057710826 0.07564777 -0.35413077 -0.1423176
-0.058468398 -0.2877805 0.0020509157 0.08569243 0.005847285 0.19401647 -0.061384838 0.106788084
0.19884098 0.13314064 -0.10853182 -0.26869965 0.08614526 -0.07569706 -0.21059906 -0.07806807
0.16426928 0.018361341 -0.008048212 -0.06116883 -0.12544833 0.11394327 -0.059880305 0.05821808
-0.034709472 -0.050297458 -0.16349572 0.10108412 0.05005985 -0.04879766 -0.106797084 -0.15574536
-0.21001461 -0.10590716 -0.12256555 -0.055456344 -0.043196965 -0.025843851 0.004025576 -0.1307042
-0.21939416 -0.23560598 -0.052010264 0.033976823 -0.07541281 0.05419657 0.037129313 -0.06658423
-0.005426727 -0.06925197 -0.2003376 0.1334539 -0.0020463367 -0.012136141 0.028062345 -0.01275153
-0.04357801 -0.161812 -0.039104465 -0.14435942 -0.14008734 0.21149161 -0.04943641 0.114821464
-0.027964883 -0.058202624 -0.091046974 -0.20983067 0.028296858 -0.12963529 0.053868793 -0.15852872
0.109551884 0.0430584 0.07752282 -0.21390006 -0.017219998 -0.06483927 -0.19271894 -0.15718561
-0.065239094 0.10032473 -0.30919904 0.05066326 -0.0068343272 -0.2333339 -0.08316389 -0.05359198
0.026487125 -0.073830664 -0.1432186 -0.3300408 0.0015743268 -0.17355402 -0.21623033 0.04363211
-0.23008554 -0.06322557 0.07546933 -0.0010496995 -0.21317767 -0.119223736 0.028140513 -0.0026723112
-0.073960185 -0.23547041 0.057580445 -0.044643924 -0.053170685 -0.06999493 -0.01884713 -0.08250714
0.04718688 -0.082876496 -0.06614587 0.020534312 0.11548119 0.021734523 -0.07171534 -0.17740007
-0.078956686 -0.12806891 -0.042183373 -0.31284636 -0.035278734 -0.15628278 -0.24431121 0.10887276
0.020195737 0.2735643 -0.03001484 0.060720634 0.008628246 0.15912487 0.019226627 -0.09399749
-0.08193186 0.023793781 -0.08659463 -0.17374757 -0.1727008 -0.14260742 0.030316737 -0.07066426
-0.048133276 -0.1742241 -0.02177712 -0.12697278 -0.04945996 -0.1276833 -0.0007444411 -0.056314714
-0.10416033 0.032444555 -0.10364146 -0.17114638 -0.03329424 -0.055166002 -0.0066980408 -0.18502513
-0.119669914 -0.07152127 -0.032992393 -0.15955725 -0.023778463 -0.20794466 -0.07845623 -0.03688139
-0.04571959 -0.033159368 -0.055235986 -0.05416843 -0.0013416464 0.011819991 -0.13458657 -0.003237377
-0.0855004 0.0032903275 0.04019633 -0.10023371 0.09292148 -0.21712531 0.068058886 0.0050159325
-0.021451902 -0.23914486 -0.20810494 0.034799512 0.07403293 -0.12940821 -0.19077381 -0.030637229
0.10599461 -0.09869066 -0.10632766 -0.04271068 -0.14923199 -0.011586119 -0.08623326 -0.12233539
0.21460183 -0.2107112 0.0369674 0.054033387 -0.20755751 -0.17594448 0.054809336 -0.23337165
-0.08491123 0.056871604 0.07157848 -0.17776145 0.007251737 0.0015988952 -0.036393296 0.09771682
-0.004143991 -0.0048330342 -0.1695332 0.015468082 -0.005888273 -0.15607429 0.09074076 0.10183623
0.036857195 0.010628926 -0.025692426 0.05625198 -0.11763937 0.034337822 0.030224694 -0.22107914

hidden_layers.1.bias f4 [256]
00000000: cdaf 96bd f2ab cebd 9e07 61bd 7570 83bd
00000010: 754d 89bd cd3f 0ebe d632 ddbd c529 12bd
00000020: 32d5 e93c 4431 043c 3728 80bd 54ab b2bd
00000030: 51ac 9abd 69c7 9cbc b8ed 17be 6512 f2bc
00000040: 7692 b2bd 4273 c7bd f4eb 14be 5b74 80bd
00000050: 7518 03bd ead0 b4bd b64d c7bd 1899 063d
00000060: 2004 163b adfa bdbd 0070 c0bd c0d0 17be
00000070: 2d6e a3bc 037a c6bd 07fa 1fbe 9d77 8abd
00000080: e1f8 01be a2b9 d8bd 7525 edbd a7ef dcbc
00000090: eea1 eebd d53f 19bd 184e d0bd e54e 88bd
000000a0: 315b ccbc d0d4 cfbd 8a58 1ebd 5ee6 25be
000000b0: 67e3 0ebe f2bc 24bd ef96 3cbc b52d 7dbb
000000c0: 9f2d c2bc 5aa5 84bd 9e96 00be 2443 84bd
000000d0: 79fa acbb 7a07 cebc a5c9 3abd d479 dcbc
000000e0: 1806 aebd b695 79bd af8d e6bd 6306 07be
000000f0: 6215 8ebd 8b85 aebc aca6 32be 7235 f7bd
00000100: 5cc7 5fbd 1fdf 80bd 32eb cebd c39c 0ebe
00000110: be1f c8bd ae74 26bd f93d 65bc bfc0 01bc
00000120: 0f41 97bd e65a 40bd 801d 8cbd 8e25 12be
00000130: 8b76 f1bd 70b7 1cbe 89b5 b3bd 8799 d4bd
00000140: 4f11 9abd 54aa 05be defd fdbd d1f7 633b
00000150: 6ac9 0ebd b620 d2bc 9c7a 9bbd ec28 e2bc
00000160: c1ad ca3c 8c4b 84bd 2f17 cfbd 564f c4bd
00000170: 1bce e5bd 9cd0 12be 0e7d acbd 38cc 18be
00000180: b188 d53c 68cb f3bd 1b12 adbd 5a75 30be
00000190: b58e 8cbd aa11 70bc a5c1 fdbd 58e2 37bd
000001a0: 5fa5 97bd 78c8 a1bd e00f a6bd c8d1 9abd
000001b0: cb14 adbd 3a6d 87bd 516c d6bd 3800 c1bd
000001c0: 7752 81bd 31e0 bdbd 1f45 6dbd 9288 d6bc
000001d0: c54b 7bbd e208 96bc bd90 81bd fe8d b8bd
000001e0: 19e2 00be 25a7 1dbd 2a8d 87bd 19fc 82bd
000001f0: 3db3 dabd e349 bdbd 59b4 51bd a00b 92bd
00000200: f4b4 12bd 16ce 0bbe 0354 9bbd c0ac 473d
00000210: ad24 febd d954 a7bd 212a fabd 1b87 13be
00000220: a107 41bd 8088 10be fcc5 cbbd bb25 cabd
00000230: dae9 43bc 0d02 b0bd b30c b9bd 9525 dbbd
00000240: f5bb 0fbe 48cd eabb e25f a53b 0f0d 00be
00000250: 2259 bfbd cd0f d4bc 2226 fdbd 2832 e8bd
00000260: dfac e2bc 338d e3bc dc48 aebd 7939 fcbc
00000270: a21a 9fbb c746 b4bd fa69 23be 5f1f babc
00000280: 2d46 1cbe e785 a63b c6bf 8ebd a295 b9bd
00000290: 7cb5 d6bd 4f4d dbbd 754c bbbd 6edd cfbd
000002a0: 48c9 06be b9b0 06be 9cf2 683b e5e8 dfbd
000002b0: 35a4 e0bd 6297 41bd a744 a3bd ea2d 10be
000002c0: 3f64 8fbd 7c8d 41be 6773 29be a746 58bd
000002d0: 4a7d c8bd 3820 5dbc d793 15bd cc21 00be
000002e0: c2ef dbbd 03c5 a3bd 093e c8bd 84f4 71bd
000002f0: 3ceb 9bbd 5856 5dbd b1d1 99bd 3238 fabd
00000300: 32c9 22be bf03 52bd d273 dbbd fe73 7bbd
00000310: 0448 81bd 6d0b ccbd ab57 0ebe 3d55 48bd
00000320: 9a78 b9bd 1317 b4bd 8ffd edbc cbfc acbd
00000330: 5ea9 a0bd e22a a2bd 7d6d 2fbe 7365 2cbd
00000340: 2d7f e4bd 20e8 3ebc 6655 75bd a4d2 07bc
00000350: f22e 05be dddf e1bc 8fa1 c43c 8d1e b3bc
00000360: a3bb 22be 690d 56bd 6816 d7bc 4aa1 84bd
00000370: 7ef0 1cbe b275 39bd 7c67 06bd 6a6e f0bc
00000380: 4c3d 37bd 82ae d1bd b055 13be 3069 dbbd
00000390: 6e0f febc e665 ecbc 811f 73bd 25f2 0ebe
000003a0: 3c28 0dbe 5012 efbd f74f ecbd f4e1 8bbd
000003b0: 2c8c d3bd b735 d3bd e3f7 9bbd 5035 1ebd
000003c0: 17e1 20be b2b7 65bd 6ccf c0bd 4cab feb9
000003d0: 1d12 10be a176 e0bd 0000 69bd 54fc 89bd
000003e0: 8bb0 2bbd 3ba9 cebd 6ef6 95bd 8c00 19be
000003f0: 8ba0 efbd 1a49 c9bd 3b32 bcbd 831a a0bd
-0.0735775 -0.1009139 -0.054938905 -0.06417934 -0.06704227 -0.13891526 -0.10800712 -0.035684366
0.028544042 0.008068386 -0.062576704 -0.087240845 -0.07552398 -0.019138055 -0.14836776 -0.029549787
-0.087193415 -0.097387806 -0.14543134 -0.06272193 -0.032005746 -0.0882891 -0.09731619 0.032860845
0.0022890642 -0.09276328 -0.09396362 -0.14825726 -0.019949997 -0.09691241 -0.15622722 -0.06761096
-0.12692596 -0.10582282 -0.1157941 -0.026969744 -0.116519794 -0.03741439 -0.10171145 -0.06655673
-0.024945827 -0.10148013 -0.038658656 -0.1620116 -0.13953935 -0.040219255 -0.011510595 -0.003863198
-0.023703394 -0.06476851 -0.12557456 -0.064581186 -0.005278882 -0.02515005 -0.04560246 -0.02691356
-0.08497256 -0.06093379 -0.11257493 -0.1318603 -0.06937672 -0.021303913 -0.17446393 -0.12070741
-0.054633483 -0.06292557 -0.10103454 -0.13926987 -0.09771679 -0.04063862 -0.013991826 -0.007919489
-0.07385456 -0.046961688 -0.06841564 -0.14272138 -0.117901884 -0.15304351 -0.087748595 -0.103808455
-0.075228326 -0.13053256 -0.12401937 0.0034785161 -0.034860052 -0.025650363 -0.07591745 -0.027607404
0.024741055 -0.06459722 -0.10111844 -0.09585445 -0.11220952 -0.1433739 -0.0842229 -0.14921653
0.026066156 -0.11904031 -0.08450719 -0.17232266 -0.06863157 -0.014652649 -0.123904504 -0.044893593
-0.07404589 -0.078995645 -0.08108497 -0.07559544 -0.084512316 -0.0661263 -0.104698785 -0.0942387
-0.06314557 -0.09271277 -0.057927247 -0.026188169 -0.061351556 -0.018314783 -0.06326435 -0.09011458
-0.1258625 -0.03848948 -0.06618722 -0.0639574 -0.10678718 -0.092426084 -0.051197384 -0.071311235
-0.0358171 -0.13652834 -0.07584383 0.04874873 -0.12409339 -0.0817048 -0.12215067 -0.14407007
-0.047126416 -0.1411457 -0.09949872 -0.09870478 -0.01195761 -0.08594141 -0.09035625 -0.107005276
-0.14036544 -0.0071655847 0.0050468305 -0.12504981 -0.093431726 -0.02588644 -0.12360789 -0.113376915
-0.027670322 -0.02777729 -0.085099906 -0.030789124 -0.00485547 -0.08802562 -0.15958396 -0.022720037
-0.15261145 0.0050818804 -0.06970172 -0.09061743 -0.10483834 -0.10708105 -0.091454424 -0.10149656
-0.1316272 -0.13153352 0.0035544997 -0.10933093 -0.1096882 -0.04726351 -0.07972079 -0.14080015
-0.07001542 -0.18901628 -0.16547929 -0.052801754 -0.09789522 -0.013496451 -0.036517944 -0.12512892
-0.107390895 -0.079965614 -0.09777457 -0.05907108 -0.07613227 -0.054037422 -0.075106986 -0.1221775
-0.15897062 -0.051273104 -0.1071545 -0.061389916 -0.06312564 -0.09963117 -0.1390063 -0.048909415
-0.09056206 -0.087934636 -0.02905157 -0.08446654 -0.07844804 -0.079183355 -0.1713161 -0.042088937
-0.11157069 -0.011652023 -0.059895895 -0.008289967 -0.1300619 -0.027572567 0.024002818 -0.021865154
-0.1589189 -0.052258883 -0.026255801 -0.06476076 -0.15326115 -0.04527826 -0.032813534 -0.029349525
-0.04473619 -0.10238363 -0.14388156 -0.10713422 -0.031013217 -0.028857183 -0.059356216 -0.13959558
-0.1378488 -0.11673415 -0.115386896 -0.068302065 -0.1032947 -0.1031298 -0.0761564 -0.03862506
-0.15710865 -0.05608339 -0.094145626 -0.0004857428 -0.1406941 -0.10960127 -0.056884766 -0.06737581
-0.04191641 -0.10090872 -0.07322393 -0.14941615 -0.11700543 -0.09828396 -0.09189268 -0.07817557

output_layers.0.weight f4 [40, 256]
00000000: 1a40 863d d80c 043d 838e ca3d 844f a93d
00000010: 77d6 dcbd 6b08 953c f902 003e ffcc 203e
00000020: 7176 c03d 82d5 05be ab70 a13d 6d6b 613a
00000030: a6c6 06bd c518 963c d35e bfbd 2fbd dd3d
00000040: 1a0d 76bc ed66 7f3e b678 553e b7ed cc3d
00000050: c849 87bd e836 ca3e 34f8 2dbe 7b2f 323e
00000060: 1555 0d3e 452a e0bd 9822 193d 0520 7a3e
00000070: c41e b83d 4968 973b 8725 bd3d 70d6 46bd
00000080: fd87 dcbd 7d18 bc3d 37c9 283e 8b9a c1bd
00000090: 5ec4 8f3b 0831 cbbd 3790 b83c 42a2 db3d
000000a0: b8c2 563e 79fc ecbb 45ce 29be 7f37 283e
000000b0: 6ec2 96bd 53bd 5a3e 865e 36be 3010 bb3d
000000c0: bb5e 113d 7293 0d3e 7c58 54bd 5f8c cbbd
000000d0: bc99 813e 2266 373e 9dca a03e f960 003e
000000e0: 8a22 0dbe 4d5c 153e f548 183d 9fbc da3d
000000f0: 37af 323c 2a46 f03d a128 543e d2a0 bbbb
00000100: 2464 733c 27c4 973d 5a92 9a3e aa82 c23d
00000110: c4fc 25bc b90c 4d3e 0e3f 99bc de97 d43d
00000120: 80ec 0c3e c0d7 123d ba13 d5bd 5e0e b23d
00000130: 5c3e d83d a050 e13d 2572 54be aa59 a43d
00000140: 3448 513d 872f babd 64dc 223c 5e99 1ebe
00000150: 61f9 65bd e625 493e c5d5 b53d 2239 0e3e
00000160: bde0 b43d f0fa 333c 7726 983d 9285 fa3c
00000170: f18f 2b3d b474 ce3d 9328 923a d09b 613e
00000180: f8f5 713e 8db4 613e 5d24 35bd 2571 b1bb
00000190: a87b 7a3d 2d8f d43d e6ee 363e e9fc 543d
000001a0: 73f2 53bd 61bf dabd a8aa 103d 1402 fe3d
000001b0: 294c cebc f26c 263c 3779 6c3c 0866 99bd
000001c0: 64be a13e 8ab9 8c3c 458b 0e3e aeb2 4c3b
000001d0: fd2a 15be b090 01be 433d c23d da21 4abe
000001e0: 5e20 963e 3e01 c93c 8293 32be 11bd 833c
000001f0: 48f2 1e3e a7a1 0c3e 8451 aabd 3bd8 e63d
00000200: 659a 033e b273 3e3d 852e 8d3d ec55 1539
00000210: 4055 adbc 9a23 683d abe3 2fbc b25e 593e
00000220: b920 223e 75f4 c03d 97a1 a63c 4b79 b63d
00000230: 0a63 343b 8ff0 803d de93 f33d 7a6f ce3c
00000240: 775b 3f3d f5a4 3b3d 1e04 c03c 21a3 48be
00000250: c4a9 aebd 1d60 44be be59 40bd ea3c b5bd
00000260: e419 013d 114c 3ebd 42c1 f03d a069 2e3d
00000270: 4290 3abe 1ce2 403e f402 dc3a ecaa 873e
00000280: 29db 28bb 0e9b 76bd a270 02bd c1a4 e23d
00000290: fe00 a13d 7f8b 73be 8dcc 073e acf7 72be
000002a0: 5a19 fc3c 3350 903d 2b96 383e e66a d33d
000002b0: 7ad5 c6bd 273b 4a3e afc7 fcbd 17fd e33d
000002c0: aeab d13d c034 983b e53d 63be 1aec 3f3e
000002d0: 69e7 d9bd e865 fcbc 9eb9 c03d 98b1 c7bd
000002e0: bef7 1bbd 090f eb3d 9491 f4bc 450e 89be
000002f0: efcd c8bc 2497 42ba b443 b63d adb1 ff3d
00000300: 355c 83be 9cdb 5bbd 38c5 d5bd 3ffa ce3c
00000310: 8cdd 4bbd 0dcc 8b3d bb5f 26bd ecd9 61be
00000320: 1767 a7bd 4277 88bd e306 ff3c a0cc a2be
00000330: 4cee 333e cde3 d4bb 22e5 163d 84ab 103d
00000340: e273 e03d e85f b9bc 54c1 173e d473 17bd
00000350: 16c9 8fbe 90e0 0d3e daa0 e2bc 0078 89bd
00000360: ec98 a53e 44b7 513c 3e24 aabe 8b0c a1bc
00000370: 4f83 ca3c bcba 953d de3c 5fbc 2fb3 20bc
00000380: 8786 593d 4ca6 473e 9924 cc3d 0a65 ec3d
00000390: 894a f53d 55cf 373d ddf7 e3bd 544c 183e
000003a0: 0a4f de3d 241d 303d d30f 13be c0e1 96bb
000003b0: 2344 d7bd 8047 88bd d35e f0bc 2893 1a3d
000003c0: d4b5 783c de10 2e3b bf52 b23e 4659 cbbd
000003d0: 29c3 32bc a538 c93d 7dc1 cfbd c847 3dbe
000003e0: 1b1b 62bd 5ebc ea3d a174 d7bc 5414 333c
000003f0: 803b 9d3e 9a62 df3d ac01 b4bd cd64 1e3e
0.06555195 0.03223881 0.09890463 0.082671195 -0.107830934 0.01819249 0.12501134 0.157032
0.09397591 -0.13069728 0.07882818 0.00085990765 -0.03290429 0.018322358 -0.09344258 0.108270995
-0.015017772 0.24941607 0.20846829 0.10006278 -0.066058695 0.39495015 -0.16989213 0.17400925
0.13801987 -0.10945562 0.037386507 0.24426277 0.08990243 0.004620586 0.092356734 -0.048544347
-0.10768125 0.09184358 0.16483007 -0.09453305 0.0043874225 -0.09921461 0.022529704 0.107243076
0.20972717 -0.0072322455 -0.16582592 0.1642742 -0.07361303 0.21361284 -0.17809495 0.09133947
0.035490733 0.13825777 -0.051842198 -0.09938883 0.25312603 0.17910054 0.31404582 0.12536992
-0.13782707 0.14585991 0.037178952 0.10680508 0.010906032 0.11732133 0.20718624 -0.0057259584
0.014855418 0.0741046 0.30189782 0.094975784 -0.010131065 0.20024385 -0.018706825 0.10380529
0.13762093 0.035850286 -0.10404153 0.086941466 0.10558769 0.11001706 -0.20746668 0.080249146
0.05109425 -0.09091096 0.0099402405 -0.15488192 -0.05614603 0.19643363 0.08878664 0.13888982
0.08831928 0.010985121 0.074292116 0.03058127 0.04188532 0.10080853 0.0011151008 0.22032094
0.23628986 0.22041531 -0.04422413 -0.005415099 0.061153084 0.10378871 0.1786457 0.051999006
-0.05174489 -0.10681034 0.035319 0.1240274 -0.0251828 0.0101578105 0.014433197 -0.07490164
0.3159057 0.017178316 0.13920315 0.003123443 -0.1456718 -0.1265285 0.09484341 -0.19739476
0.2932157 0.024536725 -0.17439082 0.016081365 0.1552211 0.1373354 -0.08316329 0.112717114
0.12851866 0.046497054 0.068936385 0.00014241756 -0.021158814 0.056674577 -0.010735433 0.2122753
0.15832795 0.094216265 0.020340724 0.089098535 0.0027524852 0.06295883 0.11893438 0.02519964
0.046718087 0.045811612 0.023439463 -0.19593479 -0.08528474 -0.1917729 -0.046960585 -0.08849509
0.03151883 -0.04645926 0.11755611 0.0425812 -0.18219092 0.18836254 0.0016785548 0.2649759
-0.0025765395 -0.060206465 -0.031845696 0.110665806 0.07861517 -0.23783682 0.13261624 -0.23727292
0.030773807 0.07046547 0.18026035 0.10323124 -0.09708686 0.19749127 -0.12342774 0.111322574
0.102378234 0.00464496 -0.2219158 0.1874241 -0.10639841 -0.030810311 0.09410404 -0.0975067
-0.038078062 0.11477477 -0.029854573 -0.267687 -0.02451226 -0.00074230344 0.08899632 0.12485061
-0.25656286 -0.053676233 -0.10438007 0.025265811 -0.04977183 0.06826029 -0.04061864 -0.22055787
-0.0817396 -0.066633716 0.031131214 -0.3179674 0.17571372 -0.0064968825 0.03683961 0.03531982
0.10959603 -0.02262874 0.14819843 -0.036975697 -0.28083104 0.13855195 -0.02766459 -0.06712341
0.32343233 0.012800042 -0.33230776 -0.019659301 0.024720816 0.073110074 -0.013625352 -0.009808346
0.05310681 0.19497031 0.09967918 0.11542709 0.11977107 0.04487546 -0.111312605 0.14872867
0.10854919 0.04299654 -0.14361505 -0.004604548 -0.10511043 -0.066542625 -0.02934209 0.037737995
0.01518007 0.0026560347 0.34828755 -0.09929137 -0.010910788 0.09825257 -0.10144327 -0.18484414
-0.05520163 0.114617094 -0.02630073 0.01093014 0.30709457 0.10907479 -0.087893814 0.1546814

output_layers.0.bias f4 [40]
00000000: 9975 ab3e 9e5e 3e3b f40c 063e 48ec 7a3f
00000010: dfec 5a3c 7f85 753c 66c4 ba3c 30cd e73d
00000020: d01e a63c 5bfc a43c 1744 9b3c a9fd 943c
00000030: ff21 9d3c 9c51 293d 6a96 6ebb c511 e03c
00000040: 9bfd 943b 23e2 3a3d 783d 753d 09b1 1b3d
00000050: 83f6 153d 3704 053d 6386 c03c ab78 083d
00000060: d9df cb3c 50b5 273c defa b7ba 2983 043d
00000070: 93d1 583d 1839 edbb 2c0c 3c3d 75fc 303d
00000080: 1baf 813c fca1 323d 7c83 bd3c 50f6 ec3c
00000090: 65d4 a73e 4dd8 07bf 6dca bf3e 2596 25bb
0.33488157 0.0029048095 0.13090879 0.98016787 0.0133621385 0.014985441 0.022798728 0.11318433
0.020278364 0.020139864 0.018953366 0.01818736 0.01918125 0.041337594 -0.0036405572 0.027352223
0.0045468337 0.045625817 0.059873074 0.03801063 0.036612045 0.032474723 0.02350158 0.033318203
0.024887012 0.010236099 -0.0014036556 0.032351647 0.05293424 -0.007239472 0.045910046 0.04320951
0.015830567 0.04361151 0.023133986 0.028926045 0.32779232 -0.53064424 0.37459126 -0.0025266495
