MODELS/REWARD COMPARISON/SAC MASKED MODELS/5_3_critic_target_network.pt (torch, 411303 bytes, 6 tensors)

hidden_layers.0.weight f4 [256, 101]
00000000: dbee 2c38 4d65 d6bd 288d afbd 73c1 a4bd
00000010: a9c2 febd 0cf0 a23d 9572 64be 4dda aa3d
00000020: 28b1 8abd 2fc3 143e f0b8 4b3e 3afc d83e
00000030: 9112 1fbe d6f1 af3e 19b8 8a3e 1125 9ebd
00000040: 86cd 133e 215e 6d3e e6ff 1b3e 3f46 69bc
00000050: bca8 b53d 7556 9c3e 165b 3ebe 3d9c 2ebe
00000060: 8ddc d6be d218 b2be 133c efbe 5139 85bd
00000070: 9a31 913d b5f1 d53d cea8 083e 792b b73d
00000080: 1174 31be a10f 2a3e b28a e6be 371b cebe
00000090: 1995 cdbe e739 f43e 4e40 933e 5608 d63e
000000a0: 1923 333e b17f 86be dd39 bbbe 1425 863d
000000b0: 446f 3bbe 9fc9 5fbd 6458 f0be f3a9 79be
000000c0: cff8 783d cfdd c73e d7bc fa3d b68f 01be
000000d0: b8aa eabe 65f3 cfbe 80fc 89bd 8999 863e
000000e0: 5a51 9fbc 4438 9b3d 36a2 0e3e 64e1 aeba
000000f0: a788 3a3c cfc0 7abe abc5 c5be ee6a 14be
00000100: 843a 53be 33d2 473e e88c 7fbd 0f95 ed3d
00000110: 6bde a03e 00c6 bc3e f6bc 42bd 7601 6abd
00000120: 4f85 88be f78b 323b 9bd9 b1bd 89b6 90bc
00000130: 7c07 983d 4f25 f03d 0616 ff3d f041 823e
00000140: 0f06 4d3e c731 25be 569e 9bbe 4caf d6be
00000150: 5840 05bf 9a65 493d 5fbc 94bd d835 90be
00000160: fee9 513d 98c3 ddbd 4bb5 27bd 31bb fcbe
00000170: 08ce b1be 169e a63d ce03 1f3e 928b 69be
00000180: ac60 fe3c 5e2f ad3c 6efc 823c 7c46 873e
00000190: 9e5a 143f 9087 17bd d5a1 183e d028 ab3e
000001a0: 9afe 823e 1e4d c53c 57d1 77be b952 cd3e
000001b0: 187f f4bd 65e1 a93e e119 20be 59a7 2d3e
000001c0: e676 12bc 2dfb e03e 355a ff3c f041 ce3e
000001d0: 598f 813e da2a 0d3e 444d b33d 641f 303e
000001e0: bbff dbbd ca7d 3ebe a581 4cbd a2c6 1f3f
000001f0: 403c 543f e549 373f 647b 783e 82a3 873e
00000200: 9807 fcbc 2e7b febd 3cd5 093d 2113 2a3e
00000210: 1578 35be ddee 393f 1ed1 b73e 0d73 143e
00000220: f610 973d a7ab 83bc 1e67 24be c978 263e
00000230: 79c6 a3bc 2684 f9bc bc1b 2cbe 68f3 b9be
00000240: e7aa 683e ec40 9b3e 05f0 0bbf cdcb ffbd
00000250: 6992 b7be 3679 743e 0a47 e9bc 20cb 453e
00000260: 3ee2 9ebe 3015 87be 32da 16bd 6beb f9bc
00000270: 325e 6cbd 8638 c9be b493 2abe 1671 883e
00000280: e2e4 24be b1f6 87bd 0879 f43e c853 f2bd
00000290: fce6 fa3c 589b 56be b9b6 7cbe 2af2 ad3c
000002a0: 68d5 dabe b80c 55be 94ee dfbd 8418 703d
000002b0: 841e 143e 92a5 70be 8d2e 94bd 2238 e0bd
000002c0: 97d8 dc3d d11b acbe 4bfa 31be 41a1 e6be
000002d0: e607 34bd b188 0f3d 7344 80bd ac0e 70be
000002e0: 3fe8 373e 08ca 15be 51ed d8be 8ce2 76bc
000002f0: 8560 b0ba 505a a8bb fc9c 39bf 74ef 153e
00000300: b85d 4ebe 8b5e e1be e09e 273d 465d 0b3c
00000310: a212 c03d 649a 843d d9b5 933d 6923 e7be
00000320: 1233 bfbe c44b 3ebe e4d2 6c3e 417a 0fbe
00000330: 75a9 3dbe f618 bdbe 3617 91be 06e5 adbd
00000340: fd40 89be f939 2b3f c6f7 b3be 6692 0f3d
00000350: 8eb9 993d 5473 743e 3f58 debe ed1c 24bf
00000360: 8a8c 2fbe d149 a1bb b460 6c3d 1df8 013e
00000370: 33df 673c 25b3 de3d 86ae cabc c2bd 6cbe
00000380: 3145 e1be 803d 2dbf fbba 9bbe 874f 9d3e
00000390: 7c13 d9bd edff 063d 3f23 6cbd ab80 c13d
000003a0: c494 a3bd 2f9c 063e 1eb4 16bf 5821 0fbf
000003b0: 0189 743e f87c f3bc 781e 09bd 4e9b f73d
000003c0: 4eaa e43d 3758 663d 9c0e d3be a676 51be
000003d0: b5e4 a5be d999 9bbe 15b6 78be 50b7 b23d
000003e0: 657d 3e3e 18d6 c1be 87c6 92bd ff4e 4b3e
000003f0: b0b4 33be cffa 74be 8249 c13d 373c cabe
4.1230447e-05 -0.1046854 -0.08571845 -0.0804471 -0.12439472 0.079559416 -0.22309335 0.08342419
-0.06772071 0.14527582 0.19894767 0.42379934 -0.15534426 0.34364194 0.2709358 -0.077219136
0.1443387 0.23180439 0.15234336 -0.014237939 0.08870074 0.3053471 -0.18589434 -0.17051788
-0.41965142 -0.3478456 -0.4672552 -0.06505073 0.07089539 0.104464926 0.13345644 0.089438386
-0.17329432 0.16607524 -0.4502769 -0.40255138 -0.40152815 0.47700426 0.28759998 0.41803235
0.17493857 -0.26269296 -0.36567584 0.06550041 -0.18304163 -0.05463564 -0.46942437 -0.24381237
0.060784157 0.39036414 0.122430496 -0.12652478 -0.45833373 -0.40615383 -0.06737614 0.26289013
-0.019447971 0.07579091 0.13929066 -0.0013342318 0.0113851195 -0.24487613 -0.3862737 -0.14493915
-0.2062779 0.19513778 -0.062390238 0.11600696 0.3141969 0.36869812 -0.04754349 -0.0571303
-0.26664206 0.002724407 -0.08684083 -0.017665165 0.074233025 0.11725866 0.124553725 0.2544093
0.20021842 -0.1613227 -0.30394238 -0.41930616 -0.52051306 0.04916916 -0.072624914 -0.2816608
0.051248543 -0.10828322 -0.04094438 -0.49361566 -0.34727502 0.08135621 0.15528795 -0.22807148
0.031051956 0.02114075 0.015989508 0.26420963 0.5795077 -0.036994517 0.14905484 0.33429575
0.2558487 0.024084624 -0.2420095 0.40102175 -0.11938304 0.33179775 -0.15634872 0.1695837
-0.00893948 0.43941632 0.031170944 0.4028468 0.25304678 0.13785878 0.087549716 0.17199475
-0.10742136 -0.18602672 -0.049928326 0.62412465 0.82904434 0.7159713 0.2426582 0.26491934
-0.03076534 -0.124258384 0.03365062 0.1660886 -0.17721589 0.726301 0.3590173 0.14497013
0.07376282 -0.016073061 -0.16054961 0.16257013 -0.0199921 -0.030458521 -0.16807455 -0.36318517
0.22721444 0.3032297 -0.54663116 -0.12490044 -0.3585389 0.23874363 -0.028476257 0.19315767
-0.31031984 -0.26383352 -0.03682918 -0.030507764 -0.05770702 -0.39300936 -0.16657907 0.26648778
-0.16102937 -0.066388495 0.4774859 -0.11832386 0.03062772 -0.20957696 -0.24679078 0.021233637
-0.4274094 -0.20805633 -0.10934177 0.05861713 0.14464766 -0.2350066 -0.07235441 -0.109482065
0.10783499 -0.33614972 -0.17380635 -0.45044902 -0.043952845 0.03504247 -0.06263056 -0.23443097
0.17959689 -0.1462785 -0.42368558 -0.015068661 -0.00134565 -0.005137719 -0.72505164 0.14642125
-0.20152938 -0.44017443 0.040923 0.008506125 0.09378554 0.0647476 0.07212419 -0.45144203
-0.3734365 -0.1858359 0.23127323 -0.1401148 -0.18521674 -0.36933106 -0.2833802 -0.084909484
-0.26807395 0.66885334 -0.35149974 0.035051726 0.07506095 0.23872119 -0.434267 -0.6410664
-0.17143455 -0.0049221297 0.05770941 0.12692304 0.014152336 0.10874013 -0.024741422 -0.23119262
-0.439981 -0.67671967 -0.30416092 0.30724737 -0.105994195 0.032958914 -0.0576508 0.094483696
-0.07987359 0.13145517 -0.58868587 -0.55910254 0.23880388 -0.029722676 -0.033476323 0.12090169
0.111652955 0.056236472 -0.41222084 -0.20455417 -0.32401052 -0.30390814 -0.24288209 0.0872637
0.18602522 -0.37858653 -0.07166772 0.19854353 -0.17549396 -0.23923801 0.09437849 -0.39499065

hidden_layers.0.bias f4 [256]
00000000: 4774 8ebe 84a8 5abd 1c12 ddbc b2e9 a0be
00000010: 0deb 43be bf8a 313d f01f 46be 03e4 71be
00000020: 48fc c0be 0161 86be fda4 babe 994a f63b
00000030: eea7 83bd e0a6 f93d 3ec9 8abe d2ca 813d
00000040: 894b 56be 439e 4fbe c8bb 273e 537e 09bd
00000050: 63e9 fe3d cb18 12be 6f1b 3e3d 3deb dabd
00000060: 9e0d 81be 715f 033e b868 83be daad bf3d
00000070: 0937 be3d 595c ff3d ee9b 743e 2dd9 5dbe
00000080: 386a 7dbe 27d2 b6be 4a90 83bd cc66 583e
00000090: 211d c9bd a12f 3ebe 6e1c b1be a4d2 bfbe
000000a0: e3dc 87be c8d1 e9be 56e9 5ebe 4573 8bbd
000000b0: 8127 573e bf39 81bd 1b4f f5be b21d 273d
000000c0: f266 40be b825 9fbe cb4e 2bbe 4269 ba3d
000000d0: 234c 873d 8851 293d 3afc 9ebe e318 5a3d
000000e0: 0b46 f93d 15d2 aabe 293c 8dbe 0a6f 75ba
000000f0: 122c b2be c709 9ebe ef2a fbbc 8562 033e
00000100: 9309 7fbe 9a12 77be 2ec9 c9bd 3337 a83d
00000110: 9b92 153d bbb6 213e 1023 9b3c 8794 ed3c
00000120: 3ca0 783d 2148 323e 6f7b cebd f49e 70be
00000130: 87f7 bdbe ef89 4bbd b24b 98be 8ec1 7ebe
00000140: 26f7 9bbd 6011 b73c 0b2d a83d b080 01be
00000150: 1258 b8bc f4d7 5bbe 8404 80bd 6462 56be
00000160: 9c85 6cbe f0cf 97be 3739 dbbd 55ed 3bbe
00000170: b70c 0f3d db52 f53c c98a cebd 92ee 8cbd
00000180: f61e f83b 8baa 223e 66a2 cd3d 07db 60ba
00000190: a89b 6ebc 3701 073e 07ec 83be 6667 adbe
000001a0: ecf8 3e3e 1a46 2b3e da41 00be 8bfc 0ebd
000001b0: 084b 073e 473a a7be 2387 84bd f160 483e
000001c0: fc92 69bd f38b 07be 6476 43bd 3c6d a2be
000001d0: 3bc0 b0be d4c1 65be db41 6cbd 2e59 4e3d
000001e0: 2dc5 c3be ce8b 25be 73e9 343d 4d20 2ebe
000001f0: 9e84 8fbe 65cb e8bb fd7b 2a3d 21db 333e
00000200: c094 bcbe 7529 113d b916 82be 87e3 64be
00000210: 5e41 df3d 4f01 b23b f012 083e b6e8 9bbe
00000220: 480c 0b3e d414 4f3d cf1e f8bc 93b2 c4be
00000230: 35f6 a0bd a15f 4abe 4857 7fbd fbe0 8cbe
00000240: 292a 61be 989e 81bd 22e0 263e 1583 51be
00000250: a7d7 0cbc 2145 d03d 9698 26be 4a09 71bd
00000260: d38d 38be 65db 9fbe b006 7abd 28af 18bd
00000270: 3d79 04be a7b9 5abe cf9d f4bd a161 31be
00000280: e638 b2be e0c6 d7be c5a6 cdbd 2189 40be
00000290: 41ec 01bd 1080 aebe 8f97 ef39 fa01 913d
000002a0: ebec 1b3d cd14 0e3e 155f 9bbe 3d22 c23c
000002b0: 506e 8a3d 701f 4b3d b668 afbb 996e 99be
000002c0: 63b4 8ebe bf33 73bd 4a2e 1bbe 3284 89be
000002d0: 0c77 71bb bbe5 97be 7906 60be 8cf1 f2bd
000002e0: 5d04 01be dc70 ef3d fbe7 f1bd 27ad c9bd
000002f0: 9b74 dcbd 160d 87be b5ca 80be ae1b 7ebe
00000300: 9512 96be 3529 483c 672c 893d d155 c1be
00000310: 89ac b2be 1d4a aebd 9fe5 053e b04c 333c
00000320: 6073 1fbc 0ccb 91bd 4288 c73a 9540 c13d
00000330: 220f 17be a6f0 dabd 1eb8 7bbd 3ba8 71be
00000340: 4ea6 f33d 4995 e1bb 1cba 8cbd 1540 2cbe
00000350: caba b4bd ebd1 2f3e 46f6 79bd 26be 193e
00000360: 8907 2e3d 676c 1fbe fbc9 afbe f169 31be
00000370: 7153 2dbe 427f 8dbe 3daf a7bb 0211 efbd
00000380: 1b27 5ebe e2c6 7dbe f6b4 443e addd 923b
00000390: 2f89 e83b 3bdb 02bd 0a67 85be 2c3e fbbc
000003a0: 7701 eabc 1598 95be 49fa 30be f1ce 0f3e
000003b0: 7f44 ca3d 50e1 923d bd4d 613c dcf3 85be
000003c0: f5dc 60be a532 bc3d daf5 a4bd ecf9 d6bd
000003d0: f92e 2ebd 0dd8 153e e5b8 393b abd5 643d
000003e0: a4e0 40be b9ec 23be 64ba 24bd e0e9 24be
000003f0: b850 203e 8392 01bd 5208 a8b9 b3ee 693d
-0.27823088 -0.053383365 -0.026986174 -0.31428295 -0.19132634 0.04334521 -0.1934812 -0.23622136
-0.37692475 -0.26245883 -0.36454 0.007516217 -0.064285144 0.12190032 -0.2710666 0.06337513
-0.20927252 -0.20275216 0.16380227 -0.033567738 0.12446859 -0.1426727 0.04641288 -0.106893994
-0.25205702 0.12829377 -0.25665832 0.093593314 0.09287841 0.12468786 0.23887607 -0.21664877
-0.2474755 -0.3570721 -0.06424005 0.21132964 -0.09820009 -0.18572856 -0.34592003 -0.37465394
-0.2653571 -0.45667863 -0.21768698 -0.06809095 0.21011163 -0.06309842 -0.47911915 0.040799804
-0.1878927 -0.31083465 -0.16729276 0.091021076 0.06606319 0.04133752 -0.3105181 0.05324639
0.12171563 -0.33363405 -0.2758496 -0.00093625544 -0.34799248 -0.30866835 -0.03066012 0.12830551
-0.24905996 -0.2412819 -0.09852825 0.082136534 0.036516767 0.15792362 0.018937618 0.029001487
0.060699686 0.17410327 -0.10082137 -0.23498136 -0.3710291 -0.04969209 -0.2974525 -0.24878523
-0.07615499 0.022347152 0.08211716 -0.12646747 -0.022502933 -0.21469098 -0.06250861 -0.2093597
-0.23097843 -0.2965083 -0.10704272 -0.18352254 0.034924235 0.029946735 -0.10085065 -0.06881441
0.00757205 0.1588537 0.10040741 -0.00085775595 -0.0145634785 0.13184057 -0.25766012 -0.3386795
0.18649644 0.1672596 -0.1252512 -0.034908812 0.13212216 -0.3266165 -0.06471088 0.1956823
-0.05702494 -0.1323698 -0.047720328 -0.31723964 -0.3452166 -0.22437221 -0.057679992 0.050378017
-0.3823637 -0.16166613 0.044167947 -0.1700451 -0.28030866 -0.0071043246 0.04162215 0.1756406
-0.36832237 0.035439927 -0.2540796 -0.2235242 0.1090114 0.005432285 0.13288474 -0.30450982
0.13578904 0.050556973 -0.030288128 -0.3841749 -0.0785946 -0.19763042 -0.062339097 -0.27515396
-0.21988739 -0.063290775 0.16296437 -0.2046016 -0.008596337 0.10169435 -0.16269144 -0.05884675
-0.18022852 -0.31222072 -0.061041534 -0.037276417 -0.12936874 -0.21359883 -0.11944162 -0.17322399
-0.34809035 -0.42143917 -0.100415744 -0.1880231 -0.03171945 -0.3408208 0.00045698552 0.07080455
0.03806774 0.13875122 -0.3034598 0.023697967 0.06759322 0.049590528 -0.0053530587 -0.29967192
-0.27872 -0.05937552 -0.15154377 -0.2685867 -0.003684464 -0.29667458 -0.21877469 -0.11862478
-0.1259932 0.11691448 -0.11811825 -0.09847479 -0.10764428 -0.2637717 -0.25154653 -0.24815246
-0.29311052 0.012216856 0.06697922 -0.37760785 -0.3489726 -0.0851023 0.13075875 0.010943577
-0.009732097 -0.07118806 0.0015223103 0.09436146 -0.14751866 -0.10690431 -0.061454885 -0.23599331
0.118969545 -0.0068842513 -0.06871435 -0.1682132 -0.0882469 0.17169921 -0.06102588 0.15013942
0.042487655 -0.15568696 -0.34333786 -0.1732557 -0.16926362 -0.27636153 -0.0051173256 -0.11673166
-0.21694605 -0.24782899 0.19209656 0.004481992 0.0070964317 -0.031947356 -0.26055175 -0.030669294
-0.028565152 -0.29217592 -0.17282976 0.14043786 0.09876346 0.07171881 0.013751444 -0.26162612
-0.21959288 0.09189347 -0.08054705 -0.104968876 -0.042525265 0.14633198 0.0028338965 0.055867832
-0.18835694 -0.16008271 -0.04021682 -0.16104841 0.15655792 -0.031633865 -0.00032049656 0.057112407

hidden_layers.1.weight f4 [256, 256]
00000000: ccc8 9e3d 3f32 d6bd 9d3b 24be 7e33 fabd
00000010: b65e 89bd b42c 813e ca71 a03d 8bb8 1abe
00000020: a1e2 56bd a5ad 92bc a33d f4bd 3afc acbd
00000030: 6e59 8fbb 5f06 403d 81cd 1cbe c04b c5bd
00000040: e2ff b13d aae2 4cbe f5cf 433e 4478 3d3d
00000050: 84c0 093e 1dce ecbd 0527 a9bc 5170 debd
00000060: bbde 4fbd 59b1 c5bd eae7 56be a72b 78be
00000070: a435 513d 2244 a3bd b27a 01bc bfb5 89be
00000080: 36fb f1bb d044 d6bd 28bb 64bd 7fb9 0b3e
00000090: 5ea2 73be 848c 28bc 50bd 2fbe 71b0 8abd
000000a0: 4250 96bd 36e6 69be 4100 59bc 9e6c cbbc
000000b0: cbe4 453e 552f 82bd 99aa 78bd 5704 b53d
000000c0: 56aa 3abc ddec 48be e85f e1bd 5239 59be
000000d0: 2a26 043e 8f5e aa3c a6d4 24be dec2 503d
000000e0: cf71 a23d cb8f 04be c863 0ebd 5f05 2c3e
000000f0: 93f3 86bc 7aa9 1e3d bc60 ef3d 61bd 26bd
00000100: 3ff9 aabd 0013 1ebe dce6 41bd 2907 623c
00000110: f54a 5e3e 18ea c3bc 73af 4f3b 065d 10be
00000120: bada febd 0b06 bfbd 65a8 cd3c fb6d 3d3c
00000130: 90c0 863d 051e 20bd d0a7 d73d 8e86 95bd
00000140: dee3 153e df7d 85bd 1380 2bbd c9f0 b6bd
00000150: c67b 62be a638 59bd 11c2 003d 5b6d 04bd
00000160: 2421 20be 68aa 65be 218d edbb 4ac8 1ebe
00000170: d2c0 2bbe 0b31 34bd 896f 93bd 662c 12be
00000180: f7a4 f5bd f283 f93c 5aaa 6f3b 397b 813d
00000190: fab2 35be 1481 a6bd 0f4d 1b3c 592c 3fbe
000001a0: 0a26 31be 75b7 91bd b8fa b33d 95f0 52be
000001b0: 3c7e 9e3c 2443 c2bd 3f8a c03a d024 43b9
000001c0: 437a 3a3e 288b 2d3b 9dd5 7bbd a080 ca3c
000001d0: 5576 623d 6e79 37be 585d ce3d ad87 f0bc
000001e0: cee6 5abe 30b8 0bbe 0507 03bd 36f9 18bc
000001f0: d41e 18be 58b7 da3d 7dd1 d7bd 68a3 cf3c
00000200: 685a 27bd 82fb 2e3e 3aaa 97bd 53ba 5dbd
00000210: f1a4 f73b 5366 0dbd 175a 7ebe 5a6d 963c
00000220: ebc4 dcbd 1d41 d7bc 3468 19be 9278 59be
00000230: f6b2 21be a475 7ebe 0d3b 893e b303 bfbd
00000240: 159c fdbd bb16 403e 1ae0 463e 48da a4bd
00000250: 47a5 acbc 7868 0a3e 7dbf 2fbd c3d3 1c3c
00000260: 23fc 2dbe 14a6 f7bd a0b7 c4bc 04ce f3bd
00000270: 279f 6c3d deba 87bd 0032 bfbd d42f 283c
00000280: 0f5a a5bd 8587 4abe 5d88 c9bd 8319 353c
00000290: 412f 693d b389 36be f98f e83d 066e 9a3d
000002a0: 1bd6 00be 305b ddbd f402 3f3d 4294 02bc
000002b0: fe67 a2bd 4266 ac3d fa89 063c 0d50 45bd
000002c0: 449f a9bd 3111 1ebe fc90 cdbd a63a 9bbd
000002d0: 72b9 31bb a628 19be eb79 22be c10d 4f3d
000002e0: 1303 8ebc 3106 55bc a605 a63c 6b5a b3bd
000002f0: a8c7 b43d 1009 ccbd 1d0e 98bd 3df0 7cbe
00000300: 7c51 b3bd 47a3 cd3d da60 353d 6e29 01be
00000310: 1f74 283d a078 3fbb dc7c ddbb f585 043b
00000320: 7a67 033d 4ba6 dc3d 5cee 1fbe 5757 1cbe
00000330: 9c46 4bbd 86ab 303e 7c65 24bd 5dca 903c
00000340: 57a3 a3bd 23a8 5dbe e7bf 533e b478 573d
00000350: ddba b6bd 4b03 623c 6981 d5bb 1c57 013e
00000360: 6965 82bd c0f4 f4bd 60f3 fdbd 5c3a 493d
00000370: 7a81 963d 7110 a4bd d149 db3b 7807 1ebe
00000380: 479f 003d dab9 19be b5bf cbbd f236 583d
00000390: 83ca 6a3d ece0 88bb 5653 e1bd bb9b a1bd
000003a0: fb39 80bd e24a 0fbe 3ef3 a8bd d8b1 b83d
000003b0: 0f7f bcbc c49b 8ebd 7a4d 1dbd e2f0 a4bd
000003c0: e914 4b3d bf12 863d e8b0 b1bd cc75 7dbd
000003d0: 9bd7 77bd 697b 35bd aa6b 483b 6591 04be
000003e0: 0b17 b7bd 4f09 21be 2438 963d 4bc0 d7bd
000003f0: 46b2 cebd 20a3 8239 5b21 10be 8f90 8abd
0.07753143 -0.104588024 -0.16038366 -0.122168526 -0.06707518 0.25229418 0.078342035 -0.1510946
-0.052462224 -0.017905066 -0.11925819 -0.08446546 -0.0043746745 0.046881076 -0.15312769 -0.09633589
0.08691384 -0.2000834 0.19122298 0.046257272 0.13452345 -0.115627505 -0.020648489 -0.108612664
-0.05074952 -0.09652967 -0.20986906 -0.24235402 0.051076546 -0.0797198 -0.007902788 -0.26896474
-0.007384683 -0.10462344 -0.05584255 0.1364498 -0.23792407 -0.010287408 -0.1716206 -0.06771935
-0.07339527 -0.22841725 -0.013244689 -0.024832066 0.19325559 -0.06356684 -0.06070957 0.088387184
-0.01139315 -0.19621606 -0.11004621 -0.21213272 0.12905183 0.020797042 -0.16096744 0.05096709
0.079318635 -0.12945478 -0.034763128 0.16798924 -0.016473567 0.038735844 0.116883725 -0.04070795
-0.08348321 -0.15436935 -0.047339305 0.013795652 0.21708281 -0.023915336 0.003169027 -0.14097986
-0.124440625 -0.093273245 0.02510471 0.011561866 0.06579697 -0.03909113 0.105300546 -0.07301055
0.14637706 -0.06518149 -0.041870188 -0.08932645 -0.22117528 -0.05303254 0.031435076 -0.032330852
-0.15637642 -0.22428286 -0.00724949 -0.15506092 -0.16772774 -0.043992084 -0.07199008 -0.14274749
-0.11994355 0.030458424 0.0036570043 0.06322331 -0.17744055 -0.081300884 0.009478821 -0.18669261
-0.17299667 -0.0711507 0.08788055 -0.20599587 0.019347303 -0.09485462 0.0014689638 -0.00018610363
0.18210702 0.0026480649 -0.061483014 0.024719536 0.05528863 -0.17917415 0.10076398 -0.02936157
-0.21377108 -0.1364448 -0.031989116 -0.00933676 -0.1485551 0.10679501 -0.105380036 0.025346473
-0.040857702 0.1708813 -0.07405515 -0.05413277 0.0075575043 -0.034521412 -0.24839054 0.01836269
-0.107797466 -0.026276166 -0.14981157 -0.212374 -0.15790924 -0.24849564 0.26802865 -0.093268774
-0.12383286 0.18758671 0.19421425 -0.08049446 -0.021074904 0.13516414 -0.042907227 0.009571972
-0.16990714 -0.12092224 -0.02401334 -0.11904529 0.057768967 -0.06627439 -0.093357086 0.010265309
-0.08073818 -0.19778259 -0.09840462 0.011053446 0.05692983 -0.17825966 0.113555856 0.075405166
-0.12581675 -0.10808408 0.046633676 -0.007969918 -0.07929991 0.08417942 0.008211607 -0.048172045
-0.08282331 -0.15436246 -0.10037419 -0.07579546 -0.002711859 -0.14956912 -0.1586682 0.050550226
-0.01733545 -0.013001964 0.020266365 -0.0875748 0.08827144 -0.09962666 -0.07424567 -0.24701019
-0.08755776 0.10040908 0.044281818 -0.1261346 0.041126367 -0.0029216185 -0.006759269 0.0020221446
0.032081105 0.10773905 -0.1561827 -0.15267693 -0.049627885 0.17252931 -0.040135846 0.01767462
-0.07990139 -0.2164617 0.20678674 0.052605346 -0.0892236 0.01379473 -0.006515671 0.12630886
-0.06366999 -0.11960745 -0.12399936 0.04912792 0.073489144 -0.080109484 0.006692149 -0.15432537
0.0314019 -0.15012303 -0.099486746 0.052786775 0.057322036 -0.0041772034 -0.11002223 -0.07891031
-0.06261059 -0.1399341 -0.0824952 0.09018296 -0.023009805 -0.06963304 -0.038403966 -0.08053757
0.04958049 0.06546544 -0.0867632 -0.061879918 -0.06050835 -0.044307146 0.003058175 -0.12946089
-0.08939942 -0.15726207 0.07334927 -0.10534724 -0.10092597 0.0002491707 -0.14075224 -0.067658536

hidden_layers.1.bias f4 [256]
00000000: 37ff 91bd 1dbe 33bd 6e36 0abe 4e38 0cbd
00000010: 1074 d6bd 8e8a f4bd b930 8bbd 8aa6 09be
00000020: bb26 b83c 8110 e0bd 20aa 89bc 0c89 09bd
00000030: 2007 bdbd 3cd6 eabd 825e c4bc 42cb b6bd
00000040: 8bc8 d8bd fa2c 9d3c a38e 0fbe a688 ec3c
00000050: 12a2 93bc f70c aabd 974f 63bd 5562 a6bd
00000060: 38a1 e0bd 5882 d9bd 289a 1bbd 0d57 e8bd
00000070: e036 41bd 8a95 c1bd 0ccd c4bd 879d c5bd
00000080: 0edf 00be 1f0b 30be 7e8f e9bd 24e8 84bd
00000090: 1314 9abd a7c0 c0bd b2dc f33c c8cc dfbd
000000a0: b456 b3bd c991 3ebd 55de bdbd 58d0 a5bc
000000b0: 6fc9 debd 7225 c8bd c179 17be 680d 7dbd
000000c0: 49a3 0bbe a40c f0bd b4e7 15be bc07 d0bc
000000d0: ebaa e4bd 9f40 b6bd 0ab5 dcbd 8a70 debd
000000e0: ee91 eebc 036d e5bd 0797 1fbe 5920 12be
000000f0: 520d a7bd 18db 02be 6cf5 7cbd d23b d5bc
00000100: 90dd babd f037 1fbe d614 3cbc b242 71bd
00000110: 7f13 6dbd 9b4f 08be 06c1 e2bc a7af 0dbe
00000120: 3647 92bd 1156 14be a1ec 0fbe 50fd d0bd
00000130: 6c41 82bd cec8 073c 5d68 24be 49b4 49be
00000140: f7cc 1dbd d5d2 17be 4bab 14be f886 3abd
00000150: d4dc c1bd ab79 80bd 85c8 a6bd 2ca6 d9bd
00000160: c7a5 5dbd 4250 19be f210 a2bc 0c13 8fbd
00000170: 7c64 1ebd fd5d bebd fde2 1cbd ee52 efbc
00000180: 1568 38bd 030a abbd 75b0 a3bd 7d26 abbc
00000190: c775 46be 4e45 96bd 8f82 dabd e772 29be
000001a0: bd97 02be 9607 10bd c399 13be cbad 9cbd
000001b0: eba7 debd 544d 60bd 9b95 9abd 6114 01bc
000001c0: 5e50 41bd 7fde 0cbd 8a2a b9bc 4da4 c3bd
000001d0: 3f6f c6bd 3bcc 23be 5adb f2bc e179 9fbd
000001e0: f8c8 2fbd 54fb 91bd 01ea f9bd d139 89bc
000001f0: 1622 bfbd bc92 a43c c9e0 e8bd abc8 6dbd
00000200: 0513 4abc cc7b a5bd 3173 13be 97dd 9dbd
00000210: 215a 2ebe a0fa cabd 3e81 f9bd d073 c6bd
00000220: b42b 75bd 1972 88bb 4954 afbd 65e8 1fbe
00000230: b53a 59bd 2186 1cbe e55b 42bd 8a2b 06be
00000240: ee5b bdbd d78b 17be c32e 0abe 1ba8 30bd
00000250: 45cc dcbd 354f b4bd e81a 80bb df7f 10bd
00000260: 4252 e8bc 5aa8 71bd 7592 1dbe a6c1 e0bc
00000270: 940e f5bd ecd2 a4bb e5ba 8dbb febb debd
00000280: 6f36 f2bd 6df1 40be 9265 67bd ad4f 01be
00000290: c40e 2ebe 436f 65bd a85f c0bd e66a 24bd
000002a0: 12ae d9bd cc53 b8bd 8fe9 e5bd 91ef 08be
000002b0: 70a3 2bbd b9bf 97bd e99c 82bd ef03 a8bd
000002c0: b2f3 b0bd 2d67 33be 0352 30bd 6905 a7bd
000002d0: d3f9 d3bc efcc 28bd d864 03be 37bb c8bd
000002e0: 4ae4 c7bd 4e74 86bd bca7 bbbd da18 cabd
000002f0: 4da2 abbd 9a1c 66bc f6d3 27be bd17 dabd
00000300: f266 95bd 9eac 80bd 7b85 9ebd b1ec bebd
00000310: 962a f0bd e09e f43c 0db9 02bd 22b6 b2bd
00000320: 5dbb 03be 7ee8 9dbd 954f 34be 45a1 3fbd
00000330: 1e40 bdbd c39b bbbb 24ae 8abd b675 79bd
00000340: 3878 7dbd b7c8 f1bc 4713 26bd 4ddb 0fbe
00000350: 66a2 5abd 8443 bebd 2b38 23bd c228 1bbe
00000360: 983f 86bd cb9b c8bd e4ce 253b e21b fdbd
00000370: 58d4 89bd 2f2d f1bd 4c96 11bd 2afa 33be
00000380: b799 4cbd 2045 7dbd c220 83bd cf5b 0fbe
00000390: f099 7bbd dbb4 0dbe e808 19bd 2074 01be
000003a0: fefb 32bd c2d0 8cbd aa6d 16be 5b5e c0bd
000003b0: 4673 21be 8a39 6dbd a936 8b3c 23e1 123c
000003c0: 2f84 29bd 438f 96bd efce 35be 0096 4cbd
000003d0: c3f3 0fbe 492e 28bd 7039 10be 7e58 f7bd
000003e0: 7664 93bd 93f4 bcbd 7739 c1bb 7e57 4abd
000003f0: c660 7bbd da39 12be 4864 9abd dbcf 01bd
-0.071287565 -0.043882478 -0.13497326 -0.034233384 -0.10471356 -0.1194049 -0.067964025 -0.13442436
0.022479406 -0.10940648 -0.016804755 -0.033577964 -0.092298746 -0.11466643 -0.023970846 -0.08925487
-0.105851255 0.019186486 -0.14019255 0.028873753 -0.018021617 -0.08303254 -0.055495825 -0.08124224
-0.1096825 -0.10620564 -0.03798881 -0.113447286 -0.047171474 -0.094523504 -0.09609422 -0.096491866
-0.12585089 -0.17191742 -0.11404322 -0.0648959 -0.0752336 -0.094117455 0.029768322 -0.10927731
-0.08756772 -0.04652575 -0.09270922 -0.020240948 -0.10878264 -0.09772767 -0.14792539 -0.061780363
-0.13636507 -0.11721161 -0.14639169 -0.025394313 -0.111654125 -0.08899044 -0.10776718 -0.10861309
-0.02912232 -0.11202433 -0.15584956 -0.14270152 -0.081568375 -0.1277889 -0.06175749 -0.026029501
-0.09124291 -0.15548682 -0.011479577 -0.058901496 -0.05787992 -0.13311617 -0.027679931 -0.13836537
-0.07142489 -0.14485957 -0.1405511 -0.102045655 -0.063601345 0.008287622 -0.16055436 -0.1969768
-0.038525548 -0.1482652 -0.14518468 -0.045538872 -0.09465948 -0.06273206 -0.08143715 -0.10627398
-0.054113176 -0.14972022 -0.01978347 -0.06986055 -0.038670048 -0.092952706 -0.03830241 -0.029214349
-0.045021135 -0.08351519 -0.07992641 -0.020892376 -0.19380866 -0.073374376 -0.10669433 -0.16547738
-0.12753196 -0.035163485 -0.14414124 -0.07650336 -0.108718716 -0.054761246 -0.07548066 -0.007878394
-0.047195785 -0.034391876 -0.022603292 -0.09552822 -0.09689187 -0.15995876 -0.02964561 -0.077869184
-0.042916268 -0.07128015 -0.12202836 -0.016751202 -0.09332673 0.0200895 -0.11370999 -0.0580527
-0.012333636 -0.08080253 -0.14399411 -0.077082805 -0.17026569 -0.09911084 -0.12182854 -0.09690058
-0.05985613 -0.004163992 -0.08560998 -0.15615995 -0.053034503 -0.15285541 -0.04745092 -0.13102546
-0.0924605 -0.14799438 -0.134944 -0.043129068 -0.10781149 -0.0880417 -0.0039094575 -0.035278197
-0.028359536 -0.058998443 -0.153879 -0.027436089 -0.11965671 -0.0050300267 -0.004325258 -0.108757004
-0.11826789 -0.18842097 -0.05649335 -0.1262805 -0.1699782 -0.05601431 -0.09393245 -0.04014101
-0.106289044 -0.09000358 -0.112261884 -0.13372637 -0.041903913 -0.07409615 -0.063775845 -0.08203875
-0.08640231 -0.17519827 -0.043046962 -0.08155329 -0.025875961 -0.041211065 -0.12831438 -0.098013334
-0.097603396 -0.06565152 -0.09162852 -0.09868021 -0.08380566 -0.014044905 -0.1638945 -0.10649059
-0.07295026 -0.06282924 -0.07740303 -0.09322489 -0.117268726 0.029860914 -0.03191476 -0.08726145
-0.12864442 -0.0771036 -0.17608483 -0.046784658 -0.09240745 -0.0057253554 -0.06771496 -0.060903274
-0.061882228 -0.029514654 -0.040545728 -0.140485 -0.05337753 -0.09290221 -0.039848488 -0.15152267
-0.06555098 -0.0979534 0.0025300318 -0.12358834 -0.067299545 -0.11776196 -0.035543725 -0.17575899
-0.04995128 -0.0618335 -0.064027324 -0.13999866 -0.061426103 -0.13838522 -0.03736201 -0.12641954
-0.04369735 -0.06875755 -0.14690271 -0.09392997 -0.1576663 -0.0579162 0.016993837 0.00896481
-0.041385826 -0.07351544 -0.1775472 -0.04994774 -0.14057831 -0.041059766 -0.1408441 -0.120774254
-0.07196896 -0.09226336 -0.005896743 -0.049399845 -0.061371587 -0.14279881 -0.075386584 -0.031692367

output_layers.0.weight f4 [40, 256]
00000000: 6bb1 d93d 3da9 e03d abff b1bb 5f9a 8bbd
00000010: 0317 d6bb 87f9 6b3d 417d 49bc ef52 213d
00000020: 2e4b 273e e034 0f3d e814 c33d cad4 e53c
00000030: f77c b8bc 4d33 793e b98b edbd 03a6 683e
00000040: 4af6 08be 855f 1fbe 8289 f33d 4f24 9abd
00000050: f32c 0e3c bbd8 4c3e ca5b 9f3d e985 3ebe
00000060: 5dfe 193e 3190 5a3e c285 c3bd 94b2 1fbe
00000070: ca05 e93c e2ee 183e cbf4 223e 55ef bf3e
00000080: f54a 153e e5e2 053e 3916 b83d ef5b 47be
00000090: d809 7f3d 7b99 71bd c7fa a8bd 9982 f63d
000000a0: 918c 1ebd 5034 d23d f08a 41be ae27 aabd
000000b0: d05b 84bc 1568 a83d 3070 823d 61ee 753c
000000c0: 8c3f a0bd ba25 733d d1ae 903d 2e10 65bd
000000d0: 8930 903e cd1c b8bc 8181 ab3d 135a 74bd
000000e0: 1232 98bd 77d3 9ebc 5c88 afbb 6c50 583d
000000f0: cb4b 003e f64f f73c d61f 013e 364f 9bbd
00000100: f53e 22bd c649 c23d f2bd cdbd 7d45 0a3e
00000110: a69f 133e 35f6 2e3e 01b6 a83d 2035 0f3e
00000120: 64c4 31bc d2f6 343e 8c2f 853d b3d3 1a3d
00000130: 3d6f 0a3e 0c71 35be fc99 24bd a8c3 4f3d
00000140: ef6e 1bbc 830a 8dbd 2710 b7bd 0f87 183d
00000150: 068a d63d eec7 caba 1fbb b63d 420b b03d
00000160: f94a 0a3e 8bf0 28be b5ef c73c ec43 d1bd
00000170: 8bf0 07bd 5549 353d 8b06 1b3d 17fb 983d
00000180: 4cd4 37be 588d 443e 8e28 ae3d f840 f53d
00000190: dad6 543e a90d adbc 9eb6 583e fc9a 6cbe
000001a0: b478 7d3d 8ad9 963e 8ab4 5c3d 6b44 8ebc
000001b0: ead1 113d 4b50 963c 6c27 d83d 9737 4fbd
000001c0: b99e dcbd bb18 2cbe 381d 5ebe f480 a83e
000001d0: 1bd3 fdb8 b1bb b0bd 21e1 b5bd 5434 17be
000001e0: f5f1 823c b493 553e 3858 033e 4210 5fbe
000001f0: e9ea cbbb de03 303e 554b c0bd d8bc 44be
00000200: d3a0 963d 840b 353e 19c1 15bd 85f3 cabd
00000210: 3346 8d3c 9cca 8fbc c981 b53d bc44 ab3d
00000220: fa72 9c3d 646d 49be f3d0 6f3d d2a9 1a3d
00000230: 60e5 f7bd 11b5 89bd cf9b 383e 2ccd ca3d
00000240: 8f7a db3d 1d80 863e 1a69 053b 4303 573d
00000250: bbe0 4abb c4ee 243d 81d0 3abe 5b5f f0bd
00000260: 1eb1 8d3c 3ef4 66be b3a1 be3c 1364 60be
00000270: da4c c9bd 12c1 72bd d43b 6e3e 80e5 493d
00000280: d3dc e33d d05d 423e 8e7d 633d 094d 2d3e
00000290: b24d 693d f1f9 3bbd 9990 fc3c bd28 613e
000002a0: c478 193e d83d ff3d 9682 45bd 63b9 033e
000002b0: b62e 6f3e 4071 a03d 7ea3 493e ea02 71be
000002c0: 9d5a 1f3e 3781 95bd 1769 e7bc 41b4 9d3d
000002d0: 575b 53be ae0b bd3b 0550 aebe 9d49 9e3e
000002e0: fa62 473d 2fde 253e 6ef1 793d 1b6d 4f3c
000002f0: 614d 2a3e 4490 183e 11a9 813d fc3c 003e
00000300: 34dd a73d 24be 9dbc 990a 333e 9230 b23d
00000310: cb0d e9bc 8a8a 2fbe 5d41 1fbe 751f 3dbe
00000320: f11c 1c3e 930a 083e 8e8d 003e af0b b4be
00000330: cea3 cc3d f722 c7bd 713e 503d b730 733d
00000340: d42d b2bd 9cd8 523e b63b 83bd ad8a f4bd
00000350: 3d0e 4b3e 8a02 47bd 8626 1dbd 2573 ae3d
00000360: 412f ae3c ec47 6b3d 4bc1 73be 7e16 c8bc
00000370: 7c3d 643d 864c afbc 28cb 1b3e 4a48 923d
00000380: 0ce0 b5be 95e3 6ebc 612d 953d fbda 973c
00000390: bd15 67be fd3e c63d db83 88be 5ce3 7eba
000003a0: 9d7d 743e 3d1c 93bd 7946 e33a 79d8 e5bb
000003b0: b807 b33d b9e4 983d 84ac 5abb a1a1 dc3d
000003c0: 08e9 293e c5c8 ea3d ba58 d3bd dd56 1abe
000003d0: 8658 4abe 356a 143e a9e0 bdbb bb55 2a3e
000003e0: ea29 35be 7c29 d1bd 7a9d 1bbe a15d 11bd
000003f0: 0f18 713e e77c 093e 8228 173e 352d 42bd
0.10629543 0.1096978 -0.0054320893 -0.06816553 -0.006533505 0.057611015 -0.012297929 0.039385732
0.16337273 0.034962535 0.09525472 0.028055567 -0.022520525 0.24335976 -0.115989156 0.22719578
-0.13375202 -0.15563782 0.11891462 -0.075264566 0.008677709 0.20004551 0.07781179 -0.1860577
0.15038438 0.21344067 -0.09546997 -0.15595466 0.028445143 0.14934877 0.15913694 0.37487283
0.14579375 0.13074835 0.08988614 -0.19468664 0.062265247 -0.05898426 -0.08250957 0.12036628
-0.038708273 0.10263884 -0.18900657 -0.083083495 -0.01615706 0.08222977 0.06369054 0.015010447
-0.078246206 0.05936215 0.070645936 -0.055923633 0.2816203 -0.02247467 0.0837431 -0.059656214
-0.07431425 -0.019387944 -0.0053568315 0.05281107 0.12528913 0.030189496 0.126098 -0.07583468
-0.03961082 0.094867274 -0.10045995 0.1350307 0.1441637 0.17086108 0.082378395 0.1398511
-0.010850046 0.1767228 0.065032095 0.03779955 0.13518997 -0.17718905 -0.040185913 0.0507237
-0.009486898 -0.068867706 -0.08938628 0.037238177 0.10475545 -0.0015470961 0.08922409 0.08595897
0.13505162 -0.1649801 0.024406293 -0.10218033 -0.033188384 0.044259388 0.037848037 0.074697666
-0.17952079 0.19194543 0.08503829 0.119752824 0.20785084 -0.021124678 0.21163413 -0.23105997
0.06188269 0.29462844 0.053883113 -0.017366609 0.03560058 0.018348834 0.10554394 -0.050590124
-0.107724614 -0.16806309 -0.21690834 0.32910883 -0.000121033016 -0.08629549 -0.088808306 -0.14766055
0.015984515 0.20857126 0.12826622 -0.21783546 -0.006223072 0.17188975 -0.093893684 -0.19212663
0.073548935 0.17680174 -0.036561105 -0.09909729 0.017245388 -0.017552666 0.08862645 0.083627194
0.076391175 -0.19670635 0.05854888 0.03775961 -0.12104297 -0.06723989 0.18028186 0.09902415
0.107167356 0.26269618 0.0020356835 0.052493345 -0.0030956704 0.040266767 -0.182436 -0.117369376
0.01729637 -0.22554109 0.023270464 -0.21913175 -0.098291114 -0.059266157 0.2326501 0.049291134
0.11126103 0.18981099 0.05553966 0.16923918 0.05695886 -0.04589266 0.030830668 0.21988197
0.14987475 0.12462968 -0.04822024 0.12863688 0.23357663 0.07834101 0.19691274 -0.23536268
0.1556191 -0.073000364 -0.028248353 0.07700396 -0.20640312 0.0057692146 -0.34045425 0.30915537
0.048678376 0.16198038 0.06102126 0.01266029 0.1663108 0.14898783 0.06331075 0.12523264
0.08196488 -0.019255705 0.17484511 0.0870067 -0.02844896 -0.17142692 -0.15552278 -0.18469031
0.15245415 0.13285284 0.12553999 -0.35165164 0.09992181 -0.09723466 0.0508408 0.05937263
-0.08700147 0.20590442 -0.06407873 -0.11940513 0.1982965 -0.048586406 -0.038366817 0.08518056
0.021262767 0.057441637 -0.23804204 -0.024424788 0.0557227 -0.021398794 0.15214217 0.07142694
-0.35522497 -0.014580627 0.07284046 0.018537035 -0.22566886 0.09679983 -0.26663098 -0.000972321
0.23876043 -0.071831204 0.0017339728 -0.007014331 0.087417066 0.074655004 -0.0033366987 0.10773016
0.165928 0.11464075 -0.103196576 -0.15072198 -0.19760332 0.1449364 -0.005794604 0.16634266
-0.1769177 -0.10212991 -0.15196791 -0.035489682 0.23544334 0.13426553 0.14761546 -0.047406394

output_layers.0.bias f4 [40]
00000000: fb08 993e a867 8f3d 9d34 d13d f0d9 773f
00000010: e135 763d 73c5 6a3d 7657 773d b260 db3d
00000020: 9800 653d 2552 a43d 484e a73d cbeb 693d
00000030: c4e4 903d 44e6 62bc a571 8f3d 307c aa3d
00000040: 7795 8a3d 52b3 c63d 3c1f ba3d eff3 c73d
00000050: 69d1 bd3d 05e5 d83d de77 b13d 1356 c53d
00000060: d597 cd3d 2bb0 bc3d 4134 b43d c533 a73d
00000070: 7a69 953d ac2d f23b 2ce0 c93d 2c55 a73d
00000080: 44db 3b3d 22f9 b63c ebbc a93d ba14 593d
00000090: 2b1b 333e 2da4 773f b799 773e 3a3f 5e3d
0.29889664 0.07002193 0.10215113 0.9681692 0.060109977 0.05731721 0.060386144 0.107118025
0.05590877 0.0802348 0.08169228 0.057109635 0.070748836 -0.013848845 0.07004098 0.08324468
0.067667894 0.097021714 0.09087989 0.097633235 0.092684574 0.10590557 0.08665441 0.09635558
0.10038725 0.09213289 0.08799029 0.08164171 0.07295509 0.0073906984 0.098572105 0.08170542
0.045863405 0.022335593 0.08287986 0.052998282 0.17490833 0.9673489 0.24179731 0.054259516
