MODELS/REWARD COMPARISON/SAC MASKED MODELS/6_1_actor_local_network.pt (torch, 411287 bytes, 6 tensors)

hidden_layers.0.weight f4 [256, 101]
-0.09984625 0.52591383 -0.051191088 -0.016995635 0.5299115 0.59096265 0.10727559 -0.15113062
0.28429136 0.3578053 0.01894955 -0.004449213 -0.2591255 -0.6300124 -0.18162526 0.16981621
0.26199502 0.17209114 0.014433958 -0.019294463 -0.028161652 0.19861354 0.13687763 -0.3802784
-0.025917644 -0.11123928 -0.06922857 -0.09991116 -0.105724804 -0.46068552 -0.15488838 0.06262226
0.097306125 0.035180558 0.049728356 -0.02107447 0.22350329 -0.1120416 -0.4066622 -0.15532963
-0.09201717 -0.3056342 -0.30962583 0.11264532 0.14738403 0.1495987 0.3595101 0.12570529
-0.0938438 -0.12595905 0.07262265 0.82095027 0.3934107 0.5348303 0.1588526 0.3958955
0.16970623 -0.5597056 0.065759584 -0.061934765 -0.06048685 -0.16579841 0.11282428 0.5852843
0.65970254 0.89096296 1.053246 0.34583342 0.35191968 -0.510466 0.13498881 -0.70425636
-1.1311091 -0.07047925 -0.55390865 -0.048998613 0.30521086 -0.008692881 -0.028106041 -0.0050180955
-0.045256082 -0.5933909 -1.0721496 -1.5557387 -1.5503342 -1.265286 -0.9264913 -0.3905661
-0.7122247 0.010482585 0.05954141 -0.5153515 -1.0177433 -0.7700469 -0.6185998 -1.2610344
-0.87286216 -1.1344293 -0.51597726 -0.275256 0.0028324202 -0.086229965 -0.090124816 0.39618915
0.5599296 0.21772413 -0.28403464 0.012514844 -0.117347814 -0.32844096 -0.012277223 0.14481603
0.17497347 0.47138494 0.7589195 0.34534174 -0.31058046 -0.30785918 -0.25801346 -0.34210885
-0.12783407 -0.23038803 -0.1306076 -1.0514528 -0.78359383 0.17881459 -0.08397639 -0.4067487
-0.64287466 -0.48193496 -0.3178273 -0.035651837 -0.19502333 -0.12544641 -0.3060321 0.13570641
-0.14182962 -0.54692495 -0.4555997 -0.6358975 -0.28657126 -0.06095645 0.05425186 1.0658376
0.03641848 0.14806484 -0.016166938 -0.13497227 -0.82894033 -0.4837468 -0.021486117 -0.35565162
1.1864744 0.8953696 0.49458218 -0.31286475 -0.5110715 -0.33483323 -0.6644906 -0.3914176
-0.0075327507 0.23311156 1.0053148 0.6246698 0.36273146 0.120339066 -0.18208186 -0.32150528
-0.4254458 0.45969582 0.3900391 0.10023702 0.7709843 0.77023727 0.3584774 -0.17559607
-0.12000152 0.3196344 -0.15320155 0.4174745 0.32472885 -0.016574323 0.78398 1.0389385
0.7925336 -0.0925394 -0.18147574 -0.07530104 -0.3541101 -0.2126504 -0.008498998 -0.103072755
0.09698766 0.61000717 0.8614778 -0.58052313 -0.15914723 -0.43884063 -0.55595344 0.046490934
-0.25576872 -0.19891217 -0.25471908 0.15343457 -0.06433414 0.36480522 0.28902215 0.7235449
0.22920789 0.20407471 -0.003381506 -0.020944227 0.29841742 0.48802954 0.67839664 0.74593294
0.5208313 0.44507602 0.3427899 -0.45738807 -0.30262214 -0.055846043 -0.077517614 0.21824522
0.24258083 0.08847408 0.3177995 -0.18701568 0.0965099 -0.08901983 -0.47257277 0.5117829
0.20147206 -0.015823083 0.19252105 0.5840291 0.60019803 0.13862497 0.48346284 0.06041114
-0.123517774 -0.4306223 -0.15289314 -0.2877709 -0.8406554 -0.7152709 -0.3132847 0.14754856
0.71277314 -0.18856509 -0.2134648 -0.28779608 -0.22328216 -1.0136579 -1.5659454 -2.1622682
00000000: 317c ccbd 4aa2 063f bfad 51bd 6e3a 8bbc
00000010: 48a8 073f 5449 173f 4eb3 db3d fcc1 1abe
00000020: a38e 913e 4232 b73e 163c 9b3c b4ca 91bb
00000030: 19ac 84be 7e48 21bf f9fb 39be 4de4 2d3e
00000040: 3624 863e a938 303e 687c 6c3c 6c0f 9ebc
00000050: 44b3 e6bc 5961 4b3e a629 0c3e dab3 c2be
00000060: 3d51 d4bc 6bd1 e3bd b5c7 8dbd 399e ccbd
00000070: 3f86 d8bd f9de ebbe 0f9b 1ebe 1940 803d
00000080: 6f48 c73d 7d19 103d f6af 4b3d 5ea4 acbc
00000090: 0cde 643e 1176 e5bd 0736 d0be bb0e 1fbe
000000a0: 7f73 bcbd 167c 9cbe 4787 9ebe 97b2 e63d
000000b0: d7eb 163e 6730 193e b511 b83e e3b8 003e
000000c0: 2e31 c0bd 69fb 00be 2fbb 943d cc29 523f
000000d0: 216d c93e a3ea 083f 42aa 223e d1b2 ca3e
000000e0: 78c7 2d3e de48 0fbf f6ac 863d 4faf 7dbd
000000f0: 0fc1 77bd 0fc7 29be 6b10 e73d 31d5 153f
00000100: 44e2 283f 2616 643f c4d0 863f 1411 b13e
00000110: d12e b43e e6ad 02bf 823a 0a3e 254a 34bf
00000120: 2fc8 90bf 6d57 90bd f5cc 0dbf c5b2 48bd
00000130: 9944 9c3e 966c 0ebc a43e e6bc d66e a4bb
00000140: 715e 39bd 77e8 17bf 333c 89bf 7222 c7bf
00000150: 5a71 c6bf e4f4 a1bf 892e 6dbf 48f8 c7be
00000160: 5c54 36bf 26bf 2b3c b2e1 733d 13ee 03bf
00000170: 6a45 82bf cb21 45bf 8e5c 1ebf 9369 a1bf
00000180: e573 5fbf fb34 91bf 1617 04bf 5bee 8cbe
00000190: 20a0 393b 5699 b0bd 5c93 b8bd 4ed9 ca3e
000001a0: 8c57 0f3f 13f3 5e3e fd6c 91be 0f0b 4d3c
000001b0: 0d54 f0bd 6a29 a8be 6826 49bc a74a 143e
000001c0: 3f2c 333e 5e59 f13e 8c48 423f a2d0 b03e
000001d0: 6704 9fbe b89f 9dbe 571a 84be e428 afbe
000001e0: efe6 02be d7ea 6bbe 00be 05be 0196 86bf
000001f0: 9b99 48bf 2c1b 373e d0fb abbd 5e41 d0be
00000200: 6f93 24bf 2ec0 f6be 43ba a2be a907 12bd
00000210: 32b4 47be 0675 00be 3db0 9cbe 9ff6 0a3e
00000220: c93b 11be 4603 0cbf 5d44 e9be 2eca 22bf
00000230: 78b9 92be 78ad 79bd 3337 5e3d 5e6d 883f
00000240: 8b2b 153d 4f9e 173e 8770 84bc 2c36 0abe
00000250: 6f35 54bf a9ad f7be a703 b0bc f817 b6be
00000260: 65de 973f f136 653f e039 fd3e cf2f a0be
00000270: 95d5 02bf 436f abbe 0e1c 2abf e367 c8be
00000280: 4bd5 f6bb ccb4 6e3e 28ae 803f 5cea 1f3f
00000290: f0b7 b93e 5474 f63d ab73 3abe 579c a4be
000002a0: 08d4 d9be 405d eb3e 34b3 c73e 1149 cd3d
000002b0: 3a5f 453f 452e 453f 5a8a b73e 75cf 33be
000002c0: 5bc3 f5bd 1fa7 a33e dee0 1cbe 38bf d53e
000002d0: dc42 a63e e0c6 87bc eab2 483f f0fb 843f
000002e0: 7be3 4a3f 4c85 bdbd c7d4 39be 6f37 9abd
000002f0: eb4d b5be 07c1 59be 623f 0bbc cf17 d3bd
00000300: 77a1 c63d 6e29 1c3f cf89 5c3f 2a9d 14bf
00000310: 7ef7 22be b8af e0be f752 0ebf 476d 3e3d
00000320: 1ef4 82be a2af 4bbe 8a6a 82be f41d 1d3e
00000330: 9ec1 83bd c0c7 ba3e b6fa 933e 3d3a 393f
00000340: 79b5 6a3e f6f8 503e 429c 5dbb 3a93 abbc
00000350: 2bca 983e 02df f93e 67ab 2d3f 76f5 3e3f
00000360: 3355 053f 01e1 e33e 2882 af3e c52e eabe
00000370: 4af1 9abe d2be 64bd 8ec1 9ebd ad7b 5f3e
00000380: 1c67 783e e631 b53d 9eb6 a23e 0a81 3fbe
00000390: fca6 c53d 0750 b6bd 0ff5 f1be 3404 033f
000003a0: b14e 4e3e 699f 81bc 3d24 453e ee82 153f
000003b0: 94a6 193f b4f3 0d3e 7188 f73e ac71 773d
000003c0: e3f6 fcbd 877a dcbe 0590 1cbe b556 93be
000003d0: 3135 57bf fe1b 37bf da66 a0be f816 173e
000003e0: 4d78 363f 3517 41be 8496 5abe 025a 93be
000003f0: 14a4 64be 8bbf 81bf e670 c8bf 9a62 0ac0

hidden_layers.0.bias f4 [256]
-0.26943934 -0.054796565 -0.59533244 -0.66850114 -0.26747185 -1.1998167 -0.23922014 0.25295645
-0.45397907 -0.6810268 -0.40060076 -1.0979298 -0.80588955 -0.59968084 -1.7932191 0.36231324
-1.2022485 -0.11903054 -0.19071974 -1.8066051 -0.39957386 -1.1413312 -0.47226417 -0.23127697
-0.060583673 0.028890487 -0.7451239 0.05658192 0.07302612 0.28484663 -0.15408255 0.13123032
-0.4197617 -0.34104323 -0.82455593 -1.0356241 -0.5035147 -0.03217085 -0.28123432 -0.3651899
-0.43532112 -0.80207026 -0.25049922 -0.5116576 -0.27391216 -0.7350411 -0.75910616 0.03889894
-0.69562924 -0.7528516 -0.46940702 -1.4254113 -0.37635842 -0.77146685 -0.78274775 -0.3073796
0.43249932 0.22498119 -0.64688325 -0.23440504 -0.79549956 -0.75758284 -0.935461 -0.7674618
-0.6280129 -1.1939459 -0.14835475 0.4851693 -0.47713327 0.33443144 -0.60743845 0.32656273
-0.2676248 -0.5976823 0.22212604 -0.2487828 -0.93409574 0.2746958 0.4997546 -0.444468
-0.63871723 -0.08891852 -0.5255455 -1.2140676 -1.2455785 -1.0402602 -0.73989654 -0.63451296
-0.2088518 -1.4965174 -1.2779841 -1.1673186 -0.98181844 -0.3531003 -1.0730059 -0.39595917
-0.3668656 -0.17293647 -0.17355299 -1.0703878 0.506605 -0.5989195 0.21659347 -0.019086827
-1.378725 0.35219067 -0.7109993 -1.0501608 -0.84235 -1.0337949 -1.2770458 0.32900533
-1.3022461 -0.06555346 0.44346482 -1.5106233 -0.8406516 -0.06423759 -1.6199079 -0.6290961
-0.6543901 -1.6552714 0.053420685 -0.5750464 0.05546508 -0.6892506 -0.32484 -1.1670072
-0.10279258 -0.38900745 -1.1366528 -0.25253668 -1.008958 -1.0225927 -1.0314525 0.29672733
0.25007677 -0.34642303 -0.5882897 -0.32032177 -0.5240592 0.31315124 -1.1860633 -0.38580468
-0.4425119 -0.73785824 -0.48185498 -0.7249041 -0.59881526 -0.2426429 -0.26442805 -0.5880987
-1.6237491 0.19593507 -0.4314389 -1.2664539 -0.43784136 -1.067452 -0.09425878 -0.289926
-0.075980425 -0.6539053 -0.57623917 -0.6483809 -0.118646555 0.48379454 -0.6677822 -0.9013941
0.43053827 -0.28101128 -0.31286857 0.20674558 -0.778079 0.050958406 -0.24622068 -1.1686611
-0.9066816 0.49589834 -1.5175966 -1.9300722 -1.6770464 0.39622766 -0.3686509 -0.15251717
-0.38871598 0.007545607 -1.1798514 -0.517386 -0.6090929 -0.78062683 -1.0285718 0.032098737
0.20352349 -1.3683896 -0.25428894 -0.15234222 -0.65634483 -0.09175835 -0.7040804 -0.22061506
-1.4589223 0.30151904 -0.6995181 -1.008377 -0.08864246 -0.42024934 -0.3035053 -0.17592789
-0.2888623 -0.9079123 0.1615083 -0.81422687 -0.17410915 -0.628227 -0.23809578 -0.43136844
0.049560025 -0.4337207 -0.7688581 0.3532149 -0.7287959 -0.17034164 -1.2830424 -1.0286973
-0.7828676 -0.03454414 0.37690446 -0.8432302 0.11004627 -0.78662646 0.21588834 -0.07143996
-0.99550635 -1.5110928 -0.8066305 -0.3898977 -0.7901899 0.094664104 0.61331624 -0.6961155
0.08292702 -0.01854 -0.26788947 -0.42984715 -1.0540621 -0.68864363 -0.5970047 0.4107868
-0.070229046 0.44268164 -0.39764738 -0.3962147 -0.66251177 -0.3880871 -0.34497184 0.10237791
00000000: f4f3 89be 5d72 60bd b567 18bf e422 2bbf
00000010: 12f2 88be 9893 99bf 20f6 74be 8283 813e
00000020: f26f e8be c657 2ebf 8b1b cdbe f788 8cbf
00000030: c74e 4ebf af84 19bf 3488 e5bf 1f81 b93e
00000040: 47e3 99bf 49c6 f3bd 094c 43be d63e e7bf
00000050: f294 ccbe 2417 92bf 9ccc f1be dfd3 6cbe
00000060: 9626 78bd beab ec3c 71c0 3ebf 71c2 673d
00000070: b88e 953d 6bd7 913e d1c7 1dbe 3e61 063e
00000080: 01eb d6be 389d aebe 1916 53bf 558f 84bf
00000090: 57e6 00bf 95c5 03bd f2fd 8fbe 2cfa babe
000000a0: 69e2 debe 7a54 4dbf 6f41 80be fefb 02bf
000000b0: 373e 8cbe a72b 3cbf c854 42bf 7f54 1f3d
000000c0: c214 32bf e2ba 40bf 1e56 f0be e173 b6bf
000000d0: 0db2 c0be da7e 45bf 2862 48bf dc60 9dbe
000000e0: 8d70 dd3e 7861 663e 249a 25bf e007 70be
000000f0: dca5 4bbf f3f0 41bf 5f7a 6fbf 6078 44bf
00000100: 74c5 20bf 38d3 98bf 4fea 17be 1c68 f83e
00000110: d04a f4be 993a ab3e 1681 1bbf 3b33 a73e
00000120: 1e06 89be b501 19bf 0275 633e ebc0 7ebe
00000130: e620 6fbf eea4 8c3e d6df ff3e 4f91 e3be
00000140: f982 23bf ea1a b6bd 268a 06bf 9166 9bbf
00000150: 1e6f 9fbf 3f27 85bf dc69 3dbf 716f 22bf
00000160: 3fdd 55be e28d bfbf fc94 a3bf b26a 95bf
00000170: 7458 7bbf 90c9 b4be 4258 89bf 29bb cabe
00000180: cfd5 bbbe 4216 31be e0b7 31be 7802 89bf
00000190: deb0 013f ca52 19bf aeca 5d3e fa5b 9cbc
000001a0: 107a b0bf 5652 b43e 0d04 36bf ab6b 86bf
000001b0: 40a4 57bf 6453 84bf 3d76 a3bf 6373 a83e
000001c0: 00b0 a6bf e440 86bd d20d e33e 1b5c c1bf
000001d0: f134 57bf ff8e 83bd 2459 cfbf 710c 21bf
000001e0: 1c86 27bf efdf d3bf a6cf 5a3d 3e36 13bf
000001f0: 5a2f 633d ba72 30bf 6e51 a6be 7e60 95bf
00000200: eb84 d2bd fc2b c7be d77d 91bf 7d4c 81be
00000210: 8925 81bf 51e4 82bf a306 84bf a5ec 973e
00000220: 100a 803e 5c5e b1be 279a 16bf 3701 a4be
00000230: be28 06bf 5c55 a03e ecd0 97bf 3188 c5be
00000240: eb90 e2be 47e4 3cbf b2b5 f6be 5193 39bf
00000250: f54b 19bf 6177 78be 1d63 87be a38d 16bf
00000260: 03d7 cfbf 34a3 483e 8fe5 dcbe 291b a2bf
00000270: be2c e0be 44a2 88bf bf0a c1bd 2e71 94be
00000280: a09b 9bbd 5666 27bf 6984 13bf 4afc 25bf
00000290: f7fc f2bd ebb3 f73e c6f3 2abf c4c1 66bf
000002a0: 836f dc3e b6e0 8fbe 4f30 a0be 1db5 533e
000002b0: 2f30 47bf c3b9 503d 4621 7cbe b096 95bf
000002c0: 491c 68bf 63e6 fd3e 9b40 c2bf 9b0c f7bf
000002d0: 75a9 d6bf 5ade ca3e d0bf bcbe 762d 1cbe
000002e0: c805 c7be 2441 f73b 5f05 97bf 6973 04bf
000002f0: 83ed 1bbf 29d7 47bf 3ea8 83bf f779 033d
00000300: 7668 503e 6427 afbf 2932 82be 99ff 1bbe
00000310: 3706 28bf cdeb bbbd 9d3e 34bf eae8 61be
00000320: f7bd babf b460 9a3e 9e13 33bf 7f12 81bf
00000330: 2e8a b5bd ec2a d7be 0c65 9bbe 7126 34be
00000340: c2e5 93be f16c 68bf 6f62 253e 2c71 50bf
00000350: ab49 32be 7cd3 20bf 61cf 73be 53dc dcbe
00000360: 74ff 4a3d a410 debe e2d3 44bf 95d8 b43e
00000370: 5e92 3abf 0a6e 2ebe bc3a a4bf 5aac 83bf
00000380: 036a 48bf 287e 0dbd 9ff9 c03e efdd 57bf
00000390: f05f e13d 5a60 49bf d511 5d3e 1d4f 92bd
000003a0: 81d9 7ebf 7d6b c1bf 567f 4ebf aca0 c7be
000003b0: e349 4abf 41df c13d 4b02 1d3f a034 32bf
000003c0: a4d5 a93d 33e1 97bc cf28 89be ed14 dcbe
000003d0: 82eb 86bf f34a 30bf 4dd5 18bf a652 d23e
000003e0: 3fd4 8fbd 2ba7 e23e 7098 cbbe a7dc cabe
000003f0: 5f9a 29bf 5ab3 c6be 26a0 b0be 82ab d13d

hidden_layers.1.weight f4 [256, 256]
-0.6176533 -0.40328765 -0.22789645 0.2800723 0.039203946 -0.004676952 -0.15387644 -0.19346462
0.2357258 -0.317878 -0.2597114 -0.004451694 0.17326085 -0.5188287 -0.048553128 -0.19979489
-0.22211744 0.3518206 0.245953 -0.20069581 -0.3973512 -0.11866427 -0.21584174 -0.11377845
0.06068231 -0.3800029 0.16200465 -0.30686137 -0.16508687 0.06578309 0.29091784 -0.35747594
0.13341938 0.117419004 0.26778 -0.01504578 -0.0946557 -0.31005362 0.35026264 -0.19362849
-0.2247471 -0.36098856 -0.4454227 -0.5454017 0.2865486 0.14215975 -0.09877908 -0.108195305
0.31717864 -0.15801373 -0.34991246 0.13057137 -0.55531836 -0.07083993 -0.101216264 0.3931759
-0.19063197 0.02716849 0.1431458 -0.5057085 -0.122614436 -0.6823177 0.22688858 -0.1994901
0.24745837 -0.147733 -0.43323416 -0.13308738 -0.5416768 -0.6965976 -0.22821082 0.33277187
-0.12326885 0.058794647 0.38546267 -0.48647985 -0.4360254 0.13686456 0.14670387 0.09927844
-0.3808899 -0.094922565 -0.057522777 -0.17922871 0.16943625 0.031612944 -0.28385574 -0.90782857
-0.27561343 -0.23573533 -0.16465151 0.076944076 -0.086535096 -0.035108842 0.052116014 -0.16686453
0.25130072 0.02452378 -0.4988929 0.34881017 -0.22573109 -0.42988548 0.4811613 -0.7351349
-0.3697636 0.1332787 0.19775301 0.18766727 0.15388092 -0.42435935 -0.029089836 0.017573405
0.07844899 0.38256365 -0.3462566 0.006277853 -0.23567876 -0.30718225 -0.2454506 -0.0062422873
0.18956754 0.09589149 -0.09619646 -0.10802638 -0.021886244 -0.007772752 0.045263235 -0.46267003
-0.65314466 -0.6335083 0.1582828 0.0288881 0.040228367 0.15634632 -0.5655246 0.045942966
-0.08104992 0.109997176 0.01016702 -0.19152541 -0.44037363 0.07989644 -0.1892256 -0.060929716
0.29570258 0.2898318 0.33241168 0.30864108 0.32545415 -0.031088347 0.03362734 0.08228929
0.12246181 0.032713532 -0.085698135 0.03084952 -0.0068065412 -0.5703504 0.1597588 -0.095581494
-0.3899276 0.1789187 0.07118456 0.18734452 -0.11600613 -0.25282443 -0.14582069 0.27665472
-0.21043845 -0.112765804 0.055204645 0.092887595 -0.12548481 0.5271557 -0.33372426 0.12164468
-0.010396337 -0.22739351 0.21896797 0.09853644 -0.14587337 -0.55550444 0.25633833 -0.12629804
0.025954027 0.0011848776 -0.11135381 0.1796074 -0.17936096 0.13074869 0.05248721 -0.14890955
0.13231668 -0.2409512 -0.081657566 -0.015034672 -0.023554055 -0.30218765 -0.22761603 -0.04316086
-0.016711676 0.040484466 -0.37292236 -0.56646 -0.50032073 0.14118487 -0.39361128 -0.10564207
0.19268167 0.15124308 0.060052507 -0.35312253 0.5383911 0.2906838 -0.16247289 -5.907281e-05
-0.14510065 0.083127625 0.017887872 0.024205714 -0.22318102 0.13070047 0.0025830776 0.107650034
0.057334103 0.13599312 -0.41336024 0.18667573 -0.50034875 0.17462206 -0.040920537 -0.1464454
-0.28644183 -0.15816952 0.11584116 0.27328148 -0.68959534 -0.04183097 0.21170415 -0.4810897
-0.6138613 -0.09551671 -0.4171851 0.04172739 0.03215873 -0.21358682 -0.5834956 0.24883425
-0.21832824 -0.15552643 -0.14540942 -0.4841023 -0.32300168 0.09550841 0.06740393 -0.18168733
00000000: 871e 1ebf b87b cebe b05d 69be a365 8f3e
00000010: 5194 203d 1e41 99bb c991 1dbe 971b 46be
00000020: 1b62 713e e8c0 a2be e5f8 84be 84df 91bb
00000030: 4b6b 313e f5d1 04bf a5df 46bd 0897 4cbe
00000040: c172 63be d421 b43e 1adb 7b3e 3483 4dbe
00000050: 9e71 cbbe 4106 f3bd 9e05 5dbe ad04 e9bd
00000060: 048e 783d bd8f c2be 8ce4 253e ef1c 9dbe
00000070: 880c 29be 49b9 863d 2ff3 943e 1607 b7be
00000080: 179f 083e 6079 f03d 761a 893e 9382 76bc
00000090: d9da c1bd 59bf 9ebe a055 b33e 8c46 46be
000000a0: 1b24 66be 7ed3 b8be 720e e4be 729f 0bbf
000000b0: 80b6 923e 5392 113e b04c cabd 8095 ddbd
000000c0: 3d65 a23e 5ace 21be ba27 b3be 80b4 053e
000000d0: 5829 0ebf 8614 91bd 794a cfbd 5a4e c93e
000000e0: 0735 43be 7490 de3c d094 123e 1d76 01bf
000000f0: 471d fbbd 5fac 2ebf 7b55 683e 2247 4cbe
00000100: ba65 7d3e 5247 17be ded0 ddbe 0f48 08be
00000110: 55ab 0abf 3854 32bf 19b0 69be 1361 aa3e
00000120: 6174 fcbd a8d2 703d 5d5b c53e e313 f9be
00000130: b93e dfbe 3926 0c3e 8a39 163e 7f52 cb3d
00000140: 0004 c3be c366 c2bd 019d 6bbd bb87 37be
00000150: b280 2d3e 937c 013d 8a55 91be 7467 68bf
00000160: 341d 8dbe 9a64 71be 689a 28be db94 9d3d
00000170: 5039 b1bd 4ace 0fbd 9a77 553d 89de 2abe
00000180: 7daa 803e 18e6 c83c e46e ffbe 3f97 b23e
00000190: 0d26 67be f319 dcbe c65a f63e cd31 3cbf
000001a0: a851 bdbe 367a 083e c47f 4a3e d92b 403e
000001b0: f692 1d3e a145 d9be cf4d eebc 1af6 8f3c
000001c0: dda9 a03d 62df c33e 8c48 b1be 73b6 cd3b
000001d0: c655 71be fe46 9dbe 6757 7bbe 1a8c ccbb
000001e0: fe1d 423e c262 c43d a602 c5bd ef3c ddbd
000001f0: c84a b3bc 92b2 febb f165 393d 16e3 ecbe
00000200: 7d34 27bf 9a2d 22bf e314 223e bda6 ec3c
00000210: 80c6 243d 4019 203e 38c6 10bf b12e 3c3d
00000220: 80fd a5bd 3346 e13d 9393 263c 3d1f 44be
00000230: a778 e1be bfa0 a33d 5bc4 41be 7091 79bd
00000240: 5466 973e d564 943e dd31 aa3e 3406 9e3e
00000250: eda1 a63e fdac febc d2bc 093d 4a87 a83d
00000260: 42cd fa3d a0fe 053d 8182 afbd 22b8 fc3c
00000270: 6809 dfbb 7c02 12bf d097 233e 3bc0 c3bd
00000280: 97a4 c7be 7736 373e 36c9 913d 3ed7 3f3e
00000290: 9f94 edbd 3472 81be 0552 15be b0a5 8d3e
000002a0: 2d7d 57be c2f1 e6bd 441e 623d da3b be3d
000002b0: 177f 00be adf3 063f e8dd aabe d920 f93d
000002c0: 6655 2abc d8d9 68be 2439 603e 79cd c93d
000002d0: d45f 15be 8a35 0ebf c73e 833e 4654 01be
000002e0: 8a9d d43c e54d 9b3a 770d e4bd 01eb 373e
000002f0: 66aa 37be fce2 053e d4fc 563d bf7b 18be
00000300: 067e 073e e9bb 76be 153c a7bd fc53 76bc
00000310: 6ff4 c0bc 57b8 9abe 2d14 69be 71c9 30bd
00000320: ede6 88bc 0ad3 253d aeef bebe 8603 11bf
00000330: 0515 00bf c492 103e 6b87 c9be df5a d8bd
00000340: 584e 453e 77df 1a3e 9ef9 753d 7acc b4be
00000350: 00d4 093f 82d4 943e 4b5f 26be f2c4 77b8
00000360: 4495 14be d13e aa3d 9689 923c 104b c63c
00000370: 9189 64be 58d6 053e da48 293b 9f77 dc3d
00000380: 2ad7 6a3d c841 0b3e f4a3 d3be ec27 3f3e
00000390: db16 00bf 20d0 323e 4b9c 27bd c8f5 15be
000003a0: 81a8 92be 31f7 21be 213e ed3d 8deb 8b3e
000003b0: 5289 30bf f456 2bbd f9c8 583e 6451 f6be
000003c0: 0426 1dbf 449e c3bd 4999 d5be 57ea 2a3d
000003d0: dfb8 033d 81b6 5abe f85f 15bf 68ce 7e3e
000003e0: 7091 5fbe 5242 1fbe 35e6 14be 42dc f7be
000003f0: 7a60 a5be ea99 c33d 120b 8a3d 3e0c 3abe

hidden_layers.1.bias f4 [256]
-0.5729428 -0.39440867 -0.6042185 -0.36187735 -0.97569597 -0.5241922 -0.36284143 -0.1114351
-0.5678239 -0.07416498 -0.059632987 -0.53292894 -0.9127292 -0.24881214 -0.5794963 -0.63831896
-0.61125976 -0.1811198 -0.6378138 -0.8198814 -0.5215996 -0.518935 -0.7334166 -0.81256545
-0.18316768 -1.5027692 -0.4206666 -0.3047221 -0.54174215 -0.5230059 -0.24745953 -0.58984053
-0.8322 -0.6532137 -0.40785697 -0.9212978 -0.4805044 -1.0434812 -0.5929323 -0.6403104
-0.8399819 -0.90730107 -0.21949469 -0.3005238 -0.41346398 -0.95690095 -0.40552598 -0.43591732
-1.3323107 -0.7879026 -0.93580765 -0.67180526 -0.45432958 -0.78809875 -0.4500687 -0.53825617
-0.77291405 -0.3172589 -0.61603045 -0.2746252 -0.23754872 -0.58775234 -0.9304889 -0.6103681
-0.15462211 -0.8639178 -0.70762914 -0.68032134 -0.8391756 -0.77702945 -0.21221583 -0.23289815
-0.63970083 -0.7115729 -0.48929837 -0.61153924 -0.4672598 -0.80428517 -0.43208843 -0.6911633
-0.54547286 -0.805463 -0.48810965 -0.4214537 -0.70271826 -1.06136 -0.27484488 -0.96940124
-0.7282911 -0.29580644 -0.34754035 -0.5504474 -0.4374935 -0.8728043 -0.85117555 0.07363812
-0.5323407 -0.45806262 -0.81278104 -0.5497534 -0.876427 -0.20013568 -0.52005255 -0.8789854
-0.23411351 -0.5316444 -0.71691775 -0.21458045 -0.57021034 -0.546423 -0.2451966 -0.8048124
-0.22262564 -0.5864905 -0.41994083 -0.53035486 -0.65949255 -0.54185677 -0.008535687 -0.08490713
-0.8711977 -0.5702035 -0.6166408 -0.639352 -0.4730666 -0.13989535 -0.20467152 0.3149415
-0.77278197 -0.102300435 -0.29212868 -0.671677 -0.4289496 -0.5469932 -0.13102545 -0.34115446
-0.587431 -0.6127013 -0.7762633 -0.91652185 -0.37617797 -0.4683499 -0.666345 -0.5885441
-0.37031746 -0.95018876 -0.7045123 -0.43247265 -0.40593544 -0.8065945 -0.38461578 -0.71470356
-0.5975073 -0.5867554 -0.6762631 -0.47612017 -0.8915142 -0.6464811 -0.88870823 -0.3695954
0.02631527 -0.6036728 -0.78426313 -0.19559571 -0.3095515 -1.2049261 -0.781641 -0.45200685
-0.48002985 -0.8301342 -0.5981545 -0.3539214 -0.80332464 -0.45637414 -0.6402632 -0.04252634
-0.49635467 -0.85172874 -1.0252053 -0.6458291 -0.6890897 -0.9310071 -1.4308764 -0.33232045
-0.5536567 -0.27935722 -0.2690061 -0.53764594 -0.3399498 -0.61520493 -0.47294435 -0.61385703
-1.0095817 -0.45873755 -0.61418957 -0.57042783 -0.3075635 -0.30661228 -0.19129474 -0.36095783
-0.34073922 -0.50181496 -0.48252517 -0.278582 -0.7937806 -0.65223646 -0.10924263 -0.68822026
-0.46729892 -0.89617825 -0.24602415 -0.4214726 -0.26340887 -0.28724158 -0.37619182 -0.6299647
-0.66653305 -0.4891283 -0.6065404 -0.6776815 -0.5267676 -0.41175216 -0.64072615 -1.1889642
-0.34674287 -0.73018116 -1.0384248 -0.72747356 -0.57029897 -0.83313423 -0.49234825 -0.16251665
-0.5673114 -0.13493928 -0.6327867 -0.66606504 -0.600435 -0.35430282 -0.83182484 -0.67452294
-0.85061234 -0.3116213 -0.25721782 -0.3512434 -1.2716235 -0.3208104 -0.8220289 -0.76758605
-0.6380536 -0.51091516 -0.5279668 -0.5334859 -0.71059823 -0.023127265 -0.56294656 -0.49337676
00000000: 61ac 12bf efef c9be 10ae 1abf fd47 b9be
00000010: 36c7 79bf 7631 06bf 5ac6 b9be 1638 e4bd
00000020: e85c 11bf cfe3 97bd b841 74bd 086e 08bf
00000030: 9fa8 69bf 9cc8 7ebe df59 14bf df68 23bf
00000040: 857b 1cbf 7877 39be c447 23bf bfe3 51bf
00000050: 8d87 05bf edd8 04bf 31c1 3bbf 4a04 50bf
00000060: 4f90 3bbe be5a c0bf 9d61 d7be 8904 9cbe
00000070: 9daf 0abf b7e3 05bf 0866 7dbe caff 16bf
00000080: 0f0b 55bf 0339 27bf a1d2 d0be 2cda 6bbf
00000090: ac04 f6be cb90 85bf 69ca 17bf 62eb 23bf
000000a0: 0e09 57bf e244 68bf 37c3 60be 41de 99be
000000b0: 8db1 d3be 76f7 74bf 1aa1 cfbe 8e30 dfbe
000000c0: 2889 aabf fcb3 49bf 1791 6fbf 6efb 2bbf
000000d0: e39d e8be d7c0 49bf 686f e6be 28cb 09bf
000000e0: b2dd 45bf c26f a2be 2cb4 1dbf ad9b 8cbe
000000f0: f93f 73be f076 16bf 8534 6ebf 1541 1cbf
00000100: 4255 1ebe b829 5dbf 2f27 35bf 8a29 2ebf
00000110: 36d4 56bf 67eb 46bf 1b4f 59be da7c 6ebe
00000120: 6fc3 23bf a429 36bf 5185 fabe d68d 1cbf
00000130: ad3c efbe a2e5 4dbf b23a ddbe 14f0 30bf
00000140: 1ca4 0bbf d332 4ebf 82e9 f9be c8c8 d7be
00000150: 58e5 33bf a5da 87bf 78b8 8cbe ae2a 78bf
00000160: 4971 3abf f173 97be cff0 b1be 1fea 0cbf
00000170: 26ff dfbe 1a70 5fbf a4e6 59bf 95cf 963d
00000180: 7b47 08bf 2f87 eabe 6b12 50bf a4bc 0cbf
00000190: 855d 60bf 5ef0 4cbe 2a22 05bf 3005 61bf
000001a0: 74bb 6fbe d919 08bf ec87 37bf faba 5bbe
000001b0: 4ef9 11bf 61e2 0bbf d114 7bbe 2f08 4ebf
000001c0: faf7 63be 3e24 16bf 7c02 d7be 56c5 07bf
000001d0: 81d4 28bf 20b7 0abf 44d9 0bbc cae3 adbd
000001e0: d006 5fbf dbf8 11bf 2cdc 1dbf 93ac 23bf
000001f0: c935 f2be ba40 0fbe 6995 51be 0340 a13e
00000200: 0ad5 45bf e482 d1bd e491 95be 06f3 2bbf
00000210: 489f dbbe bf07 0cbf 892b 06be ccab aebe
00000220: e161 16bf fed9 1cbf 31b9 46bf 2da1 6abf
00000230: 669a c0be 8fcb efbe 9695 2abf d3aa 16bf
00000240: 409a bdbe 923f 73bf eb5a 34bf 0e6d ddbe
00000250: c5d6 cfbe fa7c 4ebf 5cec c4be d0f6 36bf
00000260: 3df6 18bf 9a35 16bf 941f 2dbf 06c6 f3be
00000270: 463a 64bf c97f 25bf 6282 63bf 9c3b bdbe
00000280: 1f93 d73c 4d8a 1abf 78c5 48bf 3e4a 48be
00000290: 897d 9ebe 053b 9abf a019 48bf 716d e7be
000002a0: 79c6 f5be ad83 54bf a720 19bf 3035 b5be
000002b0: afa6 4dbf dfa9 e9be 4ae8 23bf 1930 2ebd
000002c0: 3322 febe e50a 5abf ed39 83bf 0e55 25bf
000002d0: 2f68 30bf 7b56 6ebf f526 b7bf e825 aabe
000002e0: 72bc 0dbf e907 8fbe 2bbb 89be 2aa3 09bf
000002f0: e60d aebe 127e 1dbf c325 f2be bc25 1dbf
00000300: f939 81bf a6df eabe 873b 1dbf 8f07 12bf
00000310: f778 9dbe 49fc 9cbe c5e2 43be 77cf b8be
00000320: 5f75 aebe f276 00bf 8a0d f7be 4da2 8ebe
00000330: 3535 4bbf f8f8 26bf 9aba dfbd 342f 30bf
00000340: ce41 efbe f06b 65bf c1ed 7bbe 42cb d7be
00000350: 87dd 86be 5411 93be 379c c0be 5e45 21bf
00000360: e9a1 2abf 066f fabe 3b46 1bbf 897c 2dbf
00000370: 3eda 06bf 2ed1 d2be a106 24bf fb2f 98bf
00000380: 4888 b1be 27ed 3abf 1beb 84bf b53b 3abf
00000390: 1dff 11bf 4948 55bf 1215 fcbe c46a 26be
000003a0: 523b 11bf 862d 0abe 4ffe 21bf 3d83 2abf
000003b0: 1cb6 19bf 2e67 b5be 79f2 54bf 89ad 2cbf
000003c0: bbc1 59bf d48c 9fbe 0eb2 83be 2dd6 b3be
000003d0: 8fc4 a2bf 4341 a4be 7c70 52bf 8580 44bf
000003e0: 7b57 23bf 56cb 02bf d528 07bf 8892 08bf
000003f0: c4e9 35bf 6475 bdbc 441d 10bf e19b fcbe

output_layers.0.weight f4 [40, 256]
-0.5824673 -0.1297148 0.49860084 0.15843672 -0.19292538 0.13482597 -0.4730879 -0.058138587
-0.104804926 -0.5422692 -0.24058983 -0.038810086 -0.5441208 -0.3277092 -0.430701 -0.4907731
0.11935418 -0.3271454 -0.41862407 -0.92462695 0.29273918 -0.42901328 -0.43635178 -0.12840793
-0.2875105 -1.0411454 -0.25826705 0.20474023 -0.41486064 -0.66740984 -0.024403293 -0.19589353
0.09385611 0.47153953 -0.41505027 -0.7441673 -0.08324156 -0.45446727 -0.07999446 -0.3712401
-0.038891487 -0.9869236 -0.07481228 0.12142596 -0.5101611 -0.5650513 -0.06088783 0.06451217
-1.8289292 -0.36503932 -0.54745466 -0.5811451 -0.3654886 -0.53958577 -0.854021 0.16038756
0.1295725 -0.267549 -0.5823511 -0.04538685 -0.1230286 0.823547 -0.28793406 -0.5583304
0.049592327 -0.20601065 -0.85578376 0.08076138 -0.27944306 -0.773219 -0.038918033 -0.53285265
-0.1822112 -2.0320945 -0.22799452 -0.0041378457 0.050406873 -0.067691885 -0.70298076 0.07306046
-0.04618712 -1.4024595 -0.75992614 -0.500999 -0.25748134 -0.65700483 -0.42307225 -0.8589992
-1.0757437 -0.1467356 -0.2144769 0.45262456 0.35922688 -1.1217612 -0.41947597 0.015607862
-0.1980823 -0.73688227 -0.70781326 0.34590757 -0.6789913 0.3279725 -0.8106441 -0.606974
-0.2919335 -0.32660797 0.2460253 -0.32164794 -0.17520879 -0.18286143 -0.49975997 -1.998706
-0.24105494 -0.5788392 0.40033448 -0.07669745 -0.35928684 0.029858226 0.38441882 -0.13695249
-0.8494527 -0.20752944 0.21214058 -0.53350663 -0.13931769 -0.33019418 -0.337944 -0.090227515
-0.64313227 -0.27826098 0.047543917 0.0067210863 -0.43884373 -0.31176528 -0.087884426 0.24567333
-0.17305605 -0.7037737 -0.28887048 -0.47580934 -0.13000786 -0.24484612 -1.0590832 -0.348347
-0.3433127 -0.42261925 -0.26203805 -0.009173707 -0.097324185 -0.41263768 0.13724041 0.05636726
-0.3641479 -0.6262061 -0.35663706 0.13317542 -0.99916995 -1.8246135 -0.1375553 -0.20936455
-0.64536595 -1.0100131 -1.4045938 0.43626282 -0.26201367 -2.3999486 -0.38874426 0.40521476
0.6030321 -1.1222962 0.023812676 0.37672213 0.05948306 0.7617716 -0.9308465 0.36990646
0.04913326 -0.06731961 -0.5365251 -0.06886653 -0.31701466 0.09938412 -1.833316 0.10626243
0.2349198 0.044928852 -0.07859938 -0.5385265 0.42849165 0.22175364 -0.59415567 -0.20266284
-0.5027116 -0.22726668 -0.25084966 -0.54015535 0.02453321 0.47275543 0.6279628 -0.02534718
-0.20806043 -0.13061956 -0.4516196 -0.02265207 -0.15112147 -0.012445013 -0.5725223 0.060394146
-0.40481797 -0.72159904 0.13572422 -0.102483995 -0.43063036 -0.3416068 -0.6230677 -0.909795
-0.2325679 -0.41378966 0.1232126 -0.29122514 -0.74992895 0.034615953 0.33664355 -0.7109453
0.032561492 -0.58882457 -0.83862376 -0.3480095 -0.43953416 -1.0114461 -0.16269217 -0.18174088
-0.49427786 -0.2617874 0.15385433 -1.0718094 -0.60427666 -0.21913816 -0.60158634 0.042977754
-0.5974728 0.22473747 0.13797188 -0.11604148 -1.9650083 0.12214644 -0.13280582 -0.11159481
-0.07144386 -0.6039656 -0.3300849 -0.37315542 -0.7810034 -0.15435979 -0.32493916 -0.052736238
00000000: 941c 15bf f5d3 04be 9c48 ff3e 3c3d 223e
00000010: 3b8e 45be d20f 0a3e 9438 f2be ba22 6ebd
00000020: f7a3 d6bd 27d2 0abf 2e5d 76be 53f7 1ebd
00000030: 804b 0bbf 80c9 a7be d784 dcbe 9d46 fbbe
00000040: f76f f43d 9a7f a7be e555 d6be 5ab4 6cbf
00000050: e9e1 953e a1a7 dbbe 8069 dfbe 5e7d 03be
00000060: 9434 93be 4144 85bf 943b 84be 6ca7 513e
00000070: 9d68 d4be 5fdb 2abf 6ae9 c7bc 5098 48be
00000080: a237 c03d a16d f13e 7881 d4be c081 3ebf
00000090: 8d7a aabd efaf e8be 23d4 a3bd 2f13 bebe
000000a0: ae4c 1fbd 06a7 7cbf 2e37 99bd 2cae f83d
000000b0: eb99 02bf 34a7 10bf 8465 79bd f51e 843d
000000c0: 5a1a eabf 6fe6 babe fd25 0cbf edc5 14bf
000000d0: 5221 bbbe 4b22 0abf 1fa1 5abf a33c 243e
000000e0: a7ae 043e 2ffc 88be f614 15bf 90e7 39bd
000000f0: 6bf6 fbbd fad3 523f 186c 93be beee 0ebf
00000100: 5321 4b3d 75f4 52be a514 5bbf 3966 a53d
00000110: 2913 8fbe aef1 45bf 8468 1fbd 0869 08bf
00000120: 9395 3abe d60d 02c0 6577 69be c496 87bb
00000130: 7077 4e3d 0ba2 8abd 8cf6 33bf b9a0 953d
00000140: b52e 3dbd cb83 b3bf 858a 42bf 7841 00bf
00000150: 98d4 83be 7831 28bf ed9c d8be 5fe7 5bbf
00000160: f8b1 89bf db41 16be d59f 5bbe 68be e73e
00000170: 96ec b73e df95 8fbf 8ec5 d6be 1eb8 7f3c
00000180: 16d6 4abe 51a4 3cbf 4033 35bf cc1a b13e
00000190: 60d2 2dbf 03ec a73e 5f86 4fbf a662 1bbf
000001a0: 4f78 95be 2939 a7be 0eee 7b3e 0aaf a4be
000001b0: ef69 33be 0740 3bbe 8ae0 ffbe 99d5 ffbf
000001c0: 1bd7 76be ce2e 14bf a4f8 cc3e 8d13 9dbd
000001d0: 72f4 b7be 3d99 f43c 8bd2 c43e 463d 0cbe
000001e0: bb75 59bf 9982 54be 613b 593e e493 08bf
000001f0: 4ca9 0ebe 360f a9be ff06 adbe 34c9 b8bd
00000200: 51a4 24bf 3978 8ebe 69bd 423d 8f3c dc3b
00000210: 20b0 e0be b39f 9fbe c0fc b3bd ca91 7b3e
00000220: 9b35 31be 832a 34bf d5e6 93be 489d f3be
00000230: c820 05be f1b8 7abe 0a90 87bf 8a5a b2be
00000240: afc6 afbe 8d61 d8be da29 86be 514d 16bc
00000250: e751 c7bd 3f45 d3be c088 0c3e 5be1 663d
00000260: 9871 babe 0b4f 20bf 2299 b6be 235f 083e
00000270: 9ac9 7fbf ef8c e9bf 4cdb 0cbe a963 56be
00000280: b436 25bf 1c48 81bf bbc9 b3bf d75d df3e
00000290: a826 86be c298 19c0 7d09 c7be 4f78 cf3e
000002a0: 5060 1a3f 67a7 8fbf cd12 c33c b9e1 c03e
000002b0: 82a4 733d 7703 433f f54b 6ebf 6164 bd3e
000002c0: f53f 493d ddde 89bd b559 09bf e509 8dbd
000002d0: bf4f a2be e789 cb3d 19aa eabf 1ea0 d93d
000002e0: d18e 703e 5107 383d b6f8 a0bd dfdc 09bf
000002f0: 4263 db3e 6313 633e 961a 18bf d986 4fbe
00000300: b5b1 00bf 99b8 68be 5e6f 80be 9f47 0abf
00000310: dff9 c83c 000d f23e 2cc2 203f e4a4 cfbc
00000320: cb0d 55be 22c1 05be af3a e7be d590 b9bc
00000330: 96bf 1abe 2be6 4bbc d290 12bf da5f 773d
00000340: 4d44 cfbe b7ba 38bf 4afb 0a3e 21e3 d1bd
00000350: 957b dcbe 16e7 aebe 5d81 1fbf 53e8 68bf
00000360: 4826 6ebe 3ddc d3be e356 fc3d 761b 95be
00000370: 58fb 3fbf 75c9 0d3d 8b5c ac3e 8300 36bf
00000380: 335f 053d 35bd 16bf 0cb0 56bf 4d2e b2be
00000390: 9f0a e1be 1177 81bf c798 26be 481a 3abe
000003a0: fd11 fdbe 0009 86be fd8b 1d3e 0d31 89bf
000003b0: e0b1 1abf c165 60be 9001 1abf 7109 303d
000003c0: faf3 18bf 9421 663e 8048 0d3e 28a7 edbd
000003d0: 6485 fbbf ea27 fa3d 40fe 07be d28b e4bd
000003e0: 2951 92bd 7d9d 1abf e300 a9be 3a0e bfbe
000003f0: d7ef 47bf 7e10 1ebe 6d5e a6be f401 58bd

output_layers.0.bias f4 [40]
-4.003035 1.1325744 -3.685196 -4.3976045 1.1176707 -0.23863159 0.0077209384 -4.158677
-0.21161841 0.13239773 -0.45009577 -2.059295 0.07929404 -0.20307375 -0.41847718 -0.20474966
0.08731 0.32643187 0.18859239 -0.6127934 0.268947 -0.29866013 -0.4897823 0.48426354
-0.18364762 0.2829915 -0.24856949 -0.15132013 0.3678219 -1.8738713 -0.13526352 0.4275272
-0.06581262 -2.627929 0.067689724 -0.5386061 -2.4190075 -4.4135447 -2.0619783 1.4034678
00000000: dd18 80c0 33f8 903f 40da 6bc0 2db9 8cc0
00000010: d50f 8f3f d75b 74be edff fc3b e213 85c0
00000020: 7fb2 58be 4593 073e f472 e6be 7dcb 03c0
00000030: ea64 a23d 91f2 4fbe a442 d6be e5a9 51be
00000040: 96cf b23d 1422 a73e 5d1e 413e 07e0 1cbf
00000050: 6cb3 893e fbe9 98be bfc4 fabe 64f1 f73e
00000060: 1f0e 3cbe 43e4 903e 0089 7ebe aaf3 1abe
00000070: 2753 bc3e 04db efbf 8582 0abe d8e4 da3e
00000080: c4c8 86bd fd2f 28c0 e9a0 8a3d 17e2 09bf
00000090: 05d1 1ac0 c23b 8dc0 74f7 03c0 d5a4 b33f
