MODELS/REWARD COMPARISON/SAC MASKED MODELS/6_1_critic_target_2_local_network.pt (torch, 411367 bytes, 6 tensors)

hidden_layers.0.weight f4 [256, 101]
00000000: 57f1 1f3e 2f1e 9cbf 4017 f3bf b73b cdbe
00000010: 36e7 18bf 50f9 a03f 20d1 bc3f 083a a53e
00000020: e282 8d3f f484 12bf 590e c63e eec6 b9be
00000030: 427d 53bf 02ab 2dbf dbff 173f 2258 ccbe
00000040: 6a93 053e e0a8 35bf 1a5b f93c 1d65 993e
00000050: 39ee 2cba 7441 bbbf 4c36 c5be 6031 c1bf
00000060: 1f0b ffbe 244f 053f 761b 77bf 9a6d 4e3f
00000070: 20b6 f4be bda8 25be 967b 813d 4d28 a0bf
00000080: 048d c7be 1556 63be 223b a63d 461c e53e
00000090: 1018 8cbe 5b46 483f 4877 5a3e e3f7 e63e
000000a0: 5865 dc3d cea0 5ebf b0b3 173e 5f5d 54bf
000000b0: df2e 9fbe b077 1b3f fdd9 ab3f fad2 04be
000000c0: fc6f 07bf 8001 ab3e bc66 68bd 40d8 3ebf
000000d0: 2581 0a3f b6f7 2cbf 0e83 adbd 2306 3d3f
000000e0: 682c 12bd 047b 023f 2375 00bf 2175 3abe
000000f0: a20a 0abd 6f70 bdbf f81f 3bbf 5b2c b8bf
00000100: 40d1 443d 805a b23e 86b0 97bf 0754 d03e
00000110: 12fa 26bf 5c88 c2be 0825 85bd 80ce e8bf
00000120: 0590 a1bf 0ac6 91bf 4d31 2bbd 7ae1 43bf
00000130: 1566 193d 5169 48bf 1b87 8fbf 5361 ddbf
00000140: 6013 aebc c12b 0fc0 e1aa c4bf a634 ddbc
00000150: 7d00 94be 654e 11bf c5b6 6a3f e15e 153f
00000160: 83a7 103f d672 75be efd1 f5bc c547 79be
00000170: 99e2 523f 62b6 32bf fab0 a13d e21a e23e
00000180: 95fe 2ebd 3d85 0d3f dcae 3dbf 8c4a 863e
00000190: 8a82 9abe 2ee3 eebd 51a2 64bf 183f 3bbe
000001a0: 3ced e33e 48d4 3fbf 10c8 1cbf ec61 1dbf
000001b0: d37a f9bf 919a 31bf 870a 64bf ad67 2ebc
000001c0: 8f59 023e 4296 4dbf 9326 bebd 4846 6ebc
000001d0: 4067 91bf ed68 1dbe d168 56bf aaf6 14be
000001e0: 3333 0bbf b48e 743d 7930 abbf 7d1f 58be
000001f0: d527 923f 2ac0 01bf 7687 c1be 9f8a c93e
00000200: ca8e e7be c3ce e9bd da47 67be f3bd 99be
00000210: bdb9 25bf 5d15 9cbf 253d 8e3e 0b89 1e3f
00000220: f33f e53e 8503 bfbe 49cf a7bf 0d1d b7bd
00000230: 59c7 4ebf fcfd d7bd ecef 53bf cf3c edbe
00000240: e7de 003f 7cb6 c9be 6eab ca3e f28b a33b
00000250: 76a7 053e 229a 6d3d a69c 25bf c9b2 4c3e
00000260: b7e1 5bbf aed4 1cbe 9d2c 013e 89b0 53be
00000270: 9eb6 e23e 4c69 c73d 2552 29be c982 123f
00000280: c036 8c3f 20cb 953e 9df9 f73e 58cc 163f
00000290: 7269 103f 3b64 38bf 01af 71bf b148 bdbf
000002a0: 78e9 bebe d880 06bd 844c e43d 989e 123e
000002b0: 29f9 98bf 2da4 60be 8e46 323f ebb3 68bf
000002c0: 9f43 c7bf 3e89 95bf 18b8 93be 93cd 503f
000002d0: ef81 9abe 5764 75be eef6 7f3f 2b58 9b3f
000002e0: 9e10 16bd e5ed 8d3e 6166 61be 6130 4d3e
000002f0: 86ce 43bf 3646 b93d b0fa 423f e86a a23e
00000300: 968b b43f f46e 2fbf 8f02 2dbf c15f 673f
00000310: 932e a3be 2e06 55be 3aaa c2be e440 6fbe
00000320: 9d89 84be 9760 1f3d 9420 693e 0506 1cb9
00000330: 7fb9 9f3e 7a9e 39bf 9506 e13a 81dd 493e
00000340: 93af c0be 3f1f da3e 087c a8be ea9b f9bc
00000350: 46e8 08bd a025 1e3f fb13 4dbe f3d3 9dbe
00000360: 0654 3dbe 3312 1cbe 84b8 96bf c0b3 883f
00000370: 3930 55bc 396b d13e b552 9bbd 5916 c93e
00000380: 8b0e fabe 6870 2b3f fcba 9f3f 4c25 77be
00000390: d6dc 853d 466e a33e 1278 a7bf d9c0 cd3e
000003a0: 07d4 84bc 0d4d 883f 1c50 00be f23f b2bf
000003b0: 9c3f 9f3d 149b 07bf 0733 10be 0b25 78bf
000003c0: cd31 54bf 644d 80bf ca7e 11be e0cc 6dbe
000003d0: 1817 38bf 4f1b 3fbf b8c3 ce3e 0899 2dbe
000003e0: 58b6 c73d 85f9 19be e69b 8f3e e5ac ddbe
000003f0: aa26 b83d 1892 57bf d084 b4bd 3417 0f3f
0.15619408 -1.2196711 -1.899147 -0.4008462 -0.597278 1.2576084 1.475132 0.32270837
1.1055567 -0.5723412 0.3868282 -0.36284584 -0.82613003 -0.6783906 0.5937478 -0.3991099
0.13044515 -0.7096081 0.030438948 0.29959956 -0.0006596777 -1.462935 -0.38517988 -1.5093193
-0.49813172 0.52073884 -0.9652628 0.8063599 -0.477952 -0.1617765 0.063224 -1.2512299
-0.38974774 -0.22200806 0.081167474 0.44748133 -0.27362108 0.78232354 0.21334565 0.45110998
0.10761517 -0.8696412 0.14814639 -0.82954973 -0.31090447 0.60729504 1.34259 -0.12971106
-0.5290525 0.33399582 -0.0567386 -0.7454872 0.5410331 -0.67565477 -0.08472262 0.7383749
-0.03568688 0.50968957 -0.50178736 -0.18208744 -0.033701546 -1.4799937 -0.73095655 -1.4388536
0.04805112 0.3483467 -1.1850746 0.40689108 -0.65225327 -0.3799466 -0.06501204 -1.8188019
-1.2622076 -1.1388562 -0.041795064 -0.76515925 0.03745087 -0.782857 -1.1213106 -1.7295326
-0.021249473 -2.2370455 -1.5364648 -0.027002644 -0.28906623 -0.56760246 0.91685134 0.583479
0.565056 -0.23969588 -0.03000733 -0.24343784 0.8237701 -0.69809544 0.07895084 0.44161135
-0.042723257 0.5528143 -0.7409494 0.2622875 -0.30177718 -0.11664425 -0.89310175 -0.18285787
0.44516933 -0.7493329 -0.6124277 -0.6147754 -1.9490608 -0.69376475 -0.89078563 -0.010644835
0.12729476 -0.803074 -0.09284701 -0.014543124 -1.1359634 -0.15372057 -0.8375369 -0.1454722
-0.54375 0.059706405 -1.3374168 -0.21105762 1.1418406 -0.50683844 -0.3779866 0.39363572
-0.45226127 -0.1141639 -0.22586003 -0.30027732 -0.6473654 -1.219402 0.27781025 0.6192786
0.44775352 -0.37307373 -1.3110133 -0.08941088 -0.8077293 -0.105464906 -0.82787967 -0.46335456
0.5034012 -0.39397037 0.39583915 0.004991048 0.13052163 0.05800832 -0.6469215 0.19990076
-0.8589129 -0.15315506 0.12614675 -0.20672812 0.4427995 0.09736881 -0.16535242 0.5723081
1.0954208 0.29256535 0.48432627 0.58905554 0.56410897 -0.7202794 -0.9440766 -1.4787809
-0.37287498 -0.03283772 0.11147407 0.14318311 -1.1951038 -0.21937628 0.6963891 -0.90899533
-1.5567511 -1.1682508 -0.2885139 0.8156368 -0.30177256 -0.23964058 0.9998616 1.2136282
-0.03663694 0.27720562 -0.2201171 0.20037986 -0.76487005 0.09046595 0.7616377 0.31722188
1.4105098 -0.68528676 -0.6758203 0.90380484 -0.3187147 -0.20803139 -0.38020498 -0.23364598
-0.2588624 0.038910475 0.22766334 -0.00014879562 0.3119621 -0.7250744 0.0017168099 0.19713403
-0.37633952 0.42601964 -0.32907128 -0.030469853 -0.03342464 0.6177616 -0.20027153 -0.30825767
-0.18489084 -0.15241317 -1.177506 1.0679855 -0.013011985 0.40902117 -0.075841345 0.39274862
-0.4883922 0.66968393 1.2478938 -0.24135321 0.06536262 0.3192007 -1.3083518 0.40186194
-0.016214384 1.0648514 -0.1253056 -1.3925765 0.077758044 -0.52971005 -0.14081965 -0.96931523
-0.8288849 -1.0023618 -0.14208522 -0.23222685 -0.7191024 -0.74651045 0.40383697 -0.16952908
0.09751576 -0.1503659 0.2804863 -0.4329597 0.089917496 -0.84207296 -0.088143945 0.5589478

hidden_layers.0.bias f4 [256]
00000000: 3e2d 27bf ebf0 c6bd 564e a13e 35fb ddbf
00000010: 102b 0bc0 65b5 2b3f cd71 cc3c 666a 03bf
00000020: ae96 e33d 86d6 babf 855f 4ebe 8b66 edbf
00000030: ccdd 96bc 39d5 923e 7180 93bd 0e77 22c0
00000040: e867 b53e d936 1ec0 decf 21c0 5556 31c0
00000050: 76a9 1ec0 6f48 2fbf a665 953e 7afe 10bf
00000060: 72f5 8cbf 88d7 8d3e fbdf 8f3e 4584 bc3d
00000070: 80d7 c73e d2a2 efbf 9f80 9cbe be3c e23e
00000080: c198 0fc0 962c b7bf 0765 b53e 2d19 d2bf
00000090: c140 a9bc 8488 35bd 6941 a3bf 0639 fcbc
000000a0: a09d 1ac0 72ce 63bf 84e2 9fbf 5017 cfbf
000000b0: 0c3e 023f c8c5 71bf 593c 183d de86 f93d
000000c0: 3547 efbf 9533 ec3d 6cd7 92bf 0286 a2bc
000000d0: be5e 283e aa67 debf 45bc 25c0 8ef8 bbbf
000000e0: 8c00 a0be 8c2e 273e ea90 b23b 2ccf 2e3e
000000f0: 4306 333e 72e7 0ec0 a185 32bd 23d9 c23d
00000100: 501f 3e3e 9652 f4be acaa 1dc0 0c66 453e
00000110: adcc 02bf 120e 4ebe 548f ffbf ea52 8cbf
00000120: edd4 113e d23d 04c0 c80d 9c3e a614 de3e
00000130: 8f5c e2bf 65c6 19c0 280f f9bf 8de9 f03e
00000140: 6b32 b73e dcb2 9c3e 7fe4 28be ba41 dabe
00000150: f27e 08c0 457f df3d c6f5 433e b022 dcbe
00000160: 9c67 14c0 2b6d 7cbe 9e85 9ebe 8761 eb3e
00000170: ac75 363d cf1e e73e f930 68bd 5693 18c0
00000180: ef1c dbbd 9041 573e e8ce 5abe 35f4 b0bf
00000190: d782 863e a907 2b3f c042 ccbe 97b2 d2bf
000001a0: 3119 6abe e4b6 b43e 2080 00c0 1cd9 90be
000001b0: e716 d5bf ed9c c6be 832f 19bf 1a68 19c0
000001c0: 8689 22c0 8564 2fbf 8ffd b83d 1884 c0be
000001d0: ac90 393e 075a 3cbe d4f0 c5bf d729 2a3f
000001e0: 435a 1ec0 c1db 37be 86bd 1ac0 e658 e1be
000001f0: 8d6d 88be 874e 30bf e512 0e3e a769 73bc
00000200: 118b 89be 7bd1 99be 3be2 193d 5d50 d63d
00000210: 2d1d dcbf 39b0 04bf 056d 1a3e 7b6b e5bb
00000220: 69a4 39bd 0218 ee3e 2c99 483d 07f0 18be
00000230: 21c8 40bf 8a0e d73e e20e e5bf 3d19 9dbe
00000240: 6850 753e ff9f 28be a94d 973e 7411 0fbf
00000250: f39b 403e f720 dabe fc06 b7bf 09fd 4d3d
00000260: fb81 e73c a139 833c 90d1 013f 2ffd 803e
00000270: 5dad 603d bf4b 033f 0608 90be 8c15 9cbe
00000280: 4138 2b3f 5474 cdbf 3529 be3c bd1f b23e
00000290: 76a8 cebf 086f b13c 5fc8 5ebf 8bc1 b8bf
000002a0: 4c2a c03e 8b4a 2bbe 5ebd 9fbf 47d8 c43e
000002b0: 0228 86bf 6c47 11c0 de08 a3bf 4d2c 4bbf
000002c0: 12db d3bf a21a d33d c96c 003f bdcf fcbe
000002d0: fdfc f13e fa30 d03e 6f76 00c0 1601 2cbf
000002e0: e822 00be b78b b83d a104 c33d 0ded 2fbc
000002f0: 2a5f a9be 5e30 1cc0 7ef1 29c0 447f 26c0
00000300: 39a7 e73e 16ee b53d fcfb 87bf 19f0 dabf
00000310: eb54 72bf fc68 1f3f 9ca0 283e 13c6 3bc0
00000320: 68bf 27bf 6a5b 96bf e6df 0e3e b009 d3bf
00000330: 60a0 8d3c 12f0 c3bf 2989 17c0 cd3d 8dbe
00000340: aa16 10c0 e374 cfbf 42fc e6bd eb0a 8abe
00000350: 08a4 163f 6c66 d8be 3d3d c1be df43 67be
00000360: d5d4 efbf 3e26 2a3f 552e d8bf b4be 75be
00000370: 00f8 893c deba 03c0 1237 1fbe 7192 8abf
00000380: 7434 a5bd 7cdc d03e ee88 1dbd 0179 6f3d
00000390: db02 393f b7be 6fbf c189 a53d f126 a0bf
000003a0: 262c 08c0 6b7b 923e 6354 f33e 278a b4bf
000003b0: ae8f f63d 7cd4 0fc0 61f9 1fbf c6ea f4be
000003c0: c023 25c0 3ed4 073e 88a8 54be 9ec8 62be
000003d0: 45be 89bd f1e1 953d 9272 afbd f6fd 88bf
000003e0: 9286 3cbf f5e3 a63e 2efa bbbd a6d5 f6bc
000003f0: d46b 1dc0 cf40 58bd 15e3 aebf 59c6 4c3e
-0.6530341 -0.0971392 0.31505078 -1.7342287 -2.1745033 0.6707366 0.024956608 -0.51334226
0.11112724 -1.4596717 -0.20153625 -1.8546919 -0.018416308 0.286783 -0.07202233 -2.5385165
0.35430837 -2.4720976 -2.5283122 -2.7708943 -2.479093 -0.684699 0.29179114 -0.566383
-1.1012404 0.277035 0.2810057 0.09204916 0.390316 -1.8721564 -0.3056688 0.44186968
-2.2436984 -1.4310482 0.3542864 -1.6413933 -0.02066076 -0.044319645 -1.2754337 -0.03078891
-2.4158707 -0.88986886 -1.2491002 -1.617899 0.50875926 -0.94442415 0.037166927 0.12183927
-1.8693606 0.11533276 -1.1471992 -0.01983929 0.16442391 -1.7375386 -2.589616 -1.4685228
-0.31250417 0.1632635 0.005449404 0.17071217 0.17482857 -2.2328763 -0.04358447 0.09514072
0.18566632 -0.47719258 -2.463542 0.19277209 -0.5109356 -0.20122555 -1.9965615 -1.0962803
0.14241381 -2.0662732 0.30479264 0.43375129 -1.7684497 -2.402734 -1.945775 0.47053185
0.35780653 0.3060521 -0.16493414 -0.4262827 -2.1327481 0.109129466 0.19136724 -0.42995214
-2.3188238 -0.2465102 -0.30961317 0.45972845 0.044545814 0.45140693 -0.05668733 -2.3839927
-0.10698878 0.21021104 -0.21367991 -1.3824526 0.26271698 0.66808563 -0.39894676 -1.6460751
-0.22861172 0.35295784 -2.0078201 -0.2829064 -1.6647614 -0.387916 -0.5983812 -2.3969789
-2.5396438 -0.68512756 0.090327375 -0.3760078 0.18121594 -0.18393718 -1.546412 0.6647009
-2.4742591 -0.17954923 -2.4178176 -0.44013137 -0.2664608 -0.68869823 0.13874395 -0.014856732
-0.26863912 -0.30042633 0.037569266 0.10464547 -1.7196404 -0.51831394 0.1508065 -0.007001338
-0.04532281 0.46502692 0.0489742 -0.14935313 -0.7530537 0.4200328 -1.7895167 -0.30683318
0.23956454 -0.16467284 0.29551437 -0.55886006 0.1880949 -0.42603275 -1.4299006 0.05029014
0.028260222 0.01601869 0.5071039 0.25193164 0.054852832 0.51287454 -0.2813112 -0.3048519
0.6688271 -1.6051126 0.023213008 0.3478984 -1.614516 0.02165939 -0.8702449 -1.4434065
0.3753227 -0.16727655 -1.2479665 0.38446257 -1.048096 -2.2699842 -1.2737081 -0.7936447
-1.655123 0.10307814 0.5016599 -0.49377242 0.47263327 0.40662366 -2.0072286 -0.67189157
-0.12513316 0.090110235 0.09522367 -0.01073767 -0.33080417 -2.440452 -2.6553645 -2.6015177
0.45244768 0.08883302 -1.0623775 -1.7104522 -0.94660825 0.6226957 0.16467518 -2.9339645
-0.6552644 -1.1746647 0.13952598 -1.6487331 0.017288387 -1.5307639 -2.3677466 -0.27586213
-2.2513833 -1.6207546 -0.11278583 -0.26961455 0.5884404 -0.42265642 -0.37742034 -0.22584485
-1.8736826 0.664646 -1.688914 -0.23998529 0.016841888 -2.0582805 -0.15548351 -1.082594
-0.08066645 0.40793216 -0.038460664 0.058465008 0.7226998 -0.9365038 0.08082915 -1.2511884
-2.1276946 0.28609785 0.4752532 -1.4104661 0.120391235 -2.247344 -0.62489897 -0.47835368
-2.580307 0.13264558 -0.20767415 -0.22146842 -0.06725744 0.073184855 -0.085667744 -1.0702503
-0.7364284 0.32595792 -0.09178577 -0.030131172 -2.4597063 -0.05279618 -1.366305 0.19997539

hidden_layers.1.weight f4 [256, 256]
00000000: 9027 2dbd 0584 163f 742d 66be 8929 c53e
00000010: ad62 ff3e 54de 743f 9705 febd 1ea1 ddbc
00000020: eca1 fdbd b4fb 87be 8d25 2b3c ceea 09bf
00000030: 9f1b 8d3d 592a 173f 6395 c7be 0356 efbd
00000040: 2126 bb3e 4084 2ebf 8ef8 7a3d 7c8d b2bd
00000050: 4f6f 0ebf e6d4 3fba 15c3 1d3e 6022 443e
00000060: 2e00 a8be 4f44 e73e e7be 18be 5b7e 833c
00000070: de0a 63be c799 54be 6922 debe c12d 72bd
00000080: e760 8fbc 6303 a63d a455 743e db63 97be
00000090: e876 71be 6c50 dcbe 545d 903e a1c8 7f3f
000000a0: 465e 8cbe 0f59 e4be 083f b73e 4dff b43e
000000b0: f2da 343f 031c 8e3e cf66 98bd b94c c83e
000000c0: 5229 a3bd 700a d1be e573 25be f5a2 823d
000000d0: cab5 0dbf 4aa3 aebd 3802 0fbe 6794 293d
000000e0: fb2a 32bd b7c6 de3d 1f0c 4c3e db86 973c
000000f0: 8181 73be 393c 34bf 1c28 0abd e972 d7bb
00000100: 68f5 b13e 049f 873d 93b5 91be d4ee b53e
00000110: 8df8 f1be d667 abbe ea47 7fbe 51ac 943e
00000120: 8388 043e bca4 d2be ad97 c63e c7e7 0a3f
00000130: f281 8f3e 8275 993e a866 c13e 819c 603e
00000140: 9584 04be a1c9 0a3e 6d9a 85bc c94a dc3e
00000150: 76c6 9b3a 8d7c 6f3e d1dd 44be f100 43be
00000160: 0096 60be 7a7a 15bd 4b9f c4be ebe3 84be
00000170: 49c9 97be 91f5 70be 9703 483f 8f97 13bf
00000180: c6ca a93e d15d 6abe 72b1 97be 673f c03d
00000190: da08 c03e bac6 313f e9fe 293e 0471 18bd
000001a0: daed c9bc 9c2e ec3e a032 05be 1042 09bf
000001b0: b9ff 333e 4732 b4bd 05fc abbe eaac 85bd
000001c0: c5d8 87be e6aa 0bbf 390c b53e 3a80 153d
000001d0: bcda 8abe 00f4 113e 0f6e 9d3e ee56 a4bd
000001e0: 1e16 f5bd 7c07 203f 6a03 b2be 23b1 d93c
000001f0: 1a94 fc3e 9cab 73be 6f61 123e b6c8 4a3d
00000200: 229d 3ebb e647 7cbe b25b f33e 04a4 f93e
00000210: 29bf 4a3e 57d9 6a3e 89e7 8e3e a8aa 95be
00000220: 5fa7 9b3c aff7 233e a949 293f 6fc3 6fbe
00000230: ba65 6e3d 85b7 e93e cc77 81be e412 5fbe
00000240: 7776 5b3d fc6c 123f 7c4c a5bd abdb b93e
00000250: b3c8 f13e 9fb9 e53e d075 9cbe 0407 dbbe
00000260: 4b32 e0bd 029e 573f 3c3c df3e 4215 2bbe
00000270: 8879 e83d 86d7 4abe 90bf ec3d fb4c 393e
00000280: bd3a 40be ec5a e1be bc2e 043f 99dd 8a3c
00000290: 0117 723d ba75 0c3e 31f2 bdbe fcde 09be
000002a0: 8559 583e 6140 76be 59d8 e7be cd13 a93e
000002b0: b792 6ebe 4193 1b3e c1e0 67bd 1fb3 40be
000002c0: 25f8 32be f1a2 3a3e d737 d3bd 4da9 52bd
000002d0: d567 f63c a2bb bb3e 6d83 0abf ffd7 a93e
000002e0: 25fa 093f 89f1 ff3e 69d4 213e 38cf 60bc
000002f0: 2b12 ab3d 4965 f9be cbb4 52bf 01f7 2dbf
00000300: 1d9b c3be c523 043e 9dde c6bd 0dd1 a23e
00000310: ab11 a3bd b4d6 c43d d13e 8cbb 9edf 27bf
00000320: e842 aabe 2201 ec3e 0d51 0d3e fa9a ebbd
00000330: b666 0fbf d5c9 b8be cd75 1dbf fa03 6f3e
00000340: 4138 2c3e cb33 493f 59cd 1abe 0353 6cbe
00000350: 6b67 263e f825 24bc 863c 9abd d26b 9dbe
00000360: 352a ddbe 600e 823d c60a 5c3e cc7e 51be
00000370: 741b 613d dee6 eb3d 3eb2 ea3d 15b7 93bc
00000380: 8d99 cf3b b623 e9bd ea7c 8abe 71ee dbbe
00000390: c30b 283f 0be5 93bc d3ce ddbc 04e4 e23d
000003a0: 0ca0 62be f182 d53e b1c0 75bd 5fe6 853f
000003b0: 7caf 0bbe f47c c33d a3df 9a3d efe8 b1bd
000003c0: 9352 a1bd d0de 15be 76fc 05bd fa28 09be
000003d0: d5b4 6cbd f7bc b1be 6cb8 783e 78a9 38be
000003e0: af49 113e fdfd b7be 7183 943e 0630 b0bc
000003f0: 8675 29bf 4522 5c3e 2fbf c53e 4dbc 21be
-0.042274058 0.58795196 -0.22478276 0.3850825 0.4987997 0.95651746 -0.1240341 -0.027054366
-0.123844 -0.26559222 0.0104459645 -0.5387391 0.06890034 0.5904899 -0.3898116 -0.11686327
0.36552528 -0.6817055 0.061272196 -0.08718392 -0.55638593 -0.0007317796 0.15406449 0.19153738
-0.32812637 0.45169303 -0.14916573 0.016051462 -0.22172114 -0.20761786 -0.43385628 -0.059125666
-0.017502261 0.08106115 0.23860794 -0.2956837 -0.23580515 -0.43030107 0.28196204 0.9991551
-0.27415675 -0.44599196 0.35790277 0.3535103 0.70646584 0.27755746 -0.07441484 0.39121035
-0.079668656 -0.40828276 -0.16157492 0.06378738 -0.55355513 -0.08527239 -0.1396569 0.041401293
-0.04349802 0.108777456 0.19926499 0.018496921 -0.2377987 -0.7040439 -0.033729658 -0.0065749777
0.34757543 0.06622127 -0.28458843 0.35533774 -0.47259942 -0.33477658 -0.24929777 0.29037717
0.129427 -0.41141307 0.38787594 0.54259914 0.28028828 0.29972464 0.37773633 0.21934702
-0.12941201 0.13553478 -0.016308988 0.43025807 0.0011884707 0.23387356 -0.19225241 -0.19043328
-0.2193222 -0.036493756 -0.3840278 -0.25955138 -0.29645756 -0.23531176 0.7813048 -0.57653135
0.33162516 -0.2288735 -0.29627568 0.09387093 0.37506753 0.6944386 0.16601147 -0.037217155
-0.02464955 0.4612931 -0.13007593 -0.5361643 0.17578019 -0.08798652 -0.33590713 -0.06527121
-0.2653257 -0.54557645 0.35360888 0.03649924 -0.27120006 0.14253235 0.3074803 -0.08024393
-0.11967109 0.6251142 -0.3476823 0.026573723 0.49331743 -0.23795933 0.1429498 0.04950782
-0.0029085358 -0.24636802 0.47530895 0.48757946 0.19799484 0.22934471 0.27911022 -0.29231763
0.019000707 0.16012453 0.6612802 -0.23414396 0.058202483 0.45647827 -0.2528671 -0.2178455
0.053579774 0.57197547 -0.08071229 0.36300406 0.47223434 0.4486818 -0.30558634 -0.4277879
-0.109470926 0.84225476 0.43600643 -0.16707328 0.11351305 -0.19808778 0.11559975 0.18095772
-0.18772407 -0.4401468 0.5163381 0.01695137 0.05910397 0.13716784 -0.3709884 -0.13463968
0.21127899 -0.24047996 -0.45282248 0.3302292 -0.23298155 0.15192892 -0.056610826 -0.1881833
-0.17477472 0.1822622 -0.10313385 -0.05143099 0.030078808 0.3666659 -0.5410679 0.33172604
0.53897315 0.49988964 0.15803684 -0.01372128 0.08353075 -0.48710087 -0.8230712 -0.67955023
-0.3820428 0.1290427 -0.09710429 0.31800118 -0.07962354 0.09611264 -0.0042799492 -0.6557559
-0.3325417 0.46094614 0.1380045 -0.11504169 -0.560161 -0.36091486 -0.61507875 0.2334136
0.16818334 0.78594655 -0.15117396 -0.23078541 0.16250388 -0.010018818 -0.07531075 -0.30746323
-0.43196264 0.06350398 0.21488485 -0.20458525 0.054957822 0.11518644 0.11459778 -0.018031636
0.0063354434 -0.113837644 -0.27048427 -0.42955354 0.65642947 -0.018053552 -0.02707616 0.11078647
-0.22131366 0.41701463 -0.059998218 1.0460929 -0.1364116 0.09545317 0.075621866 -0.08687007
-0.07877078 -0.14635777 -0.03271147 -0.13394538 -0.057789642 -0.3471448 0.24289101 -0.18033397
0.14188264 -0.35935965 0.29006532 -0.021507274 -0.6619495 0.21497448 0.38622424 -0.15794487

hidden_layers.1.bias f4 [256]
00000000: aca5 00bf 6abe 6bbe c157 3bbf 151d a8be
00000010: 3164 97be f211 24bf 0de3 8cbe 7924 b7bd
00000020: 40d5 91be c96c 83be 689e 09bf 922d 54bf
00000030: 5db7 9fbe f597 96be e09a 9abc a4f6 68bf
00000040: e667 bcbe b75e 85bf 323b 50bf d881 8fbf
00000050: eacd 1abf 1b01 e7be 3c56 093e 8ef1 39be
00000060: cd6e 78be e7ef 03bf 3d24 1cbe 7668 1fbf
00000070: a49d 31bf 06fd 88bf fab3 37bf ece8 02bf
00000080: 7a4f 22bf d955 33bf 2a11 94be 4525 35bf
00000090: f3a7 12bf 6e92 74be 9d72 29bf cf77 27bf
000000a0: 9dd0 2abf 3054 15bf 7650 87be b9e2 29bf
000000b0: 28a4 3abf e1ed 30bf 8eee 3dbf 3082 d7be
000000c0: 9167 22bf 4a08 75bf a1d4 0fbe 9189 6abf
000000d0: 1c70 f3be f429 44bf 9f81 54bf 892b 9abe
000000e0: 2b3a 4dbf 8a6a 3fbf bf61 ddbe 3580 30bf
000000f0: 2490 8fbf 3b33 cabe d6b7 42bf df5e 3ebf
00000100: 71d9 05bf c8c3 c7be c95e e5be 23d2 1fbf
00000110: abdc 8fbe 3440 8dbf 2f16 d1be 48fd b7be
00000120: b9c2 3abf ff98 adbe d2a5 eebd 8537 ccbe
00000130: 0c2d b8be 2124 4abf ccd0 bbbe 6012 3bbf
00000140: 7bc7 45bf 41cd aabe 2abd 94be c479 35bf
00000150: 9a8b 17bf 9358 2ebf 1f93 60bf b693 f8be
00000160: 74f4 cbbe ad5d c4be e16e 84bf 9cfe 76bf
00000170: 6478 02bf 2fcd a0be b331 24bf 697b a1be
00000180: f8ba ddbe 5b0e 0bbf 1306 cdbe 762f 35bf
00000190: 3fd3 5fbf c2ce 9ebd ed90 88bf 97ee c6be
000001a0: df33 aabe bc84 11bf 0b67 b9bd 6d69 c9be
000001b0: c45f 31bf 08fa 3dbe 0cf6 42bf f5a9 3ebf
000001c0: 8903 93bf 1a62 3dbf 3667 dcbe d1de 03bf
000001d0: 5fad 1ebf 4c94 bdbd 7538 42bf fd1a dfbe
000001e0: be5b 35bf a4e8 fdbe 3425 06bf ce7b febe
000001f0: e431 c3be 5bc3 25bf c805 3fbe c79c 83bf
00000200: 4359 67bf db0a 31bf 57a3 72be c771 a3bf
00000210: b784 2bbf dfdf 9abf 74ac 54bf 6815 31bf
00000220: 0a25 10bf e604 c9be 8adc c1be bd38 29bf
00000230: 050b adbe 7f55 d3be 7f5b 39bd 6def 20bf
00000240: 2a3d 89bf 99b1 363e f51f c0be 2e94 3bbf
00000250: 43be d4be bd38 87bf 0c9b 42bf ef2e 06bf
00000260: 4fb2 96bf 04af f8be 94be c0be 427b 25bf
00000270: eacf 8fbf 2f0c 04bf f026 5ebf 7b27 bdbd
00000280: 1ad0 0bbf 0e86 09bf 3a7c b7be de9c 11bf
00000290: 239a 1abf 2a20 1cbf cc91 0abf 284e 2dbf
000002a0: 27d1 f1be a950 34bf 0f3d 0bbf e29b 42bf
000002b0: 916f 9fbe ad65 91be 8d20 e7be cdd1 39bf
000002c0: 18ba 45bf 2fda 0abf 3536 5cbf c962 20bf
000002d0: e17d adbe 9af0 0ebf 9245 5bbf 352b 38bf
000002e0: 86b9 2cbf 6a4a 02bf f42c f7be f781 58bf
000002f0: e6fb 18bf 882b f5be 64df 51bf b257 123e
00000300: a0e7 56bf eeca 2abf eb3d 3bbf 233c 10bf
00000310: bf74 47bf 0bb0 2dbf ce13 95bf 97bb 31bf
00000320: 31d2 8bbe e383 96bf cb74 99bf 1c36 2abd
00000330: 7dfc 6cbf 793b 87bf 1896 e0be 180b 21bf
00000340: 527a e6bd 6607 00bf 5f6e 4fbf eab2 0dbf
00000350: c1e2 4bbf 8c7e ccbd 3659 82bf c3e2 19bf
00000360: e661 f2be 4622 a1be 8ac0 8cbf 03be 34bf
00000370: 4de4 bfbe 93c4 2abf 943c 053e 33a6 2bbf
00000380: ae63 29bf 5dd8 67bf 3f6c 34bf 68e0 ebbe
00000390: a2bd 4fbe 8c7c 27bf 354d 1cbf bdc6 c7be
000003a0: 92dc 9bbd bce1 cdbe 88ca 13bf e72b 95bd
000003b0: d5a8 b7be 552a bdbe 0cc7 20bf 76c1 2fbf
000003c0: ef7e 3fbf 2367 c9be aafb 09bf ccfc 01be
000003d0: 4b91 09bf f5da 21bf 77ac 18bf 1cb1 0cbf
000003e0: 36e7 3bbf ce8a 12bf 4924 c3be e630 4ebf
000003f0: 0f64 06bf ac18 f4be 0c86 24bf f5c2 8bbf
-0.50252795 -0.23021856 -0.73180777 -0.32834688 -0.29568627 -0.6408988 -0.27516976 -0.089425035
-0.2848301 -0.25668934 -0.53757334 -0.82882035 -0.31194583 -0.2941281 -0.018872678 -0.91001344
-0.36798018 -1.041953 -0.81340325 -1.12115 -0.6047045 -0.4511803 0.13411802 -0.18158552
-0.24261017 -0.51537937 -0.15248199 -0.6226877 -0.69381166 -1.0702217 -0.71759 -0.5113666
-0.6340252 -0.7005287 -0.28919345 -0.70759994 -0.5728752 -0.23883983 -0.6619051 -0.6541719
-0.6672457 -0.58331585 -0.26428574 -0.66361576 -0.7290673 -0.69112974 -0.7419213 -0.42091513
-0.6343928 -0.95715773 -0.14045955 -0.9161616 -0.4754647 -0.76626515 -0.83010286 -0.3011134
-0.8016688 -0.7477194 -0.43238637 -0.6894563 -1.1215863 -0.3949221 -0.7606176 -0.7436351
-0.52284914 -0.39016557 -0.44798878 -0.6243002 -0.28098044 -1.1035218 -0.40837237 -0.35935426
-0.72953373 -0.3390579 -0.116527215 -0.39886108 -0.35971868 -0.7896138 -0.36682737 -0.73074913
-0.7725751 -0.3335972 -0.2905057 -0.70888925 -0.5919739 -0.68103904 -0.8772449 -0.48550195
-0.3983494 -0.3835272 -1.0346338 -0.96482253 -0.5096495 -0.31406543 -0.64138335 -0.31539467
-0.43306708 -0.5431878 -0.40043697 -0.70775545 -0.8743171 -0.0775428 -1.0669228 -0.38853905
-0.332427 -0.5684316 -0.09052857 -0.39338246 -0.6928675 -0.1855241 -0.7615669 -0.74478084
-1.1485454 -0.73977816 -0.43047494 -0.51511866 -0.61983293 -0.09256801 -0.75867397 -0.43575278
-0.7084311 -0.49591553 -0.5240052 -0.4970383 -0.38124 -0.64751214 -0.18654549 -1.028222
-0.9037058 -0.6915719 -0.23695122 -1.2769097 -0.6699938 -1.209957 -0.8307564 -0.6917329
-0.5630652 -0.3926155 -0.3786357 -0.661022 -0.3379747 -0.41276166 -0.045253273 -0.62865335
-1.0721791 0.17841186 -0.3752438 -0.7327298 -0.41551408 -1.056419 -0.7601783 -0.52415365
-1.1773165 -0.48571026 -0.376454 -0.646412 -1.1235325 -0.5158109 -0.86778164 -0.09236046
-0.5461441 -0.53720176 -0.35836965 -0.56879985 -0.60391444 -0.6098658 -0.5412872 -0.6769738
-0.47229883 -0.7043558 -0.54390043 -0.7601911 -0.31139806 -0.28397885 -0.45142022 -0.72585756
-0.7723708 -0.5423917 -0.86020213 -0.62650734 -0.338851 -0.5583588 -0.8565303 -0.7194093
-0.67470586 -0.50894797 -0.48276484 -0.8457331 -0.59759367 -0.47884774 -0.8198149 0.14291266
-0.8394718 -0.66715896 -0.73141354 -0.5634176 -0.77912515 -0.67846745 -1.1646669 -0.69426864
-0.273088 -1.1758999 -1.1988767 -0.04155551 -0.92572767 -1.0565025 -0.43864512 -0.6290755
-0.112537995 -0.5001129 -0.8102779 -0.55351126 -0.79642874 -0.099850744 -1.0183475 -0.60111636
-0.47340316 -0.3147146 -1.0996258 -0.70602435 -0.37478867 -0.667062 0.1301139 -0.67050475
-0.66167724 -0.9056452 -0.7047767 -0.46069646 -0.20287183 -0.6542442 -0.6105531 -0.39018813
-0.0761043 -0.40211284 -0.57730913 -0.07283764 -0.35870996 -0.3694636 -0.6280372 -0.6865457
-0.7480306 -0.393365 -0.53899634 -0.1269409 -0.53737324 -0.63224727 -0.5963816 -0.5495775
-0.73399675 -0.5724305 -0.3811362 -0.80543363 -0.5249643 -0.47675073 -0.6426704 -1.0918871

output_layers.0.weight f4 [40, 256]
00000000: 02d2 14bc 6be0 f73e 6ab1 d13d 9ba0 bd3c
00000010: f468 8fbd 9d48 293e 0883 b3bc 83e5 233e
00000020: 8655 013f 8058 b6be 1866 f53d 0565 fb3d
00000030: ef6b d23d e47c 2ebe 4135 03bf fc3b 26bd
00000040: 64d1 223e ddf5 1d3d 1021 443d 823b 683c
00000050: eccc c23e 7749 0f3e 6502 a03e 3d1a 783d
00000060: 09f2 75be 6f6d 933e b63b 5f3f 5c2d a63e
00000070: d0fd ae3d 87de 3bbc 3094 343e ec66 163d
00000080: 7dd4 0c3e 1440 2d3e ac53 05be 6d8e 283e
00000090: 0efd 96bb 2570 e3be b4c0 153e 907c 9c3d
000000a0: 18bb 183d 3314 85be d6f7 f03e 6007 acbd
000000b0: 6348 ef3d 80e8 2d3c 545b 813e 055f 133e
000000c0: bdd6 223d 29ad 0b3e 5594 e0bc 76b3 74bd
000000d0: fc2d e8be eb41 033e 9a32 92ba ca86 33bd
000000e0: 6e30 013e 64d9 f53e c307 c33d d01f e6bc
000000f0: ee04 e13d a897 74be 7901 e0bd d773 b7bb
00000100: e76a 5f3e 6e55 3c3f 4c60 d73e 7e6e 11bf
00000110: e05e 193f c162 8c3c f48a ffbe 9333 dcbc
00000120: 3806 533e 5167 393f 274a a1bc 73f9 0dbe
00000130: dbff 93be 3c4a 2bbe bde6 ce3d ea88 3a3d
00000140: b697 983d c763 37bd 9727 8b3e 633e 213e
00000150: f87a e7bd 291d f4bd 39bd 243e 4bac 0abf
00000160: 14e0 1ebe 359c 053e 2174 893d d56f 8b3c
00000170: b221 5d3d 5f56 91bd 2465 fcbd ce87 b3bd
00000180: ecdf b4bd dbb4 6e3d 22ae 4b3e 4668 813d
00000190: cf30 123d dc3f 74bf 9fab 863d ad5e aabe
000001a0: d269 1a3e 63af 2c3e 3e24 1e3f 0f25 8dbf
000001b0: 7f2a 5a3d 982c 77be 6172 2abd 8cf4 2e3d
000001c0: 9b9f 1a3d 4447 323f c068 a5be 239d 0e3f
000001d0: d490 a43d 6efc d2bc f982 91be 6385 a1bd
000001e0: 2e5e fa3d e75f b03e 2f20 98be 2941 343e
000001f0: 5f0e 80be cd99 4c3e f8be 14bf fa98 dbbc
00000200: 97b2 383d c62a 4f3e 7743 6dbe ee52 1cbd
00000210: e31c 703e 846a 1f3c fc34 0c3e 1caf 503e
00000220: 66ea a2be 246f 3e3e 02a8 8abd 7986 e3ba
00000230: e31d 5abe cfd0 4d3e 8ac2 bc3d b463 bcbe
00000240: 9ffd 473d 4fe0 72bf 9191 9e3e 5d4a cc3c
00000250: 37f2 e53d 3390 eabc f126 32be 4562 843d
00000260: 5a74 3e3d dcc6 03bf 0b14 19bf 9897 60be
00000270: 3969 ed3d 3e5f 42be ebe9 e13d 2ef2 663f
00000280: 2db1 99bd 7ebe f8be 56e5 8d3d d657 0e3e
00000290: dda6 08bd 635e b6be b01f e83e a049 5fbd
000002a0: c73a ba3d f826 0f3e dfe8 ce3d cd96 463d
000002b0: e50d a53d 0544 3abe 159d a5be 5984 a8be
000002c0: 4a37 0bbf aaab 7bbc 4135 223e d15c 203f
000002d0: f463 26bd 8e84 2ebf 22b3 753e f7bf bfbd
000002e0: df92 a6be cd0c 41be 5bad 7d3e ce70 403d
000002f0: 4da8 0f3f 1826 c83e 36df b93e 13ba f3be
00000300: 43ea 993e d882 ef3c a653 a13c f990 dc3e
00000310: f8f6 cf3d 4f0a f63d edaf 8cbd 7327 36be
00000320: 0c2d 433d 9919 8bbd 3ae8 dc3b 8f0c 0abf
00000330: 7d06 f7bd 8a3c 273d e56a d4bb 8999 90be
00000340: ae72 f13d a820 dabe 5b4f 98be 147e ef3c
00000350: 7302 ce3d cdb3 573f 9d48 813c 8633 bc3e
00000360: 3f93 0e3c d625 36be 1f49 79be fa13 3fbe
00000370: 9e31 00bf b1d0 6cbd 2b7b 46bf dbf9 993e
00000380: 7d61 ca3c 9522 d3bd a2e0 6e3e ea4b 81bd
00000390: 9fbe 02be 0f2b 783c 064a 43be 3ed9 88be
000003a0: 8d0a 46be 00ee 8fbf d766 343d 79b2 bfbe
000003b0: 5bbf 803d 49b3 78bf 91d7 bdbd 677c 2cbe
000003c0: 4abb 2c3e 501f 4dbf 1f36 8c3c 99f6 35bf
000003d0: c83b 90be b26c 74bd 998d 993e 64c9 42be
000003e0: 5305 f8bd 31d4 983e 0fae bd3d 5310 e73d
000003f0: 6a3e aabe 4ac9 033e ddf3 593e f4b8 36be
-0.009083273 0.48413405 0.10238917 0.023147872 -0.0700244 0.16531606 -0.021913067 0.1600552
0.50521123 -0.35614395 0.119823635 0.12275127 0.10274493 -0.1703983 -0.51253134 -0.04058455
0.15900189 0.03856455 0.047883093 0.014174344 0.38046968 0.13992868 0.31251827 0.060571898
-0.2401811 0.2879443 0.87200487 0.3245648 0.08544505 -0.011466629 0.17634654 0.036719248
0.13752933 0.16918975 -0.130202 0.16460581 -0.004607803 -0.44421497 0.14624292 0.07640946
0.0372878 -0.25991973 0.47064084 -0.08399844 0.116837285 0.010614514 0.2526499 0.14391716
0.03975557 0.13640274 -0.02741448 -0.05974146 -0.45347583 0.12818114 -0.0011153996 -0.043829717
0.1261613 0.48017418 0.09522965 -0.028091341 0.109872684 -0.23885977 -0.10937781 -0.005598526
0.21818124 0.73567855 0.42065656 -0.5680922 0.5991039 0.017136933 -0.499107 -0.026880061
0.20607841 0.72423273 -0.019688679 -0.13864689 -0.2890614 -0.16727537 0.101026036 0.045540728
0.074508116 -0.04477289 0.27178642 0.15746455 -0.11302751 -0.11919624 0.16087808 -0.5416915
-0.15515167 0.1304787 0.06711603 0.0170211 0.053987212 -0.07096552 -0.123239785 -0.08766137
-0.08831772 0.058277946 0.19890645 0.06318717 0.03569108 -0.9540994 0.06575703 -0.33275357
0.1507943 0.1686378 0.6177405 -1.1026934 0.053263184 -0.24138105 -0.041612986 0.042713687
0.037749868 0.6963999 -0.3230648 0.5570852 0.08035436 -0.025755133 -0.28420237 -0.078867696
0.122249946 0.34448168 -0.29712054 0.17602982 -0.25010964 0.19980545 -0.58103895 -0.026806343
0.04509219 0.2023116 -0.23170267 -0.038165025 0.2344852 0.009729985 0.13692087 0.20379299
-0.31819457 0.18597084 -0.06770326 -0.0017358802 -0.21300463 0.20099185 0.09216793 -0.36794817
0.048825856 -0.9487352 0.30970433 0.024937803 0.112278394 -0.028633213 -0.17397667 0.06464056
0.04649768 -0.5147531 -0.5979621 -0.21932828 0.11592335 -0.18981645 0.110309444 0.90213287
-0.07504497 -0.48582834 0.06928508 0.13900694 -0.03336226 -0.35618886 0.45336676 -0.054513574
0.09093242 0.13979709 0.101030104 0.04848366 0.08059291 -0.1819001 -0.32346407 -0.32913473
-0.5438124 -0.015360752 0.15840627 0.62641627 -0.040622666 -0.6817101 0.23994115 -0.09362786
-0.3253393 -0.1885254 0.24773161 0.04698258 0.5611618 0.39091563 0.3630311 -0.476029
0.3006154 0.029237196 0.019693207 0.43079355 0.101545274 0.12013685 -0.06869493 -0.17788486
0.047650382 -0.06791992 0.0067415508 -0.5392541 -0.120617844 0.04082922 -0.0064824694 -0.28242138
0.117894515 -0.4260304 -0.29748043 0.029234923 0.10059061 0.8425873 0.015781695 0.3675806
0.008702098 -0.17787871 -0.243443 -0.18659964 -0.5007571 -0.05781621 -0.7753169 0.30073437
0.02470469 -0.103093304 0.23327878 -0.063133076 -0.12768029 0.015146985 -0.19071206 -0.26728243
-0.19339962 -1.1244507 0.04404339 -0.3744085 0.06286498 -0.9714857 -0.09269632 -0.1684433
0.1686832 -0.80125904 0.01711565 -0.71079403 -0.2817061 -0.059673972 0.29990843 -0.19022137
-0.121103905 0.2984939 0.09261715 0.112824105 -0.33250743 0.12869754 0.21284433 -0.17843992

output_layers.0.bias f4 [40]
00000000: 2c84 40be 7046 d33f 4934 bdbd 4800 2dbd
00000010: f6cd 0340 4247 a13f 88e5 dc3f b445 9cbd
00000020: ea19 aa3f 3695 a83f 8ed7 573f fa31 17be
00000030: 1135 7e3f d937 633f 2647 533f 8777 b63f
00000040: 487e 873f a6bb 983f 736c 9b3f 0636 8b3f
00000050: 1ca6 9a3f 0c6c 863f 5aa0 803f b498 b33f
00000060: 0acb 983f 2e09 9d3f b071 833f ae4d 9f3f
00000070: 7d2f 943f d02f 94bd c34e 8a3f b69a 8c3f
00000080: 2876 a93f 05c9 0cbe a5d1 b43f de5f 833f
00000090: 9288 5dbe 80a7 d33c d187 a4be 9211 c93f
-0.1880042 1.6505871 -0.09238488 -0.042236596 2.0594459 1.2599871 1.7257547 -0.07630482
1.3289158 1.3170536 0.84313285 -0.14765158 0.9929972 0.8875709 0.8253044 1.4255227
1.0585413 1.1932266 1.2142471 1.0875862 1.2081943 1.0501723 1.0048935 1.4030976
1.1936963 1.2268426 1.026907 1.2445581 1.1576992 -0.07235682 1.0805286 1.0984714
1.3239183 -0.13748558 1.4126478 1.0263631 -0.21634129 0.025836706 -0.3213487 1.5708487
