MODELS/REWARD COMPARISON/SAC MASKED MODELS/6_2_critic_local_network.pt (torch, 411295 bytes, 6 tensors)

hidden_layers.0.weight f4 [256, 101]
0	0x3d111fda	0.035430767
1	0xbe7521fd	-0.23938747
2	0x3e409b89	0.18809332
3	0xbf8b5bef	-1.0887431
4	0xbf4a3d34	-0.7899964
5	0xbf88128f	-1.0630664
6	0xbdffa64d	-0.12482891
7	0x3f0bc910	0.5460367
8	0x3eb10b00	0.34578705
9	0x3eb54b47	0.35408995
10	0xbe93d417	-0.2887275
11	0xbe337ec2	-0.17528823
12	0x3e56100a	0.20904556
13	0xbf846162	-1.0342219
14	0x3ecff6ec	0.40618074
15	0xbf08be6c	-0.5341556
16	0x3debecc2	0.11519767
17	0x3e597dd9	0.21239413
18	0x3c0b15e8	0.00848911
19	0x3e8ae757	0.27129623
20	0xbbe14744	-0.0068749506
21	0x3f092a45	0.53580123
22	0x3f1b8c5d	0.6076105
23	0xbe9a2712	-0.30107933
24	0x3c461b6f	0.012091502
25	0xc004c9f8	-2.0748272
26	0xbf637af0	-0.8885946
27	0xbfa06495	-1.2530695
28	0xbe8087cc	-0.25103605
29	0xbf0ebf55	-0.557607
30	0x3e015df8	0.12633502
31	0xbf001b94	-0.5004208
32	0x3ee477ba	0.44622594
33	0x3eade707	0.33965322
34	0xbeb6cfd6	-0.3570544
35	0xbfb5c77e	-1.4201505
36	0xbfdd8506	-1.730622
37	0xbf9e25e2	-1.2355311
38	0xbe994584	-0.2993585
39	0x3f246540	0.64216995
40	0xbc5b021a	-0.0133672
41	0xbf7a4bbb	-0.97771806
42	0x3f9aefef	1.2104472
43	0x3fac8b58	1.3480024
44	0xbe1e2cb1	-0.15446736
45	0xbeb2b9e7	-0.34907457
46	0xbe85e6b9	-0.2615259
47	0xbecd5ac4	-0.4010831
48	0xbf5d4d0d	-0.86445695
49	0x3da35a97	0.07976263
50	0x3dc743a3	0.097296976
51	0xbd6472b1	-0.05577344
52	0x3e869fed	0.2629389
53	0xbe029510	-0.12752175
54	0xbff1eb52	-1.8899939
55	0xbf858566	-1.0431335
56	0xbf8470f6	-1.0346973
57	0xbed1bebb	-0.40965828
58	0xbd202e1f	-0.039106485
59	0xbe010343	-0.125989
60	0x3d658afc	0.05604075
61	0x3e2b4b4d	0.16727944
62	0xbe89b547	-0.26896116
63	0x3dc96abf	0.09834813
64	0xc005cec5	-2.0907452
65	0xbfccc807	-1.5998544
66	0xbf7e5e01	-0.9936219
67	0xbfe2a289	-1.7705852
68	0x3e8576f6	0.26067322
69	0xbf063b06	-0.5243381
70	0xbda6ffa8	-0.08154231
71	0x3e288f9c	0.16461033
72	0xbe6aeca0	-0.22941828
73	0xbf3413f5	-0.7034295
74	0xbec54d3f	-0.38535497
75	0xbf668d85	-0.9005969
76	0xbdd6b700	-0.10484123
77	0xbf9b8607	-1.2150277
78	0x3c54f9bb	0.0129989935
79	0x3e7d9cfb	0.24766915
80	0x3df70757	0.12061947
81	0xbe14f3b0	-0.14546084
82	0xbe1faa58	-0.15592325
83	0x3f799a47	0.97501034
84	0x3e63f288	0.22260487
85	0xbeb177fa	-0.34661847
86	0xbe1de110	-0.15417886
87	0xbf8e90c9	-1.1137935
88	0x3d8805ce	0.06641732
89	0xbf33bdb2	-0.7021133
90	0x3dba9b85	0.09111694
91	0xbeeecd47	-0.4664099
92	0x3f123686	0.57114446
93	0xbd790a81	-0.060801033
94	0xbeab43b2	-0.33450085
95	0xbf79618d	-0.97414476
96	0xbecdc1f5	-0.4018704
97	0xbf7f46fc	-0.9971769
98	0x3f1c55b4	0.6106827
99	0xbec19645	-0.3780996
100	0xbdad1ddc	-0.08452961
101	0xbe961274	-0.29310954
102	0x3eb7508e	0.35803646
103	0x4064c07d	3.5742486
104	0x3ed1ad45	0.40952507
105	0x3f5436a6	0.82895887
106	0x3fa474f7	1.2848195
107	0x3f6d9521	0.9280568
108	0x3e51103d	0.2041635
109	0x3ed0b913	0.407662
110	0xbf2d56d8	-0.6771064
111	0xbd47917d	-0.048722733
112	0x3e72866b	0.23684089
113	0x3ed606d2	0.41802078
114	0x3f9bc372	1.216902
115	0x3ffc44f5	1.9708544
116	0xbd46f4f5	-0.048573453
117	0x3edd9494	0.4327742
118	0x3e220f04	0.1582604
119	0xbef3fd63	-0.47654256
120	0xbe0f8f6d	-0.14019556
121	0xbca1368f	-0.019679336
122	0x3fd443ef	1.6583232
123	0x403c46f9	2.9418318
124	0x3fae1cb9	1.3602515
125	0x3f3f234d	0.7466324
126	0x3ef56cc7	0.47934553
127	0x3bcaa1af	0.006183825
128	0xbe60160e	-0.21883413
129	0x3e228c13	0.15873747
130	0x3ee3d83f	0.4450092
131	0x3e709e61	0.23497917
132	0x3f6088e2	0.87708867
133	0x3ff2abdd	1.8958699
134	0xbe9d7c0d	-0.30758706
135	0x3d22b009	0.03971866
136	0xbf176d45	-0.5915111
137	0xbf44c2c0	-0.76859665
138	0xbee7719f	-0.45203874
139	0x3ea6f3c4	0.32607853
140	0x3ec90939	0.3926485
141	0xbe1f2786	-0.1554242
142	0x3ee648d2	0.44977432
143	0x3ec8cff0	0.39221144
144	0x3f248299	0.64261776
145	0xbfa57c05	-1.2928473
146	0xbe800e66	-0.25010985
147	0x3f5a9e7a	0.85398066
148	0x3f02d13f	0.51100534
149	0x3ebe09a9	0.37116745
150	0x3d880d2e	0.06643139
151	0xbe13ec71	-0.14445664
152	0x3c7d832e	0.01547317
153	0xbed74235	-0.420427
154	0x3dc172f5	0.094457544
155	0xbe6c69e4	-0.23087269
156	0xbe9007e6	-0.28131026
157	0xbf3c2364	-0.734915
158	0xbf7700f6	-0.9648584
159	0xbf32d444	-0.6985514
160	0xbe44c337	-0.19215094
161	0xbd2b6d75	-0.041852433
162	0xbeb1c8eb	-0.347236
163	0x3eda27cf	0.42608497
164	0xbf6e7998	-0.9315429
165	0xbc99b259	-0.0187618
166	0x3f1e2ee2	0.6179029
167	0x3ef36410	0.4753728
168	0x3e352b4b	0.17692296
169	0xbe4edb40	-0.20200825
170	0x3eacef43	0.33776292
171	0xbdb3e1d6	-0.08783309
172	0xbeabbb52	-0.33541352
173	0xbe15a4e0	-0.14613676
174	0xbca9ce8d	-0.020728374
175	0x3e96934f	0.29409263
176	0xbd93aacb	-0.072103105
177	0xbf653a09	-0.8954168
178	0x3f16bd7d	0.58882886
179	0xbe9cd395	-0.30630174
180	0xbe26ba10	-0.16281915
181	0xbd017820	-0.0316087
182	0x3d87d375	0.06632129
183	0xbeac6bff	-0.33676144
184	0xbeb42845	-0.35186973
185	0xbf151f46	-0.58250844
186	0xbed3ce78	-0.4136846
187	0xbe04f24b	-0.12983052
188	0xbeac3c03	-0.33639535
189	0xbeb9d122	-0.36292368
190	0xbe117ac8	-0.14206994
191	0xbe897453	-0.2684656
192	0x3e2ad1b7	0.16681562
193	0x3f250687	0.64463085
194	0x3f45c7fe	0.7725829
195	0xbdb3c395	-0.08777539
196	0xbe0e0c48	-0.13871872
197	0x3f38adc7	0.72140163
198	0xbe91c426	-0.28469962
199	0x3e5fe177	0.21863352
200	0xbdfbb0a9	-0.122895546
201	0xbe09bb8e	-0.13450453
202	0x3e3e6555	0.18593343
203	0xbf823b50	-1.0174351
204	0xbf6ebd9d	-0.93258077
205	0xbea26225	-0.31715503
206	0xbf0509a7	-0.51967853
207	0xbe422874	-0.18960744
208	0x3eb032c9	0.34413746
209	0xbf5835c8	-0.84457064
210	0x3e482664	0.19545895
211	0xbeab85e8	-0.335006
212	0x3d31cdab	0.04340903
213	0xbd481d2b	-0.04885594
214	0xbec253c8	-0.37954545
215	0x3e42572e	0.18978569
216	0xbe2ef621	-0.17086078
217	0x3e9dd1de	0.30824178
218	0xbe76dedf	-0.24108456
219	0xbc28ca4b	-0.010302137
220	0x3cd304e4	0.025759168
221	0x3e5ac143	0.21362786
222	0x3cd67b20	0.026181757
223	0xbf0321bd	-0.51223356
224	0xbe6b814a	-0.22998539
225	0xbea2bce4	-0.31784737
226	0x3f1921cd	0.598172
227	0x3f936d79	1.1517783
228	0x3e8e0c29	0.27743652
229	0x3e154866	0.14578399
230	0xbd4b380c	-0.049613997
231	0xbd2d6e46	-0.042341493
232	0x3ded8ccf	0.11599123
233	0xbe6752f9	-0.22590245
234	0xbe4d047d	-0.20021243
235	0x3ee20cbd	0.44150344
236	0xbdc52a06	-0.09627156
237	0xbde16e7a	-0.110074
238	0x3dbe5b8f	0.09294807
239	0xbe8ee74f	-0.2791085
240	0xbed6ef8c	-0.41979635
241	0x3e9822f4	0.29714167
242	0xbd8811f4	-0.06644049
243	0x3e546ce7	0.20744668
244	0xbfca2b9a	-1.5794556
245	0x3e8f43e4	0.27981484
246	0xbe922e08	-0.28550744
247	0xbfb46e50	-1.4096165
248	0xbea0de3a	-0.31419545
249	0xbf19b4f4	-0.6004174
250	0xbecb98b3	-0.39764938
251	0xbf01203f	-0.5043983
252	0x3dc0cabc	0.094136685
253	0xbf8618ca	-1.0476315
254	0xbf50eab8	-0.8160815
255	0x3998b2c8	0.00029124902

hidden_layers.0.bias f4 [256]
0	0x3ead04ab	0.33792624
1	0xbfed40ab	-1.853536
2	0xc0037c6f	-2.0544698
3	0x3eceb13a	0.40369588
4	0xbdd03929	-0.101671524
5	0xbf88ab0a	-1.0677197
6	0xbd972a06	-0.07381062
7	0xc01eb510	-2.4798012
8	0xc024a5a9	-2.572611
9	0x3d7cbd1d	0.06170379
10	0x3e805802	0.25067145
11	0xc021e248	-2.529436
12	0xc000c45d	-2.011985
13	0x3dd76809	0.1051789
14	0xbc419c26	-0.011817014
15	0xc0222a1b	-2.53382
16	0xbf9554c4	-1.1666493
17	0xbf0e7378	-0.5564494
18	0x3ecf57ed	0.4049677
19	0x3f05a4ac	0.52204394
20	0x3def5725	0.116865434
21	0x3ed58299	0.417012
22	0x3c8e7a9a	0.017392445
23	0x3e3e6da1	0.18596508
24	0x3f088a70	0.5333624
25	0x3ccc356b	0.024927815
26	0xbf2550d9	-0.6457649
27	0xbe89e032	-0.2692886
28	0xbfe2b8f4	-1.7712693
29	0x3e7336db	0.23751394
30	0xbf954a47	-1.1663293
31	0x3b45437c	0.0030100038
32	0xbf73aa65	-0.95181876
33	0x3e947496	0.28995198
34	0xbd949914	-0.0725576
35	0xbf25f358	-0.6482444
36	0xbe0f7930	-0.14011073
37	0xba85a06a	-0.0010194902
38	0xbe0cc88f	-0.13748382
39	0xbfc1b285	-1.5132605
40	0xc006f964	-2.1089716
41	0xbd90c21f	-0.07068276
42	0xbff2feb6	-1.8983982
43	0x3e1891b5	0.14899333
44	0x3ee625eb	0.44950804
45	0xbf62bb10	-0.88566685
46	0x3e8d4c0a	0.27597076
47	0xbf80cdbe	-1.0062788
48	0xbffcc3d1	-1.9747258
49	0xc00456d3	-2.0677993
50	0xbe85e8e4	-0.26154244
51	0xbb9c9b2b	-0.0047792397
52	0xbf44d829	-0.76892334
53	0xbd55d68c	-0.05220656
54	0x3e2cf847	0.16891585
55	0x3f02da0d	0.5111397
56	0x3d737fc5	0.059448022
57	0xc019d657	-2.4037073
58	0x3e1248e7	0.14285623
59	0xbeab2073	-0.33423194
60	0xbfa6d06f	-1.3032359
61	0xbe8074ac	-0.25089014
62	0x3d5100c5	0.051026125
63	0x3e55e5d1	0.20888449
64	0xbef6441d	-0.4809884
65	0xc00d6bc7	-2.2097032
66	0x3f140371	0.5781775
67	0xbfe7c4e6	-1.8106964
68	0x3f03a4a2	0.51423085
69	0xbf94cecd	-1.162561
70	0xbfc663ad	-1.5499169
71	0x3edeb896	0.43500203
72	0xbbf8d8a0	-0.007594183
73	0xbfcb2784	-1.5871434
74	0xbe3f17c9	-0.18661417
75	0xbfca652a	-1.5812123
76	0x3e88ce81	0.2672005
77	0xbe551ec6	-0.2081252
78	0x3ca8ebd8	0.020620272
79	0x3eb21325	0.3478023
80	0xbe41300d	-0.18865986
81	0x3ca1cf07	0.019752039
82	0x3ec56b50	0.38558435
83	0xbfd66245	-1.674874
84	0xc01f95f1	-2.4935267
85	0xbeaf7b2f	-0.3427367
86	0xbf5825ea	-0.8443285
87	0xbfcf5c70	-1.6200085
88	0xbcecb4a0	-0.028894722
89	0x3ecc1c8f	0.39865538
90	0xbfd58f27	-1.6684312
91	0xbe8a1bd4	-0.26974356
92	0xbfddbeca	-1.7323849
93	0xc00203b6	-2.0314765
94	0x3e702997	0.23453365
95	0xbec42f62	-0.383174
96	0xbc89a814	-0.016803779
97	0xbfaff892	-1.3747733
98	0xc0127de0	-2.2889328
99	0xbcecdbcf	-0.028913407
100	0xc01f31f5	-2.4874241
101	0x3eb7a539	0.35868242
102	0x3d51dda0	0.05123675
103	0xbf486cfa	-0.78291285
104	0x3ef0b401	0.47012332
105	0x3e8bf40a	0.27334625
106	0xbcef650e	-0.029222991
107	0xbf81ce5a	-1.0141098
108	0xbffc0693	-1.9689506
109	0xbe453dc5	-0.19261844
110	0xbdc48fcf	-0.09597742
111	0xc00ceea3	-2.2020652
112	0xbe872437	-0.26394817
113	0x3e60867c	0.21926302
114	0xbea02ba3	-0.31283292
115	0xbe329791	-0.1744063
116	0xbdf3c9ab	-0.119036995
117	0xbff8b3a3	-1.9429821
118	0xbed4e7e0	-0.41583157
119	0xc00f0b9d	-2.2350838
120	0x3d91dc50	0.071220994
121	0xbfb56c25	-1.4173628
122	0xbf504504	-0.8135531
123	0xbf051cf5	-0.5199731
124	0xbe03f289	-0.12885489
125	0xbe6c21b8	-0.23059738
126	0xbeaf6b1c	-0.34261405
127	0x3df79bab	0.12090238
128	0xbe441297	-0.19147716
129	0x3def8b69	0.11696512
130	0x3ef7f3be	0.48428148
131	0xbf17d92e	-0.59315765
132	0xbe0ea436	-0.13929829
133	0xc0012969	-2.0181525
134	0x3e8697f4	0.26287806
135	0xbd058c50	-0.032604516
136	0x3f1f4e64	0.6222899
137	0xc0174fc7	-2.3642442
138	0xbd5c9ff8	-0.053863496
139	0x3f2b5cc6	0.66938436
140	0xbf7b79b3	-0.98232573
141	0xbef86e91	-0.48521855
142	0x3e371118	0.17877614
143	0xbf833421	-1.0250283
144	0xbfc3a3ec	-1.52844
145	0xbe785ea6	-0.24254856
146	0x3de0a5a5	0.10969094
147	0xbfcc392f	-1.5954951
148	0x3e142160	0.14465857
149	0xbff6d5c1	-1.9283983
150	0xbf5d8efa	-0.8654629
151	0xbed94dcb	-0.42442164
152	0xbe7f5960	-0.24936438
153	0xbf02489e	-0.50892055
154	0x3e864d27	0.26230738
155	0xc00d3e39	-2.2069228
156	0xbf842bad	-1.0325829
157	0xbff36948	-1.9016504
158	0x3e4baa13	0.19889097
159	0xbe84655f	-0.2585859
160	0xbfc5bb14	-1.5447717
161	0x3d28f65f	0.041250583
162	0x3c968712	0.018374953
163	0xbd9dd29d	-0.07706187
164	0xc00e299f	-2.2212903
165	0xbdbce059	-0.092224784
166	0xbcc43fb2	-0.023956154
167	0x3ee58fd4	0.44836295
168	0xbe19fee9	-0.15038647
169	0xbfdad3d6	-1.7095897
170	0x3c22474b	0.009904693
171	0xbf9484d1	-1.1603032
172	0x3da31a0e	0.07963954
173	0x3e92b2e3	0.28652105
174	0xbe06850c	-0.13136691
175	0xbfd10ba0	-1.6331673
176	0x3ef04aed	0.46932164
177	0x3e96bd8d	0.2944149
178	0x3cf806ed	0.03027674
179	0x3ec11c9d	0.37717143
180	0xbe674c53	-0.22587709
181	0x3eb5afd0	0.35485697
182	0xc00386e0	-2.055107
183	0xbe6b564e	-0.22982141
184	0xbd95e09e	-0.07318233
185	0x3e027445	0.12739666
186	0xc01b7198	-2.4288082
187	0x3e03bb79	0.12864484
188	0xbd95d651	-0.07316268
189	0xbf9eca04	-1.24054
190	0xbe790ebe	-0.2432203
191	0xbfcedb47	-1.6160668
192	0x3d85837f	0.065192215
193	0xbf33b81b	-0.702028
194	0x3e8c7f53	0.2744089
195	0xc0048307	-2.0704973
196	0x3e43f1f4	0.19135267
197	0xbf974fc1	-1.1821214
198	0xbfe48b01	-1.7854921
199	0xbdbf9cb9	-0.09356064
200	0xbdecd0ab	-0.11563238
201	0xbf9097f6	-1.1296375
202	0xbee510c5	-0.44739357
203	0xc015979f	-2.3373792
204	0xbed864c7	-0.42264387
205	0xc0089e09	-2.1346457
206	0xc00a8a38	-2.1646862
207	0xbf0c10ab	-0.54712933
208	0x3e24b99f	0.16086434
209	0xbe6c5982	-0.2308102
210	0x3f0e657b	0.55623597
211	0xbf976ee0	-1.1830711
212	0xbff38db3	-1.9027618
213	0xc00fa111	-2.2442057
214	0x3e13f0e3	0.1444736
215	0xc0078d33	-2.117993
216	0x3e26e7e0	0.16299391
217	0x3f1375a4	0.5760138
218	0xbff7cf4a	-1.9360135
219	0x3da15d7e	0.0787916
220	0xc0081f52	-2.1269116
221	0xbfdc740c	-1.7222915
222	0xbd0adab2	-0.03389997
223	0x3e3c1946	0.18369016
224	0x3e056ae5	0.13029058
225	0xbfe90458	-1.8204451
226	0xbdfd669d	-0.123730876
227	0xbf0bb8d2	-0.5457889
228	0x3eba9cb3	0.36447677
229	0xbff27d78	-1.894454
230	0xbee51930	-0.4474578
231	0xbef5bccd	-0.47995606
232	0x3d7d5d7a	0.061856724
233	0xbfdaa3c7	-1.7081231
234	0x3e360d91	0.17778613
235	0xc0217f56	-2.523397
236	0x3ed69014	0.41906798
237	0xbe7bb8fa	-0.24582282
238	0xbe86b7f3	-0.26312217
239	0xbfc74ff3	-1.5571274
240	0x3f02c8c1	0.51087576
241	0xbf7ea6ee	-0.99473464
242	0x3f011cc3	0.5043451
243	0xbe6cddeb	-0.2313153
244	0xbf5fda14	-0.87442136
245	0xc004b06b	-2.0732677
246	0xbe706066	-0.23474273
247	0xbf414c7c	-0.7550733
248	0x3ea68da0	0.32529926
249	0xbee1a068	-0.44067693
250	0xbd9f0ec5	-0.07766489
251	0x3eacc111	0.33741048
252	0x3e644839	0.22293176
253	0xc004e042	-2.0761876
254	0xbcebbb2e	-0.028775778
255	0xbd24784a	-0.04015378

hidden_layers.1.weight f4 [256, 256]
0	0xbe9814cb	-0.29703364
1	0xbe7fe483	-0.24989514
2	0xbf080c1e	-0.5314349
3	0x3ec27c98	0.37985682
4	0xbe58135c	-0.21101135
5	0xbe9aa7f7	-0.30206272
6	0xbdd87a89	-0.10570247
7	0xbe4cf5c1	-0.20015623
8	0xbe8e4d9d	-0.2779359
9	0x3d62330d	0.055224467
10	0x3e9c7180	0.30555344
11	0xbed6429b	-0.4184769
12	0xbe67d5d7	-0.22640167
13	0xbdb22fd7	-0.08700531
14	0x3e097407	0.13423167
15	0xbe6b66ad	-0.22988386
16	0xbe590a2a	-0.21195284
17	0x3d446af3	0.047953557
18	0x3d46d834	0.04854603
19	0x3ee0fc33	0.43942413
20	0x3f1d46ce	0.61436164
21	0x3d718287	0.05896237
22	0x3f25dc0b	0.64788884
23	0x3d533fa9	0.051574383
24	0x3ee49816	0.44647282
25	0x3dc3da33	0.095631026
26	0xbeb5105f	-0.35364053
27	0x3e8bceff	0.27306363
28	0x3e59e2e5	0.2127796
29	0x3ead9549	0.33902958
30	0xbdfa76f8	-0.12229723
31	0xbdd9948c	-0.10624036
32	0x3ec45db4	0.3835274
33	0x3f053736	0.5203737
34	0x3c534292	0.01289429
35	0x3da16b2e	0.07881771
36	0xbd0e77de	-0.034782283
37	0x3d39b796	0.045341097
38	0x3da430f3	0.08017149
39	0x3ee2964c	0.44255292
40	0xbf3e5dc6	-0.74361837
41	0x3e0a26df	0.1349139
42	0x3e2bedf1	0.16789986
43	0xbe7a6397	-0.24452053
44	0x3e2000b9	0.15625276
45	0xbe0877ac	-0.13326901
46	0x3e889f3c	0.26683986
47	0xbe4ebf18	-0.20190084
48	0xbccebf96	-0.02523784
49	0xbe24eada	-0.16105214
50	0x3df29909	0.118455954
51	0x3ebb41d5	0.36573663
52	0xbc51950a	-0.012791881
53	0x3cac3ea5	0.021025965
54	0xbe4fabb5	-0.20280345
55	0x3d15fb30	0.036616504
56	0xbed4809c	-0.4150437
57	0xbe018d29	-0.12651505
58	0x3e8e8102	0.278328
59	0xbec98e5c	-0.39366424
60	0xbdf3009d	-0.11865351
61	0x3e2380fd	0.15967174
62	0x3e859bdd	0.26095477
63	0x3e642d35	0.2228287
64	0xbe4b0ba7	-0.19828664
65	0x3de44d8e	0.11147605
66	0xbe0e29fd	-0.13883205
67	0x3eda9ad2	0.42696244
68	0x3ccbeabf	0.02489221
69	0x3e0c1d68	0.13683093
70	0x3f0334a4	0.512522
71	0x3e8a4f62	0.2701369
72	0xbec736d0	-0.38909006
73	0xbe82f737	-0.25579235
74	0xbb1a0dac	-0.0023506684
75	0xbde5e2ea	-0.11224921
76	0x3e1add0f	0.1512339
77	0x3c1f06c6	0.009706205
78	0xbc822836	-0.015888315
79	0x3d428fa4	0.047500268
80	0x3c90ddee	0.01768395
81	0x3f04406b	0.51660794
82	0xbe64a016	-0.22326693
83	0xbda8fee4	-0.082517415
84	0xbe697d09	-0.22801603
85	0x3dbd27aa	0.09236081
86	0x3ea9f47e	0.33194345
87	0x3ea2fe43	0.3183461
88	0x3e28451d	0.16432615
89	0x3f5a5c45	0.8529704
90	0xbd190971	-0.03736252
91	0xbda36039	-0.079773374
92	0x3dd10a35	0.10207025
93	0xbcbee1de	-0.023301061
94	0x3d1ee3b6	0.03879138
95	0x3e0a8929	0.13528885
96	0xbe2f3d3b	-0.17113201
97	0x3d90f3a4	0.07077721
98	0xbee3c3fc	-0.44485462
99	0x3c5db9a6	0.013533032
100	0xbe2d202c	-0.16906804
101	0x3c161f52	0.009162741
102	0x3e80d7fb	0.2516478
103	0x3ef6bfbd	0.4819316
104	0xbf3e4b14	-0.7433331
105	0x3d2a6c2d	0.04160707
106	0xbe923d8f	-0.2856259
107	0xbe0930c4	-0.13397509
108	0x3d8932c3	0.06699135
109	0x3ebdc68d	0.37065545
110	0x3e136dbd	0.1439733
111	0xbd4dde0d	-0.050260592
112	0xbe9ca6ee	-0.30596107
113	0x3eac7e0a	0.3368991
114	0x3f12ece2	0.57392704
115	0xbd892816	-0.06697099
116	0xbd944be7	-0.0724104
117	0x3e2fd9b1	0.17172886
118	0x3c9be794	0.019031323
119	0xbde4cea5	-0.11172227
120	0xbcb52f00	-0.022117138
121	0x3ebf8cc6	0.3741209
122	0x3dec74f2	0.11545743
123	0x3e728e59	0.23687114
124	0x3e8be6c7	0.27324507
125	0x3c138339	0.009003454
126	0xbdcf5e1d	-0.101253726
127	0x3f3accc9	0.7296873
128	0xbdd2dbc8	-0.10295826
129	0x3e80817b	0.25098786
130	0x3d09b9ab	0.033624332
131	0xbe29589f	-0.16537713
132	0x3e23ef55	0.16009267
133	0x3d755f24	0.059905186
134	0x3e9a72df	0.30165765
135	0xbd45e74e	-0.048316292
136	0x3e669c42	0.22520545
137	0xbdaaed5b	-0.08346053
138	0xbd54c779	-0.051948044
139	0x3e8149bc	0.25251567
140	0x3ea8384c	0.3285545
141	0x3e7bfef4	0.24608976
142	0x3dcf82de	0.10132383
143	0x3deabafa	0.11461444
144	0x3eab9ffb	0.33520493
145	0x3d6ccf1f	0.057814714
146	0xbe470af7	-0.19437777
147	0x3e06ebd1	0.13175894
148	0x3d00a827	0.031410363
149	0xbd8caba3	-0.068686746
150	0x3d748d81	0.05970526
151	0x3d86c377	0.06580251
152	0x3d8a2f29	0.06747276
153	0xbe120e50	-0.14263272
154	0xbe6e0d52	-0.23247269
155	0xbedc944c	-0.43081892
156	0x3df63e18	0.12023562
157	0x3d56def9	0.052458737
158	0xbe14b9cf	-0.14524005
159	0x3f2797f9	0.65466267
160	0xbdf1a366	-0.11798744
161	0xbe2b412a	-0.16724077
162	0x3eaae2be	0.33376116
163	0xbdaf0671	-0.085461505
164	0xbe59de89	-0.21276297
165	0x3be77874	0.0070639197
166	0x3ecf6e4c	0.40513837
167	0xbea7e8db	-0.32794842
168	0xbdc82050	-0.09771788
169	0x3e395b26	0.18101177
170	0xbd3837cb	-0.044975083
171	0xbe15fc38	-0.14646995
172	0xbc67423a	-0.014114911
173	0x3e814f2b	0.25255713
174	0x3dd9d5f9	0.10636515
175	0xbd362f71	-0.044478837
176	0x3d0e52da	0.034746982
177	0x3d86b753	0.06577935
178	0xbd5f29d5	-0.054483254
179	0x3eb8041a	0.3594063
180	0x3eae0593	0.33988628
181	0xbeadd665	-0.33952633
182	0xbf079698	-0.5296416
183	0x3e296095	0.1654075
184	0xbbeb0c2f	-0.0071730833
185	0x3d382eaf	0.044966396
186	0xbe4b17fa	-0.19833365
187	0x3d4bea7d	0.049784172
188	0xbd7a9473	-0.06117673
189	0xbe4681b8	-0.19385421
190	0x3cbd026c	0.023072444
191	0xbe1adb4e	-0.1512272
192	0x3db80c67	0.089867406
193	0xbe57b8af	-0.21066545
194	0xbd9bbcdf	-0.07604384
195	0xbbfa8f29	-0.0076464606
196	0xbec859c8	-0.39130998
197	0xbee8a3ea	-0.45437557
198	0xbc374bee	-0.011187537
199	0x3dc673fc	0.09690091
200	0xbe9c4985	-0.3052484
201	0x3e4c1a62	0.19931939
202	0xbdcb5176	-0.09927647
203	0xbde3aac3	-0.111165546
204	0xbe61afc8	-0.22039711
205	0xbe437845	-0.19088848
206	0xbf7a058a	-0.976647
207	0x3e1d2b28	0.15348494
208	0x3e9cf550	0.3065591
209	0xbe1f2f2b	-0.15545337
210	0xbe4b24f5	-0.19838317
211	0x3ddd26af	0.10798394
212	0xbe019be5	-0.12657125
213	0x3e83a4c6	0.2571165
214	0x3d2f510a	0.042801894
215	0xbe4c17e5	-0.1993099
216	0xbcbdeceb	-0.02318426
217	0x3ede039e	0.43362135
218	0x3e45eda5	0.19328935
219	0x3e5b1822	0.21395925
220	0x3f2e1402	0.6799928
221	0xbdd71931	-0.10502852
222	0xbca09157	-0.019600553
223	0x3eaa2b43	0.3323613
224	0xbe8f54b2	-0.27994305
225	0x3e6ac0ed	0.22925158
226	0x3ea00e70	0.31261015
227	0xbe89400b	-0.26806673
228	0x3daac57c	0.083384484
229	0xbe909ec8	-0.2824614
230	0x3e7528b9	0.23941316
231	0xbe99e283	-0.30055627
232	0xbe8d87c2	-0.27642637
233	0xbeda4df4	-0.426376
234	0x3ef6c6fa	0.48198682
235	0xbe761022	-0.24029592
236	0x3e05ec29	0.13078369
237	0xbf01bfcd	-0.5068329
238	0xbe2508e0	-0.16116667
239	0x3e0e798d	0.13913555
240	0xbc12f775	-0.008970131
241	0xb9c801d2	-0.0003814833
242	0x3cc7686c	0.024341784
243	0xbda028db	-0.078202926
244	0xbe5d7aab	-0.21628825
245	0xbf0b2930	-0.5435972
246	0x3de0ac0a	0.10970314
247	0xbd1a2415	-0.037632067
248	0xbe8e166d	-0.27751485
249	0xbef07c2a	-0.4696973
250	0xbe10a6dd	-0.14126153
251	0x3dfff412	0.124977246
252	0x3ea2d273	0.31801185
253	0xbe7bdb24	-0.24595314
254	0xbde9cdf5	-0.11416236
255	0x3e5315ff	0.2061386

hidden_layers.1.bias f4 [256]
0	0xbf007676	-0.5018076
1	0xbf15d61f	-0.5852985
2	0xbf8dc9db	-1.1077226
3	0xbf2b6d03	-0.66963214
4	0xbf18c155	-0.5967
5	0xbf132860	-0.5748348
6	0xbf1d3617	-0.6141066
7	0xbf053620	-0.52035713
8	0xbea7157b	-0.32633576
9	0xbf5646e2	-0.8370191
10	0xbefe140d	-0.49624673
11	0xbf8c465e	-1.0958974
12	0xbf44ecc8	-0.769238
13	0xbeeaacb4	-0.45834887
14	0xbf2b4a5e	-0.6691035
15	0xbf3dc307	-0.74125713
16	0xbef53ace	-0.47896427
17	0xbec156ac	-0.37761438
18	0xbf3f49ef	-0.7472219
19	0xbe76a48b	-0.24086206
20	0xbf27082a	-0.6524683
21	0xbf1f776a	-0.62291586
22	0xbeb1056e	-0.34574455
23	0xbdb852d5	-0.09000174
24	0xbf24c6da	-0.64365923
25	0xbf0a3b81	-0.53997046
26	0xbf19bcdc	-0.600538
27	0xbf1738c6	-0.59071004
28	0xbf7d9fc5	-0.99071914
29	0xbf80b7b5	-1.0056063
30	0xbed1e49b	-0.40994725
31	0xbf1d8123	-0.6152517
32	0xbf918d6d	-1.1371285
33	0xbf24ddae	-0.64400756
34	0xbf38304a	-0.71948683
35	0xbf878a75	-1.0589129
36	0xbf1b0f41	-0.6057015
37	0xbec55484	-0.38541043
38	0xbf843656	-1.0329082
39	0xbf8020de	-1.001003
40	0xbf28c38c	-0.6592338
41	0xbea5ebcb	-0.32406458
42	0xbec64bf9	-0.38729838
43	0xbf8b39c9	-1.087701
44	0xbf6809e0	-0.9064007
45	0xbf616def	-0.8805837
46	0xbf008c55	-0.5021413
47	0xbf162b53	-0.5865986
48	0xbed5a3de	-0.41726583
49	0xbf471ef9	-0.77781636
50	0xbea65ac8	-0.32491136
51	0xbf41a20e	-0.756379
52	0xbf1fdc81	-0.6244584
53	0xbf2ea6e9	-0.68223435
54	0xbef50340	-0.47854042
55	0xbeaff4b5	-0.34366384
56	0xbf4dfdb8	-0.8046527
57	0xbd5305ee	-0.051519327
58	0xbe70a746	-0.2350131
59	0xbee3bf67	-0.44481966
60	0xbf611948	-0.879292
61	0xbec96307	-0.39333364
62	0xbf0b6b60	-0.54460716
63	0xbed36722	-0.41289622
64	0xbf4e96e4	-0.8069899
65	0xbec8a3ad	-0.39187375
66	0xbdc45cae	-0.0958799
67	0xbf400998	-0.7501464
68	0xbf0508b9	-0.51966435
69	0xbf067078	-0.52515364
70	0xbf2ceb7a	-0.6754681
71	0xbf63d374	-0.88994527
72	0xbed0b678	-0.40764213
73	0xbf585646	-0.8450664
74	0xbf1119bf	-0.5667991
75	0xbf593a23	-0.84854335
76	0xbf4a95f8	-0.79135084
77	0xbf435de5	-0.76315147
78	0xbf0359b1	-0.51308733
79	0xbec4f9c7	-0.38471815
80	0xbf6edddb	-0.93307275
81	0xbf1069bf	-0.56411356
82	0xbeebb34c	-0.4603523
83	0xbf1dc6fd	-0.6163176
84	0xbf930ea1	-1.1488839
85	0xbf277286	-0.65409124
86	0xbf0d2efe	-0.5514983
87	0xbf3219de	-0.6957072
88	0xbf2b34fd	-0.6687773
89	0xbf7e0046	-0.9921917
90	0xbe75d63d	-0.24007507
91	0xbf1b0408	-0.60553026
92	0xbf4e7f7d	-0.8066328
93	0xbf0f4b1b	-0.55973977
94	0xbf470088	-0.77735186
95	0xbf487640	-0.78305435
96	0xbea258cd	-0.31708375
97	0xbeeb9bd5	-0.46017328
98	0xbf53918d	-0.8264397
99	0xbf193c5d	-0.5985773
100	0xbf0198b4	-0.5062363
101	0xbf89621c	-1.0733066
102	0xbf168b0c	-0.5880592
103	0xbf450dc5	-0.76974136
104	0xbf8cc499	-1.0997497
105	0xbed5f5d8	-0.41789126
106	0xbef80802	-0.4844361
107	0xbf1daf77	-0.61595863
108	0xbf4877d5	-0.7830785
109	0xbeccf518	-0.40030742
110	0xbf509511	-0.8147746
111	0xbeef22e9	-0.46706322
112	0xbf5e69a7	-0.8687996
113	0xbebfdb79	-0.37472132
114	0xbeb78061	-0.35840133
115	0xbe8b5c17	-0.27218696
116	0xbf23f562	-0.640463
117	0xbf5a6dff	-0.8532409
118	0xbef4a75c	-0.47783935
119	0xbee852f2	-0.45375782
120	0xbf899222	-1.0747721
121	0xbed32cbf	-0.41245076
122	0xbf3dfe05	-0.7421573
123	0xbf15b1a5	-0.5847419
124	0xbeedcbc4	-0.46444523
125	0xbf2b09ac	-0.66811633
126	0xbe63cc62	-0.22245935
127	0xbee64a74	-0.44978678
128	0xbf582ace	-0.84440315
129	0xbf598617	-0.8497023
130	0xbf8b7c57	-1.089732
131	0xbf44be4b	-0.76852864
132	0xbef1ed9b	-0.4725159
133	0xbf496e5a	-0.7868401
134	0xbf2df887	-0.6795735
135	0xbf6e021f	-0.92971987
136	0xbf41d49f	-0.7571506
137	0xbf28f2ce	-0.6599549
138	0xbf3bcdef	-0.73361105
139	0xbf0ba5a7	-0.5454964
140	0xbf7196bd	-0.94370633
141	0xbf24ff53	-0.64452094
142	0xbf27b6ac	-0.6551311
143	0xbf965c37	-1.1746892
144	0xbfa0a0da	-1.2549088
145	0xbf5a2be9	-0.8522325
146	0xbee5f1e2	-0.44911104
147	0xbf0410f3	-0.5158836
148	0xbf12660e	-0.57186973
149	0xbf128021	-0.5722676
150	0xbf102fcf	-0.5632295
151	0xbf67c4fd	-0.90534955
152	0xbf1ae34c	-0.6050308
153	0xbf711b95	-0.9418271
154	0xbf285e1f	-0.6576862
155	0xbe7839dd	-0.24240823
156	0xbf47c318	-0.78032064
157	0xbf9bbc7f	-1.21669
158	0xbef2b549	-0.47403935
159	0xbf848e94	-1.0356011
160	0xbe372dda	-0.17888585
161	0xbf156761	-0.5836087
162	0xbeef6b10	-0.4676137
163	0xbf76ae98	-0.9636016
164	0xbf57edef	-0.8434743
165	0xbf911845	-1.1335531
166	0xbf02309c	-0.5085542
167	0xbf405d43	-0.75142306
168	0xbf64dad2	-0.89396393
169	0xbf5e62ed	-0.868697
170	0xbf2b2d25	-0.6686576
171	0xbf277bf1	-0.65423495
172	0xbeb0f4a8	-0.34561658
173	0xbf1f9d0d	-0.62349015
174	0xbf8b10e7	-1.0864533
175	0xbe9255ef	-0.28581187
176	0xbf439a51	-0.76407343
177	0xbf3d131c	-0.73857284
178	0xbf352646	-0.70761526
179	0xbf201e2a	-0.62546027
180	0xbf4df387	-0.8044972
181	0xbf767e10	-0.96286106
182	0xbe9cf7c7	-0.3065779
183	0xbf056e64	-0.5212157
184	0xbf07b746	-0.5301403
185	0xbe80ee8f	-0.25182006
186	0xbf1b7ec9	-0.60740334
187	0xbf1ca9e7	-0.6119675
188	0xbefc0e7c	-0.492298
189	0xbe368f80	-0.17828178
190	0xbeb280e8	-0.34863973
191	0xbf0a70cf	-0.5407838
192	0xbf23808b	-0.63868016
193	0xbed9a43e	-0.4250812
194	0xbf593581	-0.84847265
195	0xbe94ab99	-0.2903717
196	0xbf340185	-0.7031482
197	0xbf450005	-0.76953155
198	0xbf435e69	-0.76315933
199	0xbe688f49	-0.22710909
200	0xbedea385	-0.4348413
201	0xbe76bec7	-0.24096213
202	0xbe09af49	-0.13445772
203	0xbf7b7beb	-0.9823596
204	0xbf56cefc	-0.83909583
205	0xbf79988b	-0.9749839
206	0xbf20375a	-0.6258446
207	0xbf6eb196	-0.93239725
208	0xbe8663b7	-0.2624795
209	0xbf0cf92b	-0.550677
210	0xbf3937c9	-0.72350746
211	0xbf59be38	-0.85055876
212	0xbdc46ea9	-0.09591419
213	0xbf963830	-1.1735897
214	0xbf4a7c86	-0.7909626
215	0xbe73cad7	-0.23807846
216	0xbecc5b12	-0.3991323
217	0xbf25862a	-0.64657843
218	0xbf2ac082	-0.66699994
219	0xbf28a8a2	-0.65882313
220	0xbf018056	-0.5058645
221	0xbf8ad583	-1.0846409
222	0xbf5816b9	-0.8440967
223	0xbf11c5a8	-0.56942225
224	0xbf85765f	-1.0426749
225	0xbf5602df	-0.8359813
226	0xbf773007	-0.9655766
227	0xbe946366	-0.28982085
228	0xbe95fa33	-0.2929245
229	0xbf43ecf6	-0.7653345
230	0xbf44b09f	-0.76832
231	0xbe0c8e6b	-0.13726203
232	0xbf7d09ed	-0.9884327
233	0xbe7a43b3	-0.24439888
234	0xbef21c35	-0.47287145
235	0xbec080c4	-0.3759824
236	0xbf5e9742	-0.8694955
237	0xbed09205	-0.40736404
238	0xbec16372	-0.37771183
239	0xbf0aa4d8	-0.5415778
240	0xbf05148f	-0.51984495
241	0xbf41419d	-0.7549074
242	0xbefe0e4b	-0.4962028
243	0xbf639120	-0.8889332
244	0xbf2ed98c	-0.683007
245	0xbeea130d	-0.4571766
246	0xbf095d47	-0.53657955
247	0xbe92a5cc	-0.28642118
248	0xbe6023a0	-0.2188859
249	0xbf074d52	-0.52852356
250	0xbf300aa4	-0.68766236
251	0xbef65396	-0.48110646
252	0xbec5e46f	-0.38650844
253	0xbd9e4ffb	-0.07730099
254	0xbf3cb969	-0.73720413
255	0xbec0504f	-0.3756127

output_layers.0.weight f4 [40, 256]
0	0xbe3c3e3c	-0.18383116
1	0xbea9890e	-0.33112377
2	0x3e2817c6	0.16415319
3	0xbcbda621	-0.023150505
4	0xbd7b4074	-0.061340764
5	0xbe414bad	-0.18876524
6	0x3e28a85f	0.16470478
7	0x3ef65c55	0.4811732
8	0xbe4904de	-0.19630763
9	0x3e039058	0.12848032
10	0x3e4b0480	0.19825935
11	0xbe8d2b4c	-0.27572095
12	0xbe121294	-0.142649
13	0x3e174a70	0.1477449
14	0xbda6f3e3	-0.081519864
15	0x3d0046c0	0.031317472
16	0x3e4d31f2	0.20038584
17	0x3e63faf7	0.22263704
18	0x3e0ec9da	0.13944188
19	0x3dc4f1cc	0.096164316
20	0xbd3cc32b	-0.046084564
21	0xbeb7ad69	-0.3587449
22	0x3e21b129	0.15790237
23	0x3b835d99	0.0040089604
24	0x3cba550d	0.022745633
25	0x3e56b0f1	0.20965935
26	0x3f203a93	0.6258938
27	0x3e1907e9	0.14944424
28	0xbc98a408	-0.018632904
29	0x3e0877bc	0.13326925
30	0x3cc17ae7	0.023618175
31	0xbd91fe51	-0.07128585
32	0x3e68ae09	0.22722639
33	0x3d0708be	0.03296732
34	0x3e783d06	0.24242029
35	0xbc2fa8b5	-0.010721375
36	0xbb9b1aac	-0.004733404
37	0x3d8a291a	0.06746121
38	0x3e4b5b37	0.19859014
39	0x3cb7bedb	0.022429874
40	0x3d0e32db	0.03471647
41	0x3dd29220	0.102817774
42	0x3ee9d194	0.45667708
43	0xbd11f531	-0.035634223
44	0x3d848464	0.06470564
45	0x3c58644e	0.013207508
46	0xbe155157	-0.1458181
47	0x3cce2464	0.025163837
48	0x3cf2322d	0.029564941
49	0x3e311ddd	0.17296548
50	0x3df41fff	0.11920165
51	0xbe4c3da9	-0.19945396
52	0x3d97b590	0.07407677
53	0x3df4a04d	0.119446374
54	0xbcae791a	-0.02129798
55	0xbe628505	-0.22121055
56	0x3e7a278e	0.24429151
57	0xbe90e0a9	-0.28296402
58	0x3d75ced1	0.06001169
59	0x3e1398c3	0.14413743
60	0x3ed3896a	0.41315776
61	0x3d56e514	0.05246456
62	0x3ee9a890	0.45636415
63	0xbd7d8cdd	-0.061901916
64	0x3d9e5319	0.07730693
65	0x3d8e536d	0.06949506
66	0x3b2d8381	0.0026476088
67	0xbe65bc0a	-0.22435012
68	0xbee519cf	-0.44746253
69	0xbda7ef95	-0.081999935
70	0xbe6e3e98	-0.23266065
71	0xbe11f8a9	-0.14255013
72	0xbe6c5447	-0.23079024
73	0xbd0ba911	-0.03409678
74	0xbd26ded2	-0.04073984
75	0x3dc9660d	0.09833918
76	0x3e0cd1b1	0.13751866
77	0x3d799138	0.060929507
78	0x3eab6bc0	0.33480644
79	0x3e7f85c4	0.24953371
80	0x3d620088	0.055176288
81	0xbcb8ea6b	-0.022572717
82	0xbe2eb4fc	-0.17061228
83	0x3e3da7a3	0.1852098
84	0x3efed6f2	0.49773365
85	0xbe460c2c	-0.1934058
86	0xbe5119e7	-0.20420037
87	0x3e1efdf0	0.15526557
88	0xbd11b6e8	-0.035574824
89	0xbdcdeb6f	-0.10054671
90	0x3e489670	0.19588637
91	0xbd99f178	-0.0751676
92	0x3d563852	0.052299805
93	0x3eed9f32	0.4641052
94	0x3dce8492	0.100838795
95	0x3e2c7e51	0.16845061
96	0xbd362984	-0.044473186
97	0x3d06180e	0.032737784
98	0x3e0e4fcf	0.13897632
99	0x3ddd8f32	0.10818328
100	0xbebf1b8e	-0.3732571
101	0x3d99f7aa	0.07517941
102	0xbc8075d4	-0.015681185
103	0xbe0fad51	-0.14030959
104	0x3df1d266	0.118077084
105	0x3e9aa385	0.3020288
106	0x3e219230	0.15778422
107	0xbe4de93f	-0.20108508
108	0xbeac3617	-0.33635017
109	0xbd16678c	-0.036719844
110	0x3e177b95	0.14793237
111	0xbee0bfab	-0.4389623
112	0xbdcada38	-0.09904903
113	0xbddaedb4	-0.106898695
114	0xbea456ec	-0.32097566
115	0xbdbdbfba	-0.092650846
116	0x3ecffb9e	0.40621656
117	0xbed92891	-0.42413762
118	0xbb7ce5dd	-0.0038589158
119	0xbeb6e813	-0.35723934
120	0x3d020873	0.03174634
121	0xbc11cf0b	-0.008899461
122	0xbe4539a2	-0.19260266
123	0xbd8efc98	-0.06981772
124	0x3d713ce2	0.058895953
125	0x3e3075cd	0.17232437
126	0x3d87a429	0.06623108
127	0xbd98ac79	-0.074547715
128	0xbd3faeff	-0.04679775
129	0xbd77c254	-0.06048806
130	0xbda594dc	-0.08085033
131	0xbd05b09f	-0.032639142
132	0xbe7b8dd9	-0.2456583
133	0x3e922023	0.28540143
134	0xbe470233	-0.19434433
135	0xbdfc7a48	-0.12328011
136	0xbdd19a64	-0.10234526
137	0x3d218f13	0.039443087
138	0x3d9a9d1f	0.075495
139	0xbd045924	-0.032311574
140	0xbe54b889	-0.2077352
141	0x3d8a64ea	0.06757529
142	0x3e3e0bb5	0.18559153
143	0x3e443576	0.19161019
144	0xbddfbcf8	-0.10924715
145	0x3d293acb	0.041315835
146	0x3cc975a3	0.024592226
147	0xbdb824d8	-0.089914024
148	0xbdc9277d	-0.09821985
149	0xbe3e7f72	-0.18603304
150	0xbec2c191	-0.38038304
151	0xbdc212cc	-0.094762415
152	0x3e566c1a	0.20939675
153	0x3e8ba57f	0.272747
154	0x3e80bb3b	0.25142846
155	0x3db3a70d	0.08772097
156	0x3e56fc4b	0.2099468
157	0x3dbdb9c0	0.092639446
158	0xbc3da2c2	-0.011574449
159	0x3e324439	0.17408837
160	0x3911619c	0.0001386464
161	0x3d0d61be	0.034517042
162	0x3f1561d8	0.5835242
163	0xbe5b87c6	-0.21438512
164	0xbd95b6dd	-0.07310269
165	0x3eae942d	0.34097424
166	0xbe6f0234	-0.23340684
167	0xbda66f05	-0.08126644
168	0x3e0318a0	0.12802362
169	0xbdce89e0	-0.10084891
170	0xbc968354	-0.018373169
171	0xbeb2eb61	-0.34945205
172	0xbc476424	-0.0121698715
173	0xbecc1c2a	-0.39865237
174	0x3d0bbf28	0.034117848
175	0x3c05fe3e	0.008178292
176	0xbf22c968	-0.6358857
177	0xbe447247	-0.19184218
178	0xbdd04dae	-0.10171066
179	0xbe3e0157	-0.18555199
180	0xbd6c57e1	-0.057700995
181	0x3d8f900a	0.07009895
182	0xbdd627cd	-0.1045681
183	0x3d87a8c7	0.066239886
184	0x3e51ca10	0.20487237
185	0xbe8f88ea	-0.28034145
186	0x3e955b18	0.29171062
187	0xbe6f9a1e	-0.23398635
188	0xbdc3ef43	-0.0956712
189	0xbece465a	-0.4028805
190	0xbd0b853c	-0.03406261
191	0xbb83a3cd	-0.0040173293
192	0xbd05ab1e	-0.032633893
193	0x3c6c7b60	0.014433712
194	0x3ee92238	0.4553392
195	0x3dc5678d	0.09638891
196	0x3e3d0505	0.18458946
197	0xbdc75e13	-0.0973474
198	0x3e54d94b	0.20786016
199	0x3b610b3f	0.0034338979
200	0x3ea6eaee	0.32601112
201	0xbee753f6	-0.45181245
202	0xbd7622df	-0.06009185
203	0xbe5354ba	-0.2063779
204	0xbde131db	-0.10995837
205	0x3e99ca4d	0.30037156
206	0xbdef682a	-0.116897896
207	0x3e0eb6bc	0.13936895
208	0xbdc6429b	-0.09680673
209	0x3e253d5b	0.16136687
210	0xbd8076a6	-0.062726304
211	0xbe4af412	-0.19819668
212	0xbeb7961a	-0.35856706
213	0x3df2df20	0.11858964
214	0xbce7f277	-0.028313858
215	0xbc9b0ebc	-0.018927924
216	0xbcd8d9bb	-0.02647101
217	0xbdd89fe4	-0.10577372
218	0xbe75982c	-0.2398383
219	0xbe257cbc	-0.16160864
220	0x3e8d00a2	0.27539545
221	0xbcf04835	-0.029331306
222	0x3d4e1f9b	0.05032311
223	0x3dec2beb	0.11531814
224	0x3e075a98	0.13218153
225	0xbb892e10	-0.0041863993
226	0xbe8afd4d	-0.27146378
227	0xbe60f6c3	-0.21969132
228	0x3e0d34b0	0.1378963
229	0x3ec543bb	0.38528237
230	0x3d4be99b	0.04978333
231	0x3bb7b1dd	0.0056059198
232	0x3cc836c4	0.024440177
233	0xbe44d8c0	-0.19223309
234	0xbde77acf	-0.11302721
235	0x3e1caa0c	0.15299243
236	0xb974a1cc	-0.00023329927
237	0x3e32775c	0.17428344
238	0xbd7ed1dd	-0.06221186
239	0x3d4a4a09	0.04938701
240	0x3df109ca	0.11769445
241	0x3f0f1e44	0.55905557
242	0x3ba1ce2f	0.004937909
243	0x3e441e61	0.19152214
244	0xbd02a5fd	-0.03189658
245	0x3bbadc37	0.005702521
246	0xbddb7ec8	-0.10717541
247	0xbe054bc4	-0.13017184
248	0xbd023e98	-0.031797975
249	0xbdfab3b5	-0.12241308
250	0x3e0cafbc	0.13738912
251	0xbe7ad52e	-0.24495384
252	0xbe86d20e	-0.26332134
253	0x3ba26282	0.0049555907
254	0x3c03a569	0.008035042
255	0xbcfa1505	-0.030527601

output_layers.0.bias f4 [40]
0	0xbf584135	-0.844745
1	0x3fd8ef25	1.6947981
2	0xbea46290	-0.32106447
3	0xbedbd2f3	-0.4293438
4	0x3fb3bb68	1.4041567
5	0x3f614247	0.87991756
6	0x3fa05c62	1.2528193
7	0x3d2404ee	0.040043764
8	0x3fb79366	1.4341857
9	0x3fab19c7	1.3367242
10	0x3fc4acab	1.5365194
11	0x3e4ed69c	0.20199054
12	0x3f87d725	1.0612532
13	0x3f898c70	1.0745983
14	0x3f8d55cb	1.1041807
15	0x3fa5343f	1.2906569
16	0x3fb9f003	1.4526371
17	0x3fb51f47	1.415017
18	0x3f6fe606	0.9371036
19	0x3f844266	1.0332763
20	0x3fb21abb	1.3914407
21	0x3fb983e8	1.449338
22	0x3f92d735	1.1471926
23	0x3f9502b6	1.1641452
24	0x3fd86510	1.6905842
25	0x3f6700c8	0.9023557
26	0x3f7eeab0	0.99576855
27	0x3fa4edcf	1.2885073
28	0x3f6068f0	0.8766012
29	0x3df4623d	0.119328
30	0x3f987fc1	1.1913987
31	0x3f7c73b2	0.9861404
32	0x3fa350a9	1.275899
33	0xbe725480	-0.23665047
34	0x3fb8f88b	1.4450849
35	0x3f38d0f7	0.72193855
36	0xbe6056d6	-0.21908125
37	0xbf6abde5	-0.91696006
38	0xbe2f8def	-0.17143987
39	0x3fd5d0f9	1.6704398
