MODELS/REWARD COMPARISON/SAC MASKED MODELS/6_2_actor_local_network.pt (torch, 411287 bytes, 6 tensors)

hidden_layers.0.weight f4 [256, 101]
000000 da 1f 11 3d b5 02 2c be 01 26 de bd e1 63 e8 bd
       0.035430767 -0.16797908 -0.108470924 -0.113471754
000010 7c e9 43 3e 1d 85 85 3e 1e e0 41 3e 58 c5 23 3f
       0.19132036 0.2607812 0.1893315 0.63973
000020 8f a4 99 3e ac 5e 03 3e 17 d4 93 be 14 30 23 be
       0.3000836 0.12829083 -0.2887275 -0.15936309
000030 c2 23 05 be 75 0a 99 be 88 6e 8d 3e 64 c9 c3 3e
       -0.13001922 -0.2989079 0.2762339 0.38239586
000040 a6 4b 77 3e c6 85 01 3f 75 0d bf 3d 99 ff d1 3e
       0.24149951 0.5059475 0.093287386 0.41015318
000050 44 47 e1 bb 94 d2 a9 3d e5 c5 12 bf 4b 4d 64 bf
       -0.0068749506 0.08292118 -0.57333213 -0.8918044
000060 00 e8 40 bf fc 96 81 bf 0f 21 a2 bf 5b 58 a6 bf
       -0.75354004 -1.0124202 -1.2666339 -1.2995714
000070 e6 ba 81 bf bb 07 2d bf f8 5d 01 3e 33 da 6e be
       -1.0135162 -0.6758992 0.12633502 -0.23325424
000080 f2 aa 76 be 5b 3a 17 bf 53 d7 54 bf 8b d5 79 bf
       -0.24088648 -0.5907342 -0.8314106 -0.97591466
000090 d4 ce 84 bf a3 b1 5b bf 5a 39 2c bf fd 8b dc bc
       -1.0375619 -0.8581793 -0.6727501 -0.02692222
0000a0 1a 02 5b bc c0 b3 86 be 0c bf 58 be ca 00 02 3e
       -0.0133672 -0.26309013 -0.21166629 0.12695614
0000b0 57 0c ff 3d 10 44 9a 3e db b2 08 3f d9 8c ac 3e
       0.124535255 0.30130053 0.5339791 0.33701208
0000c0 cd bb 92 3e b7 2d be 3c a3 43 c7 3d 7a 9a 0a be
       0.28658906 0.023215158 0.097296976 -0.1353549
0000d0 1a a0 16 3d d8 ab aa 3e 36 8e 00 3e ec 64 d8 3e
       0.03677378 0.3333423 0.12554249 0.42264497
0000e0 0f 10 84 3e 0e 2a e0 3e e3 53 25 3e 50 fc a7 3e
       0.25793502 0.43782085 0.16145281 0.32809687
0000f0 fc 8a 65 3d ca 10 27 3e f0 f1 d4 3e d0 94 d1 bd
       0.05604075 0.16314998 0.41590834 -0.10233462
000100 f4 7c fc bd 1d c8 59 3e 66 c1 a3 bd 72 28 06 bf
       -0.123285204 0.21267743 -0.07995872 -0.52405465
000110 22 e9 32 be 4c 46 8d be a8 ff a6 bd 07 9d 0c 3d
       -0.17471746 -0.27592695 -0.08154231 0.03432944
000120 36 ca 09 bf 8c b6 c3 be 8b c5 54 be de 0f ed be
       -0.53824174 -0.3822521 -0.20778482 -0.46301168
000130 46 1c c3 be 9b 8c 1e be b1 aa 54 be c6 a7 3b 3d
       -0.38107508 -0.15483324 -0.20768239 0.045814298
000140 57 07 f7 3d e1 bf b6 3d b5 4b 83 be d9 34 a6 3c
       0.12061947 0.08923317 -0.25643697 0.020288872
000150 b0 ed fd be f9 30 d6 be 53 ca 4d bf 7e e2 09 bf
       -0.49595404 -0.41834238 -0.8038685 -0.53861225
000160 5a f7 01 bf f0 8e fe be 85 9b ba 3d 39 11 71 be
       -0.50768054 -0.49718428 0.09111694 -0.23541726
000170 33 b2 7a 3e f3 ff 45 be 55 f4 a3 3d c0 b2 b2 be
       0.2448204 -0.19335918 0.08005587 -0.34902
000180 be 7b 0a bf 45 ef 1f 3d 7a 28 a3 bd b0 57 b9 be
       -0.54095066 0.039046545 -0.07966705 -0.36199713
000190 85 68 5b be 74 12 96 be f9 58 ab bd 37 ea 1e 3f
       -0.2142659 -0.29310954 -0.083665796 0.62076133
0001a0 12 87 5d 3f 2d a9 77 3e 43 e8 08 3e de 08 89 bd
       0.86534226 0.24185629 0.13369851 -0.066911444
0001b0 ee 88 70 be c2 3e a5 3e c4 52 e7 3d 7d 91 47 bd
       -0.23489735 0.32274443 0.11295083 -0.048722733
0001c0 0a a5 81 3f a2 e3 42 3f e6 b5 42 3f 82 f9 d5 be
       1.0128491 0.7612859 0.76058805 -0.41791922
0001d0 98 86 a8 be d1 c5 bc 3e 26 93 01 be 46 8c 92 be
       -0.32915187 0.36869672 -0.12653789 -0.28622645
0001e0 38 0e 93 3e 8f 36 a1 bc 41 48 8d 3f ea bc 5d 3f
       0.28721786 -0.019679336 1.1037675 0.86616385
0001f0 15 f8 15 be e7 7d 6f be f6 a4 a3 bd 0d 8d cb be
       -0.14645417 -0.23387872 -0.07990448 -0.3975605
000200 56 69 27 3e 16 91 87 bd 6c be b4 3d 61 9e 70 3e
       0.16348776 -0.0661947 0.088253826 0.23497917
000210 2a 30 6f 3f df 8b 5d 3f ad 5c e7 be 0f e1 1d bf
       0.9343287 0.8654155 -0.45187894 -0.6167154
000220 46 99 86 3d 82 d4 01 3b 8b c6 eb be 41 8f 89 3d
       0.06572203 0.0019810502 -0.46049914 0.06716777
000230 87 49 0b be 86 27 1f be e7 88 83 3e cc e2 39 3f
       -0.13602267 -0.1554242 0.25690386 0.7261169
000240 4c 4e 8b 3e e2 14 0a bf 42 b3 05 bf 6a 94 56 be
       0.27208173 -0.53938115 -0.5222665 -0.20955053
000250 b9 e7 ae be fb 90 93 3e 53 25 5e 3e 71 ec 13 be
       -0.34161165 0.2882155 0.21693926 -0.14445664
000260 77 e3 16 3f 7c ba b3 bd a7 35 8c 3e 6e 5e 8d 3d
       0.58940834 -0.087758034 0.27384683 0.06902777
000270 d2 ca b5 be fb 15 8f bd 58 63 09 be ef c7 8d be
       -0.35506302 -0.06986614 -0.13416803 -0.276916
000280 34 f7 97 3d 75 6d 2b bd a2 d6 de 3e 27 b4 6f bf
       0.07420197 -0.041852433 0.43523127 -0.93634266
000290 f9 49 91 bf e6 45 d7 be a7 40 63 3e 47 ec 9a be
       -1.13507 -0.42045516 0.22192632 -0.3025839
0002a0 d6 a7 1a 3e 0b 0d e8 be ef 36 21 3d d6 e1 b3 bd
       0.15103087 -0.4532245 0.03935903 -0.08783309
0002b0 cc c3 0a 3f c8 e1 a2 3e cf bc 1d 3e 9f d0 64 3f
       0.5420501 0.31812882 0.15404056 0.8938083
0002c0 dd ce 89 3f 7c d8 44 3e 11 9e 3e be 55 2c 00 bf
       1.0766255 0.19223207 -0.18614985 -0.50067645
0002d0 b7 c4 0a bf 20 78 01 bd a8 41 cc 3e 0d 52 3d 3f
       -0.54206413 -0.0316087 0.39893842 0.73953325
0002e0 81 96 75 3f c5 48 22 3f cb ef 05 be 8a 91 94 be
       0.95932776 0.6339229 -0.13079755 -0.29017287
0002f0 76 44 bc be 70 ec 0c bf 5b fa 01 bf 53 74 89 be
       -0.36770982 -0.55048275 -0.5077264 -0.2684656
000300 d0 c9 c2 3e 03 e8 9c 3e 9d 25 48 3e 4e 5d ba be
       0.38044596 0.3064576 0.19545598 -0.3639931
000310 8c eb 00 bf 12 b4 8c be 51 63 da bd 90 de d7 bd
       -0.50359416 -0.27481133 -0.10663474 -0.10540497
000320 4d 55 9a be a7 fa 33 bd 55 65 3e 3e dc b1 ea 3e
       -0.30143204 -0.043940213 0.18593343 0.4583882
000330 b3 5f e9 3c 04 50 f5 be 0f ac 17 bd 71 00 f1 bd
       0.028488016 -0.4791261 -0.037029322 -0.11767662
000340 56 bc 5d 3d 7f cb 8c be 6c 4c a5 3c dc cf 2d be
       0.05413469 -0.27499005 0.020178042 -0.16973823
000350 ab cd 31 3d 54 ca 7a be 64 7c b9 3e b7 f5 27 bd
       0.04340903 -0.24491245 0.36227715 -0.041005816
000360 f9 88 a8 be ce 29 53 be 15 3a 74 3e ff 7a dc 3d
       -0.32917002 -0.20621416 0.23850282 0.10765647
000370 a8 0a 83 bd ca bc 53 be 20 7b d6 3c 91 8f e9 bb
       -0.06398517 -0.20677486 0.026181757 -0.00712771
000380 b9 c9 08 be 71 4a 36 be c5 26 0a 3f 17 86 2d 3f
       -0.13358201 -0.17801835 0.5396541 0.6778273
000390 68 28 cd 3d 73 fd e9 3e 45 52 8a 3a 9a c8 8b be
       0.100174725 0.4570118 0.0010553083 -0.27301484
0003a0 cf 8c ed 3d 78 75 65 bf cd da c9 bf 9c 65 d0 bf
       0.11599123 -0.8963237 -1.5769898 -1.6281009
0003b0 4a 03 b2 bf 9b 6e 30 bf 6c 28 9a be 95 b1 74 be
       -1.3907254 -0.6891877 -0.30108964 -0.23895867
0003c0 dc 41 f4 be 42 aa fa bd f4 11 88 bd 85 be 89 bf
       -0.47706497 -0.12239505 -0.06644049 -1.0761267
0003d0 b8 c7 02 c0 e9 38 c6 bf 62 4e ec bf ee de a4 bf
       -2.0434399 -1.5486118 -1.846142 -1.2880533
0003e0 da 95 bc be 1e e6 80 be d0 d3 f1 be 80 ca 53 be
       -0.36833078 -0.25175565 -0.47231913 -0.20682716
0003f0 bc ca c0 3d 62 04 50 bf 5d de 85 bf 4b 27 dd bc
       0.094136685 -0.8125669 -1.0458485 -0.026996275

hidden_layers.0.bias f4 [256]
000000 13 1c 1d 3e ca 43 a3 bf 83 d4 80 bf 9e f8 bb be
       0.1534274 -1.2755063 -1.0064853 -0.36713117
000010 68 c1 4b bf bb eb a0 bf 12 08 a3 bd af 87 78 bf
       -0.7959199 -1.2571939 -0.07960524 -0.97082037
000020 65 4b 59 bd 6f e4 45 bf 51 d8 ea be f9 80 8a bf
       -0.053050417 -0.77301687 -0.4586816 -1.0820609
000030 2c bc 13 3e 48 9a 26 bf 81 6d 96 be ec b1 f2 bf
       0.1442725 -0.65079165 -0.2938042 -1.8960547
000040 fc d2 aa bd 3f 2f b5 be 5d 4d cc 3e 80 17 0b bf
       -0.08341023 -0.35387608 0.39902773 -0.54332733
000050 3b 53 3a bf 66 9e be 3e 5f e7 95 be cc 08 e4 bd
       -0.7278325 0.37230223 -0.29278085 -0.1113449
000060 fa 07 00 3f f7 65 8d bf 72 6c dc bf cc 52 1e bf
       0.5001217 -1.1046742 -1.7220595 -0.6184509
000070 42 be 5c 3e c0 a0 fc be c2 0b 44 bf ff d0 91 be
       0.21556953 -0.49341393 -0.7658044 -0.28479764
000080 48 5f 91 bf 98 d7 ca be 5d 14 89 bf 72 0d b6 be
       -1.1357203 -0.3961761 -1.0709339 -0.35557133
000090 1b 9b bf bf bd c1 66 bf 3d ed 3b bf 01 c7 b0 be
       -1.496921 -0.9013937 -0.7340887 -0.34526828
0000a0 2f d7 89 bf 12 c1 fa bc a5 7c ac be d9 11 b6 be
       -1.0768794 -0.030609641 -0.33688846 -0.35560492
0000b0 75 43 74 3e 0f 91 b6 be cb ef e1 be 39 02 5d bf
       0.23853858 -0.35657546 -0.4412826 -0.86331517
0000c0 84 84 2a bf 7e 37 21 bf 67 65 03 be 5c c0 e3 be
       -0.6660845 -0.629753 -0.1283165 -0.44482696
0000d0 7c 30 01 bf 49 3d 3d bf 18 11 be bd 36 8c 05 bf
       -0.50464606 -0.7392164 -0.09280604 -0.5216707
0000e0 8d c6 db 3e d7 ce dc be 24 48 6d 3c de 35 09 3f
       0.4292492 -0.43126556 0.014482532 0.5359782
0000f0 8e 65 11 bf 48 62 4b bf f6 00 f0 bd 8c ee e7 3a
       -0.56795585 -0.7944684 -0.11718933 0.0017694994
000100 d6 f0 8c 3d e8 02 20 bf a1 e6 9e bf 41 2d 90 bf
       0.06881873 -0.62504435 -1.2414132 -1.126381
000110 cb 51 ea 3c 66 a9 da 3d 72 20 23 bf c9 d5 69 3d
       0.028603455 0.106768414 -0.6372138 0.057088647
000120 40 e8 dc be ea 9f 90 be f5 47 17 bf 4e 6b 72 bf
       -0.43145943 -0.28247005 -0.5909417 -0.94694984
000130 9c 7b c1 3d 34 a8 6a bf 26 ed 8d be 7a 35 3d 3e
       0.09447405 -0.9166291 -0.27719992 0.18477431
000140 21 f2 da 3d 0d 51 6b bf b6 7d 15 be 7f e8 f7 bf
       0.10690714 -0.9192055 -0.14598736 -1.9367827
000150 e3 4b da bf 3a 3c 40 be 9d 8d 52 bf e6 0b e2 bf
       -1.7054409 -0.18772975 -0.82247335 -1.7659881
000160 68 cf 28 3f 04 8a f2 3e 32 3c cb bf 24 3b 1e bf
       0.65941477 0.47370923 -1.5877745 -0.6180899
000170 bf 14 f5 bf 75 a4 0c bf c6 e2 43 bf f9 49 6b bf
       -1.9146956 -0.5493844 -0.76517904 -0.9190975
000180 29 e7 c5 be 80 a7 bf 3b 2b 6a 73 bf 14 ce f5 be
       -0.38652924 0.005848825 -0.95083874 -0.48008788
000190 20 6e c5 bf f4 38 a4 3e 5d a7 48 bf 2b 14 97 be
       -1.5424232 0.32074702 -0.78380376 -0.29507574
0001a0 78 ed f4 3e 96 94 b3 bd b3 48 4c bd 99 ab 48 bf
       0.47837424 -0.08768575 -0.04987402 -0.7838684
0001b0 80 e0 d1 bf aa 2d 0e bd 05 ee 36 3e 83 75 7e bd
       -1.6396637 -0.034711517 0.17864235 -0.062123787
0001c0 30 5b ae bf 30 b8 0d bf 8b d0 78 bf e9 35 35 bd
       -1.3621578 -0.5535917 -0.9719321 -0.044240866
0001d0 90 a9 80 bf 83 a3 45 bf 87 0a b8 be 3a 58 af bf
       -1.0051746 -0.77202624 -0.35945532 -1.36988
0001e0 fc a5 49 bd 14 c9 73 bd 2a cf 76 bf cd 7e 01 bf
       -0.04923056 -0.059517935 -0.9640986 -0.5058411
0001f0 ff 7d 19 3d cd 31 0a bf bc 33 52 bf 40 29 49 bf
       0.037473675 -0.5398224 -0.8211019 -0.7857857
000200 66 58 f8 be 41 3f 76 3e 8e 12 07 3f 34 2a d6 be
       -0.48504943 0.24047567 0.5276269 -0.41829073
000210 9e e3 6e bf f8 af 02 bf 4d 25 96 be 14 3f b6 be
       -0.93316066 -0.51049757 -0.29325333 -0.35595
000220 77 2c 1f bf e0 b3 4f bf f6 e6 4f bf b1 97 07 be
       -0.6217722 -0.8113384 -0.81211793 -0.1324146
000230 7e 51 93 bf f8 b5 eb be 64 31 60 bf cd 42 92 be
       -1.1509244 -0.4603727 -0.87575364 -0.2856659
000240 37 f5 5a bf 0d b5 c7 be 10 a1 5b bf e0 ad 2c bf
       -0.8553042 -0.39005318 -0.85792637 -0.6745281
000250 f5 28 1f bf 35 bc 96 bf 27 5f 06 3f 19 84 13 be
       -0.6217187 -1.1776186 0.5248894 -0.1440586
000260 2b 1d 91 bf f2 ca d8 be cb e7 ce be 80 ce 21 bf
       -1.1337026 -0.42342335 -0.4041122 -0.6320572
000270 40 2f 88 bd 50 53 00 bf 96 00 c9 3e df 1c c0 3e
       -0.06649637 -0.50127125 0.3925826 0.37522027
000280 b3 d2 e8 bf 95 8a 4b 3e e7 8e 04 c0 e8 7a 1a bf
       -1.81893 0.19877084 -2.071222 -0.6034379
000290 30 73 3b bf e7 33 f6 bd 5e 45 ef be 01 44 e9 be
       -0.7322264 -0.12021618 -0.4673261 -0.45559695
0002a0 37 e2 79 3e 12 a5 6f be 67 21 9e be bb 58 bd be
       0.244027 -0.23402813 -0.3088486 -0.36981758
0002b0 d8 49 54 3e 7c e4 04 bf 4a ed 3f bf de cf 40 be
       0.20731294 -0.5191114 -0.7497145 -0.18829295
0002c0 43 2c 05 bf 9c b6 ae 3e 39 76 fe bd 9b 32 5b bf
       -0.52020663 0.34123695 -0.12424893 -0.8562409
0002d0 c6 99 34 3d 28 61 b2 be a3 a9 7d be ca 0b 80 bd
       0.044091962 -0.3483975 -0.24771743 -0.062522486
0002e0 a0 63 8f bf 36 0d 73 bf be 4a 14 bf 58 bd 1b bf
       -1.1202278 -0.94942033 -0.5792655 -0.6083579
0002f0 eb 66 b6 bd e9 ab 85 bf d0 0a a3 3a 70 80 83 be
       -0.08906349 -1.0443088 0.0012439135 -0.25683928
000300 34 1f 11 bf 5f 18 99 bf 11 f3 c5 be d9 56 b8 bf
       -0.5668824 -1.1960562 -0.38662007 -1.4401504
000310 77 d0 d3 3d 78 18 99 3e ac c5 a6 bf 5e 22 b0 be
       0.10342496 0.2990148 -1.3029075 -0.3440122
000320 14 21 13 bf 2f e1 3a be 2f 4f a5 bf 82 fa 94 bf
       -0.5747235 -0.18249963 -1.291479 -1.1638949
000330 96 09 b7 be b2 53 c3 bf 55 ac a4 bf f1 43 a1 bf
       -0.357495 -1.5259917 -1.2865092 -1.2598859
000340 6b a2 8c be 2f f7 46 bf f3 8b 58 be 9f 91 80 be
       -0.27467665 -0.7772092 -0.21147136 -0.251111
000350 d9 60 8b bf ce 84 0a c0 a3 9e 9e be fe b2 0c bf
       -1.088893 -2.1643558 -0.30980405 -0.5496062
000360 f4 ae 87 3e 77 6a 6c be a6 14 1f bf bb e9 1d bf
       0.26500666 -0.23087488 -0.6214088 -0.6168477
000370 e0 c8 5e bf d5 41 6d bf e6 77 8a 3e f9 67 ac be
       -0.8702526 -0.92678577 0.270446 -0.33673075
000380 15 a4 90 be 1a b3 6a bf 0e 5a 32 3e 2f 12 13 bf
       -0.28250185 -0.9167954 0.17417166 -0.5744962
000390 40 9a 2c 3e 0a c2 21 bf 84 95 c0 3e 1c 55 bf be
       0.16855717 -0.63186705 0.3761407 -0.3736962
0003a0 58 7c 92 3e e4 c1 d8 bf f1 e0 bb 3e 9a e0 7c bf
       0.28610492 -1.6934171 0.36695054 -0.98780215
0003b0 3c 0a 50 3e 0b 1b 25 bf 2b bb 58 bf 34 37 6b bf
       0.20316404 -0.6449439 -0.84660596 -0.9188111
0003c0 3d 9a a8 3e 3d 9f ab bf ed fa 26 3d 34 38 56 bf
       0.32930174 -1.3407971 0.040766645 -0.8367951
0003d0 3c 35 c1 bf a4 30 b3 bf 5f ee 82 bf 3d 26 c5 bf
       -1.5094371 -1.3999219 -1.0228995 -1.5402294
0003e0 f1 6b aa be a8 f3 8b bf f7 9a 2b bf e2 4d 62 bf
       -0.33285478 -1.0933733 -0.6703333 -0.8840009
0003f0 21 53 46 3e f2 68 83 bf c9 99 fd be 77 c1 d6 be
       0.19367649 -1.0266402 -0.4953139 -0.41944477

hidden_layers.1.weight f4 [256, 256]
000000 3f 9a 35 be 78 8b 12 bf 4c fc f7 bd 22 ee 9a be
       -0.17734621 -0.5724406 -0.12108669 -0.30259806
000010 44 66 5c be 32 ef 5b 3e 38 9f 0e bf 50 01 cd be
       -0.21523386 0.21477965 -0.557117 -0.40040064
000020 93 80 db 3b 53 57 0d be 20 49 89 3e b1 17 62 bd
       0.006698677 -0.13802843 0.26813602 -0.055198375
000030 c3 8d ce bd fb 4c c5 be b9 30 af be d8 36 b3 bc
       -0.10085633 -0.38535294 -0.3421686 -0.021876737
000040 0d 7d 22 be 77 0b cb be 60 ec 89 bd 45 36 85 bd
       -0.15868016 -0.39657184 -0.06734538 -0.06504492
000050 ee 43 02 3e 80 7e b6 3d 68 79 c1 3e b1 8a e4 3d
       0.12721226 0.08910847 0.37787938 0.11159266
000060 91 a7 88 be 76 9c 98 be 3f fc 13 be d9 7c 95 3e
       -0.26690343 -0.2980687 -0.14451693 0.29196814
000070 62 b5 92 3d fd ad da bc b5 00 62 be 39 f2 cc 3e
       0.07163502 -0.026694292 -0.22070582 0.4002855
000080 01 28 c4 3d b4 d5 15 3f 09 72 7c be d4 76 53 3e
       0.09577943 0.5852921 -0.24652876 0.20650798
000090 12 8b 19 bf d7 ca 78 3c 18 15 16 bf a6 12 d5 3e
       -0.5997783 0.01518508 -0.58625937 0.4161579
0000a0 f8 95 e1 be b2 63 eb 3e d3 28 0c be ce 72 c0 be
       -0.4405973 0.459745 -0.13687448 -0.3758759
0000b0 e8 ca 8c be 1b 90 ad 3d cc a7 1b 3f 2e 00 29 be
       -0.27498555 0.084747516 0.6080291 -0.16503975
0000c0 c4 c7 ea be 5a d0 3c be 7f 45 c3 3d 2d 34 c8 be
       -0.45855534 -0.18438855 0.0953474 -0.39102307
0000d0 3d e6 2c 3e 62 29 1a bf 8b a3 bd 3d 7d 04 22 bf
       0.16884704 -0.60219395 0.09259709 -0.632881
0000e0 5f 1a 1b be 9b b6 77 be ff 96 f1 bd dd 50 9e be
       -0.15146779 -0.24190752 -0.11796378 -0.3092107
0000f0 96 fc 57 3e f5 54 16 3e 92 8c b8 be 13 7a 36 3e
       0.21092448 0.14680846 -0.36044747 0.17820005
000100 be 0e f7 bd cf 8a a3 be 7f 8c f2 bc 4a 6a 2a 3d
       -0.12063359 -0.3194184 -0.02960801 0.04160527
000110 d2 bd d7 be 43 a1 57 be de b2 7d be 41 4f b7 be
       -0.4213701 -0.2105761 -0.24775264 -0.35802653
000120 6f e7 02 bf 20 99 d9 be 8b 3d 31 bf 24 c6 25 3e
       -0.5113439 -0.42499638 -0.6923453 0.16188866
000130 70 45 a9 bd 8b 2e f4 3e 26 01 4c be 51 ad 1c be
       -0.08265197 0.4769176 -0.19922313 -0.1530049
000140 dc e6 00 3e 9c b4 d7 3e c5 f4 05 bf 6b f6 20 3e
       0.12588066 0.42129982 -0.52326614 0.15719001
000150 24 d2 cc be e0 56 3c be 75 49 3f 3e 6a 20 ea 3d
       -0.40004075 -0.18392515 0.18680365 0.11431964
000160 ca e0 2d 3d e4 2b 6b 3d 0b 29 8e 3b e8 29 8b be
       0.042450704 0.057414904 0.004338389 -0.2718041
000170 97 b3 52 be 8d 5f d8 3d ab 1e ae be 8f 67 6d 3d
       -0.2057632 0.105651 -0.34007773 0.05796009
000180 27 75 80 3e 73 41 d8 bb f2 99 94 3d 16 77 90 be
       0.2508938 -0.006599599 0.07255925 -0.28215855
000190 3c 5e 06 bd 89 52 37 be 1d 5e 04 3e 04 f5 82 3e
       -0.032804713 -0.17902578 0.12926526 0.25577557
0001a0 62 b2 84 be 9d 48 91 be b7 d9 ea 3c dd 37 93 3e
       -0.25917345 -0.28375712 0.028668268 0.28753558
0001b0 08 a8 6b be 91 82 e6 bc 78 8b eb bd b5 ba 80 3e
       -0.23013318 -0.02813843 -0.11501211 0.25142446
0001c0 02 96 51 be e4 bf e1 be 4d d1 ad 3e 50 8c 0e 3e
       -0.2046738 -0.44091713 0.33948746 0.13920712
0001d0 e7 0c e9 be c9 be 1c bd 3e b9 1f be ab 89 9c be
       -0.45517656 -0.038267884 -0.15598008 -0.30573782
0001e0 bd 2e 5b 3e 43 04 76 be 60 fd 20 3e 8e 6e a0 3e
       0.21404548 -0.24025063 0.15721655 0.31334347
0001f0 66 2b 99 be 4f e1 20 be d4 76 2f bf a7 74 f0 3d
       -0.29915923 -0.15710948 -0.6854069 0.11741
000200 32 7c 0c 3b 2b 31 7a be cd 08 28 bd 78 62 02 3d
       0.002143633 -0.24432819 -0.041024018 0.03183219
000210 a8 96 af 3d c3 d7 fd be 15 a0 53 be e8 58 97 bd
       0.08573657 -0.49578676 -0.20666535 -0.073900044
000220 14 27 c0 be 84 ea 33 3d 51 ca 10 bf a4 2b ab bd
       -0.37529814 0.043924823 -0.5655871 -0.08357933
000230 72 df 89 be b7 78 0b 3e 86 6a 99 3d 36 e7 3c be
       -0.26928288 0.13620268 0.07491021 -0.18447575
000240 d0 f0 51 3e 0d eb b1 bb 05 ce cb be f9 2c b5 be
       0.20502019 -0.0054296316 -0.39805618 -0.35385874
000250 d8 99 7c be b7 26 6d 3c 87 41 da bd 9f 3b 45 be
       -0.24668062 0.014474562 -0.106570296 -0.19261025
000260 41 79 2b 3e 4b 53 89 be 30 e7 36 bf 89 2b 5e be
       0.16745473 -0.2682136 -0.71446514 -0.21696295
000270 f1 5a 3d 3d e4 9c 59 3e 83 2b 53 be 21 89 ae 3c
       0.046229307 0.21251255 -0.20622067 0.021305623
000280 93 10 83 be 7c 0e 39 be 4f 9f 2d 3e 31 d6 b9 be
       -0.25598583 -0.18071932 0.16955303 -0.36296228
000290 5d b0 8f bc fc 89 f0 bd 76 8e 3d 3e c6 f4 d5 be
       -0.017540151 -0.117450684 0.18511376 -0.4178831
0002a0 ec bd d1 be b9 3c e4 3d 0a 04 c5 3c cb 12 90 3e
       -0.4096521 0.111443944 0.024049778 0.28139338
0002b0 1d 21 ef 3c ad 86 a1 be 02 14 00 bf e1 28 e0 3d
       0.029190594 -0.31548062 -0.5003053 0.10945297
0002c0 cc 1c b2 bd 99 e1 45 be 47 52 d1 bd 53 64 39 be
       -0.08696899 -0.1932434 -0.10220771 -0.18104677
0002d0 d7 5b 02 be 95 1c 53 be d1 a7 8f 3d 88 a1 24 be
       -0.12730347 -0.20616372 0.0701443 -0.16077244
0002e0 cd 3e 9f bd 24 61 d4 ba 3f 47 06 3c cf 15 a9 be
       -0.0777565 -0.0016203267 0.008195697 -0.3302445
0002f0 1a 7c d0 be 98 6d b6 be 36 f1 92 be b0 e9 17 bf
       -0.40719682 -0.35630488 -0.28699654 -0.59340954
000300 9f 5f a0 3e 33 cc 9b be ee ab 65 be b3 3f 39 3c
       0.31322953 -0.3042923 -0.22428867 0.011306691
000310 59 79 8e be 29 41 36 be 59 c6 2f be f2 68 25 be
       -0.27826956 -0.17798294 -0.17165507 -0.16153315
000320 5c de f9 be dc ab 00 3e 50 5b 0e be 93 a6 21 be
       -0.4880246 0.12565559 -0.1390202 -0.157862
000330 fc 71 7d be 72 d3 55 be 84 52 9c be 40 07 9c be
       -0.24750513 -0.20881441 -0.30531704 -0.3047428
000340 42 da a0 bd 8e c8 cc be 0f 3e 68 be 47 5e 38 3e
       -0.078541294 -0.3999676 -0.22679923 0.18004714
000350 8b ab 75 3d e2 b9 23 3e 73 80 88 bb 4e e3 5e be
       0.05997805 0.15988877 -0.004165703 -0.21766397
000360 61 30 17 be db 56 7f be 02 53 1b 3e c5 58 3b 3e
       -0.14764549 -0.24935476 0.15168384 0.18295582
000370 0b c0 85 3c 1d 0b b7 be b9 94 34 be 6a 03 fe 3c
       0.016326925 -0.35750666 -0.17634858 0.031007487
000380 59 bc ae 3d 7f 0f f8 3e 17 fb 1c 3e 36 63 21 3e
       0.08532018 0.48449323 0.15330158 0.15760502
000390 64 0d b9 be 8b 34 ea 3d 6a b5 2a 3d 8a 85 3a 3e
       -0.3614303 0.11435803 0.041676916 0.18215004
0003a0 8a 8c fd bd 9c 9e 15 be be 68 da 3e f8 ce 1d be
       -0.12380321 -0.14611286 0.42658037 -0.15410984
0003b0 6b 1a d7 3d e6 de 05 bf 0d 0a 93 be e4 ae 8a bc
       0.10503086 -0.5229324 -0.28718606 -0.016929097
0003c0 fc 8b bc 3d 15 48 bc bd b5 59 32 be aa 58 02 3d
       0.092063874 -0.09193436 -0.17417033 0.031822838
0003d0 dd 54 09 bf ef be 17 3e da 28 e9 3d b1 e8 76 3d
       -0.53645116 0.14818929 0.11384745 0.060280506
0003e0 39 d8 4e bf 54 46 91 bc 83 c8 f4 bd 38 90 e5 be
       -0.8079868 -0.01773373 -0.11952307 -0.44836593
0003f0 60 b2 55 be 9b 30 b1 3d 62 13 8e be f0 b2 11 be
       -0.20868826 0.08651849 -0.27749163 -0.14228415

hidden_layers.1.bias f4 [256]
000000 b8 c5 ce be 10 5a 31 bf 0b 48 51 bf 60 90 45 bf
       -0.40385222 -0.6927805 -0.81750554 -0.77173424
000010 71 14 43 bf 6f 7c f2 be 66 07 80 bf 14 3e f7 be
       -0.76203066 -0.4736056 -1.0002258 -0.4828955
000020 88 89 82 be 04 32 1f bf ad dc 2d bf 75 d2 72 bf
       -0.25495553 -0.6218569 -0.6791485 -0.9485238
000030 6b 25 25 bf 57 0a 22 bf 4a af 64 bf ab e2 3e bf
       -0.6451022 -0.6329703 -0.8932997 -0.7456462
000040 ac cc 63 bf d8 72 19 bf a0 be 57 bf bd ec 42 bf
       -0.8898418 -0.5994086 -0.84275246 -0.76142484
000050 10 3c 05 bf 7b 34 38 bf b1 3f ef be c9 62 56 bf
       -0.52044773 -0.7195508 -0.4672828 -0.83744484
000060 1b fc 0c bf 85 b4 92 be e6 a3 e7 be 04 0b 74 be
       -0.5507218 -0.2865335 -0.45242232 -0.23832327
000070 54 77 c6 be 10 4b ad bd 78 51 48 be 85 6b 11 bf
       -0.38762915 -0.08461583 -0.19562328 -0.56804687
000080 dd 52 cf be 0f 9c 15 bf c9 d0 47 bf 58 f0 3f bf
       -0.40492907 -0.5844125 -0.78052956 -0.7497611
000090 ee 39 fc be c8 77 80 bf 5b 6c 75 bf 64 ca 29 bf
       -0.49262947 -1.0036554 -0.9586846 -0.6632445
0000a0 c3 f4 6b bf 5f 36 67 bf b8 ca cf be 18 fc 12 bf
       -0.9217035 -0.9031734 -0.4058435 -0.57415915
0000b0 80 41 36 bf 90 be 86 bf b7 9a b4 be 8f 2e 24 bf
       -0.71193695 -1.0526905 -0.35274288 -0.6413354
0000c0 69 0b 25 bf b2 1b 11 bf f4 f7 38 bf d2 c6 30 bf
       -0.64470536 -0.56682885 -0.72253346 -0.69053376
0000d0 d0 6e f1 be cf 97 65 bf c9 d2 30 bf 24 a4 5d bf
       -0.47154856 -0.89684767 -0.6907163 -0.86578584
0000e0 c9 f0 4a bf a8 df 48 bf 54 dd af be ed bf 38 bf
       -0.7927366 -0.7846627 -0.34348547 -0.72167856
0000f0 c6 88 0c bf 4e fc 5e bf 71 d8 16 bf a6 11 a9 bf
       -0.548962 -0.87103736 -0.58924013 -1.3208511
000100 b6 45 90 be 7e 8c 9c bd 3e 89 ef be f5 b0 23 bf
       -0.28178185 -0.07643984 -0.46784395 -0.6394189
000110 30 e1 66 bf 70 0e 64 be 26 f4 e7 be a1 c7 7a be
       -0.9018736 -0.22271132 -0.45303458 -0.24490215
000120 ad 2a 02 bf 03 60 59 bf d2 09 07 bf 36 bf ae be
       -0.5084637 -0.8491213 -0.5274936 -0.34130257
000130 64 0e 5d bf 61 ea 17 bf 9f a5 57 bf 7e 28 5a bf
       -0.86350083 -0.5934201 -0.8423709 -0.85218036
000140 07 d1 80 bf 03 92 0d bf c1 ad fb be 79 0d 34 bf
       -1.006379 -0.5530092 -0.49156 -0.7033306
000150 31 46 34 bf 5d 60 20 bf 7b f6 1b bf 33 59 1c bf
       -0.70419604 -0.6264704 -0.60922974 -0.6107361
000160 09 95 17 bf 24 2f fb be a1 8e 1c bf f0 ee 58 bf
       -0.59211785 -0.49059403 -0.61155134 -0.8473959
000170 7a 99 e8 be 78 9a 1a bf 1f 22 48 bf 7a 49 18 bf
       -0.45429593 -0.6039195 -0.78177065 -0.59487116
000180 52 8b 0a bf db 64 9a bf de 2a 20 bf fb 7b 34 bf
       -0.54118836 -1.2062029 -0.6256541 -0.7050168
000190 3e d7 00 bf ea 8c ac bd 73 21 51 be c3 a0 14 bf
       -0.50328434 -0.08425315 -0.20422916 -0.580578
0001a0 6d b7 5e bf 1d f0 fe be a6 c9 66 bf cc b4 cd be
       -0.86998636 -0.49792567 -0.9015144 -0.40177
0001b0 c8 c8 af be a5 89 2e bf e4 8b ee be 41 ae 22 bf
       -0.3433287 -0.6817878 -0.46591103 -0.6354714
0001c0 c6 e4 ea bd 19 16 d4 be aa 57 93 bf 54 26 12 bf
       -0.11469416 -0.4142311 -1.1511128 -0.57089734
0001d0 78 4c a5 be 7a 39 e1 be 39 98 b2 be 38 2a 2c bf
       -0.32284904 -0.43989164 -0.34881762 -0.6725192
0001e0 88 99 0c bf 9d 3f 8d bd 33 cc 57 bf 0d d9 91 be
       -0.5492177 -0.06896899 -0.8429596 -0.2848591
0001f0 74 c5 1b bf 78 87 e3 be 0d a4 54 bf eb 08 e0 be
       -0.60848165 -0.44439292 -0.8306282 -0.43756804
000200 e0 36 b0 3d 7a 75 28 bf d0 96 54 bf 0e 87 0c bf
       0.086042166 -0.65804255 -0.8304262 -0.5489358
000210 14 8d 35 bf 6f 80 c5 be fe c0 8b be 41 c5 ed be
       -0.70918393 -0.3857455 -0.2729568 -0.46439555
000220 77 d2 61 bf 38 68 06 bf 00 fb ac be fc b4 e2 be
       -0.8821177 -0.52502775 -0.33785248 -0.44278705
000230 5b 1d 1b bf 85 f7 71 bf b9 ab 26 bf 65 11 13 bf
       -0.6059167 -0.9451831 -0.6510578 -0.57448417
000240 8b f1 37 bf b9 ca b1 be 48 4d d3 be f7 11 83 bf
       -0.7185294 -0.34724978 -0.41269898 -1.0239857
000250 0d 61 8a be 66 b7 55 bf 2d 2e 17 bf 40 22 40 bf
       -0.2702717 -0.8348297 -0.59054834 -0.7505226
000260 8e 23 b6 be 56 fa 41 bf ce b7 45 bf 10 0e 38 bf
       -0.35574 -0.7577261 -0.7723359 -0.7189646
000270 41 ae 39 bf 97 70 31 bf 9e 11 24 bf 57 97 fe be
       -0.72531515 -0.69312423 -0.6408938 -0.49724838
000280 c8 67 1a bf 54 39 54 bf ab 46 0d bf 11 06 7c bf
       -0.6031461 -0.82899976 -0.55185956 -0.98446757
000290 4c 0f 24 bf 12 0c 57 bf be b9 19 bf 0b ce f4 be
       -0.6408584 -0.8400279 -0.60049045 -0.47813448
0002a0 3a b7 3f bf d2 ee 1d bf aa bd f1 be fd f1 22 bf
       -0.74888957 -0.61692536 -0.47215015 -0.63650495
0002b0 5b d3 11 bf 62 52 0c bf 61 1a 51 be 80 43 35 bf
       -0.5696313 -0.54813206 -0.20420219 -0.7080612
0002c0 eb 5d 07 bf e5 b1 72 bf b2 e0 60 bf d7 73 03 bf
       -0.5287768 -0.94802696 -0.8784286 -0.5134863
0002d0 51 36 8c be d1 fc 0f bf 81 07 36 bf 46 a6 0d bf
       -0.2738519 -0.5624514 -0.711052 -0.5533184
0002e0 41 59 2a bf 5e 2b 3e bf 8e 58 eb be d2 c4 1e be
       -0.6654244 -0.74284923 -0.45966 -0.15504768
0002f0 f2 c3 85 bf e6 d0 a7 be 8d 92 42 bf 8a a3 7b bf
       -1.0450423 -0.32776564 -0.7600487 -0.98296416
000300 e4 eb 3e bf 50 95 b7 be e7 12 9e be 10 35 4d bf
       -0.7457869 -0.35856104 -0.30873796 -0.8015909
000310 73 12 24 bf 27 e4 5a bf 15 78 4d bf 0b 18 5d bf
       -0.6409065 -0.8550438 -0.80261356 -0.8636481
000320 2a eb bb be 69 7f 3a bf e0 2b 19 be 27 11 63 bf
       -0.36702853 -0.7285066 -0.14958143 -0.8869805
000330 68 09 ac bf d6 fd 21 bf f9 8d 00 bf 9d 81 95 be
       -1.344037 -0.6327795 -0.50216633 -0.2920045
000340 5c c1 52 bf e4 d8 89 be 5e 62 10 bf 36 ed 44 bf
       -0.82326293 -0.26923287 -0.56400096 -0.76924455
000350 90 32 1c bd ce 3f 03 bf aa 42 3d bf 7c d8 bc be
       -0.038134158 -0.51269233 -0.73929846 -0.36883914
000360 16 6d b0 be 0e e2 03 bf 4a 22 80 bf 5e 83 62 bf
       -0.34458226 -0.5151681 -1.0010464 -0.884817
000370 a9 73 c6 be da 78 31 bf 3b 08 13 bf bc bf c1 be
       -0.38760117 -0.6932503 -0.57434434 -0.37841594
000380 2e 50 50 bf 26 e6 b3 be 3a 9b 26 bf f8 e6 85 be
       -0.81372344 -0.35136527 -0.65080607 -0.26152778
000390 f1 02 44 bf fb 2f 0e bf 35 0b e8 be 87 e2 1b bf
       -0.7656699 -0.5554196 -0.4532105 -0.6089253
0003a0 b5 d1 59 bf 49 8c 80 bf c4 f6 ec be 19 e3 42 bf
       -0.8508561 -1.0042812 -0.46282017 -0.76127774
0003b0 0d 07 70 bf 73 86 c5 be 9f 34 6c bf fa c3 ac be
       -0.9376076 -0.3857914 -0.92267793 -0.33743268
0003c0 9b 94 70 bf 37 99 80 bf 43 bf 3c bf 9a da 24 bf
       -0.93976754 -1.0046757 -0.7372934 -0.6439606
0003d0 56 a2 9d be fc 1f 45 bf 5b ca 49 bf 37 89 22 bf
       -0.30787915 -0.7700193 -0.78824395 -0.63490623
0003e0 b8 8c 85 be 96 b2 59 bf 71 4d 17 be 89 9f 1c bf
       -0.26083922 -0.85038126 -0.14775635 -0.6118093
0003f0 af 4e 47 bf ba 3c 51 be ae ad c4 be b2 fb e7 be
       -0.77854437 -0.20433322 -0.38413757 -0.45309216

output_layers.0.weight f4 [40, 256]
000000 d4 cb 8e be c7 3b 38 be 48 48 6d bc 33 94 e7 be
       -0.27889884 -0.17991553 -0.014482565 -0.45230255
000010 8b 3b 04 bf 4f dc 9a 3c 79 10 08 bf 18 a3 dc bd
       -0.51653355 0.01890388 -0.53150135 -0.10773295
000020 23 f6 c7 be 93 ec 53 be 5b d0 41 be 82 bc 5e bf
       -0.39054975 -0.20695715 -0.18927138 -0.8700639
000030 37 d0 c2 bf f2 f6 9f bc fa db f8 be 5b c9 6a be
       -1.5219792 -0.019526932 -0.4860533 -0.22928374
000040 18 8d e8 be b6 b9 6a be 3a b5 9f be 36 b3 d5 be
       -0.45420146 -0.22922406 -0.31192952 -0.4173829
000050 a3 0e 6b be dc 53 4a bf b5 cb 17 3f de 58 e8 be
       -0.22954802 -0.7903421 0.5929521 -0.453803
000060 8e f8 11 bf 61 3e ac 3e 06 d0 8a be fa 0e f4 3e
       -0.5701989 0.3364134 -0.27111834 0.47667676
000070 27 dc e5 3d c3 ba ca 3e 43 c9 b7 3e 42 d6 5d 3e
       0.11223631 0.39595613 0.35895738 0.21663764
000080 6c b2 9e be 0d 7e 8f be 66 ef b2 be 08 fd 15 3e
       -0.309955 -0.28025857 -0.34948272 0.14647305
000090 b3 9a 2d bf b8 90 0b bf 91 7f 24 bf 8e c7 06 be
       -0.6781418 -0.545177 -0.6425715 -0.13162062
0000a0 29 89 81 bf 33 26 02 bf d6 a4 cf 3d fe fc fc be
       -1.0119983 -0.5083954 0.10138862 -0.49411768
0000b0 a0 89 0e bf ce cf 94 bf c8 ba b4 be b3 10 b9 3e
       -0.5567875 -1.1625917 -0.35298753 0.36145553
0000c0 26 b6 21 bf 6e 4b 7a be 83 91 0e bf c9 05 41 bf
       -0.6316856 -0.24442837 -0.55690783 -0.7539945
0000d0 7c 7f 30 bf 36 6f e2 be 36 4c 95 be 20 70 ed be
       -0.68944526 -0.44225472 -0.29159707 -0.46374607
0000e0 09 27 a2 be 5a 30 8a bf dd ae 7c be a1 8e f6 be
       -0.31670406 -1.0796006 -0.2467608 -0.48155692
0000f0 cf 57 81 be b2 df 60 bf 70 38 13 bf f7 5a e3 bf
       -0.25262305 -0.8784133 -0.5750799 -1.7762135
000100 5a 73 8b be 0c d4 09 3f 86 21 c7 be 35 f5 8c be
       -0.27236444 0.5383918 -0.38892764 -0.27530828
000110 24 8c 3a bf 20 6b b4 3d be 91 ca be 41 b7 af bd
       -0.7287009 0.08809495 -0.39564317 -0.08579875
000120 60 a8 01 3d a6 27 38 bf f9 e5 3a bf cb 9f 99 3d
       0.031654716 -0.719355 -0.7300716 0.07501181
000130 b2 3d 15 bf 1f 4d b2 be 2a 8b 20 bf 4e b5 95 bd
       -0.58297265 -0.34824464 -0.6271235 -0.07309972
000140 b6 c0 9c bf bf cb 9c be cc 85 9b be b8 f7 0b bf
       -1.2246311 -0.30624196 -0.30375516 -0.54674864
000150 4a c7 3b bf 9b 47 00 38 79 f7 3c bf d9 bc 0e 3e
       -0.73350966 3.0584266e-05 -0.73815113 0.13939227
000160 0d 5d cb 3e b5 50 7c 3e de b4 60 3e 75 a8 20 bf
       0.3971943 0.24640162 0.21943995 -0.62757045
000170 bb 6f a1 be ae b1 0a bf c4 bb 96 bf 8b 6e ad be
       -0.31530556 -0.5417737 -1.1776052 -0.338734
000180 ce 56 a9 3e 4f 3b 0f c0 78 04 c3 3e d7 bf 9d be
       0.3307404 -2.237995 0.38089347 -0.30810425
000190 d3 9e 42 3e 73 ac b0 bd 83 e4 c6 3e 81 d0 36 bf
       0.19005899 -0.08626642 0.38846216 -0.714119
0001a0 2c 58 c6 be 13 41 6f be c5 63 e9 be 0b 1b c0 be
       -0.38739145 -0.23364668 -0.4558393 -0.37520632
0001b0 e3 61 1b be 96 11 48 be 1e 87 15 bd 81 ca 8c be
       -0.1517406 -0.19537959 -0.03650581 -0.27498248
0001c0 85 43 b7 be 61 54 89 3e 7b ce fa bf 97 d9 fb 3e
       -0.357937 0.26822188 -1.9594263 0.49189445
0001d0 97 18 c6 bc c0 54 37 bf d9 3f aa 3e 56 be ce be
       -0.024181647 -0.71613693 0.33251837 -0.4037959
0001e0 d2 dc a0 bd f1 36 ab 3e db c7 81 be 62 ac 32 3f
       -0.07854618 0.33440354 -0.2534779 0.69794285
0001f0 40 c9 b5 3e 91 7d bf bc 84 74 28 bf cd f3 ce bd
       0.35505104 -0.023375304 -0.6580279 -0.10105095
000200 9f 8a 15 3f 0b de 0e be bc 89 c1 bf 1d 39 08 bf
       0.58414644 -0.1395189 -1.5120158 -0.5321215
000210 50 f7 c0 3e c1 8a 55 3e 90 21 e3 bd 89 96 39 be
       0.37688684 0.20853712 -0.11090386 -0.18123831
000220 c9 d1 9f bf 92 fe f5 be 1a a3 89 3e b1 0f 5a bd
       -1.2485896 -0.48045784 0.2688225 -0.05323762
000230 91 f4 54 bc 43 04 10 bf b0 ca 08 bf c9 a0 11 bf
       -0.012997762 -0.562565 -0.53434277 -0.56885964
000240 5f d2 ee be e4 42 31 be df 20 0a 3f 17 9e 7a be
       -0.46644875 -0.17310673 0.5395641 -0.24474369
000250 6d df 0c 3f b9 62 97 bf f4 aa 2f bc 72 62 23 bf
       0.5502842 -1.1827003 -0.010721911 -0.6382209
000260 25 c1 72 be a5 a1 15 be b8 7d 74 be ed 21 bb be
       -0.23706491 -0.14612444 -0.23876083 -0.3654932
000270 b9 aa 2a bf 3d 62 cb 3d 5e 07 3b be 38 31 7b bc
       -0.6666675 0.09930847 -0.18264529 -0.015331559
000280 5a e3 e6 3d 7b 8a 9a be 51 16 9a 3e 84 cc 0d bf
       0.112738326 -0.30183777 0.3009515 -0.5539019
000290 49 90 01 bf 7e e7 17 3d 69 d6 15 bf bd e6 d8 be
       -0.50610787 0.037086003 -0.5853029 -0.4236354
0002a0 86 f4 63 be 81 ca c5 bd 50 ae ee be 61 21 44 be
       -0.22261247 -0.09657765 -0.46617365 -0.19153358
0002b0 f8 8d 32 be ee 14 91 3e aa 12 34 3e ce 92 3a 3e
       -0.1743697 0.2833628 0.17585245 0.18220064
0002c0 a6 76 c2 3e 62 03 3b bf 67 f7 38 bf 4d dc 6b bf
       0.37981147 -0.73052037 -0.72252506 -0.9213303
0002d0 c7 e6 0b 3f f1 6c e0 be 8d ef 36 3e c2 16 85 3e
       0.54649013 -0.43833116 0.17864819 0.25993925
0002e0 5a 20 29 be f0 ea ec be 18 92 e5 be 3f a0 06 be
       -0.16516247 -0.46272993 -0.44838023 -0.13147067
0002f0 53 44 29 c0 7d 22 c8 bd d6 5a 01 bf a0 33 71 bf
       -2.6447952 -0.09772203 -0.5052923 -0.942194
000300 15 c8 ee be bf 23 05 be a5 9d c9 3d d3 be 33 bf
       -0.46637025 -0.13001917 0.098445214 -0.7021305
000310 91 03 a3 3e a1 52 65 bf 32 f1 77 be a0 f7 85 be
       0.31838658 -0.89579207 -0.24213102 -0.26165485
000320 2c be 93 3e d4 34 29 bf 43 c1 40 be d4 25 89 bf
       0.28856027 -0.66096234 -0.18823723 -1.0714669
000330 5d 73 de bf 4b 4c 93 be cd c0 83 3e 91 4c 36 be
       -1.7378956 -0.28769144 0.25733033 -0.17802645
000340 b7 59 d6 be 73 12 37 3d c8 f0 9d 3e dd 91 b6 be
       -0.41865322 0.04469533 0.30847764 -0.3565816
000350 0d f8 cb 3d db 81 02 bf fc f8 10 bf 6e 34 84 be
       0.09959421 -0.50979394 -0.5662992 -0.2582125
000360 c0 98 88 be ff 35 7d be 97 bb f1 be b8 55 2e bf
       -0.2667904 -0.24727629 -0.47213432 -0.68099546
000370 5f a7 07 be 30 77 07 bf 49 95 95 be 97 3b 75 3d
       -0.13247441 -0.5291624 -0.29215458 0.059871282
000380 f0 be ec be 03 6a f5 3e 62 ef 95 be 6c 73 eb 3e
       -0.46239424 0.47932443 -0.29284197 0.45986497
000390 87 d2 18 be b6 f6 d6 3e 22 16 a7 3e 0e 5d 9d 3d
       -0.1492406 0.419851 0.32634073 0.076837644
0003a0 36 93 93 bd 4d 86 84 bf 94 37 56 3e 93 15 03 3f
       -0.07205813 -1.0353485 0.20919639 0.51204795
0003b0 a7 57 00 bf f5 48 0f bf e8 56 f4 bf 47 a4 20 be
       -0.50133747 -0.559707 -1.9089022 -0.15687667
0003c0 af bd 2a be 1f d4 1b bf 27 e3 b3 3e 08 4e ef be
       -0.16673921 -0.60870546 0.3513424 -0.4673922
0003d0 33 24 10 3f 19 c0 84 bc a3 59 63 bf 93 aa d4 be
       0.56305236 -0.01620488 -0.8880865 -0.41536388
0003e0 0b ee 90 3e 37 34 9c bf 1f 8b ab be f5 25 d7 3e
       0.28306612 -1.2203435 -0.33504578 0.42021146
0003f0 a6 1e 4b bf 18 df 05 3c 56 6b f1 be 60 80 ed 3e
       -0.7934364 0.0081708655 -0.47152203 0.46387005

output_layers.0.bias f4 [40]
000000 91 f5 15 c0 80 c7 c8 3f aa 12 ea bf 69 78 2e c0
       -2.3431132 1.5685883 -1.8286946 -2.7260993
000010 22 94 3a 3e f0 52 64 bf 84 34 06 bf a7 05 ec bf
       0.1822057 -0.8918905 -0.5242388 -1.8439225
000020 aa 7f 54 be a2 98 83 3e 4a 86 3d be a2 1d 81 bf
       -0.20751825 0.25702387 -0.18508258 -1.0087168
000030 3f b1 78 3e 12 7f 58 3d 05 35 b3 3d 48 60 a1 3e
       0.24286364 0.05285556 0.08750347 0.3151877
000040 e2 97 ef 3e e5 df 6e 3e cd c4 20 be 1d f8 82 be
       0.46795565 0.23327596 -0.15700074 -0.2557992
000050 54 4a be 3d da d4 bc 3e 04 b1 95 be 06 fb d6 be
       0.09291521 0.36881143 -0.29236615 -0.4198839
000060 49 19 0a 3e 91 a1 04 bf 49 c4 8d be 10 72 89 bd
       0.13486208 -0.5180903 -0.27688816 -0.06711209
000070 18 c2 dc be 61 10 c3 bf 77 96 b3 be f7 c7 a7 be
       -0.43116832 -1.5239373 -0.35075733 -0.3276975
000080 86 71 b2 3e f0 75 a1 bf cb 8a dc 3d d2 4f 86 bf
       0.34852237 -1.2614117 0.1076866 -1.0493109
000090 38 38 0d c0 c6 79 1c c0 3b 8b 19 c0 0c dd c1 3f
       -2.2065563 -2.4449325 -2.399123 1.5145583
