MODELS/REWARD COMPARISON/SAC MASKED MODELS/7_1_critic_local_network.pt (torch, 411295 bytes, 6 tensors)

hidden_layers.0.weight f4 [256, 101]
0	0x3d13b2b4	0.036059096
1	0x3eac8a45	0.3369924
2	0xbef378ef	-0.47553203
3	0xbe2dd82e	-0.16976997
4	0x3de705c1	0.11280394
5	0xbf3fa78b	-0.74865025
6	0x3f265970	0.6498022
7	0x3e73bd0c	0.23802584
8	0xbf1428b1	-0.5787459
9	0xbf34924f	-0.7053575
10	0x3d8d5c60	0.06902385
11	0x3fd01004	1.6254888
12	0x3f65deee	0.8979329
13	0xbef68080	-0.48144913
14	0x3dd632f6	0.10458939
15	0xbf081a30	-0.5316496
16	0x3f25935b	0.6467797
17	0x3f871768	1.0554018
18	0x3db506b3	0.088391684
19	0xbf10c908	-0.5655675
20	0xbcd66035	-0.026168922
21	0x3f4f0fe9	0.8088365
22	0x405dde2c	3.4666853
23	0x3f440ba9	0.7658029
24	0x40176f8e	2.3661838
25	0x3fcbfc0c	1.5936294
26	0x3f03c16a	0.51467
27	0x3cd135e1	0.025538387
28	0xbec0c7b6	-0.37652367
29	0xbf20adc3	-0.6276514
30	0x3af393f4	0.0018583522
31	0x3fdb015b	1.7109789
32	0x40618d33	3.524243
33	0x3f9126ab	1.1339926
34	0x3f39989f	0.72498506
35	0x3f650ca4	0.89472413
36	0xbe1341b5	-0.14380534
37	0xbdb0bad3	-0.08629384
38	0xbe3cf425	-0.18452509
39	0x3ce51586	0.027964365
40	0x3dabfd1c	0.08397886
41	0x3ff7d47e	1.9361722
42	0x3fab371d	1.3376194
43	0xbf45e31d	-0.7729967
44	0xbfabdc2a	-1.3426564
45	0xbd89f170	-0.06735504
46	0x3e8e7588	0.27824044
47	0x3e813f03	0.25243387
48	0xbe0bdedf	-0.13659237
49	0x3f21abd2	0.631528
50	0x3dac1180	0.08401775
51	0x3b1f4eb7	0.0024308392
52	0xbcb7542d	-0.022379005
53	0xbf07deb5	-0.530742
54	0xbf8bed43	-1.0931782
55	0x3d9680ec	0.07348809
56	0x3f870598	1.0548582
57	0xbf6d0091	-0.9257899
58	0xbcff1b80	-0.031141043
59	0xbf3a01e6	-0.72659147
60	0xbe9f60a8	-0.3112843
61	0x3ec104d6	0.37699002
62	0x3c92be19	0.017912911
63	0xbe75e32d	-0.24012442
64	0x3ebdf04f	0.37097403
65	0x3f195122	0.59889424
66	0xbf53ab5b	-0.8268334
67	0xbf4c61d1	-0.79836756
68	0x3cbe8d3b	0.023260703
69	0x3dfb3136	0.122652456
70	0xbe006627	-0.12538968
71	0xbedc0783	-0.4297448
72	0xbeecef32	-0.46276242
73	0xbed8f2e6	-0.42372817
74	0xbdc9108d	-0.0981761
75	0x3dcc5a35	0.09978143
76	0x3deda7b0	0.116042495
77	0x3efeaab6	0.49739617
78	0x3f5f0348	0.8711438
79	0x3f0b8015	0.5449231
80	0x3e0dd2d3	0.13849954
81	0x3eb5ae50	0.35484552
82	0xbf18c8e8	-0.5968156
83	0xbf8b1f7c	-1.0868983
84	0xbf5cea44	-0.8629496
85	0x3e0bbb93	0.13645773
86	0xbd1e9ed4	-0.03872569
87	0x3e76037d	0.24024768
88	0xbf682fbd	-0.9069784
89	0xbdc34e87	-0.09536462
90	0x3cd06531	0.025438877
91	0xbe4f4be4	-0.20243794
92	0xbecb8912	-0.39753014
93	0xbe17a0a5	-0.14807375
94	0x3f0daaea	0.5533892
95	0x3dadbd75	0.08483402
96	0x3e5c38f6	0.21506104
97	0x3f201733	0.625354
98	0xbd95a414	-0.07306686
99	0x3e198a64	0.14994198
100	0xbe874ce9	-0.26425865
101	0x3bd6cd81	0.0065552597
102	0xbf0bac04	-0.5455935
103	0x3e02e8c9	0.12784113
104	0xbea0d97e	-0.31415933
105	0x3e8ada81	0.2711983
106	0x3c8362c7	0.016038312
107	0xbfd2684f	-1.6438082
108	0xbedf17e3	-0.43572912
109	0x3c1a438a	0.009415517
110	0x3e61d92f	0.22055505
111	0xbd0cf67b	-0.03441475
112	0xbe4ff4ee	-0.20308277
113	0x3d8447d8	0.064590156
114	0xbf03de80	-0.51511383
115	0x3d12a08d	0.035797644
116	0x3e27ca46	0.16385755
117	0xbf41c3cd	-0.75689393
118	0x3cb7501e	0.02237707
119	0xbe09f63e	-0.1347284
120	0x3eff0bac	0.49813592
121	0xbe257fed	-0.16162081
122	0xbaee2243	-0.001816817
123	0xbdd7b09c	-0.105317324
124	0x3db0449f	0.086068384
125	0x3eea3d77	0.4575002
126	0x3e5d4681	0.21608926
127	0x3df4e497	0.119576626
128	0xbe643653	-0.22286348
129	0xbea54683	-0.3228036
130	0xbf25932c	-0.6467769
131	0x3db8fd15	0.090326466
132	0x3e2a6aad	0.16642256
133	0xbf4298cd	-0.76014405
134	0xbf54e5e8	-0.8316331
135	0x3ee3169f	0.44353196
136	0x3e7a0900	0.24417496
137	0x3f229f7d	0.6352461
138	0xbe5f5091	-0.21808077
139	0x3d322aab	0.043497723
140	0x3eb7ef30	0.35924673
141	0x3e41ab14	0.18912917
142	0x3daab28c	0.08334836
143	0x3f04ffcb	0.5195281
144	0x3f91995a	1.1374924
145	0x3f872427	1.0557908
146	0x3f4f1c1b	0.8090226
147	0x3e818232	0.25294644
148	0xbe3233c8	-0.17402565
149	0xbf29fabf	-0.66398233
150	0xbf89cb95	-1.0765253
151	0x3e054ad2	0.13016823
152	0x3ebf6a97	0.3738601
153	0xbecdab0c	-0.4016956
154	0xbf9210a6	-1.1411331
155	0xbee2c25a	-0.44288903
156	0x3f6d5262	0.9270383
157	0x3ec5e960	0.38654613
158	0x3e848f0d	0.2589039
159	0xbe207ca3	-0.15672545
160	0xbf7d240d	-0.98883134
161	0xba5d442f	-0.0008440641
162	0x3e59d803	0.21273808
163	0x3f40133a	0.7502934
164	0xbdee84bf	-0.11646413
165	0xbe237231	-0.1596153
166	0x3eebe50a	0.4607318
167	0x3ef8d3dc	0.48599136
168	0xbf713aed	-0.9423054
169	0x3e59cdeb	0.21269958
170	0xbe55edc6	-0.20891485
171	0x3e960962	0.29304034
172	0xbb82eeb9	-0.003995743
173	0xbe98aab2	-0.2981773
174	0xbfc9a228	-1.5752611
175	0xbf840d36	-1.0316532
176	0x3fa4a6e9	1.2863437
177	0x3e302811	0.17202784
178	0x3ebba84f	0.36651847
179	0xbf0a9e3e	-0.5414771
180	0xbef80faa	-0.4844945
181	0x3cfbd53b	0.030741325
182	0x3f93a34f	1.1534213
183	0xbd86dea5	-0.06585435
184	0x3f5252d3	0.8215763
185	0x3e9ee99a	0.310376
186	0x4019df62	2.4042592
187	0x3f82504a	1.0180752
188	0x3ebd558c	0.3697933
189	0xbd8fd0aa	-0.070222214
190	0xbf76280c	-0.96154857
191	0xbd0c9690	-0.034323275
192	0x3fb3ef5a	1.4057419
193	0xbeed8e36	-0.4639756
194	0xbf642e36	-0.8913301
195	0xbf3e0285	-0.74222594
196	0x3fe1d65a	1.764354
197	0x3f91f7f1	1.1403791
198	0xbe2b15ab	-0.16707484
199	0x3e2c38e2	0.16818574
200	0x3eef46ae	0.46733612
201	0xbe981778	-0.29705405
202	0x3d2d1399	0.042255018
203	0xbe26a7c6	-0.16274938
204	0xbf946d58	-1.1595869
205	0xbf401fc4	-0.7504847
206	0xbf1e586d	-0.6185368
207	0x3f8e1ab0	1.1101894
208	0x3f023d0c	0.508744
209	0xbd1e6b00	-0.038676262
210	0xbfb37c3d	-1.402229
211	0xbee2d5f3	-0.44303855
212	0x3e45f3ac	0.19331235
213	0xbe2109c1	-0.15726377
214	0xbf022d55	-0.5085042
215	0xbec6f0e1	-0.3885565
216	0x3dd7ec78	0.1054315
217	0x3eefdf1f	0.46849915
218	0xbbe720c2	-0.0070534656
219	0xbee9faec	-0.4569925
220	0xbfac5a4b	-1.3465055
221	0xbf86c957	-1.0530194
222	0xbe2d0bc5	-0.16899021
223	0x3bb927a4	0.0056504775
224	0xbf624ff8	-0.8840327
225	0xbf89e6fe	-1.0773618
226	0xbf04fb20	-0.51945686
227	0xbdae5539	-0.08512349
228	0xbee2e637	-0.44316265
229	0x3dbe7966	0.09300499
230	0xbf86ca57	-1.0530499
231	0xbe3abf59	-0.18237056
232	0xbe246510	-0.16054177
233	0xbe340f98	-0.17584074
234	0x3dc905da	0.09815569
235	0xbd292913	-0.041298937
236	0x3e94fcfb	0.2909926
237	0xbe839022	-0.25695902
238	0x3f34f64c	0.7068832
239	0xbefd1896	-0.4943282
240	0xbfb29f05	-1.3954779
241	0x3f8208d8	1.0158949
242	0x3e315a2a	0.17319551
243	0xbf637842	-0.88855374
244	0xbe2fef20	-0.17181063
245	0xbf897e56	-1.074168
246	0xbf587c25	-0.8456443
247	0x3f087cd1	0.53315455
248	0xbc7fe88c	-0.015619408
249	0xbee57ad0	-0.4482026
250	0xbeb6e637	-0.35722515
251	0xbf1e11ba	-0.617458
252	0xbd04c630	-0.03241557
253	0xbe48997b	-0.19589798
254	0xbfa31d45	-1.2743307
255	0xbed3aedc	-0.41344345

hidden_layers.0.bias f4 [256]
0	0xbfbffa59	-1.4998275
1	0xbfdaea82	-1.7102816
2	0x3ef3a5d4	0.47587454
3	0x3ef0bb53	0.47017917
4	0x3e4996ab	0.19686382
5	0xbef7f584	-0.484295
6	0x3ed94d76	0.4244191
7	0x3df82301	0.121160515
8	0xbeca3044	-0.3948995
9	0x3d5d6932	0.0540554
10	0xbfdefd37	-1.7421025
11	0xbe05b6d2	-0.13058022
12	0xbdfab59d	-0.12241671
13	0xbe1e5748	-0.15462983
14	0x3e986f36	0.29772347
15	0xbe7f3d85	-0.24925812
16	0x3e590136	0.21191868
17	0x3e6bcb07	0.23026668
18	0xbef61a30	-0.48066854
19	0xbf56a45f	-0.8384456
20	0xbff27edf	-1.8944968
21	0xbf9ff332	-1.2496092
22	0xbf9fe863	-1.2492794
23	0x3e907403	0.2821351
24	0x3de211ec	0.110385746
25	0xbeffe58e	-0.49979824
26	0xbfcda6f7	-1.6066579
27	0xbea419cb	-0.32050928
28	0xbfccf85a	-1.6013291
29	0x3df8125f	0.12112879
30	0x3ecaeb8c	0.39632833
31	0x3f0897c4	0.53356576
32	0xbf455c5f	-0.7709407
33	0xbd4d71b6	-0.05015727
34	0xbf624b2b	-0.8839595
35	0xbfb7a23f	-1.4346389
36	0xbff1288b	-1.8840498
37	0xbfcc747f	-1.5973052
38	0xbedb843a	-0.42874318
39	0xbf86433e	-1.0489271
40	0xbca9c0e3	-0.020721858
41	0x3eb35599	0.35026243
42	0xbfe7df61	-1.8115045
43	0xc01abf40	-2.417923
44	0xbfe1dbcd	-1.7645203
45	0xbf950255	-1.1641337
46	0xbf0aef5c	-0.54271483
47	0xbef0aeca	-0.47008353
48	0xbfe6e683	-1.8039097
49	0xbd288af4	-0.04114814
50	0xbf89279a	-1.071521
51	0xbec740a3	-0.389165
52	0xbe92d2c5	-0.2867643
53	0xbe52206d	-0.20520182
54	0x3e7fe4c2	0.24989608
55	0xbfcf8cdb	-1.6214861
56	0xbaad4438	-0.0013219183
57	0xbfb8a591	-1.4425527
58	0xbe5dbb79	-0.21653546
59	0x3ec642c4	0.38722813
60	0xc004af26	-2.0731902
61	0xbf3ee992	-0.7457515
62	0x3e1fd0c9	0.15606989
63	0x3eafe413	0.34353694
64	0xbf3d3f64	-0.7392485
65	0xbfdab4d9	-1.708644
66	0xbcf4fa13	-0.0299044
67	0xbf9dda7b	-1.23323
68	0x3e43fc1a	0.19139138
69	0xbe54f47c	-0.20796388
70	0xbf9c06fc	-1.2189631
71	0x3db8d4d8	0.09024972
72	0xc01d5ad1	-2.458668
73	0xbcf6aace	-0.030110743
74	0xbcbc3bfd	-0.022977823
75	0xc0008c8c	-2.0085783
76	0xbf28bac2	-0.6590997
77	0xbe2009cd	-0.15628739
78	0x3ca7b7c9	0.020473378
79	0xbe4cb83c	-0.19992155
80	0xbfcfd5e1	-1.6237146
81	0xbfb746c5	-1.4318472
82	0x3ed73c4e	0.42038196
83	0xbe5afa73	-0.21384601
84	0xbfbb8305	-1.4649359
85	0x3e3912e2	0.1807361
86	0x3d66026e	0.05615466
87	0x3e3da60b	0.18520372
88	0xbe8f4391	-0.27981237
89	0xbf3b0fbb	-0.7307088
90	0xbe785935	-0.2425278
91	0xbeaaac06	-0.33334368
92	0xbe971c73	-0.29513893
93	0x3eba4021	0.3637705
94	0xbbb29352	-0.005449691
95	0x3ed853de	0.42251486
96	0xbe2a0305	-0.16602714
97	0xbf26130b	-0.6487281
98	0xbefb3080	-0.4906044
99	0x3e80719e	0.25086683
100	0x3f08d1ad	0.5344494
101	0x3ea5bb55	0.32369485
102	0xbe1a6776	-0.1507853
103	0xbf2d45ca	-0.67684615
104	0xbe4ed83f	-0.20199679
105	0xbfe74d14	-1.8070397
106	0xc025b99c	-2.5894537
107	0xbe96b5e2	-0.2943564
108	0xbf54cafc	-0.8312223
109	0x3dcc8a68	0.099873364
110	0xbea22928	-0.31672025
111	0xbf71ef52	-0.945058
112	0x3da1dad9	0.0790307
113	0xc015e402	-2.3420415
114	0xbffe87b7	-1.9885167
115	0x3e8f0f5c	0.27941406
116	0xbe8dd40f	-0.2770085
117	0x3e17ed37	0.14836584
118	0x3f300ca8	0.6876931
119	0xbfaa834c	-1.3321319
120	0xbfd58380	-1.6680756
121	0xbf8fb17d	-1.122604
122	0xbe9390dd	-0.2882146
123	0x3e8c678b	0.27422747
124	0xbffcd6d0	-1.9753056
125	0x3e919123	0.28431043
126	0x3efb6c41	0.4910603
127	0xc0095be2	-2.146233
128	0xbfd0c00e	-1.630861
129	0xbf27eecb	-0.65598744
130	0xbf1ef21f	-0.620882
131	0xbed7cb1b	-0.42147145
132	0xbddd26d7	-0.10798424
133	0x3f0a4abe	0.540203
134	0xbe465b10	-0.19370675
135	0xbe8603c4	-0.26174748
136	0xc0256ac4	-2.5846415
137	0x3ed778ee	0.4208445
138	0x3d8b380b	0.06797799
139	0xbfd19e97	-1.6376523
140	0xbf30b995	-0.69033176
141	0xbfe76e3b	-1.8080515
142	0xbf478d69	-0.7795015
143	0xbe7e9791	-0.24862505
144	0x3e9b9398	0.30386043
145	0xbf5f1662	-0.8714353
146	0x3deb7d38	0.11498493
147	0xbd553b51	-0.05205852
148	0xbf72232d	-0.94584924
149	0xbd2b886a	-0.04187814
150	0xbe83f804	-0.25775158
151	0xbe6695c8	-0.22518075
152	0x3e8926f4	0.2678753
153	0xbff64b63	-1.9241756
154	0x3cf36e36	0.029715639
155	0xbf4c17d4	-0.7972386
156	0xbef25e53	-0.4733759
157	0xbfc318e4	-1.5241971
158	0xbe4721db	-0.19446509
159	0x3e49e695	0.19716866
160	0xc013aaf1	-2.3073084
161	0x3d378532	0.04480476
162	0xbee6f6b8	-0.45110106
163	0x3db92b2f	0.0904144
164	0xbf7e37c8	-0.99303865
165	0xbf87bd90	-1.0604725
166	0xbfcc734b	-1.5972685
167	0x3e5b78e7	0.2143284
168	0xbf858686	-1.0431678
169	0xbf331254	-0.6994984
170	0xbdef1785	-0.11674408
171	0xbf8c0802	-1.0939944
172	0xc0082c64	-2.1277094
173	0xbec3fe11	-0.38279775
174	0xbed22897	-0.41046593
175	0xbd67b45c	-0.05656849
176	0x3e37ecfe	0.17961499
177	0xbf5ca29c	-0.8618562
178	0x3e9b8f84	0.3038293
179	0x3db3345b	0.087502204
180	0xc0130647	-2.2972581
181	0xc0145aee	-2.31805
182	0xbf898aa2	-1.0745432
183	0x3e792c8d	0.24333401
184	0xbfdb01f8	-1.7109976
185	0xbe254372	-0.1613901
186	0xbf919b63	-1.1375545
187	0xbfd2945d	-1.6451527
188	0xbfcece90	-1.6156788
189	0xbfed1744	-1.8522725
190	0xbeb27153	-0.34852085
191	0xc024ab6f	-2.5729635
192	0xbf0026d7	-0.50059265
193	0x3e1bc5e0	0.15212202
194	0x3de390da	0.111116126
195	0xbfb2f9bf	-1.3982466
196	0xbff74611	-1.9318258
197	0x3ef0749a	0.4696396
198	0xbd3f71d2	-0.046739407
199	0x3d7202e2	0.05908478
200	0xbfdaa480	-1.7081451
201	0x3ea627f8	0.3245237
202	0x3eed5ab0	0.46358252
203	0xbcfcbefd	-0.030852789
204	0xbd87fde1	-0.066402204
205	0xbe85db71	-0.26143983
206	0xbd9204f3	-0.0712985
207	0x3ebedefe	0.37279505
208	0xc027e854	-2.6235552
209	0xbf78fda4	-0.97262025
210	0xbd9c5ae1	-0.07634521
211	0x3ee4a2d4	0.44655478
212	0xbbbfdcfd	-0.0058552013
213	0xbfd0aad5	-1.6302134
214	0x3c12bf41	0.008956731
215	0xbf61f27c	-0.88260627
216	0xbfaeac5c	-1.364635
217	0xbe926d1c	-0.2859887
218	0x3f16be3e	0.58884037
219	0x3e67d8c9	0.2264129
220	0xbfa34878	-1.2756491
221	0x3e8d5e72	0.2761112
222	0x3e027ecb	0.1274368
223	0xbd5617d0	-0.052268803
224	0x3ea872fd	0.3290023
225	0x3f0bcf19	0.5461288
226	0x3e843dad	0.25828305
227	0xbe67b439	-0.22627343
228	0xbffa99ca	-1.9578183
229	0xbe531407	-0.20613109
230	0xc01ca780	-2.4477234
231	0xbf0142e2	-0.5049268
232	0xc0054b95	-2.0827382
233	0xbda0ceb6	-0.07851927
234	0x3e9528f3	0.29132804
235	0xbd0fe84d	-0.03513365
236	0xbe1f3e0f	-0.15551017
237	0xbfe2d623	-1.7721599
238	0x3e79615f	0.2435355
239	0x3e9462cc	0.28981626
240	0x3d4e373e	0.05034565
241	0xbfaa5680	-1.3307648
242	0xbf892ceb	-1.0716833
243	0xbeefc0d6	-0.4682681
244	0xc0117bc0	-2.273178
245	0x3dfd2078	0.123597085
246	0x3e3b7328	0.18305647
247	0xbf06d7d9	-0.5267311
248	0xbdbc55b9	-0.09196038
249	0xc00936b9	-2.143965
250	0xbf233e00	-0.6376648
251	0xbf82daf9	-1.0223075
252	0xbf1d1540	-0.6136055
253	0x3e2dcc6e	0.16972515
254	0x3cee7dc7	0.02911271
255	0xc0240bd1	-2.5632212

hidden_layers.1.weight f4 [256, 256]
0	0xbdec30aa	-0.115327194
1	0xbc59bdfd	-0.013289926
2	0xbf5aa0f8	-0.8540187
3	0xbf7898f0	-0.97108364
4	0x3f844d2f	1.0336055
5	0x3f00beb1	0.5029097
6	0xbeb01d0b	-0.34397158
7	0xbf3b9150	-0.73268604
8	0xbfb70e47	-1.4301232
9	0xbec8c18c	-0.39210165
10	0xbf1bfea0	-0.609354
11	0x3ebb6580	0.36600876
12	0xbf822c76	-1.0169818
13	0xbf0c480e	-0.54797447
14	0x3d5e3151	0.05424625
15	0xbed6477d	-0.41851416
16	0xbf21b0ae	-0.63160217
17	0xbfb0fcf9	-1.3827201
18	0x3ccd7ba9	0.02508338
19	0x3f304b62	0.68865025
20	0x3d693e41	0.056944136
21	0x3d150ce2	0.03638924
22	0xbe3f8aac	-0.18705243
23	0xbf94b951	-1.1619054
24	0xbf338700	-0.7012787
25	0x3ef4052b	0.47660193
26	0xbd80b104	-0.06283763
27	0xbee83191	-0.45350316
28	0xbe08bd09	-0.13353361
29	0xbf95a3de	-1.1690633
30	0xbf61b4f2	-0.88166726
31	0xbe44bf08	-0.19213498
32	0xbe33f782	-0.17574885
33	0x3ea35b26	0.31905478
34	0x3ee97012	0.45593315
35	0x3e3da794	0.18520957
36	0x3dc8db70	0.098074794
37	0x3e1d9919	0.15390433
38	0x3b3899c4	0.0028167823
39	0x3df75391	0.12076486
40	0x3e2dce28	0.16973174
41	0x3c863ae0	0.016385496
42	0x3e6c17ec	0.23056
43	0xbd8f2d9d	-0.06991122
44	0xbe6963b4	-0.2279194
45	0x3d97cc41	0.07412005
46	0x3f07096f	0.5274877
47	0xbe6309f8	-0.22171772
48	0x3dc7be29	0.09753067
49	0xbf00cd45	-0.50313216
50	0xbd4bbace	-0.049738698
51	0xbf9fd729	-1.2487537
52	0xc00aa8cc	-2.1665525
53	0xbe4b22a2	-0.1983743
54	0xc004ddf4	-2.076047
55	0x3ebc0e23	0.36729535
56	0xbf16e453	-0.58942145
57	0xbd6f4521	-0.058415536
58	0x3f340d94	0.7033322
59	0xbdafd176	-0.085848734
60	0xbd32d8a7	-0.043663647
61	0xbe2a5ab5	-0.16636164
62	0xbe9ca4d3	-0.305945
63	0xbe845c86	-0.2585184
64	0xbf3378f4	-0.70106435
65	0x3d4bccaf	0.04975575
66	0x3f0b4576	0.54402864
67	0x3eecf733	0.46282348
68	0xbed75ffe	-0.42065424
69	0x3e8064c1	0.2507687
70	0x3e995319	0.2994621
71	0x3e7aafa8	0.2448107
72	0xbd39fcd4	-0.04540713
73	0xbfc076ae	-1.5036218
74	0x3ef0105f	0.4688749
75	0xbce63f0e	-0.028106239
76	0x3fe5c660	1.7951164
77	0xc00010da	-2.0010285
78	0xc00733eb	-2.1125438
79	0xbf0fccd3	-0.5617191
80	0x3e5aad15	0.21355088
81	0xbd79be59	-0.060972545
82	0xbf0085fb	-0.5020444
83	0x3b259998	0.002526855
84	0xbd80a964	-0.06282309
85	0x3f652d97	0.8952269
86	0x3d84ae6d	0.064785816
87	0xbe72f245	-0.23725231
88	0xbe49965e	-0.19686267
89	0xbea887ec	-0.329162
90	0xbf5c7856	-0.8612112
91	0x3d93ea07	0.072223715
92	0xbf06cfd6	-0.5266088
93	0x3c4b3053	0.012401658
94	0xbf911fff	-1.133789
95	0xbf592f29	-0.84837586
96	0xbf0a95dd	-0.54134923
97	0x3f68fd82	0.9101182
98	0xbe979a3b	-0.29609856
99	0xbfcaddac	-1.5848899
100	0xbfeb17cf	-1.8366641
101	0xbf9f65ed	-1.245298
102	0xbf88b99c	-1.0681643
103	0xbf219d87	-0.6313099
104	0xbf914d60	-1.1351738
105	0x3b90f97f	0.0044242735
106	0xbd87009a	-0.065919116
107	0xbd534545	-0.051579732
108	0x3f8d090d	1.1018387
109	0xbf9956e1	-1.1979638
110	0xbf1823f1	-0.5942984
111	0xbbdc3339	-0.0067199734
112	0xbfb21d95	-1.3915278
113	0x3e6a6f81	0.22894098
114	0x3e31c17a	0.17358962
115	0xbfa64fbd	-1.2993084
116	0xbe598df7	-0.21245562
117	0xbfa0b7ac	-1.2556052
118	0xbf55d338	-0.8352542
119	0xbde1cf4c	-0.11025867
120	0xbe07dd05	-0.13267906
121	0xbdd4bf37	-0.10388034
122	0xbeb3921b	-0.35072407
123	0xbf6e8178	-0.93166304
124	0xbcaed717	-0.021342797
125	0xbee6ff56	-0.4511668
126	0x3e7ad88a	0.24496666
127	0xbc0c82e6	-0.0085761305
128	0x3d0df09c	0.03465329
129	0xbf07164c	-0.527684
130	0xbf5156cf	-0.81773084
131	0xbf303e76	-0.6884531
132	0xbf9150bb	-1.1352762
133	0xbe9decfe	-0.30844873
134	0x3fbc9f68	1.4736147
135	0xbfa50a13	-1.28937
136	0xbe12ce1c	-0.14336437
137	0xbfbeace4	-1.4896512
138	0xbf9c93e7	-1.2232636
139	0xbe211180	-0.15729332
140	0xbe7a2801	-0.24429323
141	0x3dc68970	0.09694183
142	0xbf14ceb4	-0.58127904
143	0xbf882e17	-1.0639066
144	0xbe9189bc	-0.28425395
145	0xbe589dbb	-0.2115392
146	0xbfc14f33	-1.5102295
147	0xbfa197f8	-1.2624502
148	0x3f3896a6	0.7210487
149	0xbf49a891	-0.78772837
150	0x3d3ae99e	0.04563295
151	0xbfb63a56	-1.4236553
152	0xbf859b7a	-1.0438073
153	0x3e46b28d	0.19404049
154	0x3fe26951	1.768839
155	0xbe818847	-0.25299284
156	0x3f7dfd51	0.99214655
157	0xbc674780	-0.014116168
158	0xbed1eab4	-0.40999377
159	0xbe95b62e	-0.29240555
160	0xbcc00f6e	-0.023444857
161	0xbeba899c	-0.36433113
162	0xbfd77515	-1.6832606
163	0xbfa45527	-1.2838486
164	0xbdc3a58e	-0.095530614
165	0xbe67d1b1	-0.22638585
166	0x3d81eaf2	0.063436404
167	0xbf049e7a	-0.51804316
168	0x3eb4a828	0.35284543
169	0x3f073a7d	0.5282362
170	0xbf7d2369	-0.98882157
171	0x3db50632	0.08839072
172	0xbdbdb22d	-0.092625
173	0xbfbe345a	-1.4859726
174	0xbef75050	-0.4830346
175	0xbf50d8fa	-0.8158108
176	0x3e0b1bbb	0.13584797
177	0xbf0cac96	-0.54950845
178	0xbed535b3	-0.41642532
179	0x3f72c33a	0.9482914
180	0x3ccfc0af	0.025360433
181	0xbdb75631	-0.089519866
182	0x3d12a598	0.035802454
183	0xbf2b507f	-0.669197
184	0x3dda5783	0.10661223
185	0xbf42457b	-0.7588727
186	0x3f1f122e	0.62137115
187	0xbe0bc3d8	-0.13648927
188	0x3e01b7c0	0.12667751
189	0xbe1cb9d8	-0.15305269
190	0x3e0834fd	0.13301463
191	0xbe0bfb18	-0.13670003
192	0xbee23c57	-0.4418666
193	0xbfa2e800	-1.2727051
194	0xbf67acae	-0.90497863
195	0xbdd29842	-0.10282947
196	0xbd1b90cb	-0.037979882
197	0xbd79703c	-0.06089805
198	0xbf692bc0	-0.9108238
199	0xbf843cc9	-1.033105
200	0x3caec7bd	0.021335477
201	0xbf21f58b	-0.63265294
202	0xbfbc6c2d	-1.4720513
203	0xbe7e81c6	-0.24854192
204	0xbfb2ab0c	-1.3958449
205	0xbcdc3247	-0.026879443
206	0xbf89176b	-1.0710272
207	0xbf81266f	-1.0089854
208	0x3dd13ec5	0.102170505
209	0xbdb0f57e	-0.08640574
210	0xbfdcfa21	-1.7263833
211	0xbe904c10	-0.2818303
212	0xbf5c4d5a	-0.8605553
213	0x3c996045	0.018722663
214	0xbeaf3f96	-0.342282
215	0xbfb3337f	-1.400009
216	0x3e3a48f6	0.18191895
217	0xbf198953	-0.59975165
218	0xbe60338c	-0.21894664
219	0xbfa72070	-1.3056774
220	0x3d6c61c9	0.057710443
221	0xbead1ca5	-0.33810917
222	0xbda725d2	-0.081615105
223	0xbfa0c145	-1.2558981
224	0xbef163e6	-0.4714653
225	0xbecfb9d9	-0.40571478
226	0x3e2c0af9	0.1680106
227	0xbdf8c8f2	-0.12147702
228	0x3c6a4a9c	0.014300015
229	0xbd50cf59	-0.050978992
230	0xbd879c1c	-0.066215724
231	0x3f20041c	0.6250627
232	0x3d224972	0.039620824
233	0xbe58c5cb	-0.21169202
234	0xbf11583c	-0.5677526
235	0xbf103d65	-0.5634368
236	0xbf38f05e	-0.7224177
237	0xbe1c297f	-0.15250205
238	0xbe96caa5	-0.2945148
239	0xbdc81f20	-0.097715616
240	0x3e1159cf	0.14194416
241	0x3eb1bec8	0.34715867
242	0xbdba873e	-0.09107827
243	0xbff59577	-1.9186238
244	0x3e020461	0.12696983
245	0xbf7f1a05	-0.9964908
246	0xbf4990a0	-0.78736305
247	0xbe0f9407	-0.14021312
248	0xc0131ced	-2.2986405
249	0xbda4ee10	-0.08053219
250	0xbf93a9b2	-1.1536162
251	0xbf940d42	-1.1566546
252	0x3dc94f36	0.098295614
253	0x3eecdb24	0.4626094
254	0xbf591a64	-0.84805894
255	0xbe1ddfc6	-0.15417394

hidden_layers.1.bias f4 [256]
0	0xbd850382	-0.0649481
1	0xbeafc264	-0.34327996
2	0xbf7613ab	-0.9612376
3	0xbe85db98	-0.261441
4	0xbf45f412	-0.77325547
5	0xbf3c0290	-0.7344141
6	0xbf55358e	-0.8328484
7	0xbf5ea070	-0.8696356
8	0xbf5fe752	-0.8746234
9	0xbedef4a3	-0.43546018
10	0xbe8795f9	-0.26481608
11	0xbf2d277a	-0.6763836
12	0xbeed4abe	-0.46346086
13	0xbf463ac6	-0.7743343
14	0xbf91c4e1	-1.1388208
15	0xbee71654	-0.45134223
16	0xbf2df5ef	-0.6795339
17	0xbf36fb00	-0.71476746
18	0xbf4bdee8	-0.79637
19	0xbf892b5e	-1.071636
20	0xbf428f03	-0.7599947
21	0xbeaa3208	-0.33241296
22	0xbf86df56	-1.0536907
23	0xbef3512a	-0.4752286
24	0xbf659d3f	-0.89693063
25	0xbe96342b	-0.29336676
26	0xbf311c12	-0.69183457
27	0xbf69aef3	-0.91282576
28	0xbf7b7269	-0.9822145
29	0xbee9bc69	-0.45651558
30	0xbef5fb80	-0.48043442
31	0xbf0f9e44	-0.5610087
32	0xbf2dfdec	-0.6796558
33	0xbf3c1a93	-0.7347805
34	0xbf27bc47	-0.65521663
35	0xbf3a9cd7	-0.7289557
36	0xbe980e84	-0.29698575
37	0xbf295c32	-0.66156304
38	0xbf2cf117	-0.67555374
39	0xbf4ab179	-0.7917705
40	0xbf442ad6	-0.7662786
41	0xbefefc31	-0.49801782
42	0xbf5bbaa7	-0.85831684
43	0xbf2a235b	-0.664602
44	0xbebd7283	-0.37001428
45	0xbf8a7634	-1.0817323
46	0xbf3f8e38	-0.74826384
47	0xbf237512	-0.6385051
48	0xbf6d7502	-0.92756665
49	0xbeb9f351	-0.36318448
50	0xbe39db72	-0.18150118
51	0xbf9f22cf	-1.2432498
52	0xbee8343e	-0.45352358
53	0xbefd6720	-0.4949274
54	0xbe5c18bf	-0.21493815
55	0xbe9886ab	-0.29790244
56	0xbf5c15b6	-0.8597063
57	0xbf4ef720	-0.8084583
58	0xbf583b2d	-0.84465295
59	0xbde22ad2	-0.110433236
60	0xbefc0794	-0.49224532
61	0xbf112795	-0.5670102
62	0xbf93ce15	-1.1547266
63	0xbdd286e9	-0.10279638
64	0xbf3c56ab	-0.73569745
65	0xbf33dbbf	-0.7025718
66	0xbf21508b	-0.63013524
67	0xbf5f602a	-0.8725611
68	0xbeb746e2	-0.35796267
69	0xbf833812	-1.0251486
70	0xbf016c8e	-0.50556266
71	0xbea0b354	-0.31386817
72	0xbf461a74	-0.77384114
73	0xbf3880ec	-0.7207172
74	0xbf0081ab	-0.5019786
75	0xbd50c936	-0.05097314
76	0xbf3c09ee	-0.7345265
77	0xbf6ddaee	-0.92912185
78	0xbe9a283f	-0.3010883
79	0xbf813d2d	-1.0096794
80	0xbe877c79	-0.26462153
81	0xbf381aa1	-0.7191563
82	0xbf4a1089	-0.7893148
83	0xbedbe6d7	-0.42949554
84	0xbe818c1a	-0.25302202
85	0xbdcf3e8c	-0.10119352
86	0xbf1de477	-0.61676735
87	0xbf50b543	-0.81526583
88	0xbf1b9003	-0.6076662
89	0xbf3c7b6f	-0.73625845
90	0xbf3ff0e4	-0.74976945
91	0xbe1db66d	-0.15401621
92	0xbf46a41e	-0.7759417
93	0xbf34a01d	-0.70556813
94	0xbf9bae10	-1.2162495
95	0xbef50983	-0.4785882
96	0xbf2a01aa	-0.6640879
97	0xbf532ae0	-0.824873
98	0xbf124102	-0.57130444
99	0xbf715c3a	-0.9428135
100	0xbeb0d336	-0.3453614
101	0xbf8263d4	-1.0186715
102	0xbf2f0b8d	-0.68377
103	0xbe4d754d	-0.20064278
104	0xbf215476	-0.630195
105	0xbf159131	-0.5842467
106	0xbf851d8a	-1.039964
107	0xbf7b3437	-0.9812655
108	0xbea938e9	-0.33051232
109	0xbfb23082	-1.3921053
110	0xbf12428f	-0.5713281
111	0xbe92dd1c	-0.28684318
112	0xbf11ef96	-0.57006204
113	0xbe16ca6a	-0.14725652
114	0xbf3c431c	-0.735399
115	0xbf01ba2d	-0.50674707
116	0xbf1624bf	-0.5864982
117	0xbefc2185	-0.49244323
118	0xbf7b11ea	-0.9807421
119	0xbf33b6bd	-0.7020071
120	0xbebe9e47	-0.3723013
121	0xbf6644dc	-0.8994882
122	0xbf026c63	-0.50946635
123	0xbf5b88e5	-0.8575576
124	0xbf20fbcd	-0.6288422
125	0xbf131a70	-0.57462215
126	0xbf17aac6	-0.59244955
127	0xbefdef08	-0.4959643
128	0xbf3d32ea	-0.73905814
129	0xbf273878	-0.6532054
130	0xbf5062ad	-0.8140057
131	0xbf54be3b	-0.8310277
132	0xbdae79f7	-0.08519357
133	0xbf31d9cb	-0.6947295
134	0xbf10d38a	-0.56572783
135	0xbf182bc1	-0.59441763
136	0xbf767d90	-0.96285343
137	0xbed62d00	-0.41831207
138	0xbf4920cd	-0.78565675
139	0xbe8d3c55	-0.27585092
140	0xbf4c0513	-0.7969524
141	0xbf88c8d6	-1.068629
142	0xbf00225d	-0.50052434
143	0xbec3e0b0	-0.3825736
144	0xbe5ab57e	-0.21358296
145	0xbefb35c4	-0.49064457
146	0xbf35a9d6	-0.70962274
147	0xbef56084	-0.47925198
148	0xbf1cba94	-0.61222196
149	0xbeda1824	-0.42596543
150	0xbf96d788	-1.1784525
151	0xbf5df9c5	-0.86709243
152	0xbec7d4d3	-0.3902956
153	0xbf13b566	-0.5769867
154	0xbd9fcd9f	-0.07802891
155	0xbeac4b3e	-0.33651155
156	0xbf58a972	-0.84633553
157	0xbecfa846	-0.4055807
158	0xbecc8a07	-0.39949057
159	0xbe9a98d9	-0.30194739
160	0xbf2d04a4	-0.67585206
161	0xbf22a87b	-0.6353833
162	0xbed74a60	-0.4204893
163	0xbf060a99	-0.5235992
164	0xbf89f47d	-1.0777737
165	0xbf89f55d	-1.0778004
166	0xbf6c5b86	-0.92327154
167	0xbf31e643	-0.69491976
168	0xbf936ff6	-1.1518543
169	0xbf3357fb	-0.7005612
170	0xbebdb065	-0.3704864
171	0xbf3a797a	-0.7284161
172	0xbea2d63a	-0.31804067
173	0xbf4ef809	-0.8084722
174	0xbe43fc0f	-0.19139121
175	0xbf172295	-0.59037143
176	0xbf1eb772	-0.61998665
177	0xbf03cac6	-0.5148128
178	0xbd47c324	-0.048770085
179	0xbf5db22e	-0.86600006
180	0xbf0489e6	-0.51772916
181	0xbebd4d1e	-0.36972898
182	0xbf776b55	-0.9664815
183	0xbf6d9d39	-0.9281803
184	0xbf4fe083	-0.8120195
185	0xbf92d3a1	-1.1470834
186	0xbf9b78be	-1.2146223
187	0xbe817bb7	-0.252897
188	0xbf598c34	-0.8497956
189	0xbec022cd	-0.3752655
190	0xbf79c396	-0.97564065
191	0xbf2b1780	-0.66832733
192	0xbee9a061	-0.45630172
193	0xbf6ec31d	-0.9326647
194	0xbf26c269	-0.65140396
195	0xbf053399	-0.52031857
196	0xbf74c107	-0.95607036
197	0xbf110331	-0.56645495
198	0xbf9fad14	-1.2474694
199	0xbeb897d4	-0.36053336
200	0xbf625013	-0.88403434
201	0xbf11a906	-0.56898534
202	0xbe998d5e	-0.29990667
203	0xbf170908	-0.58998156
204	0xbf7d6143	-0.98976535
205	0xbf6a6949	-0.915669
206	0xbee2176e	-0.441585
207	0xbf502dd1	-0.8131991
208	0xbfad43bf	-1.35363
209	0xbf68a8c8	-0.9088254
210	0xbf31176f	-0.6917638
211	0xbea51334	-0.32241213
212	0xbf29f941	-0.66395956
213	0xbf2573a3	-0.6462957
214	0xbf4023d6	-0.7505468
215	0xbf40909c	-0.75220656
216	0xbe05742e	-0.130326
217	0xbf63eebe	-0.89036167
218	0xbf136641	-0.575779
219	0xbf35d423	-0.7102682
220	0xbe8bdce7	-0.27316973
221	0xbf242d21	-0.6413136
222	0xbef9154e	-0.48649067
223	0xbf658957	-0.8966269
224	0xbf18b26c	-0.5964725
225	0xbf563a6b	-0.8368289
226	0xbf34bdab	-0.7060191
227	0xbf17a9ca	-0.5924345
228	0xbf23a82a	-0.63928473
229	0xbed7a7ff	-0.42120358
230	0xbe193f8a	-0.14965644
231	0xbf050c75	-0.5197213
232	0xbf874056	-1.0566509
233	0xbeced1bd	-0.40394393
234	0xbfb337df	-1.4001426
235	0xbea1793d	-0.3153781
236	0xbf57d45e	-0.8430842
237	0xbf030107	-0.5117344
238	0xbf3c7f9c	-0.73632216
239	0xbf0213da	-0.5081154
240	0xbf01c4f6	-0.50691164
241	0xbf74c4f9	-0.95613056
242	0xbe9048e9	-0.28180626
243	0xbede20c5	-0.43384376
244	0xbf52beb8	-0.82322264
245	0x3cc5e5db	0.024157455
246	0xbf2acc91	-0.66718394
247	0xbed84424	-0.42239487
248	0xbee60fa7	-0.44933817
249	0xbed7c011	-0.42138723
250	0xbf46718f	-0.77517027
251	0xbecd7fec	-0.4013666
252	0xbf41a842	-0.75647366
253	0xbfb59241	-1.4185258
254	0xbef3a90f	-0.4758992
255	0xbf2dee36	-0.67941606

output_layers.0.weight f4 [40, 256]
0	0x3df360b7	0.11883681
1	0x3ed2442c	0.41067636
2	0xbcfb149e	-0.03064948
3	0xbe59f4a3	-0.21284728
4	0x3ed428bd	0.4143733
5	0xbde2cf13	-0.110746525
6	0xbe719029	-0.23590149
7	0xbd87ece9	-0.06636984
8	0x3df2f8be	0.1186385
9	0x3e9c9a0a	0.30586272
10	0xbf3e2569	-0.74275833
11	0x3ea2b201	0.3177643
12	0xbd876c27	-0.06612425
13	0xbdff20df	-0.124574415
14	0xbdba674e	-0.09101735
15	0x3e0694cf	0.13142703
16	0xbf205170	-0.62624264
17	0xbd3ffc1d	-0.046871293
18	0xbe08e915	-0.13370164
19	0xbe97950f	-0.2960591
20	0x3d9f1115	0.0776693
21	0x3bc945f1	0.006142371
22	0xbe227622	-0.15865377
23	0xbe81fcf9	-0.25388315
24	0x3d1147fa	0.035469033
25	0xbf3195d5	-0.6936925
26	0xbd0f10d1	-0.034928147
27	0xbd8a1a45	-0.06743292
28	0xbdb5b3bd	-0.08872173
29	0x3c8387c3	0.016055947
30	0xbe99d092	-0.3004194
31	0xbd32370c	-0.043509528
32	0xbe2f8517	-0.17140613
33	0x3df8de52	0.12151779
34	0x3e1320d8	0.14367998
35	0xbd997ebe	-0.07494877
36	0x3ece2334	0.40261233
37	0x3f2e487c	0.6807935
38	0x3f05f855	0.5233205
39	0xbd9599e1	-0.07304741
40	0x3e452f95	0.19256432
41	0x3e1566a8	0.14589942
42	0xbd92d766	-0.0716999
43	0xbca10e92	-0.019660268
44	0xbe63ba90	-0.22239137
45	0xbe9bc9a9	-0.30427292
46	0x3e127c3e	0.14305207
47	0x3c7b6e37	0.0153461015
48	0xbc8af459	-0.016962217
49	0x3cbffc45	0.023435721
50	0x3e03d7b8	0.12875259
51	0xbd8c2920	-0.068437815
52	0x3d4bcf18	0.049758047
53	0x3f3a7be2	0.7284528
54	0x3fadc379	1.3575279
55	0x3d95d8dc	0.07316753
56	0x3e0ac5a9	0.13551964
57	0x3e7f4a46	0.24930677
58	0x3bac98f7	0.0052672583
59	0x3dc03c1a	0.093864635
60	0xbd20d12b	-0.039261978
61	0x3f4c0b43	0.79704684
62	0xbcc6855b	-0.02423351
63	0xbdb24db6	-0.087062284
64	0xbddcbab1	-0.10777796
65	0x3d765fcb	0.06014995
66	0x3dc1f6e5	0.094709195
67	0xbdc6da5b	-0.09709617
68	0x3eb64916	0.35602635
69	0xbdc2a3d7	-0.09503906
70	0x3e747620	0.23873186
71	0x3efe41ec	0.4965967
72	0xba6fa0aa	-0.0009141067
73	0x3dfc0c77	0.12307065
74	0x3eb95e19	0.36204603
75	0xbf60b828	-0.87781
76	0x3c8c25b0	0.017107815
77	0xbd951910	-0.07280171
78	0x3eca9c89	0.39572552
79	0x3dcae8ad	0.09907661
80	0xbdcecaf6	-0.100973055
81	0x3ec6518b	0.38734087
82	0x3ede2c26	0.43393058
83	0x3e8c9780	0.27459335
84	0x3e1f9a6b	0.1558625
85	0xbed9bbed	-0.42526188
86	0x3e85d1cf	0.26136634
87	0x3cc1f327	0.023675514
88	0x3d805e9b	0.062680446
89	0x3e21bbfd	0.15794368
90	0xbcbc26a0	-0.022967637
91	0xbc22e974	-0.009943355
92	0x3c3877f8	0.0112590715
93	0xbda5cf85	-0.08096222
94	0xbdc8fb60	-0.09813571
95	0x3e0d5075	0.13800223
96	0xbd44e164	-0.04806651
97	0xbde79caf	-0.11309182
98	0x3efa2434	0.48855746
99	0x3e4243fc	0.18971246
100	0x3dbf4f0b	0.09341248
101	0xbd27da19	-0.04097948
102	0xbd9a49b9	-0.07533593
103	0xbe7f241d	-0.2491612
104	0x3d1e25a4	0.038610116
105	0x3f2c9b63	0.674246
106	0xbdb24522	-0.08704592
107	0xbe08bd8c	-0.13353556
108	0x3d811075	0.06301967
109	0xbe09fec5	-0.13476093
110	0xbe4bb519	-0.19893302
111	0xbd59ddc2	-0.05319
112	0x3e1c077c	0.1523723
113	0x3f6ce5bb	0.9253804
114	0x3dae2a11	0.08504117
115	0x3e95a008	0.29223657
116	0xbe1ade4b	-0.1512386
117	0x3dd53226	0.10409956
118	0x3df34409	0.11878211
119	0xbd901203	-0.070346855
120	0xbf0e7112	-0.5564128
121	0x3c52b9b7	0.012861661
122	0xbcdceb6d	-0.026967729
123	0x3d39138d	0.04518466
124	0xbcb5b0b7	-0.02217899
125	0xbc78e80a	-0.015192041
126	0x3e68f614	0.22750121
127	0x3e35e73a	0.17763987
128	0xbd442bcb	-0.047893327
129	0xbd94d93d	-0.072679974
130	0x3d631eec	0.05544941
131	0xbdbb98be	-0.09159993
132	0xbebda7e9	-0.37042168
133	0xbddb869b	-0.10719033
134	0x3c83dc10	0.016096145
135	0x3dd3731a	0.10324688
136	0xbd9bb496	-0.076028034
137	0x3d82fbe3	0.063957
138	0xbe873b87	-0.26412603
139	0xbf333744	-0.70006204
140	0x3f12d78c	0.5736015
141	0x3c1ed03e	0.0096932035
142	0x3dd6dac7	0.10490947
143	0xbf26708b	-0.65015477
144	0xbdf68cc2	-0.12038566
145	0x3ec19cb0	0.37814856
146	0x3da96048	0.08270317
147	0x3f36c557	0.71394867
148	0x3de36b6c	0.111044735
149	0x3e90acb7	0.2825677
150	0xbd82e73f	-0.06391763
151	0xbf01330b	-0.5046851
152	0xbd969e83	-0.073544525
153	0x3f18a83a	0.59631693
154	0x3e76d5c2	0.2410498
155	0x3f49019f	0.785181
156	0xbe6a0522	-0.2285352
157	0xbf70af8a	-0.9401785
158	0x3ec00bbf	0.37508962
159	0x3dbc5ba9	0.0919717
160	0xbe00074b	-0.12502782
161	0xbd62517f	-0.055253502
162	0xbeded9f7	-0.4352567
163	0x3ef1840f	0.47171065
164	0x3c55f8b0	0.01305978
165	0xbd8b7d00	-0.06810951
166	0x3dc1bc12	0.094597
167	0x3f03d634	0.51498723
168	0x3d0d18ab	0.034447353
169	0xbdd3aaa4	-0.103352815
170	0x3df4e2b4	0.11957303
171	0xbf59d03e	-0.8508338
172	0xbe1f9778	-0.15585124
173	0x3d9acfdb	0.075591765
174	0x3beabe4a	0.0071637975
175	0xbcc09707	-0.023509515
176	0x3d7d3e6a	0.0618271
177	0xbdac8ee5	-0.084256925
178	0xbd27076c	-0.040778562
179	0x3e721794	0.23641807
180	0xbd85c0c4	-0.06530908
181	0xbec79c50	-0.38986444
182	0x3d4f2ff5	0.050582845
183	0xbda7df10	-0.08196843
184	0x3e18356a	0.14864126
185	0x3a9581fb	0.0011406535
186	0xbd84edaa	-0.06490643
187	0xbe41bab1	-0.18918873
188	0xbe59901c	-0.2124638
189	0x3d0b19b6	0.033960067
190	0xbde071d6	-0.109592125
191	0xbea89f69	-0.3293412
192	0xbdcc1f4c	-0.09966907
193	0x3e2a22ca	0.16614833
194	0x3e0e5a54	0.13901645
195	0x3edd27cf	0.43194434
196	0xbe2d29a6	-0.16910419
197	0x3edb3ba8	0.42818952
198	0xbd5bc2bd	-0.053652514
199	0xbe7193da	-0.23591557
200	0xbd30a861	-0.04312933
201	0xbe464d88	-0.19365513
202	0xbe4fa2b1	-0.20276906
203	0x3e09085b	0.13382094
204	0xbda023c0	-0.07819319
205	0xbe757d38	-0.23973548
206	0x3da7cbf2	0.08193196
207	0xbf14f14d	-0.58180696
208	0xbca069bf	-0.019581674
209	0xbc220995	-0.00988998
210	0x3d85fe24	0.06542614
211	0x3f77e6f1	0.96836764
212	0x3d8c1df8	0.068416536
213	0x3e99b8d4	0.30023825
214	0xbd009261	-0.031389598
215	0x3df5addb	0.11996051
216	0xbe94114f	-0.28919455
217	0xbe1c9019	-0.15289344
218	0xbf4d54fa	-0.8020779
219	0xbce89ba2	-0.028394524
220	0xbd58cc0c	-0.05292897
221	0x3e2a6f6b	0.16644065
222	0xbf0d693c	-0.552387
223	0x3dee4dee	0.11635958
224	0xbf2fa940	-0.6861763
225	0x3cacd73f	0.021098731
226	0x3ea6b3fc	0.32559192
227	0xbe00474a	-0.12527195
228	0x3da051c9	0.07828099
229	0x3d82da2b	0.063892685
230	0xbf4f287a	-0.8092114
231	0x3e9cf3a4	0.30654633
232	0xbd80943d	-0.06278274
233	0x3eb7c0f0	0.35889387
234	0x3d5324b1	0.051548664
235	0xbe18d742	-0.14925864
236	0x3ef4e623	0.4783183
237	0x3d827ee1	0.063718565
238	0xbcc8e809	-0.024524705
239	0x3f0b14f4	0.54328847
240	0xbd9039c7	-0.0704227
241	0x3c4ca906	0.01249147
242	0x3dadaf13	0.084806584
243	0xbece62b9	-0.40309694
244	0xbd506832	-0.05088062
245	0x3f173c9d	0.59076864
246	0x3d947952	0.072497025
247	0x3da32ffb	0.07968136
248	0x3e9a8a51	0.30183652
249	0xbf46347f	-0.7742385
250	0xbd5c9ec1	-0.053862337
251	0x3f929b91	1.1453725
252	0x3e3176a4	0.17330414
253	0xbd6e7705	-0.058218975
254	0x3f0945e7	0.5362229
255	0xbe43dc38	-0.19126976

output_layers.0.bias f4 [40]
0	0xbd32a349	-0.043612752
1	0x3fd8ef49	1.6948024
2	0xbddcac5a	-0.10775061
3	0x3c108eb0	0.008823082
4	0x3fbd910f	1.4809893
5	0x3f8a5cf9	1.0809623
6	0x3faeebe9	1.3665744
7	0x3e0b001a	0.13574257
8	0x3f9aef07	1.2104195
9	0x3f5b2377	0.8560099
10	0x3f207616	0.62680185
11	0x3dcc47a0	0.09974599
12	0x3faee0aa	1.3662312
13	0x3f9466c4	1.1593862
14	0x3f966d38	1.1752081
15	0x3f7a42fb	0.97758454
16	0x3fb0bd1e	1.3807714
17	0x3fb6632d	1.4249016
18	0x3f9f4f28	1.2446032
19	0x3f698e0e	0.91232383
20	0x3fc76ca1	1.5580026
21	0x3f99ad5f	1.2006034
22	0x3f8ea46d	1.1143929
23	0x3fa99220	1.3247719
24	0x3f88e2c8	1.0694208
25	0x3f904d6e	1.127363
26	0x3f8c6959	1.096965
27	0x3f6ebf1f	0.9326038
28	0x3f7b645e	0.98200023
29	0xbca7c48e	-0.020479467
30	0x3f369fcd	0.71337587
31	0x3f64eb6e	0.8942174
32	0x3fab6d17	1.3392667
33	0xbd7daf45	-0.06193473
34	0x3fb6c86d	1.4279915
35	0x3f806c0e	1.0032976
36	0x3d9aceb9	0.075589605
37	0x3d35ddce	0.044400983
38	0xbdc51de6	-0.09624843
39	0x3fe5cb9d	1.7952763
