MODELS/REWARD COMPARISON/SAC MASKED MODELS/7_2_critic_local_network.pt (torch, 411295 bytes, 6 tensors)

hidden_layers.0.weight f4 [256, 101]
00000000: 1e90 b1bd 80f9 13c0 8072 e9bf ad55 50c0
00000010: 4a56 35bf 952e d4be fa48 f93d ecca 503f
00000020: ab99 b0be 454c 92bf f642 f6bd 0be2 33be
00000030: 6c7b c7be ac94 23bf e595 d7bd 1fb0 30be
00000040: e871 743c 0d4b 8b3e 2ca7 2abf dfee a1be
00000050: f6f4 cbbd 39de 23bf 402b 233f a3f8 083e
00000060: 223e 183e 2127 f53e b690 1b3d 465c 063f
00000070: 80a2 47bf 9e08 64bf a200 d93c 1dab 80bf
00000080: 9c32 793f 8414 ab3e 1745 483f bbc5 81bf
00000090: 3b75 13bf 954d 0fbf 13db d3bd 77ff f73e
000000a0: 59ec 22bd 1b1b 193e 33b7 2b3f d536 a9bd
000000b0: 6bbf a33f ab17 bbbe 231a bebf 6915 97bb
000000c0: 1f46 bdbe 687b c5be a6db 62be 5c68 acbf
000000d0: 9f38 0240 364f fa3e ff95 ff3c d643 823f
000000e0: fd64 1a3f 643f 91be b69b 9fbf c4c5 c1bf
000000f0: ecd2 a0bc 7f86 72bf 4942 12bf dd03 f3bd
00000100: 654c 9dbd 106c 0d3f 9e95 223e 8564 80bd
00000110: 1b29 b1bf 0a78 bbbe bfe4 1e3e 002a 04c0
00000120: 248c 0cbe 4c64 e8bb cf0d 9f3f a051 cc3c
00000130: 3cc3 49be 75ec 99bc 6226 85bf 3343 8f3f
00000140: 9377 fc3c 2aa8 3ebf bfe3 9ebe c00d 8f3f
00000150: d74c 863f a3db a33c e151 10bf fc0e 3b3f
00000160: 9a2a f53e ef0a 053f b25a f53d 27bf 8abf
00000170: b3f4 a4bf 1307 ab3e b2d7 123f b4c0 093e
00000180: 141d d83e 4659 b0be 5815 18bf 7fc5 2dbf
00000190: a7c0 98be 6eea 293e 0d2b e5bd 9d55 2a3f
000001a0: 597f 1bbf 65a0 d73e a2ce 7e3f bfb6 41be
000001b0: 9834 da3e 0cf3 043d 3597 0ebe 53a2 263e
000001c0: ece8 92bf 385d 2abe f9ab 72be d6de a6be
000001d0: 07d3 133f d4ce d33e f220 ab3e fb77 22bf
000001e0: 0b0c 44be 3e8b 983d a633 29bf c8f5 85bf
000001f0: 2ecb 10bd 2a20 1bbe 5b09 853d 3675 523e
00000200: ec2e d2bd b146 3a3e 4644 463f 72b3 efbc
00000210: 9e85 d9bf aae2 b4bf bee8 8dbf ae19 bdbe
00000220: db4c b6bf 1efd 0c3e 6c91 3dbe f28f 12bf
00000230: ad4f 593d 8698 453e 3400 29c0 2fa7 b3bf
00000240: 9d95 88bf 3611 5dbf ea50 bcbe 9ef0 debf
00000250: ed70 ac3e 0191 2fbf 7588 aebb 6f70 c83d
00000260: ec37 acbf 89a7 30bf 9f6d 85bf 015d bd3e
00000270: c835 9d3f 1f98 753e 1d99 233f 81e4 0bbf
00000280: 8b83 02bf e3ff 84bb d590 1bbf 2544 6f3f
00000290: a4dd 0abf 5b7e a03f 512b 0fbf 7259 db3d
000002a0: abbc 6b3f c6a1 cc3e 2ac1 9fbf 0531 63be
000002b0: c910 78be 31ee 62bf 42ae 67bf c276 3fbe
000002c0: 3697 92bf e7ec 163d 428a 03bf 223c 21be
000002d0: ca50 ffbe 7f38 afbd 642d f33d 5aa4 38bf
000002e0: 92c0 73bf d8b0 70be 31b8 473f ec8f efbe
000002f0: f3db 763d cbe0 143e 20cc 38bf d335 b5bd
00000300: 6f81 24bf d597 f9bf f637 a9bf eb8f 863f
00000310: bb93 563f 5c38 c53e e8d4 493e b735 983f
00000320: 07d4 70bd a6f9 ef3c dd90 c33d d619 473f
00000330: afbd 1b3e 7e16 d83f dd01 f43e d0ac 593e
00000340: 0895 8abf f84d 323f 0a3c 463f 0a2e fbbe
00000350: bb18 efbc 795a 233f cbba 893e c249 8a3f
00000360: 218b c3bd 982c 09bf 3677 b83e 0142 a3ba
00000370: e52b 52bf 476c 49be 975c e6bd 3e8f 103f
00000380: 744b a63f 57da 663f 7fb9 993f 1191 573f
00000390: 4f9d b93c e89c 22bf 81e6 88bf 3d03 a0be
000003a0: ec90 5b3d c647 323e cd94 4e3f 80ab 213f
000003b0: decb e5bd aee9 dbbe 54c5 063f 8fde aebf
000003c0: 20f3 5ebe 0345 943e 31cd 00be fb78 a13f
000003d0: 6c9e e43f 23fb 0dbf a404 9ebf 54e2 58bf
000003e0: a8e8 933f 354e b4bf 4435 acbf a00f 03bb
000003f0: 5bf8 4bbe 73fb 3c3f b4bb 3fbf 84ff 31bf
-0.08670066 -2.3121033 -1.8238068 -3.2552292 -0.7083479 -0.4144179 0.12172122 0.81559634
-0.3449224 -1.1429526 -0.120244905 -0.17566697 -0.3896135 -0.6389873 -0.10526637 -0.17254685
0.0149197355 0.27205697 -0.66661334 -0.31627557 -0.09958832 -0.6401096 0.6373787 0.13376097
0.14867452 0.47881415 0.037979804 0.5248455 -0.7798233 -0.8907565 0.02648956 -1.005222
0.9734285 0.3341409 0.7823042 -1.0138468 -0.57600754 -0.55977756 -0.103445195 0.48437092
-0.03977618 0.14951746 0.67076415 -0.082624115 1.2792791 -0.36541495 -1.4851726 -0.0046107066
-0.3696756 -0.38570714 -0.22154102 -1.3469348 2.0347059 0.48888558 0.031199453 1.0176952
0.60310346 -0.28368676 -1.2469394 -1.5138478 -0.019631825 -0.94736475 -0.57132393 -0.11865971
-0.07680587 0.55243015 0.15877387 -0.062691726 -1.3840669 -0.3661502 0.15516947 -2.0650635
-0.13725334 -0.0070920344 1.2426089 0.024941266 -0.19703382 -0.01878951 -1.0402339 1.1192383
0.030818736 -0.7447535 -0.3103313 1.1176071 1.04922 0.020002192 -0.5637494 0.7306974
0.47884065 0.5196981 0.119801894 -1.0839585 -1.2887176 0.33403835 0.57360375 0.13452417
0.42209685 -0.3444311 -0.5940757 -0.6787948 -0.29834482 0.16593334 -0.11189852 0.66536885
-0.6074119 0.4211456 0.99534047 -0.18917368 0.4261825 0.03245835 -0.13924868 0.1627286
-1.1477332 -0.16637123 -0.23698415 -0.32591885 0.5774388 0.41368735 0.33423573 -0.63464326
-0.19145219 0.07448433 -0.66094434 -1.0465631 -0.035350017 -0.15148988 0.06495925 0.20552525
-0.10262856 0.18191029 0.77447927 -0.02926037 -1.6993902 -1.4131672 -1.1086652 -0.36933655
-1.4242204 0.13768432 -0.18512505 -0.57250893 0.0530545 0.19296464 -2.6406374 -1.4035395
-1.0670658 -0.86354387 -0.36780483 -1.741718 0.33679906 -0.68580633 -0.0053263255 0.0978707
-1.3454566 -0.6900564 -1.0424079 0.3698502 1.2282038 0.23983811 0.6390551 -0.54645544
-0.5098197 -0.0040588244 -0.6076787 0.93463355 -0.54244447 1.2538561 -0.5592547 0.1071042
0.9208476 0.39967173 -1.2480824 -0.22186668 -0.24225153 -0.886447 -0.9050027 -0.18697646
-1.1452396 0.03684702 -0.5138284 -0.15745595 -0.49866325 -0.08555698 0.11873892 -0.7212578
-0.95215714 -0.2350496 0.7801543 -0.4678949 0.060268354 0.14538877 -0.7218647 -0.08848157
-0.6426 -1.949946 -1.3220203 1.051267 0.8381917 0.3851956 0.19710124 1.1891392
-0.058795955 0.029293846 0.09549115 0.777738 0.15209077 1.6881864 0.47657672 0.21257329
-1.0826731 0.6965022 0.7743536 -0.49058563 -0.029186597 0.63809925 0.26900324 1.0803759
-0.09548021 -0.5358367 0.3602845 -0.0012455584 -0.8209823 -0.19670211 -0.11248129 0.5646857
1.2991776 0.9017691 1.2009734 0.8420573 0.022658018 -0.6352067 -1.0695344 -0.3125247
0.053605005 0.17410192 0.806958 0.63152313 -0.11220525 -0.4295172 0.5264485 -1.366167
-0.21772432 0.28958902 -0.12578274 1.2615045 1.7860847 -0.5546133 -1.2345166 -0.8472035
1.1555376 -1.4086367 -1.3453755 -0.0019998327 -0.19918959 0.7382118 -0.7489579 -0.6953051

hidden_layers.0.bias f4 [256]
00000000: 4a3f 9d3d 954e 19bf a959 3dbf c96d 80be
00000010: 9ee3 80bd 73f8 9e3e 7e37 10c0 cf06 f8bf
00000020: 87fc 99be 9e53 52bf 0cd9 e5bf 6246 b5bf
00000030: bd4a 213e feab 0cc0 bd9f 0fc0 a582 9b3e
00000040: 7991 5abe cb5c fdbf 9462 f6bf f08c 86be
00000050: f9ee 43be c51a c53e f6ab 64bc a524 dd3e
00000060: 04ed 8dbe 92d8 1dbf e1c6 0fbf 23b2 df3e
00000070: b7bc 09c0 a3c5 f6bd b3ee c4bf 8452 0dc0
00000080: 4b90 d6be c5ca 24bf 96c6 4dbf 9376 1bc0
00000090: 63e4 66bf 4520 04c0 994f af3e 91a3 a93e
000000a0: 171a c7bf 78bf 47bc 9ca4 93bf 649c 8f3d
000000b0: 8975 093f 81e9 533d 1281 1dbf 3830 223e
000000c0: a9d3 b6bf 2614 94be 0456 dfbe 5fa7 23c0
000000d0: 66b3 613e fa27 a3bf 2322 f9bf e2c8 19be
000000e0: 04d9 2ac0 dab4 44bd e581 05c0 5430 bdbc
000000f0: e139 dd3e 6dd6 0e3f 8d80 f7bf edfa d83e
00000100: 1905 b2bf ba37 f4be 79a8 073f a492 06bf
00000110: 55d5 3dbf b836 9a3d ccfa 8ebe 37f1 18c0
00000120: e2e9 9bbf 5ab1 01be 80fa 86bf 54e5 133f
00000130: 6e43 60bf 649d 103f ffd9 a5be f7c0 1bc0
00000140: 70db 40bf 15f9 10c0 31f4 cfbf 43e8 eabe
00000150: ad66 14c0 a64f d13d e5a6 5fbd 95b2 043f
00000160: 1521 73bf b213 e53e 4775 bebf 0072 f8bf
00000170: cf6f efbf 2061 87bf 1eb7 1c3f b919 d0bf
00000180: 0f7a 033e 95bb f73e 6865 d03e 2723 eabf
00000190: 4666 613d 697f 09c0 7dc9 283e c171 103f
000001a0: 8990 343d f120 2a3e 9140 f3bf 2e72 04c0
000001b0: fee2 833e 8ec7 05bf 17e6 3a3c aba4 9abe
000001c0: 9333 a3bf 1b0f 11be 414f 133e 136c d23c
000001d0: 867a 16bd c156 f43d 4550 dabf 65e5 26c0
000001e0: 183a b83c 2196 d8bf c653 04c0 7d07 55bf
000001f0: 68f3 493e f61d e2be 4637 dd3e e459 883d
00000200: fcb8 fa3e 185d 1fbf 356b 8fbf a198 4c3f
00000210: d197 76bd 3121 9b3e 3d07 c5bf 1ae9 b6bd
00000220: 575c 4ebd 6944 cd3e 312d cf3e a939 22bf
00000230: 6f6e c83d 19b3 21bf 5584 4a3d 9826 21c0
00000240: a94c 7d3e 89f8 a2be 5727 f2bf 07ed 693e
00000250: 7af9 1cbf 4346 283e c118 9d3e f9bc 423e
00000260: 684d 9f3d c6c2 293d daee 8f3e 4dae 04c0
00000270: d936 e9bf bf62 ca3e afee 2e3c 2791 7a3e
00000280: e7db b5be 288b 28bf f1bb f0bf b99e ce3e
00000290: 29f3 0cbf 58a9 b8bc 29a0 cd3e da50 bc3e
000002a0: f3a1 e7bf 1c7f 80bd 82c6 3bbf 5915 83bf
000002b0: 54f4 48be f52f 223f a7fb 153f 4406 2b3f
000002c0: f42d 663e d774 bdbd 9075 f7bf b17c 813e
000002d0: 4e15 c4bf bee3 d43e 3553 553e faab f5bf
000002e0: 5f4f 293d 88b4 0a3d 977b 1fbe 870a 5fbe
000002f0: 6848 06c0 b517 e8be e3bf 1bbf 9df6 d8bd
00000300: 0ae8 cfbe 8f2c 1cbd 8e25 fcbf dd5c 053e
00000310: 6cee 163e 9d6a 40bf e054 0fc0 91d6 6fbf
00000320: 4877 f2bf 304e 9dbf 9d59 143e e805 16c0
00000330: 09d8 c33e e2fd 11c0 bb5d 80be 0ae4 29be
00000340: 8d5a 903e bdfe 14c0 b8fd 393f 381e 7a3e
00000350: e0da e23e af21 0d3e 4be1 b53d b233 84bd
00000360: 76c1 903d fa88 a0be 4fee a6bf c407 eebe
00000370: 108e 5fbb 5358 0fc0 cea0 04c0 4819 6bbb
00000380: 0a82 4f3e 18a6 e0bf 407c a8be cb47 f4bf
00000390: e0ba 03c0 b094 a33e d8d1 08c0 f33a 5cbf
000003a0: 2a1b 3e3f fe3a b3bf e9a1 b53e b633 d03d
000003b0: a2d6 2c3f 9f90 04bf 2bea ac3e e7c8 bb3e
000003c0: 6979 fbbf b22c 26be 2705 06c0 08b8 cbbe
000003d0: 810f ab3e e340 78bf 14d6 0ac0 dcfd c93e
000003e0: 86a0 dd3e 7f28 1cbf 8848 20c0 586a f7bf
000003f0: e4d4 8d3c 1f71 adbf 38be d4bf b09b 55bf
0.07678087 -0.5988553 -0.73964936 -0.2508376 -0.062934145 0.31048927 -2.253387 -1.9377078
-0.30075476 -0.8215884 -1.7956862 -1.4162104 0.15751167 -2.1979976 -2.2441247 0.3037311
-0.21344556 -1.9793943 -1.9248834 -0.26279402 -0.1913413 0.38496986 -0.013957014 0.4319202
-0.2771989 -0.61658585 -0.5616284 0.43690595 -2.1521432 -0.12049415 -1.5385345 -2.2081614
-0.41906962 -0.643719 -0.80381143 -2.4291122 -0.9019224 -2.0644696 0.34240416 0.33132604
-1.5554837 -0.012191646 -1.153461 0.07012251 0.5369497 0.05173636 -0.6152507 0.15838706
-1.4283344 -0.28921622 -0.43620312 -2.5570905 0.22041091 -1.2746575 -1.9463543 -0.15018037
-2.6694956 -0.048024036 -2.0860531 -0.023094334 0.4320822 0.5579594 -1.9336106 0.4237894
-1.3907806 -0.47698766 0.52991444 -0.52567506 -0.74153644 0.07529968 -0.27925718 -2.3897226
-1.218075 -0.1266531 -1.0545197 0.577718 -0.8760289 0.5649016 -0.3239288 -2.4336526
-0.75334835 -2.2652028 -1.6246396 -0.45880327 -2.3187668 0.1022027 -0.054602522 0.51834995
-0.94972354 0.4474159 -1.487954 -1.940979 -1.8705996 -1.0576515 0.61216915 -1.625785
0.1283953 0.483853 0.40702367 -1.8291978 0.055029176 -2.1484015 0.16483112 0.56423575
0.044083152 0.16614129 -1.9004079 -2.069469 0.2575912 -0.5225762 0.011407397 -0.30203757
-1.2750114 -0.14165919 0.14385702 0.0256863 -0.03673794 0.119306095 -1.7055746 -2.6077511
0.022488639 -1.6920816 -2.0676131 -0.8321455 0.19721758 -0.44163483 0.43206233 0.0665777
0.48969257 -0.62251425 -1.1204592 0.79920393 -0.060203377 0.3029876 -1.5392834 -0.08931179
-0.05038103 0.40091255 0.40464166 -0.6336923 0.097866885 -0.63163906 0.049442608 -2.5179806
0.24736275 -0.31830242 -1.8918256 0.22844325 -0.6131817 0.16433053 0.30682948 0.190174
0.07778436 0.041445516 0.28111917 -2.0731385 -1.8219863 0.39528462 0.010677024 0.24469434
-0.35519335 -0.65837336 -1.8807355 0.4035547 -0.5505853 -0.022541687 0.40161255 0.36780435
-1.8096298 -0.06274244 -0.73349774 -1.024089 -0.19624454 0.63354427 0.58587116 0.66806436
0.22478467 -0.09250801 -1.9332752 0.25290444 -1.5319002 0.41580003 0.20832522 -1.9193108
0.04133546 0.033863574 -0.1557449 -0.2178136 -2.0981693 -0.45330587 -0.6083967 -0.10593913
-0.4060672 -0.038128432 -1.9698961 0.13023706 0.14739388 -0.7516268 -2.2395554 -0.9368678
-1.8942652 -1.2289486 0.1448731 -2.3441105 0.3825076 -2.2811208 -0.2507151 -0.16590896
0.28194085 -2.328048 0.7265277 0.2442559 0.44307613 0.1378238 0.08880862 -0.064551726
0.0706815 -0.31354505 -1.3041476 -0.464903 -0.0034111775 -2.239766 -2.0723147 -0.0035873223
0.2026445 -1.7550688 -0.32907295 -1.908441 -2.058281 0.31949377 -2.1378078 -0.8602745
0.742602 -1.4002378 0.3547509 0.10166113 0.67515004 -0.51783174 0.33772406 0.36676714
-1.9646426 -0.16227987 -2.0940645 -0.39788842 0.33410266 -0.9697401 -2.1693163 0.39451492
0.43286532 -0.6099929 -2.504427 -1.9329329 0.017313428 -1.3550147 -1.662055 -0.83440685

hidden_layers.1.weight f4 [256, 256]
00000000: 047a 0dbe 7a2a c2be edbc 75be 8ada a83c
00000010: 47ec 0bbe fbac 44be 0883 9cbc 7bc8 a4be
00000020: af78 263d 1c97 31bd 873c b33e 062a 2cbf
00000030: c1cd 593e e8ff bebe 954c 8e3e 3ce7 84be
00000040: 1a82 e23d 86e8 9dbe 6a21 f6bd d63d 6f3d
00000050: 5a89 803b c92e 8e3e 42fa fe3e ec0b da3d
00000060: 12c9 6fbe 3297 3bbe 237e 3b3d 3773 9abe
00000070: 15d8 9a3e 655d 553e 6d84 51be c4b1 783e
00000080: 8284 7bbe a256 ef3d 269b 13be 19c7 aabe
00000090: f3f0 c4bd eeb4 62bf 35c4 bebd 20cb 8dbe
000000a0: 955e c7be b4f3 87bd 3849 2dbe eb07 04be
000000b0: b933 383f 7001 0c3f 85fd 763e 5648 ddbe
000000c0: fade cd3c 1e98 c1bc 93ac 3f3e d01a b3be
000000d0: 0f5c 92be 2703 bf3d dd4f b5be 469f a73e
000000e0: fb90 d8be 22f8 4d3e 3182 23bf b3d4 d7be
000000f0: 28f0 8cbe 4b84 96bd c61b 83bd e636 a6be
00000100: 85dd 0ebf 4c3d d13d 766b a53e ca66 8bbd
00000110: 9082 e7be 3ca1 26be 82a9 11bb ab63 b7b9
00000120: 4d48 09be ac2c 1038 dec7 a9be 9a4b 6d3e
00000130: 64ba d8bd 3e38 33bd 4b5d 16bd 1fe2 aabe
00000140: dded a73e 4c7b 0fbe 3ba6 6b3e 1624 46be
00000150: 94a9 433e d3ab 123f 6c67 9b3e bc9d 4fbe
00000160: 44bc 04be 2567 193b 2877 2a3e d414 ca3a
00000170: a16a 87be a61b 64bd 63df 88bd 2d34 88be
00000180: 56f8 bcbd 26ea 9abe 2ce9 11bd 5d05 193f
00000190: 4073 d03d d976 b8be 45c4 10bf f600 3a3c
000001a0: 9bc2 bb3d 0450 17be 9462 fe3e edb5 8bbe
000001b0: 70ca d13e 1e5c 42be 8e38 8e3f 4bb5 51bb
000001c0: a276 1f3e 964b 153e 2fc9 b0be accb 1bbd
000001d0: 5f7e 9b3e b029 52be 9520 963d 546a 57be
000001e0: 045a 5cbd 67fd 55bd dfc4 a23d 34f7 f43e
000001f0: 72c0 6a3e d3e6 073f 7d87 993e a95f e33e
00000200: 9b42 f9bc 8410 27be 6901 66be 6e89 81be
00000210: d4f0 663e 5284 d53e 88db 05be e6e4 663f
00000220: bd04 15bf e207 a63e 5af2 e73e d03e cdbe
00000230: f5b1 3e3e 75c2 3dbf 7995 dfbe ed13 033e
00000240: 36d0 abbe 20a0 a4be 6f69 2fbf 5a08 d3bd
00000250: 5092 9a3e e4dc bf3e 51f6 a4be 6516 46bd
00000260: c8b3 6b3e 969a 8abe e323 a9be 2423 933d
00000270: d4ae 593e 8496 94be 63f4 f03e 16d3 093f
00000280: 5100 233e e848 863d 918c 0abf 96f7 233e
00000290: dc72 023e c4aa aabd 2231 32ba 7bc3 ff3d
000002a0: 7565 cebe 0272 3bbe 87f8 a5be 141b 37be
000002b0: c952 d63d 5a7a ef3e dcd8 5b3d d585 eb3d
000002c0: e346 483e 1027 783d d12b 4ebe a43e 31be
000002d0: 216b 2f3f c6f3 57be 7d45 14be e80a 38be
000002e0: 0f7c 7c3c 7bc4 2c3e 5f9c f2bd 16a9 5d3e
000002f0: 1eb8 5cbe 987e 85be 981a 02bd 7133 953e
00000300: 6d92 a63d c7de 40bd e694 9dbe bc97 c23e
00000310: 747b d83e 735c 32be eeca 4b3e 10c6 ac3d
00000320: d5ef 6f3e 2738 81be d812 193e 18cd 433e
00000330: bedf e3bc 2d7c 88b9 3d7c 133f 3eed fc3d
00000340: e88e 9cbe 3c3b edbd 68ff 113f 754c 4abd
00000350: e5da b6bc 470d 123f d936 7cbd eba0 1e3f
00000360: 0f69 40be 2e20 023f 90f5 863d c0b0 c7bc
00000370: 25e5 9c3c c710 f7bd e481 e9bd 73ea df3d
00000380: 21c0 273e 11e8 7abe 91e0 de3c 9823 2fbe
00000390: b71b 113e 30de 68be 5113 393e 0a89 86be
000003a0: d777 c23e ca2c 9cbe e0e5 da3a db24 d83c
000003b0: 8006 ea3b a0fb 9abb 9686 7e3f ce61 053e
000003c0: 65b8 b3be 1900 403e 0146 97be a4d4 bc3e
000003d0: a648 4a3f 3d05 033e a604 d7be d253 d93e
000003e0: e6c2 84be 343f 4e3e 0b5a 33be be39 90be
000003f0: 3100 9cbe 44ad c3be 017a ca3e 03a0 ec3e
-0.13816077 -0.37923032 -0.2399785 0.02061202 -0.13664351 -0.19206612 -0.01910545 -0.32184204
0.040642437 -0.043357 0.35007116 -0.6725162 0.21269895 -0.37304616 0.27792802 -0.25957668
0.11059971 -0.30841464 -0.12018092 0.05840858 0.0039226236 0.2777007 0.49800307 0.10646805
-0.23416546 -0.18319395 0.04577459 -0.30166027 0.30242983 0.20836408 -0.20460673 0.24286562
-0.24562266 0.11686446 -0.14414653 -0.33355024 -0.0961627 -0.88557327 -0.09314767 -0.27694035
-0.38939348 -0.066382796 -0.16922462 -0.12893645 0.7195392 0.54689693 0.24120148 -0.4321925
0.025130738 -0.023632105 0.18718176 -0.34981394 -0.2858586 0.09326773 -0.35412493 0.32738703
-0.4229811 0.20114186 -0.6387053 -0.42154464 -0.27526975 -0.07349452 -0.06401782 -0.3246376
-0.5580676 0.102167696 0.3230855 -0.06806715 -0.452168 -0.16272444 -0.0022226279 -0.00034978738
-0.13406487 3.437388e-05 -0.331603 0.23173371 -0.10582426 -0.04375481 -0.036710065 -0.33375642
0.32798663 -0.14011878 0.2301263 -0.19349703 0.19107658 0.5729343 0.30352342 -0.20275015
-0.12962443 0.0023407426 0.16647017 0.0015417584 -0.2644854 -0.05569043 -0.06683233 -0.26602307
-0.09227054 -0.30256766 -0.03562276 0.5977381 0.10178232 -0.36028174 -0.56549484 0.011352768
0.091679774 -0.14776617 0.49684584 -0.27287236 0.4097476 -0.18980452 1.1111009 -0.0031998928
0.15572599 0.14579615 -0.3452849 -0.038036034 0.3036985 -0.20523715 0.07330433 -0.21036655
-0.053796783 -0.052243616 0.079477064 0.4784485 0.22924975 0.53086585 0.29986182 0.4440892
-0.030427268 -0.16314894 -0.22461475 -0.25300163 0.22552806 0.41702515 -0.13072026 0.9019302
-0.58210355 0.3242789 0.45302087 -0.40086985 0.18622573 -0.7412484 -0.43668726 0.1280057
-0.3355729 -0.32153416 -0.68520254 -0.10304327 0.30189753 0.37473214 -0.32219175 -0.0483612
0.230178 -0.27071065 -0.33035192 0.07184437 0.21258098 -0.29021084 0.47061452 0.53837717
0.1591809 0.065568745 -0.5412074 0.16012415 0.12739128 -0.08333352 -0.00067974825 0.12488457
-0.4031178 -0.1830521 -0.32416174 -0.17881423 0.10465009 0.46773034 0.05367361 0.11500136
0.19558291 0.060584128 -0.20133902 -0.17309052 0.6852284 -0.21089086 -0.14479633 -0.1797291
0.015410437 0.16871826 -0.11846232 0.21646532 -0.2155461 -0.26073146 -0.031763643 0.2914081
0.08133397 -0.047087457 -0.30777663 0.3800639 0.42281687 -0.17418079 0.1990163 0.08436215
0.23431332 -0.25238153 0.14948595 0.19121206 -0.02781665 -0.0002603246 0.5761145 0.12349938
-0.3057778 -0.11583564 0.57030344 -0.04938932 -0.022321174 0.5705151 -0.061575744 0.6196429
-0.18790077 0.5083035 0.06589806 -0.024376273 0.019152233 -0.12063747 -0.11401728 0.109333895
0.16381885 -0.24502589 0.027206691 -0.17103422 0.14170729 -0.22741008 0.18073775 -0.26276428
0.37982056 -0.3050292 0.0016700588 0.026384762 0.007141888 -0.004729703 0.9942411 0.13025591
-0.3510162 0.18750037 -0.29545596 0.36880982 0.790171 0.12794967 -0.41995734 0.42446762
-0.25929946 0.20141298 -0.17514817 -0.28169054 -0.30468896 -0.3821813 0.39546207 0.4621583

hidden_layers.1.bias f4 [256]
00000000: c32c d1be cb5f f0bd 19a5 65bf 06d6 69be
00000010: 3557 12be 3fe8 78bf 531a 91bf 41a7 3cbf
00000020: d67f 0cbf f572 02bf b894 91be d9d1 09bf
00000030: 9690 0ebe 57cb 25bf 04e0 ebbe 9afd 2abf
00000040: c294 0abf 014b 5cbf af9f 21bf 68ca 65bf
00000050: 266b 83bf cd66 6bbf 1146 43bf a8f7 53be
00000060: 2d32 b7be 58e4 07bf 4a48 32bf f276 55bf
00000070: 23e8 21bf 675f 2dbf a7a7 5ebf 6ece 9abd
00000080: 520c 17bf 42c2 f7be dfb8 24bf 74e1 27bf
00000090: 8cff d8bd 48e9 753c ee17 dbbe 3013 f9be
000000a0: 970d 29bf a93d e3bd 3f9a 60bf ce00 06bf
000000b0: 3798 fcbe 6560 54bf 2f72 0bbf 5de6 20bf
000000c0: e87d 0bbf 47c5 c6be 846b 23bf d0b4 c3be
000000d0: 6700 a5be 8190 4ebf 2e20 32bf 52ff 38bf
000000e0: 0591 0fbf dd3d 66bf 5feb 4abf d7fb 05bf
000000f0: 300c dbbe b755 bdbe b36b 39bf 29ef 2cbf
00000100: f644 86bf 2d3c 53bf 0de0 40bf 12fc 3abe
00000110: 5e54 f7be b42f 2fbf f26f 91bf 5cc2 4cbf
00000120: 096b 1cbf b5d7 46bf 1409 58bf 7bdf 0bbf
00000130: 03de adbe 4ec8 cfbe 698b 36bf 8619 70be
00000140: 973d 47bf 6b5c efbe 3ed8 14bf c5a7 7b3d
00000150: 13c3 05bf 8c2f 0cbf ffb8 2dbf 5e2f 13bf
00000160: d98d 3ebf 4463 6bbf e04f 45bf 222e 36bf
00000170: 2060 0bbf e7d9 1fbf 7943 0abf 7fc7 d6be
00000180: cff9 ebbe ea55 73bf 888c 6ebf 8cb8 03bf
00000190: fde2 d2be 57d6 0cbf 495f 46bf 5370 05bf
000001a0: d727 f7be 26ce c9be f07b 5bbf 52c8 f6be
000001b0: a807 e7be 3612 74be 34e7 ccbe a37c 33bf
000001c0: 3e33 8abf 1ce9 02bf 43a6 ccbe 8226 67bf
000001d0: 366c 34bf 4a5f 04bf eb8b 2fbf 338d 22bf
000001e0: d515 51bf b024 5abf a24a 2fbf d8bc 5cbf
000001f0: 07e3 30bf b61f 70be 5f77 e0be e43e debe
00000200: b002 dfbe 25f4 f6be fde9 0bbf 22f8 01bf
00000210: ba2d 77be 23ba 3bbf 3cce 55bf 22c0 58bf
00000220: 1c6d b0be 2bff 6abf 0bf3 17bf bf25 04bf
00000230: 35ac 06bf 5aa1 6fbf 7a70 8abf f2db efbe
00000240: b38f 28bf f1cc f4be 4213 1bbf 3297 f3bd
00000250: c3d7 d0be 536e 2fbf 1583 3abf 12b6 4cbf
00000260: 5de9 20bf 726d 37be 27a6 ffbe ee74 4fbf
00000270: 20a4 afbe 5f30 0dbf 8993 77bf f571 02bf
00000280: a04b 1cbf b278 23bf 53db efbe e220 9ebe
00000290: 5fc4 4ebf 8524 2abf 5d30 2fbf 6a3f 1dbf
000002a0: 6953 4dbf b72d 1cbf 7d6b a8be 9b77 0dbf
000002b0: ce98 b3be 2933 6dbe 5c6b 72bf e037 c5be
000002c0: a928 30bf cb46 eabe 543e 18bf 82fa 18bf
000002d0: 6d4c 81bf b122 44be 18cd 70be 1eed 30bf
000002e0: 5652 aebe 6f15 55bf 5482 60bf c0f9 4dbf
000002f0: 879b 08bf cfba d8be 8ba6 3bbf 1629 15bf
00000300: 53ef 1ebf 0f7e 0fbf 3809 37bf 836c 13bf
00000310: 8877 24bf 053d 3ebf df0d aabe 2bc2 05bf
00000320: 56d9 2ebf 70f4 46bf 6368 e7be 92ac 3dbf
00000330: 6fc6 02bf 482e debe e433 c2be b200 57bf
00000340: 784f 21bf bf55 f8be 9b59 23bf 65df c0be
00000350: 35c3 3bbf 05aa f7be aebe 99bf a039 6cbf
00000360: 63b3 1ebf 6c98 96be 9114 3ebf f45e 89bf
00000370: e2d0 66bf 9d5f 843c 951b 06bf 885d 18bf
00000380: 91c1 14bf 3748 abbe f90d 33bf 6a96 3dbf
00000390: 193e 9ebe 9e6d 23bf 2bfb 2fbf a1c0 19bf
000003a0: 9706 81bf 422f 61bf 824c 50bf 7986 48bf
000003b0: 0ed8 19bf eea9 afbe b0bf 23bf 1a8c 4cbf
000003c0: 951e 79bf 7e4e 82be b225 38bf b1a5 4fbf
000003d0: ed2c 34bf c880 62be a496 0bbf c038 3fbf
000003e0: 0a22 1ebf 78ba f5be 6af1 f2be dc6c 29bf
000003f0: 297f 45bf 8d49 00bf 4716 eebe b02d 12bf
-0.40854463 -0.11737021 -0.89705044 -0.2283555 -0.1429108 -0.9722938 -1.1336159 -0.7369271
-0.5488256 -0.5095666 -0.28433776 -0.5383583 -0.13922343 -0.64763397 -0.46069348 -0.66793215
-0.54133236 -0.86051947 -0.6313428 -0.8976197 -1.0267074 -0.91953737 -0.7627879 -0.20699942
-0.3578047 -0.530828 -0.69641554 -0.8338462 -0.6324484 -0.677237 -0.8697457 -0.075589046
-0.59003174 -0.48390394 -0.6434459 -0.6557839 -0.10595617 0.015009232 -0.42791694 -0.4864745
-0.6603636 -0.11095745 -0.8773536 -0.5234498 -0.4933488 -0.82959586 -0.54471105 -0.62851506
-0.5448899 -0.38822386 -0.6383593 -0.38223886 -0.3222687 -0.80689245 -0.6958035 -0.7226459
-0.5608066 -0.89938146 -0.792654 -0.523374 -0.42782736 -0.36979458 -0.7242996 -0.6755243
-1.0489795 -0.82513696 -0.75341874 -0.1826022 -0.48306555 -0.68432164 -1.1362288 -0.7998407
-0.6110082 -0.7767289 -0.8438885 -0.5463788 -0.33958444 -0.40582508 -0.71306473 -0.23447236
-0.77828354 -0.46750197 -0.5814246 0.061439294 -0.52250785 -0.5476005 -0.67860407 -0.5749415
-0.7443519 -0.9194834 -0.77075005 -0.71164143 -0.5444355 -0.6244187 -0.54009205 -0.41949078
-0.46089026 -0.9505297 -0.93183184 -0.5145347 -0.41188803 -0.55014557 -0.77489144 -0.5212452
-0.48272583 -0.3941509 -0.8573599 -0.48199707 -0.4512303 -0.23835072 -0.40020144 -0.70112056
-1.0796888 -0.51136947 -0.39970598 -0.90293133 -0.70477617 -0.517079 -0.6857287 -0.634967
-0.8167394 -0.8521223 -0.68473256 -0.8622565 -0.69096416 -0.23449597 -0.43841073 -0.43407357
-0.43556738 -0.48233142 -0.5465391 -0.50769246 -0.24138537 -0.733309 -0.83517814 -0.8466817
-0.34458244 -0.91795605 -0.5935523 -0.51620096 -0.5260652 -0.9360558 -1.0815575 -0.46847492
-0.6584427 -0.47812608 -0.6057626 -0.118940726 -0.40789613 -0.68527716 -0.72856265 -0.7996532
-0.62856084 -0.17912844 -0.49931452 -0.81037796 -0.34304905 -0.55151933 -0.96709496 -0.50955135
-0.61052895 -0.6385604 -0.4684702 -0.30884463 -0.8076839 -0.66461974 -0.6843317 -0.6142489
-0.802054 -0.61007255 -0.32894507 -0.5526063 -0.35077518 -0.23164047 -0.9469507 -0.38519192
-0.6881204 -0.45757136 -0.59470105 -0.59757245 -1.0101448 -0.19153859 -0.23515737 -0.6911181
-0.34047192 -0.8323583 -0.87698865 -0.80459213 -0.53362316 -0.42330024 -0.73301 -0.5826582
-0.6208393 -0.56051725 -0.7149844 -0.5758745 -0.6424489 -0.7431186 -0.33213708 -0.522494
-0.6830038 -0.7771673 -0.45196828 -0.74091446 -0.51084036 -0.43394685 -0.37930214 -0.83985436
-0.63011885 -0.4850292 -0.638086 -0.37670437 -0.7334474 -0.48371902 -1.2011316 -0.9227543
-0.6199247 -0.29413164 -0.7425013 -1.0732102 -0.9016248 0.016158873 -0.52385837 -0.5951772
-0.5810786 -0.33453533 -0.69943196 -0.7405764 -0.30906752 -0.6383914 -0.68742627 -0.60059553
-1.0080136 -0.87962735 -0.8136674 -0.7833019 -0.600953 -0.34309334 -0.63964367 -0.7990128
-0.9731229 -0.2545051 -0.7193252 -0.811122 -0.7038105 -0.22119439 -0.54526734 -0.7469597
-0.6177069 -0.47993827 -0.4744981 -0.6618173 -0.77147156 -0.5011223 -0.4650137 -0.57100964

output_layers.0.weight f4 [40, 256]
00000000: db03 c1be 746d 79bd a544 07bc 1684 113f
00000010: 6bc4 4abf d8a9 813d 3783 573c bfde 973d
00000020: ae9f 333e 8b65 0d3f 9795 36be 23a2 263e
00000030: 5acc 4eba f2b8 f9bb b4b0 21bd 9a6a 5c3e
00000040: 7263 af3e cf65 da3d 77b7 c03d 42df b43c
00000050: 9e03 583e 0d49 103e fb63 553e 1e28 d8bc
00000060: f0f3 de3e 0231 7ebe 5b4c 243e 5476 1ebe
00000070: 3f9d dfbd 2c95 a23d 3796 26bd f814 aabc
00000080: 4e12 ea3b 84be a3bd a784 823e 8e7d c73d
00000090: 258f 4e3f 06df bfbe 6443 873e 9599 b13d
000000a0: 201c 66bf 034f 233e 6b98 1cbd 6752 913d
000000b0: e5ea f33d 1a50 a83e 5cf3 e73e a4df 153e
000000c0: 2fe3 65be 8de3 3ebf 9e96 e4bb a6d5 593c
000000d0: 0acd 213f 4891 ed3d e626 23be 0433 4abd
000000e0: 5bec 883e c1c3 33bd 34a7 9e3d 00ab 013d
000000f0: 2dce 2d3f b4f5 2dbc f09c a8bd cf04 723e
00000100: 889f c23d 39e2 533e 0473 3e3e b464 17bd
00000110: 2022 a03d cb7c 85be ae81 a43c 59c3 343e
00000120: 2404 083e 4f97 623d 7814 3ebd e19a 27bd
00000130: 9e1f 943e 1e86 fd3d 687d 293e 5436 9bbe
00000140: 00ba b73d 2b0d 903e b6db 0f3f e4c2 b13e
00000150: c207 e63d c0e3 083e b85d 953d fa7c 95be
00000160: f657 3b3d c06e 833d 3c99 363e f27e 41bd
00000170: 20f5 96be 13e2 8b3e 79d7 b43e a8ad 8b3e
00000180: 4257 f83d 6e39 fdbd 81e0 d63d 6d46 b73e
00000190: 21e2 f73d 2e73 8dbe 5af0 42be cf64 083e
000001a0: 9968 0bbe 027b 863e b5e7 d7bc d404 353f
000001b0: 3eef 2cbe 97e4 803e ab1f 0fbe 76b5 4d3e
000001c0: 51c8 843d 9a74 1d3c afc6 023f a297 a73d
000001d0: fcd0 00bb 5b28 83be aafe 2e3d c756 393d
000001e0: abf8 e0bc 32c4 233e 24f6 d4be 1de5 e63c
000001f0: 99e9 03bd 7f38 133e 8e5c 133e 2a30 3f3e
00000200: b584 45be 18a3 d5bd 06c7 15bf 4ab8 07bd
00000210: c535 8abd 9450 2c3e d065 0c3e 5094 e63b
00000220: 6c94 103c 963f d93c debb 4fbf 6a5a 483f
00000230: c877 8abc c8ae ba3d f7eb 6a3d 5bd8 823d
00000240: c287 0bbf f1fa 4a3e 0b1c ed3d 58c6 6e3e
00000250: f287 143f a5f8 2ebe 9d51 133e 7355 bebe
00000260: 747f 843a 297f 23be 4afa 46bf 1e4a 8ebd
00000270: 6ce9 debe 12fc 18bc 4594 8bbf 3036 c0be
00000280: ba05 443e b5a1 2bbe b30b 8abd 9e03 643e
00000290: c0d4 fbbd aa96 8ebe 11f5 bd3d 6c03 1cbf
000002a0: 3051 9e3d bdae fe3e 21af d6bd 242c c23d
000002b0: 7f47 c43e 9434 6b3f 7608 363e 68ad d13e
000002c0: c403 973b 9ddc e8be d0c7 95bc 4b42 cf3d
000002d0: c805 083d ad48 4f3e e9fe 1f3f 7b84 683d
000002e0: 180f f8bc 89d8 453e 27ec d13d 7b85 3fbe
000002f0: 4e1f b83d c839 a0be 2a41 373d 4293 1d3e
00000300: b364 a33d fd8e 59bf 8f61 0cbe 5470 9ebd
00000310: 2ef6 313e 8590 ba3e 4be0 323e 8944 9a3e
00000320: 4082 013d 6864 0f3d c9e5 de3d cbaf 613f
00000330: 30ab 303e 07f8 193a f1d5 81bd 584c a8be
00000340: 5903 523e 383d d23d f24d 043e 8fd5 91be
00000350: 5cdf adbe 8524 e9bd 8b1b bc3d 7e6f 9dbe
00000360: d7ed 0a3e 676c 2dbf c020 823e 074d 233e
00000370: fab4 ff3d 8add 0dbe e66e a2be 5b0f 5a3e
00000380: 9ebe 3a3e 2b30 f53b c0e0 83be f168 f23d
00000390: 7341 9b3d fc8c a8bd e2df 16bd 13d2 093e
000003a0: 3e4c c4be 2e9c 7f3e 4f75 0f3e 1208 95be
000003b0: 3a41 5cbe 9954 77bb eccc b73e 5458 7b3c
000003c0: a458 2b3e 04da 2d3f f0c7 8ebf e402 e7bc
000003d0: 8ac5 aabe 2a7e 9a3a 3100 a63d 841a 063c
000003e0: 65b4 073d a295 0d3e a6aa f5be 9a54 a5be
000003f0: c2ea 0d3d d72b c33d 1974 583e 509f 7e3c
-0.37698254 -0.0608954 -0.008256112 0.5684217 -0.7920596 0.06331223 0.013153843 0.07415532
0.17541382 0.5523307 -0.17830501 0.16272788 -0.0007888727 -0.007620924 -0.039475158 0.2152504
0.34255558 0.1066395 0.09409993 0.022079114 0.2109513 0.14090367 0.20838921 -0.026386317
0.43545485 -0.24823382 0.16044752 -0.15474826 -0.10918664 0.079386085 -0.0406706 -0.020761952
0.0071432954 -0.07995322 0.2549183 0.097407445 0.8068717 -0.3747484 0.26418602 0.086718716
-0.89886665 0.1594811 -0.038231295 0.07095795 0.11910037 0.32873613 0.45302856 0.14636093
-0.22449945 -0.74565965 -0.006975963 0.013295567 0.6320349 0.11599976 -0.15932807 -0.04936506
0.26742825 -0.043887857 0.07746735 0.03165722 0.67892724 -0.010617662 -0.082330585 0.23634647
0.095030844 0.20691766 0.18598562 -0.036961272 0.07819009 -0.26071772 0.020081367 0.17652644
0.1328283 0.05532008 -0.04640624 -0.04091919 0.28930372 0.123790964 0.16551745 -0.30314887
0.089710236 0.28135046 0.5619463 0.34719002 0.112319484 0.1336813 0.07293266 -0.29196912
0.045738183 0.06417608 0.17831892 -0.047240205 -0.2948389 0.27320918 0.35320643 0.27280927
0.12126018 -0.123644695 0.104920395 0.35795918 0.121036775 -0.27626938 -0.19037 0.13319705
-0.1361412 0.26265723 -0.026355604 0.7071049 -0.16888139 0.251744 -0.13976924 0.20088753
0.0648352 0.0096103195 0.5108442 0.081832185 -0.0019655814 -0.25616726 0.042723335 0.045248773
-0.027462324 0.15992811 -0.4159404 0.028185422 -0.032205198 0.1437702 0.14390776 0.18670717
-0.19288905 -0.10431498 -0.5850681 -0.033134736 -0.06748537 0.16827613 0.13710713 0.007036723
0.008824449 0.026519578 -0.8114604 0.7826296 -0.01690282 0.09115368 0.05735394 0.06388923
-0.54504025 0.19822289 0.115776144 0.2331785 0.58019936 -0.17087038 0.14386602 -0.37174568
0.0010108785 -0.15966477 -0.7772566 -0.069477305 -0.43537462 -0.009337442 -1.0904623 -0.37541342
0.1914281 -0.16760905 -0.06740513 0.22267005 -0.12296438 -0.27849323 0.09275258 -0.6094272
0.07730329 0.4974269 -0.10482622 0.094810754 0.38335797 0.918771 0.17776665 0.4095261
0.004608603 -0.45480815 -0.018283755 0.10120066 0.03320864 0.20242567 0.6249834 0.05676697
-0.030280635 0.19320883 0.102501206 -0.18703263 0.08990346 -0.31294084 0.04473988 0.15388206
0.07978191 -0.8498381 -0.1370909 -0.07736269 0.17379066 0.36438385 0.17468373 0.30130413
0.031618357 0.035007864 0.10883672 0.88158864 0.17252803 0.0005873446 -0.06339634 -0.32870746
0.2050909 0.10265583 0.12920359 -0.28483245 -0.33959472 -0.11383919 0.09184941 -0.30749124
0.13567291 -0.67743534 0.2541561 0.15947352 0.124856904 -0.13854042 -0.31725234 0.2129492
0.18236777 0.0074825487 -0.25757408 0.11836422 0.07580843 -0.08230016 -0.036834605 0.13459043
-0.38339418 0.24961922 0.14009593 -0.2910772 -0.21509257 -0.0037739633 0.3589853 0.015340883
0.16733032 0.6791079 -1.1154766 -0.02819962 -0.33353835 0.0011786867 0.08105505 0.008185033
0.033131022 0.13826612 -0.47981757 -0.32291108 0.03464771 0.09529846 0.21138038 0.015540913

output_layers.0.bias f4 [40]
00000000: 8b93 3fbe 926b c73f f828 11be 0c6b 9a3c
00000010: b306 d63f eab6 783f 2b6b 923f 6a00 0cbe
00000020: cc5c 943f 6cee 7b3f c2cf 733f 796a 23be
00000030: a41b a93f e871 903f d962 423f 56d0 313f
00000040: b4a4 993f 9c95 8c3f 9f84 ab3f 9d0d 853f
00000050: baf9 d13f 8324 663f 8fdf 963f 4610 933f
00000060: 86d5 973f 14e4 8e3f a941 a03f e149 a63f
00000070: c745 983f 3f9e f43c 9cf4 8f3f 0544 263f
00000080: 20a4 863f 8204 18bd ca40 bc3f 25cd 813f
00000090: 6ae5 8dbe 80cc b2bc 92ae 9cbe cb2d cf3f
-0.18708627 1.5579703 -0.14175785 0.018849872 1.6720794 0.97154105 1.1438955 -0.13672033
1.1590819 0.9841068 0.9523889 -0.15958585 1.321156 1.1284761 0.7593208 0.6945852
1.2003388 1.0983157 1.3399848 1.039478 1.6404335 0.8989946 1.1786975 1.1489341
1.1862037 1.1163354 1.2520038 1.2991296 1.1896294 0.029860614 1.1246524 0.6494754
1.0518837 -0.037113674 1.4707272 1.014073 -0.27714092 -0.021826029 -0.30601937 1.618585
