MODELS/REWARD COMPARISON/SAC MASKED MODELS/8_1_critic_local_2_network.pt (torch, 411311 bytes, 6 tensors)

hidden_layers.0.weight f4 [256, 101]
000000 b2 2a 34 3e d2 cd 11 bf bd 2a 2b be ba 01 2b bf
       0.17594412 -0.5695468 -0.16715522 -0.6679951
000010 29 3b 60 bd 8b 18 06 3f b6 2f 1c be 6e bf 69 be
       -0.05474392 0.523812 -0.15252575 -0.22826931
000020 52 24 85 3c 2b 94 49 bf 29 49 23 3d 9d cd 1f bf
       0.01625267 -0.7874171 0.039864693 -0.62423116
000030 8f c7 19 bf ef d7 a3 bf da 62 23 bf 0a 31 1d 3e
       -0.6007013 -1.2800273 -0.6382271 0.15350738
000040 e4 47 99 be f9 64 b4 3e c1 39 9c 3c 94 08 27 bf
       -0.2993766 0.35233286 0.019070508 -0.65247464
000050 d2 3a 5e be 09 0f 36 3e 72 11 85 3f c7 a1 34 bf
       -0.21702126 0.17779173 1.0395949 -0.7055935
000060 57 ec 9a bc bc 4e 4c 3f 92 da 05 bf eb 6b e6 be
       -0.018911524 0.7980764 -0.52286637 -0.4500421
000070 e1 84 45 be d7 f8 20 3f f9 0a e9 bd d3 26 29 3f
       -0.1928897 0.628797 -0.11379046 0.66074866
000080 ee cb 92 3f d3 6a 33 3f a9 61 78 3f bc 04 bd be
       1.1468484 0.70084876 0.9702402 -0.36917675
000090 56 4a 87 3d e7 90 a1 3e e4 9d d1 bd 21 a2 f3 bd
       0.06605975 0.31555864 -0.10235193 -0.11896158
0000a0 3f 42 6c bd 4a 71 c8 3f e3 be bf 3f 77 03 09 40
       -0.057680365 1.5659573 1.4980129 2.1408365
0000b0 c4 25 4d 3f d2 26 52 3f ef fb 21 3e 66 8f 36 3f
       0.8013575 0.82090485 0.15818761 0.7131256
0000c0 c5 f8 74 3d bb a6 65 3e 69 6d 05 be 2c 19 08 3f
       0.059807558 0.22426884 -0.13030018 0.5316341
0000d0 ac d5 cf 3e cc 92 a0 3e 86 45 db 3e 11 7f 42 bf
       0.40592706 0.31361997 0.4282648 -0.7597514
0000e0 8c 54 b2 3e eb 34 28 bd a0 12 f6 bd 0a ed 9e be
       0.3483013 -0.04106609 -0.12015271 -0.3104022
0000f0 57 92 30 be 26 cd 9a 3e 92 08 8b 3d 55 de d9 3d
       -0.17243324 0.3023464 0.06788744 0.106381096
000100 e0 9a 8e bd 0f e3 99 be bb 85 48 bf 2b c3 23 3e
       -0.06963134 -0.30056044 -0.78329057 0.1599242
000110 9e 29 01 bf ba a0 fa 3e c7 08 01 be 5c 1c 19 3f
       -0.5045413 0.4895075 -0.12601005 0.598089
000120 eb a2 2c bf 6e 1b b4 be f0 11 0e 3f c9 00 75 bf
       -0.67436093 -0.35177177 0.5549612 -0.95704323
000130 1f bb 42 3c e3 14 72 bd a3 1a 20 bf 9d f7 08 3f
       0.011885433 -0.05910195 -0.62540644 0.5350283
000140 7a 6a f0 bc d6 09 00 3f 68 84 44 be 56 d2 6d 3f
       -0.029347647 0.5001501 -0.19191134 0.9289907
000150 c6 36 20 3f 61 97 14 3f 15 ba 24 3f 94 3f bf 3e
       0.6258358 0.58043486 0.6434644 0.37353194
000160 76 15 8e be 3c 04 95 3e b8 f0 34 be fb e7 18 3d
       -0.27750748 0.29104793 -0.17669952 0.03733061
000170 bb 24 ba be 7d f7 2c be c1 e5 62 be f0 e4 19 3e
       -0.36356148 -0.16891284 -0.22157957 0.15028739
000180 7f 11 cf 3e 00 50 78 be 35 0d 13 3d 74 14 67 3e
       0.40443036 -0.24249268 0.035901267 0.22566396
000190 93 76 69 bd 5f e4 f4 bd f1 ab 08 bf e9 c1 d5 be
       -0.056997847 -0.11957621 -0.5338736 -0.41749504
0001a0 7c 92 5a bb bd 52 d5 be 57 0c cc 3f dd f1 6a be
       -0.0033351472 -0.41664687 1.5941266 -0.22943826
0001b0 94 18 25 bf 5f 1d 74 be a0 ae 27 bf 3f 8b 8d bd
       -0.6449063 -0.23839329 -0.6550083 -0.06911325
0001c0 64 9a fa be 5f 8d c8 be 48 2b 1a 3d fa 7f 29 3f
       -0.48945916 -0.39170358 0.037638932 0.662109
0001d0 f7 d8 52 3f f5 44 61 be 44 dd 4b bf 07 f9 09 3e
       0.8236231 -0.21998961 -0.796345 0.13473903
0001e0 11 f2 7f be 2b 51 34 3d e1 29 f6 be ac 40 c5 bf
       -0.24994685 0.04402272 -0.48078826 -1.5410361
0001f0 55 1c 32 bf 14 bc d8 3e 02 bd 35 bf c2 2c cc bf
       -0.6957448 0.42330992 -0.7099153 -1.5951159
000200 63 43 28 bf 41 3f 20 be ad e7 f5 3b 73 64 e2 3c
       -0.65727824 -0.1564913 0.0075044245 0.027635789
000210 c6 df 7d bf f9 de e5 be eb fe 10 c0 78 a4 6e bf
       -0.99169576 -0.44896677 -2.265559 -0.9321971
000220 c2 13 c7 3e 61 5e e6 be ae bb 54 3f df 92 09 3e
       0.38882262 -0.4499388 0.83098876 0.13434933
000230 05 f1 8b be 79 90 55 3b 90 85 46 bf 18 c2 ad bf
       -0.2733232 0.0032587333 -0.7754755 -1.3574858
000240 44 0c a2 3e 7a 9d e9 be 6f f7 02 be 40 38 c8 3d
       0.31649983 -0.45627958 -0.12789701 0.09776354
000250 3f 85 9c 3e a6 29 01 be e6 54 6f bf f8 e0 c2 3d
       0.3057041 -0.12613544 -0.9348892 0.09515566
000260 bc 3e 6c 3d 47 3f 92 3f 80 d3 61 3f 15 10 82 3e
       0.057677016 1.1425561 0.8821335 0.25402895
000270 5b 82 24 3e 35 01 48 3e 7a 99 51 be 4a 27 e0 3c
       0.16065352 0.1953171 -0.20468703 0.027362484
000280 10 31 3a be da ca a1 3d 0a 3a 46 bf 4a c5 3c 3d
       -0.18182778 0.07900019 -0.7743231 0.046086587
000290 88 55 15 3f 13 c7 43 be 3e 09 2d 3f 5f 86 65 be
       0.58333635 -0.1911891 0.6759223 -0.2241454
0002a0 e7 f7 95 be 99 42 60 be 2a 31 90 bf 67 bf 81 bd
       -0.29290697 -0.21900405 -1.1265004 -0.06335335
0002b0 71 9f c4 be 84 b2 b7 be 85 3f d0 be 01 cf 49 3f
       -0.38402894 -0.35878384 -0.40673462 0.7883149
0002c0 e0 33 58 bd 78 2d 99 bf c8 fb 4d bf 52 29 52 bf
       -0.052783847 -1.1967001 -0.8046231 -0.820943
0002d0 dc ef 25 3f c7 80 1e 3e 74 59 bb 3e cf ec ae bd
       0.6481912 0.15478812 0.36591685 -0.085412614
0002e0 4c 5d de 3c 14 82 dc 3e c2 9b 16 3e 5c dc 53 3d
       0.027144097 0.43067992 0.14707854 0.051723823
0002f0 ff 05 27 bf 7a 70 75 bf ef a4 b9 be bc dc eb bd
       -0.65243524 -0.9587475 -0.36258647 -0.11516711
000300 ff 22 38 bd eb 54 6a bf 42 9a 6f be e5 fb 05 3f
       -0.04495525 -0.91535825 -0.23398688 0.52337486
000310 82 d3 f7 3e 69 87 fc 3e dc 04 06 bf 77 21 35 bf
       0.48403555 0.4932206 -0.52351165 -0.7075419
000320 e4 9e 74 bf be da 81 bd 24 93 df 3c 2f 03 4d 3f
       -0.9555495 -0.0634055 0.027291842 0.8008298
000330 6f 23 2d be a4 e8 aa 3e b8 43 de 3c 5d c1 98 3e
       -0.16908048 0.33380616 0.0271319 0.29835024
000340 e7 d2 42 3e df b4 0c bf 6f 2d d9 3e 27 d9 a6 3e
       0.19025765 -0.5496349 0.42417476 0.3258755
000350 ac 0b 59 3e 78 eb 0b 3f 78 d8 df 3e 34 21 2e 3f
       0.21195859 0.5465617 0.4371984 0.68019414
000360 bb f2 a2 3f 59 8b 09 3f 2f 46 5c 3f 28 9c 39 bf
       1.2730325 0.5372825 0.8604459 -0.725039
000370 f2 7a 66 be dc 68 90 be 89 54 4b 3e 3b ee 00 bf
       -0.22507837 -0.28205 0.19856466 -0.5036351
000380 85 d2 93 3e 43 f6 c9 3f ac 60 08 40 6c c1 8f 3f
       0.2887155 1.5778278 2.1309004 1.1230903
000390 de 16 85 bf 8f 5c 2b bf ed c8 b2 3e 24 09 36 3e
       -1.0397604 -0.6693811 0.3491892 0.17776924
0003a0 82 66 19 3d a1 20 ad 3e e7 5e 6b 3e 15 92 85 be
       0.037451275 0.33813956 0.22985421 -0.26088014
0003b0 13 9c b5 be 2c 30 7c 3f 56 02 61 bf 92 dd 25 3f
       -0.35470638 0.98511004 -0.8789419 0.64791214
0003c0 69 51 8c 3e 37 c6 0a bf 85 22 a2 bd 6a 8d c2 3b
       0.2740586 -0.542087 -0.0791674 0.005937268
0003d0 1a df 4d bf 30 7d 2e bf 21 cc ff be 88 23 0f 3f
       -0.8041855 -0.6815977 -0.49960425 0.5591359
0003e0 83 bc 59 3e 43 1a 36 3f ff 29 dd be 58 65 cb be
       0.21263318 0.7113382 -0.43196103 -0.39725757
0003f0 0b 00 a2 3e 3e 26 b1 bc 31 12 08 be ba 68 a0 bf
       0.31640658 -0.02162468 -0.1328819 -1.253196

hidden_layers.0.bias f4 [256]
000000 dd d2 fc bf c2 05 7d 3e 9c fb 1a c0 bf ab 27 bd
       -1.975185 0.24709228 -2.421607 -0.040935274
000010 c0 48 ed be 8e 4c d1 3e 5a bb f0 3e 4f d6 99 bf
       -0.46344566 0.4087872 0.47017938 -1.2018527
000020 f3 a0 52 bf 40 40 02 bf c7 6a 15 bf 93 78 67 3e
       -0.8227684 -0.5087929 -0.58366054 0.22604589
000030 82 5a 14 bf c5 e3 d5 bf 58 54 62 3c a8 d3 a2 3c
       -0.57950604 -1.6710135 0.013814054 0.019876316
000040 62 ae 9f bf cd ea f2 bf 19 c5 86 be 04 53 ce 3e
       -1.2475092 -1.8977906 -0.2632225 0.4029771
000050 2d 6c 0c 3e b5 c1 15 c0 bb 52 9f bd 6d 73 fd bd
       0.13713141 -2.339948 -0.077794515 -0.12375531
000060 78 28 9b bf 91 8c 1d bf 5c 06 a2 bf 21 67 b4 bd
       -1.2121725 -0.6154261 -1.2658191 -0.08808733
000070 ef 2e 9b bf 8f 2b 04 3e 44 93 27 c0 af 11 05 c0
       -1.2123698 0.12907241 -2.6183634 -2.0792043
000080 a8 b8 09 c0 48 01 aa 3e ef 28 5f 3e 0e 55 ea bf
       -2.1518955 0.33204103 0.21792959 -1.8307207
000090 4c 3c 3c bf 96 fe 8e be 80 0f 9f bf 84 89 a5 3e
       -0.73529506 -0.2792861 -1.2426605 0.3233148
0000a0 f4 c8 f1 bf a9 12 23 c0 e0 01 03 c0 08 1b 2c c0
       -1.8889451 -2.548014 -2.0469894 -2.6891499
0000b0 63 b0 4b 3c a2 c3 f6 bf c6 a5 a0 bf db b3 ff 3e
       0.012432191 -1.9278452 -1.255059 0.49941906
0000c0 3d 46 69 bf 54 f9 c1 3e 8f f6 48 bf 3e 00 17 3e
       -0.911228 0.37885535 -0.7850122 0.14746186
0000d0 2c 40 67 3d c7 80 0b c0 d6 e6 8e 3e 31 0c 42 be
       0.056457683 -2.179735 0.2791049 -0.18949963
0000e0 91 83 99 bf c9 02 07 c0 fc b6 88 bf 09 f1 1d 3e
       -1.1993276 -2.109545 -1.0680842 0.15423979
0000f0 7b 07 80 3e 1e 56 16 bf b3 d9 5b be 1f 80 02 bf
       0.25005707 -0.58725154 -0.21469764 -0.5097675
000100 db 65 e3 bd dc 99 43 3e 96 9a 68 3d c3 62 4e bf
       -0.11103412 0.19101661 0.05678805 -0.8061945
000110 df 78 0a be 21 f4 2d c0 ec 79 16 c0 c6 4d 13 be
       -0.13522671 -2.7180254 -2.3511915 -0.14385137
000120 25 db dc 3e 62 a5 4e 3e 79 62 1b c0 48 53 ea be
       0.43135944 0.20180276 -2.4278853 -0.45766664
000130 e9 ea ae bf 30 92 f2 bf f9 03 b0 3e 26 17 19 3e
       -1.3665439 -1.8950863 0.3437803 0.14950237
000140 6d 97 d3 bf c5 9d 87 bf af 26 79 bd e9 41 54 be
       -1.6530586 -1.0595022 -0.060827907 -0.20728268
000150 78 47 e9 be bd 99 5f be 70 e8 fe 3e 72 20 32 3e
       -0.4556234 -0.2183599 0.4978671 0.1739519
000160 ff 85 06 c0 8b 80 e3 3d 7b 40 70 3e 3a 0e f5 3e
       -2.1019285 0.11108502 0.23462097 0.47862417
000170 e8 19 7e 3c 58 85 30 c0 de 30 03 c0 b9 d5 1a bd
       0.015509106 -2.7581387 -2.0498576 -0.037801478
000180 40 c5 9c b6 9b 1b 8c 3e 14 7b d0 bf ad 32 b5 bf
       -4.672125e-06 0.2736481 -1.628756 -1.415609
000190 ac 3c 1e c0 d8 86 ce bf 05 bb fd bd b5 2c 87 3e
       -2.472453 -1.6134901 -0.12389187 0.26401296
0001a0 47 fe 7a bd 21 9e f3 bf 51 7c ed 3e aa 09 b2 bd
       -0.061277654 -1.9032632 0.46383908 -0.086932495
0001b0 73 37 c4 bf a3 f0 66 bf d3 e1 61 bf 6f f2 73 bf
       -1.5329422 -0.9021093 -0.88235205 -0.952918
0001c0 4d 39 9e bf 30 da a9 bf a8 b9 0f c0 62 f9 bd 3d
       -1.2361237 -1.326971 -2.2457066 0.092760816
0001d0 7f 66 23 c0 be 03 ac bf e9 e7 bd be 18 5e 3c be
       -2.5531309 -1.3438642 -0.37090996 -0.18395269
0001e0 9b 8c 66 3e 52 4d 35 c0 de 58 b9 be 43 00 7a bf
       0.22514574 -2.8328443 -0.36200613 -0.9765665
0001f0 49 17 86 3e 19 0e 0f c0 35 8f e3 bf 68 f2 06 c0
       0.2618964 -2.2352355 -1.7778078 -2.1085453
000200 ce ac 20 c0 2a df 55 bf 50 4b e8 bf 53 ca 35 3e
       -2.5105472 -0.83543646 -1.8147984 0.17752962
000210 ca 43 f6 3d 23 c3 a8 3e 0b 97 20 c0 42 87 9a bf
       0.120246485 0.32961378 -2.509219 -1.2072527
000220 20 b2 4d bf 99 46 34 bf dd 58 08 c0 45 eb 0b c0
       -0.8034992 -0.70420223 -2.1304238 -2.1862347
000230 12 2f f9 bf 04 b4 0a 3e 79 5c 83 bf 5e 93 ec 3d
       -1.946749 0.13545233 -1.0262595 0.115515456
000240 3c 6d 2a bd 4e 71 14 be d0 23 9f bd 78 17 af bf
       -0.04160808 -0.14496347 -0.077705026 -1.3679037
000250 8d a4 94 bf 5b b7 14 3e bb 5a a3 3e ab 83 15 c0
       -1.1612717 0.1452307 0.3190516 -2.3361614
000260 79 e4 cc bf 0e 51 e5 be f0 67 01 bd 5a 4f 21 be
       -1.6007224 -0.44788402 -0.031593263 -0.15752926
000270 ce de eb 3e 20 69 ad be c8 68 27 c0 7e ac 58 3e
       0.46068424 -0.33869267 -2.6157703 0.2115955
000280 38 6f ed bf 72 96 3b c0 18 01 cc bd 56 b5 2a c0
       -1.8549566 -2.9310575 -0.09961146 -2.6673179
000290 1b 3f da bc b4 34 d6 3e 9a cf db 3e 90 ce 08 c0
       -0.02664142 0.41837084 0.42931825 -2.1376076
0002a0 3b c3 44 3d ed 88 7e 3e fc 56 17 c0 9d 40 ca bc
       0.04803775 0.2485692 -2.364684 -0.024689013
0002b0 83 81 06 c0 a3 dc 06 bf f6 c3 27 c0 a3 6d 54 3d
       -2.1016548 -0.52680415 -2.6213355 0.05186237
0002c0 9f 50 2d be c6 7f 0c c0 d4 a5 34 bf a0 df 26 c0
       -0.16925286 -2.1952987 -0.70565534 -2.607399
0002d0 e8 55 29 bf 7c 8e 6f bf df 96 21 bf 08 ad 13 3e
       -0.6614671 -0.9357679 -0.63120836 0.14421475
0002e0 4e e2 95 bf 37 a2 2e be 8b 34 c4 bf 17 09 90 3e
       -1.1709688 -0.17054068 -1.5328535 0.28131935
0002f0 5c 4e 81 3e c7 45 1c c0 0d 12 17 3f 22 55 1e be
       0.25255096 -2.4417589 0.5901192 -0.15462163
000300 28 c9 82 bf 11 84 3c bf c9 4f 32 bf e0 37 7f 3e
       -1.0217638 -0.7363902 -0.6965299 0.24923658
000310 63 4e be bf ab 54 1c c0 05 62 b0 bd 57 6b d3 3e
       -1.4867672 -2.4426677 -0.08612446 0.4129283
000320 9d 04 34 be 76 85 6e 3c 60 42 67 3e 1c 8a d9 bf
       -0.17579885 0.014558187 0.22583914 -1.6995273
000330 73 7d 78 bf db eb c1 bf 8d 9f e3 bd bb d6 54 3e
       -0.9706642 -1.5150102 -0.11114416 0.20785038
000340 4e aa ab 3e 5a 12 5e bf 8c e0 03 3e 51 bb 1f 3e
       0.3352837 -0.8674675 0.12878627 0.155988
000350 05 58 83 bc 6e 76 06 c0 59 4e d2 bd b3 84 04 c0
       -0.016033182 -2.1009784 -0.1026885 -2.0705993
000360 81 b7 85 bf 61 4b 8c 3d 1d 8c 5f 3d 14 91 c4 bd
       -1.0446626 0.06850315 0.05457698 -0.09597984
000370 b6 34 a3 bd ca 1a 56 bd 64 f6 6d 3c 88 61 d1 3e
       -0.07969038 -0.05227164 0.014524076 0.40894723
000380 75 1f f7 bf 6d 65 dd 3d e3 45 f9 be 73 2a cb 3d
       -1.9306475 0.10810361 -0.48686132 0.09920206
000390 ad 72 92 3e 96 7a ad 3e 32 18 85 3e d0 72 3a ba
       0.28603116 0.33882588 0.25995022 -0.00071124453
0003a0 82 07 54 3e 70 44 28 be 1a f4 b4 bf 55 4d c2 be
       0.20705989 -0.16432357 -1.4136994 -0.37949625
0003b0 9f 1d 49 bd a9 d2 4f be 61 4e 74 bf 80 56 07 bd
       -0.049100515 -0.20295204 -0.95432097 -0.033041477
0003c0 bc 97 30 bd bd a4 d5 be 1c 91 d2 bf 7f 30 e6 3d
       -0.043113455 -0.41727248 -1.6450534 0.11239719
0003d0 f1 62 91 bf 07 dc be 3e 4b de d3 3d f1 69 14 bb
       -1.135832 0.37277243 0.103451334 -0.0022646154
0003e0 bb 8b 52 bf 69 30 ed bf 4b f1 8d 3e bb b9 74 bf
       -0.8224446 -1.8530399 0.27723154 -0.955959
0003f0 34 0b f3 be a5 48 e5 bf 82 67 2b c0 c5 01 34 bd
       -0.47469485 -1.7912794 -2.6781926 -0.043947

hidden_layers.1.weight f4 [256, 256]
000000 74 42 ea 3d 31 4a 9d 3e fe ea 47 be c2 6d 19 bf
       0.11438456 0.30720666 -0.19523236 -0.599331
000010 1b 7c 16 bf bb ba 8f 3e 98 7e 0f be 73 87 e7 bd
       -0.5878312 0.28072152 -0.14013135 -0.11305132
000020 17 d5 14 bf 9b 0d 07 3f 34 03 ce 3d 63 f3 db 3d
       -0.5813765 0.52755135 0.10059205 0.10739782
000030 e4 b5 0e bd d8 73 21 be 0e 81 99 3e 5b 45 b0 be
       -0.034841433 -0.15766847 0.29981273 -0.34427914
000040 d5 a4 cc 3e 2c cf ae bd 0f 4d 0b bd 03 23 78 3b
       0.39969507 -0.08535609 -0.034009036 0.0037862665
000050 18 c3 e7 3e 17 f3 d9 3e 0b 44 53 bd 27 06 b7 3e
       0.45266032 0.42568275 -0.051578563 0.3574688
000060 31 bb bb be a8 7c 35 3e 37 ef 4b 3c 63 3e 18 be
       -0.36666253 0.17723334 0.01244717 -0.14867549
000070 0f 4d b6 bd 5b 57 3f bf c4 00 fb bd 9a 08 a3 3e
       -0.089014165 -0.7474267 -0.122560054 0.318425
000080 87 c7 90 3d de fc 0e be 97 4f a0 be 9e 37 08 be
       0.07069307 -0.13963649 -0.31310722 -0.13302466
000090 df b9 29 3f 05 04 09 bf ce 9c 2e 3d 89 9b ff be
       0.6629924 -0.5352176 0.04263001 -0.4992335
0000a0 58 63 b3 be f0 79 5f 3e f2 45 83 3d 01 8e 7c bd
       -0.3503673 0.21823859 0.064098254 -0.061658863
0000b0 5c d6 42 3e 59 5e a6 3d a1 a9 ec 3d e2 9e 93 3e
       0.19027084 0.08123464 0.11555792 0.28832155
0000c0 7c 6e 57 bf fb 06 fe 3c 4e 1b 0a bd b9 4a a7 bd
       -0.8415296 0.031009188 -0.033717446 -0.08168549
0000d0 30 1a 2d 3f 62 72 ec 3c 3f e6 0b bd a9 05 8d bc
       0.67618084 0.028863136 -0.034155127 -0.017214613
0000e0 93 c9 f3 3e 5a 56 3c be 36 2c d7 be a0 48 20 3e
       0.47614726 -0.18392316 -0.42025918 0.15652704
0000f0 ae 52 a5 3e e8 e2 42 bd fb 6a 6d be b4 75 61 be
       0.32289642 -0.047579676 -0.23185341 -0.22017556
000100 1a ca b8 be ab b1 e7 bd 17 99 96 3b 6c 60 89 3d
       -0.3609169 -0.11313184 0.0045958865 0.06707844
000110 77 d8 ec be f1 7a cb be 26 a4 39 3e cc b3 ad 3e
       -0.462589 -0.39742234 0.18129024 0.33926237
000120 7f 14 83 be 1a 71 e1 bd 90 99 09 3e f1 e9 8c bc
       -0.25601575 -0.110079005 0.13437486 -0.017201396
000130 1f 03 22 bf fd 59 a6 3e e0 b2 12 3d 7e b1 46 be
       -0.6328601 0.3249053 0.03581512 -0.19403645
000140 e1 7b de be c5 6a a4 bd 58 a2 63 bd ab af 57 bf
       -0.43453887 -0.08028177 -0.055574745 -0.84252423
000150 18 7c 8d 3d 56 61 b3 3e 68 3c a2 bd b7 99 ae bd
       0.06908435 0.350352 -0.07921678 -0.085254125
000160 db 0a 93 3e e5 92 fb 3e 7b d6 16 be f1 76 48 3e
       0.2871922 0.4913551 -0.14730255 0.19576623
000170 77 2b 9f be 24 78 03 be 0a 59 c0 3e 4d 6c b6 be
       -0.3108785 -0.12838799 0.3756793 -0.35629502
000180 35 b1 2b 3e 50 0b 2b 3b 11 ed 29 3e 28 af 1c be
       0.16766818 0.0026099272 0.1659434 -0.15301192
000190 68 0e 90 be cb c7 1c bd 39 39 91 3d 6b 49 87 bd
       -0.2813599 -0.038276475 0.070909925 -0.066058
0001a0 00 f1 82 3e 92 cb 5f be 31 3f a4 be 99 46 ca be
       0.25574493 -0.21855 -0.3207946 -0.39506987
0001b0 76 7b 15 3d 8e bc 81 3d 53 4b 00 bf 76 9b c3 be
       0.036494695 0.06334792 -0.50114936 -0.38204545
0001c0 4c 2c ef bd 3d 43 0a 3e 8d 5f 35 3e 89 14 ed bd
       -0.11678371 0.13502212 0.17712231 -0.115761824
0001d0 b4 96 26 be 66 76 b2 be d0 97 ba 3e 57 9b a5 be
       -0.16268426 -0.34855956 0.3644395 -0.32345077
0001e0 a4 cd d5 be a7 b2 7c 3e ec ed c7 be c1 4f 8e 3e
       -0.41758454 0.24677525 -0.39048707 0.27795222
0001f0 cc ac b2 be e2 75 a3 3c 35 fd 06 bf d2 4b f0 be
       -0.3489746 0.019953672 -0.52730113 -0.46932846
000200 36 88 03 be 51 2c 00 3e f6 41 31 be 7f 81 d2 be
       -0.12844929 0.12516905 -0.17310318 -0.41114423
000210 d8 36 65 3d f2 2d 2d be 50 5f e1 be a4 e7 14 3e
       0.055960506 -0.16912058 -0.4401803 0.14541489
000220 c2 9c 1f 3e bf fe b9 be 3a ed 14 3e a6 bc 8d be
       0.15587142 -0.36327168 0.1454362 -0.2768299
000230 ee 2b 92 3e 0b 0e 17 be 7a 16 e6 bc ff 3c ab bd
       0.2854914 -0.1475145 -0.02808689 -0.083612435
000240 d9 1d 8a 3e c3 4e c9 3c ec 4f 5b 3f 5b eb 54 3e
       0.26975897 0.02457369 0.85668826 0.20792906
000250 ea 79 29 bf ed 86 55 be 55 4b a0 be a2 a3 23 be
       -0.6620165 -0.20852251 -0.31307474 -0.1598039
000260 0d 26 74 3e 1f f8 ba 3d b5 96 cd 3e ab 8c 9a 3e
       0.2384264 0.091293566 0.40154043 0.30185446
000270 a7 2a c0 3d 53 b2 0d 3d 46 8d 03 be 8e 4f ef bd
       0.09383135 0.03459389 -0.1284686 -0.11685096
000280 09 34 32 bf 49 c5 81 be ea ee 69 be fe a3 01 3d
       -0.6961065 -0.2534583 -0.22845045 0.031650536
000290 0d 0b 59 be 81 25 ca 3e c6 1f 3c 3f cb 71 69 bd
       -0.21195622 0.39481738 0.7348598 -0.056993287
0002a0 b1 94 93 bb 22 58 00 be fe 68 49 3c 40 3a 88 bd
       -0.0045038094 -0.1253362 0.0122930985 -0.06651735
0002b0 7d 35 c9 3d b0 fa bd be 5d 8b a4 3e dc ab c6 3e
       0.09824655 -0.37105322 0.32137576 0.38802993
0002c0 ad 14 61 3f 0d d0 a2 bd 98 01 d9 bd 96 04 ee bd
       0.87922174 -0.07949839 -0.10596007 -0.116219684
0002d0 67 de a6 3c a7 b3 9d be 97 75 8c bc bf 85 a1 be
       0.020369722 -0.30801126 -0.017145915 -0.31547353
0002e0 a4 15 d3 be 1b fc 23 3d a0 68 95 bd 11 ef 4c 3e
       -0.41227448 0.04003535 -0.07295346 0.20013072
0002f0 54 86 99 3e 29 33 30 be 7d d5 0f 3e 89 b6 8f 3d
       0.29985297 -0.17207016 0.14046283 0.07017238
000300 2b d6 9d be 2c a6 a1 bd b5 7e c6 3c c2 f0 97 bd
       -0.3082746 -0.07893023 0.02423034 -0.07418968
000310 7f 24 0d be 20 cb fa be ae b4 13 3d 40 e7 dc be
       -0.13783453 -0.48983097 0.03606098 -0.4314518
000320 c8 7a 59 bd 09 2b 82 be 19 70 8b be 14 6c 83 be
       -0.05309561 -0.25423458 -0.2723396 -0.25668395
000330 42 fe 1d bf d4 54 47 3e 59 c0 d0 be 72 d3 c4 3d
       -0.6171609 0.19465953 -0.4077175 0.096106425
000340 64 78 ba 3e 8e 17 ba 3e 51 d2 4b be af fe ad be
       0.36419976 0.36346096 -0.19904448 -0.3398337
000350 97 e1 2e 3d 48 22 6d be 1b 86 ef bc 94 ea 14 bf
       0.042695608 -0.23157609 -0.029238751 -0.5817044
000360 b1 20 eb be 7d 1b 0e be de 0d 71 3e c5 bc ab 3e
       -0.4592338 -0.13877673 0.23540446 0.33542457
000370 69 77 ab be 19 d1 8e 3e a3 bc 96 bd 15 7c 90 be
       -0.3348954 0.27893904 -0.07360198 -0.28219667
000380 14 93 ab be db e7 73 be ba 65 9e 3d 44 fe 45 ba
       -0.3351065 -0.23818915 0.077342466 -0.0007552842
000390 f1 a7 de bd fa b6 ae be 66 6c 41 be a6 47 b5 be
       -0.10871876 -0.34123975 -0.18889007 -0.35406226
0003a0 8a a9 01 3f 6d ce a6 be 1f 76 99 be 41 fb aa bd
       0.5064932 -0.32579365 -0.29972932 -0.08348704
0003b0 54 5c 11 3d 33 86 76 3e 92 81 96 be d2 27 4e be
       0.03548844 0.2407463 -0.2939573 -0.20132378
0003c0 0d 94 31 be 0a b2 8c 3d af e5 b8 be 79 db 61 3e
       -0.17341633 0.06869896 -0.36112735 0.22056378
0003d0 0b 79 50 bd a5 24 33 3e c0 53 82 3d c9 67 56 be
       -0.050896686 0.17494448 0.0636363 -0.20938028
0003e0 44 b4 3b be 65 08 6e 3e e5 34 30 be ff f4 8e 3e
       -0.18330485 0.2324539 -0.17207678 0.27921292
0003f0 1c 77 0a 3d a4 df 0b 3c ea ff 74 bc b2 12 f9 3d
       0.033804998 0.008537207 -0.014953593 0.12161769

hidden_layers.1.bias f4 [256]
000000 d6 08 07 bf cd 57 77 be aa e0 67 bf e3 19 4a bf
       -0.5274786 -0.24154587 -0.90577185 -0.7894575
000010 a3 1c 71 bf b0 6d 95 bf 45 1a 51 bf b5 4d 65 be
       -0.9418432 -1.1674099 -0.8168071 -0.22392924
000020 c0 bd a1 be 58 fc 7c bf f3 c6 1f bf 29 0b b6 be
       -0.3159008 -0.98822546 -0.6241295 -0.3555539
000030 69 30 2d bf 15 96 ed be 58 ee c4 be c8 48 04 bf
       -0.67651993 -0.46403566 -0.38463092 -0.51673555
000040 59 ff 29 bf a4 f5 ce be 4d 4e 6e bf 77 e3 bc be
       -0.66405255 -0.40421784 -0.9308823 -0.36892292
000050 ce 1e 63 bf 8c 27 93 bf 80 31 6c bf 3a 0c 5c bf
       -0.8871888 -1.1496444 -0.9226303 -0.85956156
000060 47 db 7d be 43 f7 ab be 30 62 88 bf 1a 96 67 bf
       -0.24790679 -0.33587083 -1.0654964 -0.9046341
000070 4b 9c 4c bf 21 c4 7a bf f3 25 28 bf f7 4f 61 bf
       -0.79925984 -0.9795552 -0.65682906 -0.8801264
000080 12 7f 0f bf b8 46 77 bf 36 ae 19 bf f8 59 4d be
       -0.5605327 -0.96592283 -0.6003145 -0.20053852
000090 01 96 6d bf ac cd 77 bf 39 d6 41 bf 3a 3c 6d bf
       -0.9280701 -0.96798205 -0.757175 -0.92670023
0000a0 73 cf 9d be 5b 17 d7 be c7 9c ef be 70 23 f3 be
       -0.30822334 -0.42010006 -0.467993 -0.47487974
0000b0 88 35 53 bf e1 9f 15 bf d8 b8 74 bf 14 3a 4a be
       -0.8250356 -0.5844708 -0.9559455 -0.19748718
0000c0 6a 5b 7f bf 65 15 0a bf 5b 34 be be 31 b1 79 be
       -0.9974886 -0.53938895 -0.3714932 -0.24384
0000d0 47 d3 62 bf ad 34 e8 be 37 9e 92 be 01 50 75 bf
       -0.88603634 -0.45352688 -0.28636333 -0.958252
0000e0 72 65 de be 22 3d e8 be 27 8c 71 bf f3 8c 8c be
       -0.43436772 -0.4535914 -0.9435448 -0.27451286
0000f0 30 85 0f bf 7a 52 06 bf d8 75 85 bf 49 34 05 bf
       -0.56062603 -0.524696 -1.0426588 -0.52032906
000100 ca 35 78 bf e3 bb 1b be 77 2b 40 bf 38 ac ef be
       -0.96957076 -0.15208392 -0.7506632 -0.4681108
000110 17 ab 77 bf 9a 4a 76 bf 30 78 5b bf 34 6a 8d bf
       -0.9674544 -0.9620758 -0.85730267 -1.1048036
000120 c1 b5 8c bf 7f 52 04 bf 60 54 78 bf 0c 0b 7c bf
       -1.0992967 -0.5168838 -0.97003746 -0.98454356
000130 fd cd ca be ee 4f 29 bf c9 a7 48 bf a8 9e 66 bf
       -0.39610282 -0.6613759 -0.7838102 -0.9008584
000140 8a d7 8e bf 8d 88 1e bf 1f 5c 02 bf 69 cb 0a bf
       -1.1159527 -0.6192711 -0.50921816 -0.5421663
000150 30 b2 0f bf 1d e0 8a bf ef d8 5a bf 32 de 0a bf
       -0.5613127 -1.0849644 -0.85487264 -0.54245293
000160 53 56 60 bf 77 41 02 bf c2 06 83 bf bd 5d 16 bf
       -0.8763172 -0.5088114 -1.0236437 -0.58736783
000170 0b 12 85 bf 96 72 03 bf d3 4c 8f bf 70 cd e3 be
       -1.0396131 -0.5134672 -1.119532 -0.44492674
000180 2a 06 fc be f8 29 55 bf bd 7a bd be 40 a6 42 bf
       -0.49223453 -0.83267164 -0.37007704 -0.7603493
000190 52 08 c1 be 05 23 83 be 85 b5 0a bf 0c 71 88 bf
       -0.3770166 -0.25612655 -0.54183227 -1.0659499
0001a0 3c f3 d2 be be 41 cf be dc 5c 49 bf 11 1b 59 bf
       -0.41201198 -0.40479845 -0.7865732 -0.84806925
0001b0 4d 8c 37 bf a1 9c 8c bf 80 b0 76 bf fb 73 62 bf
       -0.71698457 -1.0985299 -0.9636307 -0.8845822
0001c0 8c 87 82 bf 93 b3 37 bf 26 05 69 bf 34 71 e2 be
       -1.0197616 -0.71758384 -0.9102348 -0.44226992
0001d0 d3 16 33 bf 46 e7 73 bf db 11 64 bf 9e c9 a5 be
       -0.699567 -0.9527477 -0.89089745 -0.32380384
0001e0 9a 1a 7f bf 37 dd 5b bf 99 bf 8a bf ca 1d fb be
       -0.99649966 -0.8588442 -1.0839721 -0.49046165
0001f0 56 9d 7e bf a8 c2 4a bf d5 a1 47 bf 97 1c b3 be
       -0.99458826 -0.7920327 -0.7798131 -0.3498275
000200 3d 38 71 be 6e a6 e4 be 8f ec 59 bf 0b a8 45 bf
       -0.2355661 -0.44658226 -0.85126585 -0.7720954
000210 24 0d 6d bf 32 6c ac be e2 08 f4 be 35 e7 0c bf
       -0.92598176 -0.33676296 -0.47663027 -0.55040294
000220 b6 09 c6 be 67 b1 60 bf ff f6 74 bf eb 65 8d bf
       -0.38679284 -0.87770694 -0.95689386 -1.1046728
000230 52 d5 81 bf 8e 58 26 bf 17 3e d5 be b0 5e f7 be
       -1.0143225 -0.64978874 -0.41648933 -0.48314428
000240 66 ac 59 bf 84 6e b4 be f9 91 6d bf db b4 ae be
       -0.85028684 -0.35240567 -0.9280086 -0.34122357
000250 00 61 72 bf f5 2c 34 bf d9 57 99 bf ac 55 f8 be
       -0.9467926 -0.703811 -1.1979934 -0.48502862
000260 7a 11 66 bf b3 56 96 be d5 5c 6d bf d0 69 1b bf
       -0.8987042 -0.2936302 -0.92719775 -0.6070833
000270 05 7d b6 be 0a 1b 85 bd 5a 6b 38 bf f2 79 1b bf
       -0.35642257 -0.06499298 -0.72038805 -0.6073295
000280 d4 ae b0 be 2d a4 21 bf 30 d2 0c bf 60 56 50 bf
       -0.34508383 -0.6314114 -0.5500822 -0.813818
000290 e4 a3 6e bf 65 a2 79 bf 4c 06 48 bf b5 5c 55 bf
       -0.9321883 -0.9751342 -0.7813461 -0.83344585
0002a0 a8 99 82 bf dc 0c 8c bf 7c 45 3f bf 18 1b 9a bf
       -1.0203142 -1.0941424 -0.747154 -1.2039518
0002b0 9b e8 06 bf e8 74 62 bf 7a c6 cd be bb 9c 80 bf
       -0.5269868 -0.88459635 -0.40190488 -1.004783
0002c0 c3 a9 5f bf 17 ac 83 bf e6 fc 1b bf 99 cf 3c bf
       -0.8736841 -1.0286893 -0.6093277 -0.7375427
0002d0 71 8b 2b bf 3c ec e8 be 8a 8b 80 bf 61 38 74 bf
       -0.67009646 -0.45492733 -1.0042584 -0.9539853
0002e0 be 87 73 bf 9e 0f 4a bf a6 30 45 bf 49 1f 00 bf
       -0.95129 -0.7893008 -0.77027357 -0.5004774
0002f0 00 9f 84 bf a3 f4 06 bf cb 17 b9 be f9 72 3b bf
       -1.0361023 -0.52717036 -0.36150965 -0.7322231
000300 e0 b4 90 be 85 00 0b bf 37 2b eb be 4e 9d 71 bf
       -0.28262997 -0.5429767 -0.45931408 -0.9438065
000310 ea 3a 41 bf 41 a3 43 bf 1b 58 5c bf 48 48 1f bf
       -0.7548052 -0.7642098 -0.8607194 -0.6221967
000320 ac 1a 7e bf 1e c2 bf be 4a 71 d5 be 18 fc 0c bf
       -0.9925945 -0.37452787 -0.41687995 -0.55072165
000330 5e b7 88 bf 7b b2 01 bf 69 d4 3e bf 0d f0 37 bf
       -1.0680959 -0.50662965 -0.7454286 -0.71850663
000340 21 e3 cf be 3c 27 2d bf 52 be c1 be 3d 5b 59 bf
       -0.40602973 -0.6763799 -0.37840515 -0.84904844
000350 84 df 77 bf ab 1c cd be 8c 62 8b be 87 d7 79 bf
       -0.9682543 -0.40060934 -0.27223623 -0.97594494
000360 a5 eb d8 be bc 3c 86 bf 4c 6b 24 bf 43 92 62 bf
       -0.42367283 -1.0487285 -0.6422622 -0.8850443
000370 9a 5a 05 bf 2e e8 77 bf 87 68 0a bf 2f d2 1f bf
       -0.5209137 -0.96838653 -0.54065746 -0.6243009
000380 57 0e 24 bf fa d7 45 bf 0b dd 73 bf d6 da 86 bf
       -0.6408438 -0.7728268 -0.9525916 -1.0535533
000390 ab e8 63 bf 38 8e 33 bf 97 1d 64 bf 40 34 1b bf
       -0.890269 -0.70138884 -0.8910765 -0.606266
0003a0 27 41 6c bf c5 0c 44 bf 3f 8b 01 bf f0 ca 6b bf
       -0.92286915 -0.76581985 -0.506031 -0.92106533
0003b0 a0 58 2d bf c5 88 09 bf 85 4c 50 bf d9 45 2d bf
       -0.67713356 -0.5372432 -0.8136676 -0.67684704
0003c0 3e 1f 4b bf b4 2f 07 bf 2f 46 86 bf 33 ea 98 be
       -0.79344547 -0.52807164 -1.0490168 -0.2986618
0003d0 e2 10 38 bf 5d 67 46 bf 1d 4a 85 bf 1e 5d 90 bf
       -0.7190076 -0.7750147 -1.0413243 -1.1278417
0003e0 4d c4 20 bf a6 af 23 bf 4c 83 10 bf 56 d6 65 bf
       -0.6279953 -0.63939893 -0.56450343 -0.89780176
0003f0 43 48 4f bf a5 84 53 bf 7f e4 f0 be 87 7b 2e bf
       -0.8096964 -0.82624274 -0.4704933 -0.6815724

output_layers.0.weight f4 [40, 256]
000000 ba 2d ca 3d a7 87 9c bd 6d bc 88 bc fd 1d 4b bd
       0.09872003 -0.07643061 -0.01669141 -0.049589146
000010 d9 6a 7e bc 1d 4b 37 bd 7a e8 91 bc af 3f b5 be
       -0.015528404 -0.044749368 -0.017811049 -0.3540015
000020 e4 0c 4b 3e f1 2e 3d 3e ad 5c 20 3e 31 e9 05 3f
       0.19829136 0.18474938 0.15660353 0.52308947
000030 2a 35 d2 3d 7b fe f8 bd 6e 16 82 be 1d b1 2f be
       0.102640465 -0.12157913 -0.25407737 -0.17157407
000040 86 e5 8f 3c b2 2e d2 bd aa 2f ec bd df 2d 4d 3e
       0.0175655 -0.10262813 -0.11532529 0.2003703
000050 5c 79 54 3e 33 b7 95 bd d5 ba 4e 3d 9e 21 49 3e
       0.2074942 -0.07310333 0.050471146 0.1964173
000060 ac 73 6f be b7 c7 51 3d bb 0d 40 3a c7 8a 3f bc
       -0.23383969 0.051215854 0.0007326265 -0.011690802
000070 9e 67 33 3e 8f d2 a3 3d 07 ff 11 be 66 3c aa 3d
       0.17519996 0.07999145 -0.14257441 0.08312301
000080 15 33 e3 bd b6 61 0e 3c 66 62 ce be 45 ab fe be
       -0.110937275 0.008690288 -0.40309447 -0.49740043
000090 7f 63 ba 3d 25 be 39 bd f8 41 1b 3e a6 6c 9a 3e
       0.091010086 -0.04534735 0.15161884 0.30161017
0000a0 66 aa 4f 3a 50 b2 7a be d6 33 e0 be c4 bb 6c 3e
       0.00079218147 -0.24482083 -0.43789548 0.23118502
0000b0 1d a4 5b 3e d9 8c 8b 3e bb 8a 4a 3e 90 49 a5 be
       0.21449323 0.27255896 0.19779484 -0.32282686
0000c0 68 a9 54 3d d6 08 ac 3e 6a 71 8d ba 26 43 77 bd
       0.05191937 0.3360049 -0.0010791246 -0.060366772
0000d0 14 71 f3 bc fb 65 91 be 30 38 e2 3e b6 2d 0f 3e
       -0.029717006 -0.28398117 0.44183493 0.13982281
0000e0 a4 21 f7 bd c6 a1 f0 bd f9 04 78 bd 24 8c 9a be
       -0.12066963 -0.11749606 -0.060551617 -0.30185044
0000f0 c6 1e 7a bd de ae 9a 3d 82 d6 1a be 85 a4 a9 be
       -0.061064504 0.075528845 -0.1512089 -0.3313333
000100 8e 8b fe 3e 0f 6b a9 be 36 e2 ca be 5c 78 02 bf
       0.49715847 -0.33089492 -0.3962571 -0.50964904
000110 67 c3 0b 3d 07 a9 22 be e9 d8 74 3e 99 e2 23 be
       0.034121897 -0.15884791 0.2391087 -0.16004409
000120 53 38 05 be 8e f2 35 be 74 43 ea 3d cc fb 95 bd
       -0.13009767 -0.17768309 0.11438647 -0.07323417
000130 1f 75 41 3f 00 ad c1 be 5c e2 77 3d d9 5e 25 bc
       0.7556934 -0.378273 0.060518607 -0.010093414
000140 22 3e c4 3d 9a d0 fc 3d 40 b8 e6 bd 75 7e 3b bf
       0.095821634 0.12344475 -0.11265612 -0.73239833
000150 4b 50 4f bd de b1 33 bc 01 cf 11 be 7e b2 e6 3e
       -0.050613683 -0.0109677 -0.14239122 0.45058054
000160 6c ef 4b 3e a2 a2 70 be c0 80 d6 3d a5 8d 09 bf
       0.19915551 -0.2349954 0.10473776 -0.5373176
000170 29 63 02 3e 8b 79 a3 3d 59 03 9d bd 3e 62 c8 be
       0.12733139 0.07982167 -0.07666654 -0.39137453
000180 01 df f4 bd 08 d3 ea 3d 29 11 b5 3d 4c 69 a8 3e
       -0.11956597 0.11466032 0.08841164 0.32892835
000190 16 a2 ec bd bc e9 04 be 1a a5 94 bd d0 c3 be 3e
       -0.11554353 -0.12979788 -0.07258053 0.37258768
0001a0 5e 47 9c bd 56 62 33 be d3 f1 6e 3e 69 0f a6 3c
       -0.076308 -0.17517981 0.23334436 0.02027102
0001b0 8f 81 bb 3e 1f 64 a5 3d 83 67 80 3d 48 21 41 3e
       0.36622283 0.08075737 0.06269743 0.18860352
0001c0 fa fd ba bd 84 cb 9b 3e c7 76 1e 3d c8 27 99 3e
       -0.091304734 0.30428708 0.038687494 0.29913163
0001d0 91 0f 6f be 5d 22 aa 3e 75 12 06 bd df 70 45 3d
       -0.23345782 0.33229342 -0.032732446 0.048203345
0001e0 31 8c 3a 3e b6 78 a6 3d ad 7c b9 3d fb 6d a7 bd
       0.18217541 0.081284925 0.09056983 -0.08175274
0001f0 99 02 d0 3d d6 9c 64 be c5 11 5d bd 26 90 3b be
       0.101567455 -0.22325453 -0.053972024 -0.18316707
000200 2a f7 7b be df 31 2a bd 07 42 92 bd 76 19 87 3b
       -0.24606004 -0.041551467 -0.071415 0.004122908
000210 4d 45 42 bd 3e 32 d7 3e fe 64 74 3d 47 69 6e be
       -0.04742937 0.4203052 0.059666626 -0.23282348
000220 02 3f 78 be ae c8 22 3e 84 cb 8a bd e0 bf d0 3d
       -0.24242786 0.15896866 -0.06777099 0.10192847
000230 f9 9a a3 ba ed ab 72 be 3d 83 f0 3e 4b 2b b9 be
       -0.0012482099 -0.23698397 0.46975127 -0.36165842
000240 f1 9f 07 3e ca 8e 1b 3e 3b 34 2f 3e c2 61 55 3e
       0.13244607 0.15191188 0.17109768 0.20838073
000250 1f 36 b6 bd 87 ca 9e 3e a2 94 2d 3d 29 9b 42 be
       -0.088970415 0.3101389 0.042378075 -0.19004501
000260 23 8b 40 3d 2f 88 2a 3e 8e ba 2f 3d e6 af 8d be
       0.04700769 0.16653512 0.04290252 -0.27673262
000270 75 66 ca 3e a1 f3 f9 3d 47 c3 98 bd 27 f1 af 3c
       0.39531294 0.12204672 -0.07459121 0.021477295
000280 c3 4e 5e 3e 3c bb d9 bd 85 ba c1 3e 7a b3 c6 be
       0.21709733 -0.10631415 0.37837616 -0.38808805
000290 06 ca 26 3d 68 e7 0a bd 9c 08 03 3d 0b 52 d0 3b
       0.04072001 -0.033912092 0.031990632 0.0063574365
0002a0 1b a8 2d 3d f9 1c 9f 3d 1e 0b 1d 3e c3 5c e3 bd
       0.042396646 0.07769198 0.15336272 -0.11101677
0002b0 59 7b e5 3d 91 5d 7f bd fd 82 0b be cf 24 70 3b
       0.11205167 -0.06234509 -0.13624187 0.0036643033
0002c0 10 d5 11 bc 12 ba f2 bd 1c 66 b1 be 43 50 e7 3e
       -0.008900896 -0.11851896 -0.34648216 0.45178422
0002d0 ec 19 ce 3e e9 25 9b 3e 67 25 86 3c c6 b1 2a 3e
       0.40254152 0.3030236 0.016375257 0.16669378
0002e0 4e c8 fa 3d 6e 59 bd 3e 5e 61 66 3d 66 5e 8a be
       0.12245236 0.36982292 0.0562452 -0.27025145
0002f0 e2 14 61 3e 54 74 6f 3e 64 38 01 3f 51 0a be 3c
       0.21980622 0.2338422 0.5047667 0.023198279
000300 15 ae 8e 3d 4f 97 81 bd db e1 8a 3e 05 03 18 3d
       0.06966797 -0.06327688 0.2712544 0.037112255
000310 c1 f9 71 be 9f 39 b2 3c ce 26 4e bd ad 40 b8 be
       -0.2363043 0.021755992 -0.050329976 -0.35986844
000320 d8 5d 52 be 89 bd 7f be 97 e6 f3 3e e4 50 e0 3d
       -0.20543611 -0.24974646 0.47636864 0.10952929
000330 da ce 80 3c 61 75 53 be a8 50 72 bd 64 10 a5 bd
       0.015723635 -0.20650245 -0.05915895 -0.08059767
000340 8d d3 d2 3d 57 47 b0 be ed 83 9e bd 48 7a 7d bc
       0.10294256 -0.34429428 -0.077400066 -0.015471049
000350 cc 27 a2 be 08 04 32 be b5 90 8b be 02 cb 20 be
       -0.31670988 -0.1738435 -0.2725884 -0.15702441
000360 b9 d7 0a 3d 37 e9 5e bd 39 74 b3 be 3a aa 29 be
       0.033897135 -0.05442163 -0.35049608 -0.16568843
000370 eb 19 1a 3c a4 bd 33 3f f4 2d 2e 3d 69 45 1e bf
       0.009405593 0.70211244 0.042524293 -0.6182466
000380 32 74 57 3e 38 00 03 bd aa 64 cb bc b5 51 48 bd
       0.21040419 -0.03198263 -0.024828274 -0.048906047
000390 60 92 72 3e b1 66 92 3d a7 9e cb bc f4 cb 59 3e
       0.2368865 0.07148493 -0.024855925 0.21269208
0003a0 b5 0c 2a 3e 31 1f fe bd 34 53 24 3e 07 77 99 3d
       0.1660641 -0.12408293 0.16047364 0.07493406
0003b0 92 7b 41 be 77 8e 16 bd f5 91 2d be c5 84 43 3e
       -0.18894795 -0.03675696 -0.1695021 0.19093616
0003c0 c8 a6 22 bc 4e 6d 36 be a9 ab ac 3c 17 f6 9e 3e
       -0.009927459 -0.17815134 0.021077948 0.31047127
0003d0 83 77 47 bc b4 36 97 be ad 2d 53 3d 3a 61 06 be
       -0.01217449 -0.29533923 0.05155723 -0.13123026
0003e0 e2 94 1b be 7a 4e 00 3d 5f b0 11 be 39 b2 90 3d
       -0.15193513 0.03132484 -0.14227436 0.07065243
0003f0 95 e2 fa 3b 18 90 13 be 11 46 28 3f a6 ea 94 3d
       0.007656405 -0.14410436 0.6573191 0.07271318

output_layers.0.bias f4 [40]
000000 34 73 f7 bd d2 76 8f 3f 5d 49 6d be ac 36 d9 be
       -0.1208252 1.1208136 -0.23172517 -0.42424524
000010 2f 67 8b 3f 20 40 49 3f 75 72 65 3f 01 d2 0d be
       1.0890864 0.7861347 0.8962777 -0.13849641
000020 8f 44 21 3f a2 6d 5b 3f b9 c0 4c 3f 64 1d 58 3e
       0.6299524 0.8571416 0.7998157 0.21104962
000030 9a da 6a 3f 5a 71 6a 3f f4 3d 62 3f 35 7b 3c 3f
       0.9173981 0.9157921 0.8837578 0.736255
000040 9b 55 81 3f d9 dc 7f 3f 09 70 80 3f c3 8c 58 3f
       1.010425 0.9994636 1.003419 0.84589785
000050 90 12 63 3f 28 4f 59 3f 6d 23 2e 3f 1b 2d 69 3f
       0.887002 0.8488641 0.68022805 0.9108445
000060 87 12 73 3f 5e c2 6e 3f 81 b8 71 3f a3 7e a8 3f
       0.94950145 0.9326533 0.94422156 1.3163646
000070 e0 e8 65 3f 5a ba 8b 3e f7 54 73 3f cd 3b 7e 3f
       0.89808464 0.27290612 0.9505152 0.9931
000080 89 f8 73 3f 3c 95 88 bd 35 d2 64 3f f8 80 02 3f
       0.9530111 -0.06669089 0.8938325 0.5097804
000090 3f 0a b7 bd 02 e3 ca be ce 45 b5 bd 4e 70 85 3f
       -0.08937501 -0.39626318 -0.08851205 1.0424898
