MODELS/REWARD COMPARISON/SAC MASKED MODELS/8_2_critic_target_2_local_network.pt (torch, 411367 bytes, 6 tensors)

hidden_layers.0.weight f4 [256, 101]
0	0x3a515cf0	0.0007986566
1	0xbe50f45e	-0.20405719
2	0xbf26be23	-0.65133876
3	0xbe120f8a	-0.1426374
4	0xbf642aa4	-0.89127564
5	0x3f134acc	0.57536006
6	0x3c86e30e	0.01646569
7	0x3d20fcc8	0.03930357
8	0xbf61bab1	-0.88175493
9	0xbfa12a88	-1.2591105
10	0x3df45855	0.119309105
11	0xbebede17	-0.37278816
12	0xbf16c366	-0.58891904
13	0xbef9640d	-0.48709145
14	0xbedd4fac	-0.43224847
15	0xbe3f9994	-0.18710929
16	0xbe78a66d	-0.24282236
17	0xbf4fc613	-0.8116161
18	0xbf7ff5d2	-0.9998447
19	0xbdf9894c	-0.121843904
20	0x3da17a30	0.078846335
21	0xbe71df64	-0.23620373
22	0xbee99bc9	-0.45626667
23	0xbf1526f0	-0.5826254
24	0xbf3f5f07	-0.74754375
25	0xbf95d6f9	-1.170623
26	0xbf839c30	-1.028204
27	0xbfd6d9c0	-1.6785202
28	0xbeb124cd	-0.3459839
29	0x3ebddf35	0.37084356
30	0xbdb5c3d2	-0.088752404
31	0xbe48fc52	-0.19627503
32	0xbf228c32	-0.6349517
33	0xbf4069d8	-0.75161505
34	0xbe83e630	-0.25761557
35	0xbf795ef3	-0.97410506
36	0xbf96bbe4	-1.177609
37	0x3e277fd7	0.16357361
38	0x3e1faaac	0.1559245
39	0x3d5a78ec	0.053337976
40	0xbce81b13	-0.028333222
41	0xbf160c12	-0.5861217
42	0xbf0b9cc4	-0.5453608
43	0x3dd490d2	0.10379185
44	0x3ed53799	0.4164398
45	0xbe4b3771	-0.19845368
46	0xbf4307dc	-0.7618387
47	0xbf2b41da	-0.66897357
48	0x3ea6746b	0.32510695
49	0x3e38579e	0.18002173
50	0xbd819fcb	-0.06329306
51	0x3dca9c40	0.098930836
52	0xbe7de916	-0.24795946
53	0xbecf31a8	-0.40467572
54	0xbf158423	-0.5840475
55	0xbf412fc1	-0.7546349
56	0xbe3a5c0b	-0.18199174
57	0xbe80372d	-0.25042096
58	0x3e0e3845	0.13888653
59	0xbe216952	-0.15762833
60	0x3d2e11c5	0.042497415
61	0xbe6dae25	-0.23210962
62	0xbe772d1b	-0.241383
63	0xbefb50b2	-0.49085003
64	0xbf2d8ccc	-0.67792964
65	0xbe88ab66	-0.26693267
66	0x3e8efe52	0.27928406
67	0xbf19d1c6	-0.60085714
68	0x3e20989d	0.15683217
69	0xbf02f960	-0.51161766
70	0xbe6c0b57	-0.23051201
71	0x3d4908f4	0.049080804
72	0xbe48bf05	-0.19604118
73	0xbd56e7dd	-0.052467216
74	0x3ed3df4b	0.41381297
75	0x3da82fea	0.08212264
76	0xbe714ec2	-0.235652
77	0xbf2f41da	-0.68459857
78	0x3f5050e7	0.8137345
79	0xbf5789e1	-0.8419476
80	0xbb5929c1	-0.003313646
81	0x3ed60cec	0.41806734
82	0x3e159e77	0.14611231
83	0x3e94fce2	0.29099184
84	0x3eeb9962	0.4601546
85	0xbdbd53bf	-0.09244489
86	0xbea0d8a1	-0.31415275
87	0xbf54587b	-0.8294751
88	0xbc5d580d	-0.0135097625
89	0xbec3ed5c	-0.38267028
90	0xbe82fc02	-0.25582892
91	0xbe7f23ba	-0.24915972
92	0x3e9bb60d	0.3041233
93	0x3e67bc87	0.22630511
94	0x3cf05427	0.029337002
95	0xbd68fa50	-0.05687934
96	0xbf86228a	-1.047929
97	0xbe305305	-0.1721917
98	0xbdcbb0c5	-0.099458255
99	0xbe518d30	-0.20464015
100	0xbd265699	-0.04060993
101	0x3d9d32bd	0.07675693
102	0xbc51402c	-0.012771647
103	0xbf0a3e35	-0.5400117
104	0x3e8e785a	0.27826196
105	0x3e4c53b4	0.19953805
106	0x3f413558	0.7547202
107	0x3f49c172	0.788108
108	0xbe675544	-0.2259112
109	0x3ed8bee7	0.42333147
110	0xbd8a29d1	-0.06746257
111	0xbda1df98	-0.07903975
112	0x3f37b536	0.7176088
113	0x3d97b2a6	0.07407121
114	0x3f34153f	0.7034492
115	0xbd89e795	-0.06733624
116	0xbe7491dd	-0.23883767
117	0x3e001416	0.12507662
118	0xbe4a89bc	-0.19779104
119	0x3f037320	0.5134754
120	0x3e502369	0.20326008
121	0x3e3d101c	0.18463176
122	0x3f860a23	1.0471843
123	0x3f11e125	0.5698417
124	0x3f7290da	0.94752276
125	0x3f7e589f	0.99353975
126	0xbf4301b5	-0.7617448
127	0x3f3bb1ee	0.73318374
128	0xbf9001a6	-1.1250503
129	0xbee2eff1	-0.44323686
130	0x3f620fc7	0.88305324
131	0xbe2d8e62	-0.16948846
132	0xbe3a2c15	-0.18180878
133	0xbf4cdda8	-0.8002572
134	0xbeb517df	-0.35369775
135	0x3ecc32c9	0.39882496
136	0xbe3409ee	-0.17581913
137	0x3f0edf72	0.558097
138	0xbda73031	-0.08163489
139	0xbec49723	-0.38396558
140	0xbf0715a9	-0.52767426
141	0x3e539379	0.20661725
142	0xbf03da48	-0.51504946
143	0xbf144824	-0.5792258
144	0xbe9e4930	-0.30915213
145	0xbf44ec10	-0.769227
146	0xbf949fe8	-1.16113
147	0xbfdd7b5a	-1.7303269
148	0xbfcdc135	-1.6074587
149	0xbe84f3e6	-0.2596733
150	0xbf2b6876	-0.6695627
151	0x3ded30d0	0.11581576
152	0xbf9beac8	-1.2181025
153	0xbf1845d1	-0.5948153
154	0xbe0b1399	-0.13581695
155	0xbd3755cc	-0.044759557
156	0xbe4c2606	-0.1993638
157	0x3f0f12a1	0.558878
158	0x3e02f202	0.12787631
159	0xbea7945d	-0.3273038
160	0xbf6ae4f4	-0.91755605
161	0xbe124f61	-0.14288093
162	0xbfb131f8	-1.3843374
163	0xbf5a5a78	-0.85294294
164	0xbf368d6b	-0.71309537
165	0xbf19f229	-0.6013513
166	0xbf3d07cc	-0.7384002
167	0x3d6a3852	0.057182617
168	0xbd9d3972	-0.076769724
169	0x3e0401c2	0.12891296
170	0xbe7f4821	-0.24929859
171	0x3b45d086	0.0030184104
172	0xbf8b2c3a	-1.0872872
173	0xbfc1acb0	-1.5130825
174	0xbf1fd001	-0.62426764
175	0xbf8b9968	-1.0906191
176	0xbf65fda9	-0.8984018
177	0xbf327eb0	-0.6972456
178	0x3eacc3e4	0.33743203
179	0x3ebab6f9	0.36467722
180	0x3ed496d5	0.41521326
181	0xbc759ce2	-0.014991017
182	0xbf49be4c	-0.78805995
183	0xbf911eab	-1.1337484
184	0xbf50f50a	-0.816239
185	0xbf9a8ebe	-1.2074811
186	0x3effe290	0.4997754
187	0x3f1a0d66	0.60176694
188	0xbf4d3f0c	-0.80174327
189	0xbdc58986	-0.09645371
190	0x3dd00a63	0.10158231
191	0x3d054212	0.032533713
192	0xbe853023	-0.26013288
193	0xbf1dab05	-0.6158908
194	0x3e82e91d	0.25568476
195	0xbecc3f0a	-0.39891845
196	0x3e08a3d3	0.13343744
197	0x3f08d46d	0.53449136
198	0x3ecba57d	0.39774695
199	0x3f8fde23	1.1239666
200	0xbe98a558	-0.29813647
201	0xbec5ad4b	-0.38608775
202	0x3d8ab7b7	0.06773322
203	0xbdb71ad6	-0.089406654
204	0xbe727bc0	-0.2368002
205	0x3e2600f7	0.16211306
206	0x3ed16ea8	0.40904737
207	0x3f1eba48	0.6200299
208	0x3da78bdf	0.08180975
209	0xbcb31302	-0.02185965
210	0xbd80baaa	-0.06285603
211	0xbefe6b14	-0.4969107
212	0xbe9a8341	-0.30178264
213	0x3e1de0b9	0.15417756
214	0x3e781c4d	0.24229546
215	0xbd3b2c34	-0.045696452
216	0x3db29ee3	0.087217115
217	0x3ee3a8ee	0.4446482
218	0xbc2969d9	-0.010340177
219	0x3e978bac	0.2959875
220	0x3e93b49a	0.28848726
221	0x3df6ce09	0.12051017
222	0xbd0b9649	-0.03407887
223	0x3cd2c624	0.025729246
224	0xbf0bece9	-0.5465837
225	0xbe95820e	-0.29200786
226	0xbe069725	-0.13143595
227	0x3ded2e1e	0.11581062
228	0xbef66169	-0.48121193
229	0x3f145389	0.57939965
230	0x3f0dd02c	0.5539577
231	0xbf1d1cdd	-0.61372167
232	0xbd39e620	-0.04538548
233	0xbf256d93	-0.6462032
234	0xbf147439	-0.5798984
235	0xbf13986f	-0.5765447
236	0xbe7d9255	-0.24762852
237	0x3d75c17a	0.059998967
238	0xbeb01bad	-0.34396115
239	0x3efbb2a2	0.49159724
240	0xbea29d8a	-0.31760818
241	0xbf210e79	-0.6291271
242	0x3e05f10c	0.13080233
243	0xbf2a6005	-0.66552764
244	0xbf7512b8	-0.9573169
245	0x3e8cfbec	0.2753595
246	0xbda432b0	-0.080174804
247	0xbe6748dd	-0.22586389
248	0xbebdb71c	-0.37053764
249	0x3eef7c5d	0.4677457
250	0xbf276696	-0.6539091
251	0x3d139483	0.036030304
252	0x3dec6f62	0.11544682
253	0xbe9d9d22	-0.30783945
254	0xbe88950c	-0.26676214
255	0xbf231e84	-0.6371844

hidden_layers.0.bias f4 [256]
0	0x3d4c46ba	0.049872138
1	0x3d148dcc	0.03626804
2	0x3e8113ba	0.25210363
3	0xc03d7d1a	-2.9607606
4	0xbdfc59b9	-0.12321801
5	0x3e3b8cac	0.18315381
6	0x3eedc298	0.46437526
7	0x3e105179	0.1409358
8	0xbe72dbc8	-0.23716652
9	0x3c291afe	0.010321377
10	0xbf8d84f9	-1.1056205
11	0xbdc4e8c8	-0.09614712
12	0xbf2f1d3e	-0.68403995
13	0xbfa711fe	-1.3052366
14	0xbe96adab	-0.29429373
15	0x3e827b85	0.25484863
16	0xbdc6e6f1	-0.09712017
17	0xbe8155f6	-0.25260895
18	0xc012758d	-2.2884247
19	0x3e3d23f2	0.18470743
20	0x3c878d08	0.016546741
21	0x3ca770d6	0.020439547
22	0x3c8e4ae8	0.017369702
23	0xbbc954cd	-0.0061441422
24	0xbdbdc5b4	-0.092662245
25	0xbf1c50a8	-0.6106057
26	0xc00e4d4c	-2.2234678
27	0x3ea7d97c	0.32783115
28	0xc0405a8d	-3.0055268
29	0xbf8b8cad	-1.0902306
30	0xbff3f366	-1.9058654
31	0xc02e7067	-2.7256105
32	0x3dddb801	0.108261116
33	0xbe5aa328	-0.21351302
34	0x3e5dc3b6	0.21656689
35	0x3ed3fdd8	0.41404605
36	0xbfc85555	-1.5651041
37	0x3d6d1f9c	0.057891473
38	0xbe3a6ecb	-0.18206327
39	0xbfc10f31	-1.5082761
40	0xbfb3be49	-1.4042445
41	0x3ed85662	0.42253405
42	0xbf2b646b	-0.669501
43	0xbf686cc9	-0.9079099
44	0x3ea5fd1b	0.32419667
45	0xbfdf6ea0	-1.7455635
46	0xc01066f2	-2.2562833
47	0xbfb98bab	-1.4495748
48	0x3e98886b	0.2979158
49	0xbfd82f40	-1.688942
50	0xbf01fa6c	-0.5077274
51	0xbffbf865	-1.9685179
52	0xbebd1a62	-0.3693419
53	0xc00040fa	-2.0039659
54	0x3e1750ac	0.14776868
55	0x3e8a58d5	0.27020898
56	0x3eb834e2	0.35977846
57	0xc02f8fd0	-2.7431526
58	0x3dacfcf0	0.084466815
59	0x3dbbb37b	0.091650926
60	0xbf8d6dcc	-1.1049132
61	0xbf8dda5e	-1.1082265
62	0xbfd5bde1	-1.6698571
63	0xbf35b0db	-0.70972985
64	0x3dae725f	0.08517908
65	0x3d16f056	0.036850296
66	0xbe7c10a7	-0.24615727
67	0x3df9f7f9	0.122055
68	0x3ecf0169	0.40430763
69	0x3e8fd1b8	0.2808969
70	0x3d877e66	0.066159055
71	0x3d8fbd63	0.070185445
72	0xbf04a289	-0.5181051
73	0xbef453ca	-0.47720176
74	0xbf80d476	-1.0064838
75	0xbf1bbb6f	-0.60832876
76	0xbf4ba51d	-0.7954882
77	0x3e0b01b2	0.13574865
78	0xbf622268	-0.8833375
79	0xbcb62d53	-0.02223841
80	0xc02fa5ba	-2.7444901
81	0xbe0e8880	-0.13919258
82	0x3eb68d19	0.35654524
83	0xbff9e817	-1.9523953
84	0xbda89f08	-0.08233458
85	0x3ea6e0c8	0.3259337
86	0x3e814e09	0.2525485
87	0xbf375642	-0.71615994
88	0x3e1b70c7	0.1517974
89	0xbe8137b3	-0.25237808
90	0x3e76db12	0.24107006
91	0xc02de950	-2.7173653
92	0xc02034b1	-2.503216
93	0xbfea436b	-1.8301824
94	0xbd21cb32	-0.039500423
95	0xbf0b5d41	-0.5443917
96	0xbfb27f91	-1.394518
97	0xc02134b3	-2.5188415
98	0xc010eb05	-2.2643445
99	0xbfb9f6df	-1.4528464
100	0xc00750cb	-2.1143062
101	0xc03a733d	-2.9132836
102	0xc00f277d	-2.2367852
103	0xbfd00935	-1.625281
104	0xc033394a	-2.8003716
105	0xbeb84eb8	-0.35997558
106	0xbfc6f221	-1.5542642
107	0x3df09316	0.117468044
108	0xbf855665	-1.041699
109	0xc0061936	-2.0952888
110	0x3e591f4d	0.21203347
111	0xbfae5256	-1.3618877
112	0xbfcee200	-1.616272
113	0xbe3768ee	-0.17911121
114	0xbcd60fb2	-0.026130531
115	0x3d5f9ecb	0.054594796
116	0x3dddddf5	0.108333506
117	0xbf28656e	-0.6577977
118	0xc0142007	-2.3144548
119	0xbea883f1	-0.32913163
120	0x3e543762	0.20724252
121	0xbed45d0d	-0.41477242
122	0xbf09a132	-0.5376159
123	0x3e9bf898	0.304631
124	0x3e664d06	0.2249032
125	0xc0114ee9	-2.2704413
126	0x3e09ffba	0.13476458
127	0xbf187b1b	-0.59562844
128	0x3e0475da	0.12935582
129	0x3ec1e9e6	0.37873763
130	0xc01a6755	-2.412557
131	0xbe1671b9	-0.14691819
132	0xbed37932	-0.41303402
133	0xbf45cf99	-0.77269894
134	0xc01c40cf	-2.4414556
135	0xbe2c8117	-0.16846119
136	0xbdc783fc	-0.09741971
137	0xbe94a49e	-0.29031843
138	0xc02ecbf7	-2.731199
139	0xbf92c2d6	-1.1465709
140	0x3e2a46a3	0.16628508
141	0x3bc21b7b	0.005923686
142	0xbf51105b	-0.8166558
143	0xbfa7397b	-1.3064417
144	0xc019f515	-2.4055836
145	0x3e0b81e2	0.13623765
146	0xc03a9671	-2.9154322
147	0x3ddd633f	0.10809945
148	0xbe20d19c	-0.1570496
149	0xbee3b9c0	-0.44477654
150	0xbfabf547	-1.3434228
151	0xc019328b	-2.39371
152	0xbef45bfe	-0.47726434
153	0xc0223904	-2.53473
154	0xbf015283	-0.5051653
155	0xc02c50a9	-2.692423
156	0xbfa5216e	-1.2900827
157	0xbe64214a	-0.22278324
158	0xc0005cd8	-2.0056667
159	0xbed05f0b	-0.40697512
160	0x3daf6525	0.08564214
161	0xc03210da	-2.7822785
162	0xbdfdf059	-0.12399358
163	0x3e76d0bc	0.24103063
164	0xc027e2a6	-2.6232085
165	0x3e0c2378	0.13685405
166	0x3ec4e8f5	0.38458982
167	0x3e0f8338	0.140149
168	0xc0072b99	-2.112036
169	0xc026b7ec	-2.6049757
170	0xbeae4199	-0.34034422
171	0xbf999c09	-1.2000743
172	0x3e50f609	0.20406355
173	0xbf414091	-0.75489146
174	0xc013a626	-2.307016
175	0x3e5fca39	0.21854486
176	0xbeb87509	-0.3602679
177	0xc00d59c5	-2.208604
178	0xc01a20f5	-2.4082615
179	0x3d890b36	0.066915914
180	0x3e5a1cdc	0.21300071
181	0x3e7d63ff	0.24745177
182	0xbf988cc4	-1.1917958
183	0xbe05538a	-0.13020149
184	0x3ec4a722	0.38408762
185	0x3d816f95	0.06320111
186	0xc0346d8a	-2.8191857
187	0xbf11d571	-0.5696631
188	0xbe255298	-0.16144788
189	0x3eb2d196	0.34925526
190	0xbf833626	-1.02509
191	0x3e966a9f	0.2937822
192	0xbe3a36b6	-0.18184933
193	0xc00f5c6f	-2.2400167
194	0xc03577cd	-2.835437
195	0x3e7327fa	0.23745719
196	0xbf3eb6a8	-0.7449746
197	0xbf008a29	-0.50210816
198	0xbfcd0b22	-1.6019022
199	0xbbb7cc72	-0.0056090886
200	0xc03003e7	-2.7502382
201	0xbf5d28cc	-0.86390376
202	0x3e7f90c3	0.24957566
203	0xbd211161	-0.039323214
204	0x3e7eecc1	0.24895002
205	0xc02a91ab	-2.6651409
206	0xbfaf3bc0	-1.3690109
207	0x3db2de0f	0.087337606
208	0x3e81f3b2	0.25381237
209	0xc013b100	-2.3076782
210	0xc001bfb4	-2.0273256
211	0xbf343a80	-0.70401764
212	0xc0294ce7	-2.6453187
213	0xbc63bb9e	-0.013899712
214	0x3e80c83a	0.2515276
215	0xbec7bb50	-0.39010096
216	0x3cc100ff	0.023560045
217	0xbe2e0d71	-0.16997315
218	0x3df5004d	0.11962948
219	0xbfd2b09a	-1.6460145
220	0xc029a282	-2.6505437
221	0xbf35b492	-0.70978653
222	0x3e179337	0.14802252
223	0xbf0e7e04	-0.55661035
224	0x3c11f7d8	0.008909188
225	0x3e0a9b13	0.13535719
226	0x3da3bdbb	0.079951726
227	0x3cf1ea8d	0.029530788
228	0x3ee8394a	0.45356208
229	0xbdc2e33f	-0.09516
230	0xc0136007	-2.302736
231	0x3e93cfb8	0.28869414
232	0xbf9de491	-1.2335378
233	0xbeda871e	-0.4268121
234	0x3e30789a	0.17233506
235	0xbd97325c	-0.07382652
236	0xbf6e62d6	-0.9311956
237	0xbfad6632	-1.3546813
238	0xc005f799	-2.0932372
239	0xbfd49fe2	-1.6611292
240	0xbf8f9b7e	-1.1219327
241	0xbf41175d	-0.75426275
242	0xc00cffdd	-2.2031167
243	0xbf1b4485	-0.6065143
244	0x3e02317d	0.12714191
245	0xbfe5505d	-1.791515
246	0x3e95bd86	0.29246157
247	0x3e6b4920	0.22977114
248	0xbc835a36	-0.016034227
249	0xc0283574	-2.6282625
250	0xbfb9103a	-1.4458077
251	0xbf4c9247	-0.799107
252	0x3b495d19	0.0030725657
253	0xbe9b6416	-0.30349797
254	0xbfab1316	-1.33652
255	0x3ea7e82b	0.32794318

hidden_layers.1.weight f4 [256, 256]
0	0x3de755d9	0.11295671
1	0xbf9d6180	-1.229538
2	0xbf3ca17e	-0.7368392
3	0xbde44bd2	-0.11147274
4	0x3e90b27c	0.28261173
5	0xbe46e5e3	-0.19423632
6	0xbef09d0a	-0.4699481
7	0xbd59a651	-0.053137127
8	0xbe93eea2	-0.28893
9	0xbf2b5b67	-0.66936344
10	0xbd844b91	-0.06459726
11	0x3f07c57e	0.53035724
12	0x3d6a9f4c	0.057280824
13	0x3f1e8326	0.61918867
14	0xbde49fc9	-0.11163289
15	0xbe37633e	-0.17908952
16	0x3e462903	0.19351582
17	0x3e4f2ae2	0.20231202
18	0x3e24f0da	0.16107503
19	0xbdbd8ce1	-0.09255386
20	0x3de243ed	0.11048112
21	0xbf39a58e	-0.7251824
22	0xbf1e1ec7	-0.6176571
23	0xbd66bcfa	-0.056332566
24	0xbf3f63ed	-0.7476185
25	0x3ddebf50	0.10876334
26	0xbd6d6af9	-0.057963345
27	0x3e694699	0.22780837
28	0x3cdd1de5	0.026991794
29	0xbe931012	-0.28723198
30	0xbdabc6e4	-0.08387545
31	0xbd09fe7e	-0.03368997
32	0x3d8ae006	0.0678101
33	0xbe1ac394	-0.1511367
34	0xbe9b47f8	-0.30328345
35	0xbf154cd9	-0.58320385
36	0xbaa8c73e	-0.0012876762
37	0xbf10e651	-0.56601435
38	0x3edb3f5f	0.42821786
39	0xbe057c30	-0.13035655
40	0x3f0c8d67	0.5490326
41	0xbf78b229	-0.9714685
42	0xbf0f17e8	-0.55895853
43	0x3e215a4e	0.15757105
44	0xbeaa755a	-0.33292657
45	0xbd8994b6	-0.067178175
46	0xbe45ef18	-0.19329488
47	0xbd604a79	-0.054758523
48	0x3e30b17e	0.17255208
49	0x3e65e5b0	0.224509
50	0xbe047955	-0.1293691
51	0x3c290bd6	0.010317763
52	0x3e242dd8	0.16033113
53	0x3df16bcb	0.11788138
54	0xbf32877f	-0.69738
55	0xbea23ffd	-0.31689444
56	0xbee1e640	-0.4412098
57	0xbd22d7e0	-0.039756656
58	0xbed9921f	-0.42494294
59	0xbe94114d	-0.2891945
60	0x3da93764	0.08262518
61	0x3e6747d7	0.22585998
62	0xbded11b2	-0.11575641
63	0xbe9f4e2d	-0.3111433
64	0xbf1e3e4d	-0.61813813
65	0xbe31755e	-0.17329928
66	0xbf759f76	-0.95946443
67	0xbcfae281	-0.030625584
68	0xbe9093a8	-0.28237653
69	0xbe591c46	-0.21202192
70	0x3e1dee45	0.15422924
71	0xbde35112	-0.11099447
72	0x3e8d4b39	0.27596453
73	0xbf67b3ad	-0.9050854
74	0x3ec848c8	0.39118028
75	0xbeca9f18	-0.39574504
76	0xbeee3f65	-0.4653274
77	0xbe81a893	-0.25323924
78	0xbe523de6	-0.20531425
79	0x3f3e7227	0.7439293
80	0xbc6c9a09	-0.014441022
81	0xbeb3f539	-0.35148028
82	0xbee31914	-0.4435507
83	0x3e239d92	0.15978077
84	0xbf466eb7	-0.7751269
85	0xbf011f5b	-0.5043847
86	0xbdddfe66	-0.10839538
87	0xbfa0166b	-1.2506841
88	0xbde2dcad	-0.11077247
89	0xbf75e54e	-0.96053016
90	0xbd80a0bc	-0.06280658
91	0xbcb70a13	-0.022343671
92	0xbd5095f5	-0.05092426
93	0x3db57dd1	0.08861888
94	0xbec1c04f	-0.37842032
95	0xbe7389bf	-0.23783015
96	0xbf0dbdaf	-0.5536756
97	0xbdd146cb	-0.10218581
98	0xbdcade16	-0.09905641
99	0x3c8ec1b1	0.017426344
100	0xbe8ce9db	-0.27522168
101	0xbdb6ba10	-0.08922207
102	0x3d992971	0.074786074
103	0xbe1b689c	-0.15176624
104	0xbe442364	-0.19154125
105	0xbeb5aa3c	-0.3548144
106	0xbde9371b	-0.11387464
107	0xbf0308db	-0.5118539
108	0x3e50f8a4	0.20407349
109	0xbd4526d9	-0.04813275
110	0xbebf3add	-0.37349597
111	0xbde507cc	-0.11183128
112	0xbd73c81f	-0.059517022
113	0x3d4f4e2c	0.05061166
114	0xbde880e5	-0.1135271
115	0xbe894e59	-0.26817587
116	0xbe93816e	-0.28809685
117	0x3dcae0e2	0.09906174
118	0x3e1593f7	0.14607225
119	0xbebf5720	-0.3737116
120	0xbe1846ae	-0.14870712
121	0x3ea54c62	0.32284838
122	0xbcb3aeca	-0.021933932
123	0x3e2b2080	0.16711617
124	0xbf802a5e	-1.001293
125	0xbe0169bc	-0.1263799
126	0xbee6ca2c	-0.4507612
127	0xbe5052a9	-0.20344032
128	0xbf4028d3	-0.7506229
129	0xbc2a06c6	-0.0103775915
130	0xbe03b89c	-0.12863392
131	0x3e5a8a5f	0.21341847
132	0xbdc5de51	-0.09661544
133	0x3d91549b	0.07096215
134	0x3e041e68	0.12902224
135	0xbf881e0a	-1.0634167
136	0x3f981534	1.1881471
137	0xbe9f99c1	-0.31171992
138	0xbe853e65	-0.26024166
139	0x3f04327d	0.5163954
140	0xbeb6f379	-0.3573263
141	0xbf79e9f6	-0.9762262
142	0xbf22d18c	-0.63600993
143	0xbe2d30af	-0.16913103
144	0xbc615480	-0.0137530565
145	0x3ec90c4e	0.392672
146	0xbd9e200d	-0.07720957
147	0xbeacf0ff	-0.33777615
148	0x3e740a06	0.23831949
149	0xbda63a11	-0.08116544
150	0x3cf3ddd6	0.029768866
151	0xbd87d36c	-0.066321224
152	0xbe17b0c6	-0.14813527
153	0xbde7f7f2	-0.11326589
154	0xbddfe363	-0.109320424
155	0x3d858c19	0.06520862
156	0xbe138a4e	-0.14408228
157	0xbf64325f	-0.8913936
158	0x3e18555c	0.14876312
159	0x3e42c2ce	0.19019625
160	0x3e9a7acc	0.30171812
161	0x3ca3afbc	0.019981258
162	0xbeb96b65	-0.36214748
163	0xbeb886a7	-0.36040232
164	0xbe691227	-0.22760831
165	0xbf7253d5	-0.9465917
166	0x3d9f989c	0.0779278
167	0xbf3d1b94	-0.73870206
168	0x3e370a4b	0.1787502
169	0x3db821a0	0.089907885
170	0x3f641790	0.89098454
171	0x3a875a8a	0.0010326665
172	0xbf613b10	-0.8798075
173	0x3e92b737	0.28655407
174	0x3d2dc745	0.042426366
175	0xbea88ade	-0.32918447
176	0xbf53f915	-0.82801944
177	0xbe0f084e	-0.13968012
178	0xbe512340	-0.20423603
179	0x3bfcb613	0.0077121346
180	0xbea2f5c8	-0.3182814
181	0xbea7e774	-0.32793772
182	0x3daa3630	0.08311117
183	0xbf0c5d02	-0.5482942
184	0xbeb4c145	-0.35303703
185	0xbf5dfacc	-0.8671081
186	0xbd133198	-0.03593597
187	0xbe920bd3	-0.28524646
188	0x3eb5de8c	0.35521352
189	0x3e39144d	0.1807415
190	0xbf8f6c35	-1.1204897
191	0xbf8b748d	-1.0894943
192	0x3e210c16	0.15727267
193	0x3e3db294	0.18525153
194	0xbd142ae0	-0.0361737
195	0xbeffa52b	-0.499307
196	0xbec3c625	-0.3823711
197	0xbf006ae7	-0.5016312
198	0xbf235411	-0.6380015
199	0x3e203a7b	0.15647309
200	0x3ca09c7a	0.019605864
201	0xbe5f3282	-0.21796611
202	0x3db4f6c1	0.08836127
203	0xbe5fbb7a	-0.2184886
204	0xbeb9b5c5	-0.36271492
205	0xbc960b95	-0.01831607
206	0xbf1b81db	-0.6074502
207	0xbe4f5d00	-0.2025032
208	0xbd494ade	-0.049143665
209	0xbcccdd96	-0.025008004
210	0xbd9424b1	-0.07233561
211	0xbece8ad0	-0.4034028
212	0x3d47d196	0.04878386
213	0xbe3edac5	-0.18638141
214	0x3d91ebe2	0.07125069
215	0x3de5aa90	0.11214173
216	0xbe25a85c	-0.16177505
217	0xbf46193e	-0.77382267
218	0xbe94ef43	-0.29088792
219	0xbedf6da4	-0.43638337
220	0xbe0b206d	-0.13586588
221	0xbe8825ff	-0.2659149
222	0xbeb226ee	-0.34795326
223	0xbf4b759d	-0.7947634
224	0x3e5a1fc3	0.21301179
225	0xbf3f6fbb	-0.7477986
226	0xbf970955	-1.1799723
227	0xbd39240d	-0.045200396
228	0xbec63e81	-0.38719562
229	0xbe7a2a72	-0.24430254
230	0xbb17f05e	-0.0023184041
231	0xbdbe3c8c	-0.09288892
232	0x3e33dd55	0.175649
233	0xbf8b3fa1	-1.0878793
234	0xbe8d1ca3	-0.2756091
235	0xbec5a782	-0.3860436
236	0x3f29cd8c	0.66329265
237	0x3eaac841	0.33355907
238	0x3d1eb35d	0.038745273
239	0x3cae7587	0.021296276
240	0x3e8864c3	0.26639375
241	0xbe819e96	-0.25316304
242	0xbcc9224e	-0.02455249
243	0x3e8b3286	0.27186984
244	0xbd40d0bb	-0.04707406
245	0xbe3a734c	-0.18208045
246	0xbe85509a	-0.26038057
247	0xbecd0d5a	-0.4004925
248	0x3e8e7f70	0.27831602
249	0xbdea0482	-0.11426641
250	0xbf01f63e	-0.5076636
251	0xbf2289a0	-0.6349125
252	0xbe989fa1	-0.29809287
253	0x3ecd872a	0.40142184
254	0x3e52957e	0.20564839
255	0x3d3b3c6d	0.045711923

hidden_layers.1.bias f4 [256]
0	0xbe7e2687	-0.24819385
1	0xbec5ee1d	-0.3865823
2	0xbf155aa6	-0.58341444
3	0xbf519dfb	-0.81881684
4	0xbf517a54	-0.8182728
5	0xbed733c9	-0.42031696
6	0xbedafacd	-0.4276947
7	0xbf829662	-1.0202143
8	0xbf4d2e03	-0.80148333
9	0xbf12e047	-0.5737347
10	0xbea43e7f	-0.3207893
11	0xbf83e972	-1.0305617
12	0xbf484711	-0.7823344
13	0xbf65ea41	-0.8981057
14	0xbf01738b	-0.5056693
15	0xbf1da496	-0.61579263
16	0xbf8d0ebb	-1.102012
17	0xbedb22a9	-0.4279988
18	0xbf03f707	-0.5154881
19	0xbf0dffac	-0.5546825
20	0xbf10cae3	-0.5655958
21	0xbf799732	-0.9749633
22	0xbea77aba	-0.3271082
23	0xbf8639cf	-1.0486392
24	0xbf7f9475	-0.998359
25	0xbedc1d19	-0.4299095
26	0xbf86cf4d	-1.0532013
27	0xbf6d625d	-0.92728215
28	0xbf443366	-0.7664093
29	0xbf615f14	-0.880357
30	0xbf4e13e3	-0.80499095
31	0xbf84adaa	-1.0365498
32	0xbf05f077	-0.52320045
33	0xbf741c0f	-0.95355314
34	0xbe96aca3	-0.29428586
35	0xbf1e3c3e	-0.6181067
36	0xbef86ffa	-0.4852293
37	0xbef123d0	-0.47097635
38	0xbf8c3c2d	-1.0955864
39	0xbf80c75d	-1.0060841
40	0xbf4668de	-0.77503765
41	0xbf590d4b	-0.8478591
42	0xbf11a26d	-0.5688847
43	0xbf784504	-0.9698031
44	0xbf133386	-0.57500494
45	0xbe417cba	-0.18895236
46	0xbf42d751	-0.76109797
47	0xbf66f325	-0.9021476
48	0xbf343cbb	-0.7040517
49	0xbf701260	-0.9377804
50	0xbf247107	-0.64234966
51	0xbf428e2b	-0.7599818
52	0xbebfefde	-0.37487692
53	0xbf515221	-0.81765944
54	0xbf744c99	-0.9542938
55	0xbf8e6533	-1.1124634
56	0xbf4115b3	-0.75423735
57	0xbf2f266c	-0.68418
58	0xbf934c54	-1.1507668
59	0xbf0b4470	-0.544013
60	0xbf503595	-0.8133176
61	0xbf57263e	-0.8404273
62	0xbf2065fd	-0.6265562
63	0xbf71958a	-0.94368804
64	0xbe1883ab	-0.14893977
65	0xbef035d2	-0.46916062
66	0xbf934ace	-1.1507204
67	0xbf8cf50d	-1.1012284
68	0xbf0ced0a	-0.5504919
69	0xbec8319f	-0.39100358
70	0xbf65f3e7	-0.8982529
71	0xbf25038a	-0.64458525
72	0xbf36a527	-0.7134575
73	0xbece38f1	-0.40277818
74	0xbf866e36	-1.0502384
75	0xbf69cebd	-0.9133108
76	0xbf704b0b	-0.93864506
77	0xbf063c0f	-0.5243539
78	0xbf214ea0	-0.630106
79	0xbf80913d	-1.0044323
80	0xbf4765ac	-0.77889514
81	0xbf77df98	-0.9682555
82	0xbf7153b0	-0.9426832
83	0xbf616230	-0.8804045
84	0xbefd521c	-0.49476707
85	0xbf12e27f	-0.57376856
86	0xbf5a7165	-0.85329276
87	0xbf3ea991	-0.7447749
88	0xbf3a9cdd	-0.72895604
89	0xbf5780ef	-0.8418111
90	0xbf2b1c7b	-0.6684033
91	0xbf615ccb	-0.88032216
92	0xbf8f70a2	-1.1206248
93	0xbeeed3ef	-0.46646068
94	0xbef619a1	-0.48066428
95	0xbf3d9c95	-0.7406705
96	0xbf160b07	-0.58610576
97	0xbece89bd	-0.4033946
98	0xbf92e01a	-1.147464
99	0xbeff0073	-0.4980503
100	0xbf2aed83	-0.66768664
101	0xbee15ffa	-0.44018537
102	0xbf4c8221	-0.7988606
103	0xbf6b96b0	-0.92026806
104	0xbf801941	-1.0007707
105	0xbf510d6e	-0.8166112
106	0xbf3dab69	-0.74089676
107	0xbf41beaa	-0.75681555
108	0xbf0f3a49	-0.5594831
109	0xbf752309	-0.95756584
110	0xbf190f13	-0.59788626
111	0xbef4e41d	-0.47830287
112	0xbf99e1c4	-1.2022023
113	0xbf1547d1	-0.5831271
114	0xbf455edf	-0.77097887
115	0xbf7d3afc	-0.9891813
116	0xbef98396	-0.48733205
117	0xbe93ae96	-0.28844136
118	0xbe31c21e	-0.17359206
119	0xbf75a84d	-0.9595993
120	0xbf4968a6	-0.78675306
121	0xbf0cbbb6	-0.54973924
122	0xbf7f5bdc	-0.9974954
123	0xbf25ace7	-0.64716953
124	0xbf67d356	-0.9055685
125	0xbf30a482	-0.6900102
126	0xbf757ac1	-0.9589043
127	0xbf70e570	-0.94100094
128	0xbf2954c3	-0.6614496
129	0xbebab1ae	-0.36463684
130	0xbf9381a8	-1.1523943
131	0xbf58cc45	-0.8468669
132	0xbf499b0b	-0.787522
133	0xbf87b1a4	-1.0601087
134	0xbf8a3fa5	-1.0800673
135	0xbf660b76	-0.8986124
136	0xbf89a3fe	-1.0753171
137	0xbea7a570	-0.32743406
138	0xbe9d5c5a	-0.3073452
139	0xbeee0cc8	-0.46494126
140	0xbf67a5d6	-0.9048742
141	0xbefc3a14	-0.4926306
142	0xbf3e3848	-0.7430463
143	0xbf542438	-0.82867765
144	0xbf134608	-0.57528734
145	0xbf70a46d	-0.94000894
146	0xbe47231f	-0.19446991
147	0xbf4f300d	-0.80932695
148	0xbf31634d	-0.69292146
149	0xbf29b0c8	-0.6628537
150	0xbf7ae8a9	-0.9801126
151	0xbf92a928	-1.1457872
152	0xbf03e5fd	-0.5152281
153	0xbf8b1e2a	-1.086858
154	0xbf2937c0	-0.6610069
155	0xbf772f14	-0.9655621
156	0xbf2dd2c3	-0.6789972
157	0xbeae1c6d	-0.34006062
158	0xbf4ae3c2	-0.7925378
159	0xbf6c7faa	-0.923823
160	0xbf06e297	-0.526895
161	0xbf558ef5	-0.8342126
162	0xbf55579e	-0.8333682
163	0xbf4b7a5f	-0.794836
164	0xbf8814b8	-1.0631323
165	0xbf501167	-0.81276554
166	0xbf6d9301	-0.92802435
167	0xbf63a886	-0.8892902
168	0xbefbe88d	-0.4920086
169	0xbf80e9dc	-1.0071368
170	0xbf636981	-0.8883286
171	0xbf605fb4	-0.8764603
172	0xbefa93eb	-0.48940977
173	0xbf82ce32	-1.0219176
174	0xbf3353d4	-0.70049787
175	0xbf8321a3	-1.024464
176	0xbef24e10	-0.47325182
177	0xbf0d9681	-0.55307776
178	0xbf25b370	-0.64726925
179	0xbf62ec0c	-0.8864143
180	0xbf7a9920	-0.978899
181	0xbef5f65e	-0.48039526
182	0xbee416d7	-0.44548675
183	0xbf2dfd3d	-0.67964536
184	0xbf03220e	-0.5122384
185	0xbecc6170	-0.3991809
186	0xbee4bdeb	-0.44676146
187	0xbe8e78a0	-0.27826405
188	0xbeb2b906	-0.34906787
189	0xbf722508	-0.94587755
190	0xbf8d5e27	-1.1044358
191	0xbf2295b4	-0.6350968
192	0xbef866e7	-0.48516008
193	0xbf6c7cac	-0.92377734
194	0xbf790370	-0.9727087
195	0xbf860cb2	-1.0472624
196	0xbf2c57ec	-0.6732166
197	0xbf06317c	-0.5241926
198	0xbf4b3f45	-0.79393417
199	0xbf3c3fbd	-0.73534757
200	0xbeec9190	-0.46204805
201	0xbe2c6c7b	-0.16838257
202	0xbeebe4a7	-0.46072885
203	0xbf9439b8	-1.1580114
204	0xbe8ca9cc	-0.27473295
205	0xbea25cfa	-0.3171156
206	0xbf61f432	-0.8826324
207	0xbf5c1442	-0.8596841
208	0xbed45c63	-0.41476735
209	0xbf159794	-0.58434415
210	0xbf25dd10	-0.6479044
211	0xbeb2fa44	-0.34956563
212	0xbeffc6c2	-0.49956328
213	0xbf5dc960	-0.866354
214	0xbf810bec	-1.0081763
215	0xbf7176b5	-0.9432176
216	0xbf992dbc	-1.1967082
217	0xbf8438a2	-1.0329783
218	0xbf0c7af2	-0.548751
219	0xbf74272a	-0.9537226
220	0xbf0d391a	-0.55165255
221	0xbf7d9a2b	-0.99063367
222	0xbe9ed411	-0.3102117
223	0xbf0333fd	-0.512512
224	0xbf805076	-1.0024555
225	0xbf494184	-0.78615594
226	0xbf9ddec3	-1.2333606
227	0xbf4944fa	-0.78620875
228	0xbf3b93f5	-0.7327264
229	0xbed99c6f	-0.42502162
230	0xbf504e64	-0.81369615
231	0xbf8f8622	-1.1212809
232	0xbf49fac4	-0.7889826
233	0xbf65a0b5	-0.89698344
234	0xbf59b957	-0.8504843
235	0xbf81e221	-1.0147134
236	0xbeb26483	-0.3484231
237	0xbf140ed3	-0.5783512
238	0xbf02355d	-0.50862676
239	0xbf98216a	-1.1885197
240	0xbf800803	-1.0002445
241	0xbf831292	-1.0240042
242	0xbf82d4a6	-1.0221145
243	0xbf4cb43d	-0.7996252
244	0xbf1f6168	-0.62258005
245	0xbf5aafa4	-0.85424256
246	0xbf61bcf7	-0.8817896
247	0xbf7a8938	-0.9786563
248	0xbf1a5400	-0.60284424
249	0xbedf5c6c	-0.436252
250	0xbf7f8944	-0.99818826
251	0xbe4f6be3	-0.20256
252	0xbf5edb25	-0.8705314
253	0xbea3e96d	-0.32014027
254	0xbeeb5d07	-0.45969412
255	0xbf157c8d	-0.58393174

output_layers.0.weight f4 [40, 256]
0	0x3b0189a4	0.0019765878
1	0x3cfe233f	0.031022666
2	0xbe2931d6	-0.16522917
3	0x3ea2598f	0.31708953
4	0x3d7b8b2b	0.061412018
5	0x3e913049	0.2835715
6	0xbd6b57c2	-0.05745674
7	0x3d715b60	0.058925033
8	0xbcd4060a	-0.025881786
9	0xbd9e6bea	-0.07735427
10	0xbeb52594	-0.35380232
11	0xbd248c89	-0.040173087
12	0xbd269f3d	-0.040679205
13	0x3e4e7e7d	0.20165439
14	0xbe757722	-0.23971227
15	0xbe32c5e0	-0.17458296
16	0xbd52aa34	-0.05143185
17	0xbd8e38b4	-0.06944409
18	0x3ec0f043	0.37683305
19	0xbc5f018f	-0.013611211
20	0xbe2accae	-0.16679642
21	0x3e39d28a	0.1814672
22	0xbc34230c	-0.010994684
23	0x3d0fd178	0.035111874
24	0x3c4b2032	0.012397813
25	0xbd940f3f	-0.072294705
26	0x3db2b7e5	0.08726481
27	0x3e1a9040	0.1509409
28	0x3d9656e8	0.07340795
29	0x3e3171dc	0.1732859
30	0x3dc0a75b	0.094069205
31	0x3da59705	0.08085445
32	0xbe16cbd5	-0.14726193
33	0x3c19ea53	0.009394246
34	0x3e410796	0.1885055
35	0x3e4aec48	0.19816697
36	0xbf45096d	-0.7696751
37	0x3ea57ca6	0.32321662
38	0x3ca9581a	0.020671893
39	0xbd1232f3	-0.03569312
40	0xbeb78692	-0.35844857
41	0xbea4a663	-0.32158193
42	0x3eb04bc4	0.34432805
43	0xbd0e7cd8	-0.03478703
44	0xbe3798e9	-0.17929424
45	0xbf0d2584	-0.5513537
46	0x3dddb948	0.10826355
47	0x3cbc8b2e	0.023015585
48	0xbe916512	-0.28397423
49	0xbdac0818	-0.08399981
50	0xbe5af62f	-0.21382974
51	0x3e8f9a36	0.2804734
52	0xbe1803fb	-0.14845268
53	0x3d63c471	0.055607263
54	0x3de5ed0c	0.11226854
55	0x3e2e09b6	0.16995892
56	0xbe9ac548	-0.3022864
57	0x3e55aac3	0.20865922
58	0x3d796a68	0.060892493
59	0xbda7fc3b	-0.08202406
60	0x3e65b5fd	0.22432704
61	0x3ddff04f	0.10934507
62	0xbd91b3ff	-0.0711441
63	0xbd13bdd1	-0.036069695
64	0x3e74655a	0.23866788
65	0xbdffb9ad	-0.12486587
66	0x3cff47f4	0.03116224
67	0x3db245a3	0.087046884
68	0xbf2552cf	-0.6457948
69	0x3e7af6f3	0.24508266
70	0xbda61e14	-0.08111206
71	0xbf54606d	-0.82959634
72	0x3f061699	0.5237823
73	0xbda79e80	-0.08184528
74	0xbe3ee9f6	-0.18643937
75	0xbe083955	-0.1330312
76	0x3d9c0172	0.07617463
77	0xbda9adc2	-0.08285095
78	0xbde559a5	-0.11198739
79	0x3d325f74	0.043548062
80	0xbd917147	-0.07101684
81	0x3d99bba0	0.0750649
82	0x3dc49788	0.09599215
83	0x3ca7cc8a	0.020483274
84	0xbd7020b4	-0.058624938
85	0x3c86eaca	0.016469378
86	0x3ce72a11	0.028218301
87	0x3e6510ea	0.22369733
88	0xbd17e908	-0.03708747
89	0x3d96e4b4	0.073678404
90	0xbde0c8af	-0.10975777
91	0x3db6756e	0.08909117
92	0xbb52ae64	-0.0032147402
93	0x3f0f3327	0.5593743
94	0x3e949b8b	0.2902492
95	0xbf10e4ba	-0.5659901
96	0x3ea1d58d	0.3160824
97	0xbe284b9e	-0.16435096
98	0x3d0fd1b8	0.035112113
99	0x3db37cf0	0.08764064
100	0xbcf62e99	-0.030051516
101	0xbd501bfe	-0.050807945
102	0xbf30c800	-0.69055176
103	0x3c8b3c7a	0.01699661
104	0x3d1f2b56	0.038859688
105	0x3e2a1c8e	0.16612455
106	0x3e42a354	0.19007617
107	0xbe1397b2	-0.14413336
108	0x3c38b38a	0.011273274
109	0xbc45062f	-0.0120254
110	0xbe052aa7	-0.13004552
111	0xbdceb49f	-0.100930445
112	0xbccabf97	-0.02474956
113	0x3ed2829f	0.4111528
114	0xbeb59ddb	-0.35471997
115	0x3d65398c	0.055963084
116	0xbe4c8b8e	-0.19975111
117	0xbe056375	-0.13026221
118	0xbe0272c1	-0.12739088
119	0x3cc19a08	0.023633018
120	0x3e7b12d7	0.24518906
121	0xbf0b160e	-0.5433053
122	0xbd864cb6	-0.065576
123	0xbc9cdded	-0.019148791
124	0x3e70369a	0.23458329
125	0xbe71a2af	-0.23597215
126	0x3e069a94	0.13144904
127	0x3e3f1c3f	0.18663119
128	0x3d894283	0.06702139
129	0x3d8cc5e1	0.0687368
130	0x3dfa6739	0.122267194
131	0x3e5a9270	0.21344924
132	0x3eab5349	0.3346198
133	0x3d114a1e	0.035471074
134	0x3c5e4063	0.013565156
135	0xbdc7a5f6	-0.097484514
136	0x3db8535a	0.09000273
137	0xbf42dd13	-0.7611858
138	0xbe6361bb	-0.2220525
139	0xbee4addb	-0.4466389
140	0xba99dd3d	-0.0011738908
141	0xbe8bf200	-0.2733307
142	0x3d5a0976	0.05323168
143	0x3e250cb7	0.16118132
144	0xbe44181c	-0.19149822
145	0x3d9914bc	0.07474658
146	0xbf091257	-0.5354361
147	0xbeb3fd2f	-0.351541
148	0xbecfdfdc	-0.4060048
149	0x3be6e26b	0.007046034
150	0x3b853e54	0.004066268
151	0xbd51f030	-0.05125445
152	0xbc4a69fd	-0.012354371
153	0xbd10f59c	-0.03539048
154	0xbf6a8117	-0.91603225
155	0x3e4e6b9f	0.20158242
156	0x3da20c38	0.07912487
157	0xbf92cceb	-1.1468786
158	0xbc95a357	-0.018266363
159	0xbc8ae231	-0.01695356
160	0x3c3f68d1	0.011682705
161	0x3e0a7665	0.13521726
162	0xbd6e88f8	-0.058236092
163	0xbe5e56ed	-0.21712847
164	0x3d062a5b	0.032755237
165	0x3d041099	0.03224239
166	0x3c1327c1	0.008981646
167	0x3b7c0222	0.003845342
168	0x3e920369	0.28518227
169	0x3d84bad9	0.06480951
170	0x3e772c2e	0.24137947
171	0x3cdee384	0.027208097
172	0xbdad36fe	-0.084577546
173	0x3dd4eb16	0.103964016
174	0x3ecf2aa9	0.40462235
175	0x3daa850c	0.08326158
176	0x3eb9e4fc	0.36307514
177	0xbdfe47af	-0.12416016
178	0x3ea20af5	0.31648985
179	0x3eeaf207	0.45887777
180	0x3cd61b30	0.02613601
181	0xbd76eaa5	-0.06028237
182	0xbd76733c	-0.06016849
183	0x3e571c3c	0.21006864
184	0xbe1e4309	-0.1545526
185	0xbf50b198	-0.81520987
186	0x3e756adb	0.23966543
187	0x3f0c888a	0.5489584
188	0x3e82ba03	0.2553254
189	0x3dc9d911	0.09855855
190	0x3d8b3871	0.06797875
191	0x3f3d0553	0.7383625
192	0xbe91d91e	-0.2848596
193	0x3e1b4432	0.15162733
194	0xbd47eccf	-0.048809823
195	0x3dac075a	0.0839984
196	0xbf4d5c5d	-0.8021906
197	0xbe16290f	-0.146641
198	0x3e706270	0.23475051
199	0xbef6234f	-0.48073813
200	0xbc6e6e0e	-0.014552606
201	0x3f16a9b7	0.58852714
202	0x3da4fdb4	0.080562025
203	0x3d7e7582	0.062123783
204	0xbe205207	-0.15656291
205	0x3f21cddf	0.6320476
206	0x3a0d00be	0.0005378834
207	0x3e36f82b	0.17868106
208	0x3d23ecaa	0.040020622
209	0xbda9c136	-0.08288805
210	0x3e1141e0	0.14185286
211	0xbe07b369	-0.13252033
212	0x3e4d5993	0.20053701
213	0xb8fe7967	-0.00012134277
214	0x3e047d3f	0.12938403
215	0x3cc494ab	0.023996672
216	0xbe44b20d	-0.19208546
217	0x3d984a14	0.07436004
218	0x3ebb468a	0.36577255
219	0x3c100dd1	0.008792357
220	0xbecce440	-0.4001789
221	0xbe557232	-0.20844343
222	0x3e6b235c	0.22962707
223	0xbe2c7526	-0.16841564
224	0xbbb630a4	-0.0055599976
225	0x3e8d4658	0.2759273
226	0x3d2f2dcc	0.042768285
227	0x3b9efc0c	0.0048518237
228	0x3c40f3e1	0.011776895
229	0xbe365be4	-0.17808491
230	0xbe2b8e45	-0.1675349
231	0xbd88775a	-0.066633895
232	0x3e8eca94	0.2788893
233	0xbd3d49ec	-0.046213076
234	0xbd8659f4	-0.06560126
235	0x3bf770cb	0.0075512878
236	0x3da76929	0.081743546
237	0xbce21ecb	-0.027602574
238	0xbf2d0489	-0.67585045
239	0x3ca957ca	0.020671744
240	0x3d913dbc	0.07091853
241	0xbc33a6cc	-0.01096506
242	0x3e294fbe	0.16534325
243	0x3d052b87	0.032512214
244	0xbeb4fdff	-0.35350034
245	0xbecbf025	-0.39831653
246	0xbe0efd65	-0.1396385
247	0x3d356517	0.04428586
248	0x3dbacfa5	0.09121636
249	0xbe13074f	-0.14358257
250	0x3e2a9a3c	0.16660398
251	0xbe63de34	-0.22252733
252	0xbd8198d1	-0.063279755
253	0x3ed08961	0.40729812
254	0xbf2a8487	-0.6660847
255	0x3f10c218	0.56546164

output_layers.0.bias f4 [40]
0	0xbde5ceac	-0.1122106
1	0x3f902273	1.1260513
2	0xbe1484d3	-0.14503793
3	0xbd8be27a	-0.06830306
4	0x3f883185	1.0640112
5	0x3f85a1cd	1.0440003
6	0x3f5809ab	0.8438975
7	0xbe1a2b23	-0.15055518
8	0x3f922eb1	1.1420499
9	0x3f850add	1.039394
10	0x3f3ff9af	0.7499036
11	0x3e758322	0.23975804
12	0x3f4c336a	0.7976595
13	0x3f64d7fc	0.89392066
14	0x3f7efc7f	0.9960403
15	0x3f592dc6	0.8483547
16	0x3f9472b9	1.159751
17	0x3f6ce310	0.9253397
18	0x3f5ab374	0.85430074
19	0x3f97356c	1.1813178
20	0x3f7ce1e5	0.9878219
21	0x3f40d5d3	0.7532627
22	0x3f5be8f0	0.8590231
23	0x3f6e79ac	0.93154407
24	0x3f8de3d7	1.1085156
25	0x3f549561	0.83040434
26	0x3f3f92ea	0.7483355
27	0x3f72f1c4	0.94900155
28	0x3f9c9130	1.2231808
29	0x3ea464e4	0.32108223
30	0x3f694cb0	0.9113264
31	0x3f56c064	0.83887315
32	0x3f865e30	1.0497494
33	0x3d2b304b	0.041794103
34	0x3f527c10	0.82220554
35	0x3f5f67ea	0.87267935
36	0xbd3e6420	-0.046482205
37	0xbc6933d8	-0.014233552
38	0x3d1f5a64	0.038904563
39	0x3f86ba28	1.052556
