MODELS/EXTENSIVE TRAINING/SAC EXTENSIVE TRAINING MODELS/SET 1/6_5_actor_local_network_10_1.pt (torch, 411391 bytes, 6 tensors)

hidden_layers.0.weight f4 [256, 101]
0.09563283 -0.16510934 0.18487081 0.019679133 -0.12519997 -0.22097567 -0.01221025 -0.04615275
-0.09788486 -0.032721594 -0.06032685 0.01222297 0.5206728 -0.22351089 -0.15100034 -0.25620112
-0.3100183 -0.24280997 0.029319488 0.054332275 -0.23737176 0.24916391 1.5670272 0.41225192
0.018279558 -0.06615471 -0.06015206 -0.10858167 -0.1133374 -0.0536794 -0.02703043 -2.3997922
-1.5734754 0.5634617 0.22267638 -0.04473006 -0.010046677 -0.040610243 -0.18737917 0.11255229
-0.09981061 -6.0541267 -10.002661 -2.874567 -0.5044763 -0.45394737 -0.24618399 0.074791074
0.11400198 0.11790383 -0.2105337 -3.238961 -2.5184078 4.693272 -0.07158275 -0.34886602
-0.08739946 0.00024349107 0.14412762 0.09670255 0.3428244 0.25729257 0.6840948 1.1389705
-0.72562015 -0.020769782 -0.12703036 -0.02215864 -0.13027935 0.1478612 0.06597295 0.91681534
0.4763818 0.12964873 -0.0988798 -0.04441085 -0.12273437 0.009627243 0.052565835 0.061130457
-0.1181736 0.4680997 0.42746502 0.30024502 -0.28657174 -0.13132684 -0.14592873 -0.08802994
-0.15851873 0.027371809 -0.07783042 -0.35114035 0.5489235 0.4906797 -0.15006614 -0.281414
0.017597968 -0.09706976 0.04892784 0.026976578 0.02631034 -0.09750381 0.088509426 -0.15196918
0.22086293 1.3168122 -0.26303685 -0.23001952 -0.34116173 -0.09571974 -0.18415435 -0.17931134
0.102014266 -0.1308044 -0.5265983 0.7810381 -0.10121681 -0.105539754 -0.102372825 -0.14076531
-0.020094033 -0.07979756 -2.965095 -0.9038512 -0.8328641 -0.75933444 -1.0246341 0.1835333
-0.45794556 -0.36874098 -0.20567194 -0.039681148 -5.4235992 -10.266177 -9.686463 -0.46319818
-0.13952854 -0.16808198 -0.26124743 -0.53021055 -0.002566356 0.15525317 -5.142635 -8.319341
-2.732782 1.1866724 -0.21049593 -0.021661095 -0.21971452 -0.03812025 -0.20496076 -0.067436054
-0.1568866 0.66491044 0.420153 1.063827 -0.40619728 -0.15546928 -0.2657122 -0.33716652
0.021538839 0.005678898 0.41458213 -0.10252809 -0.022801442 1.1482649 -0.8118528 -0.41528225
-0.14317782 0.0013193274 0.016344976 0.18298839 0.53907317 0.24559271 -0.5418257 0.52672005
-0.14538766 -0.55271554 -0.22311842 -0.4582435 -0.034905672 0.28485733 0.3630627 -0.42377105
-0.45256793 1.0718318 -0.8681483 -0.11265809 -0.30809343 0.13444886 0.04914002 0.07173385
0.23649019 -0.2799013 -0.40918332 1.2653757 -0.6980414 -0.32611316 -0.12139185 -0.13889769
-0.027215332 -0.019145295 -0.06260246 0.41829023 0.41617697 0.23070906 0.14303115 0.07768899
-0.1393821 -0.045284837 0.99556434 0.09886581 -0.33761734 0.38646927 0.52102244 -0.615391
-0.1768856 -0.017164625 -0.17071442 -0.0722767 0.87156576 -0.044341106 -0.00032891321 0.161288
0.7044676 0.24726634 0.23258205 0.09914455 -0.07221814 -0.20874766 1.1320966 -0.054018635
0.02204276 0.7131533 0.11901705 0.5965573 0.29064235 -0.26084325 -0.23042694 0.12951912
0.5057077 -0.25665826 -0.09730221 0.46180654 0.41009867 -0.051887996 -0.1586012 -0.24364783
-0.37212455 -0.28718656 0.6271905 -0.18655916 0.09761047 0.41430712 0.14155018 0.08707116
00000000: 25db c33d 6c12 29be c64e 3d3e 2236 a13c
00000010: 6c34 00be 7247 62be 800d 48bc aa0a 3dbd
00000020: dc77 c8bd 1407 06bd 4919 77bd da42 483c
00000030: d04a 053f 0ae0 64be d59f 1abe cb2c 83be
00000040: b8ba 9ebe 2da3 78be 6c2f f03c 858b 5e3d
00000050: 9511 73be d324 7f3e 5994 c83f af12 d33e
00000060: 03bf 953c 1f7c 87bd 0262 76bd 1160 debd
00000070: 701d e8bd eede 5bbd ec6e ddbc 3296 19c0
00000080: a467 c9bf 073f 103f 4705 643e de36 37bd
00000090: d19a 24bc ed56 26bd 53e0 3fbe d181 e63d
000000a0: 8169 ccbd 68bb c1c0 e60a 20c1 e8f8 37c0
000000b0: 5c25 01bf ca6b e8be a817 7cbe 102c 993d
000000c0: df79 e93d 9077 f13d 2596 57be 234b 4fc0
000000d0: 982d 21c0 492f 9640 fa99 92bd 919e b2be
000000e0: 7dfe b2bd a351 7f39 3196 133e fd0b c63d
000000f0: ae86 af3e dabb 833e d620 2f3f c9c9 913f
00000100: 3ec2 39bf 6425 aabc 3f14 02be 0986 b5bc
00000110: f367 05be ed68 173e d31c 873d 69b4 6a3f
00000120: 51e8 f33e a3c2 043e 7e81 cabd 27e8 35bd
00000130: 285c fbbd 95bb 1d3c 464f 573d ee63 7a3d
00000140: 0005 f2bd c4aa ef3e b2dc da3e b7b9 993e
00000150: 88b9 92be 8b7a 06be 576e 15be 0b49 b4bd
00000160: bc52 22be d83a e03c 8e65 9fbd abc8 b3be
00000170: 4086 0c3f 5f3a fb3e f0aa 19be 7f15 90be
00000180: 9d29 903c 83cc c6bd 8f68 483d fcfd dc3c
00000190: c888 d73c 14b0 c7bd 6e44 b53d cf9d 1bbe
000001a0: e429 623e 4d8d a83f c4ac 86be 3d8a 6bbe
000001b0: c0ac aebe b608 c4bd f592 3cbe 649d 37be
000001c0: dbec d03d 97f1 05be 25cf 06bf 1df2 473f
000001d0: c24a cfbd 3a25 d8bd d8a8 d1bd c824 10be
000001e0: 3e9c a4bc e76c a3bd 1ec4 3dc0 cb62 67bf
000001f0: 9536 55bf be63 42bf 3627 83bf 27f0 3b3e
00000200: d777 eabe 9ecb bcbe aa9b 52be b388 22bd
00000210: 208e adc0 4342 24c1 c1fb 1ac1 5028 edbe
00000220: 92e0 0ebe af1d 2cbe 39c2 85be e1bb 07bf
00000230: 4f30 28bb b0fa 1e3e 7790 a4c0 051c 05c1
00000240: e6e5 2ec0 e2e4 973f 3f8c 57be 9c72 b1bc
00000250: d8fc 60be fb23 1cbd 3ce1 51be ea1b 8abd
00000260: e2a6 20be 9237 2a3f 4b1e d73e 7c2b 883f
00000270: 17f9 cfbe 5733 1fbe 6e0b 88be 17a1 acbe
00000280: 3872 b03c 0d16 ba3b 1c44 d43e 3ffa d1bd
00000290: 17ca babc 58fa 923f 96d5 4fbf e09f d4be
000002a0: 359d 12be 48ed ac3a e6e5 853c 4f61 3b3e
000002b0: b300 0a3f a87c 7b3e 17b5 0abf 20d7 063f
000002c0: 81e0 14be c47e 0dbf 2879 64be e49e eabe
000002d0: 40f9 0ebd d2d8 913e 5be3 b93e 85f8 d8be
000002e0: fcb6 e7be c931 893f f83e 5ebf 49b9 e6bd
000002f0: 6cbe 9dbe f6ac 093e 0c47 493d 32e9 923d
00000300: 7c2a 723e 394f 8fbe 7a80 d1be d5f7 a13f
00000310: d7b2 32bf 4ef8 a6be 4a9c f8bd 323b 0ebe
00000320: b0f2 debc 98d6 9cbc b835 80bd 232a d63e
00000330: 2615 d53e ff3e 6c3e c276 123e 681b 9f3d
00000340: 2eba 0ebe 987c 39bd 4edd 7e3f 287a ca3d
00000350: 2edc acbe 4ddf c53e ba61 053f 448a 1dbf
00000360: 8021 35be d49c 8cbc c3cf 2ebe ce05 94bd
00000370: ef1e 5f3f 059f 35bd fc71 acb9 ae28 253e
00000380: fd57 343f 6333 7d3e fd29 6e3e 4c0c cb3d
00000390: 1be7 93bd f2c1 55be 8be8 903f a542 5dbd
000003a0: 0593 b43c 3791 363f 36bf f33d fbb7 183f
000003b0: 13cf 943e 3f8d 85be 0af5 6bbe a9a0 043e
000003c0: 0f76 013f b668 83be 6246 c7bd e871 ec3e
000003d0: 74f8 d13e 8288 54bd 5a68 22be d17e 79be
000003e0: 1c87 bebe 1e0a 93be 8e8f 203f 5d09 3fbe
000003f0: 00e8 c73d 1020 d43e 88f2 103e 5d52 b23d

hidden_layers.0.bias f4 [256]
-2.429535 -0.73750865 -4.1018343 -0.7267057 -8.471436 -1.6053671 -1.2118971 -4.8028955
-0.4795757 -0.2549582 -0.39680058 -0.59840524 -11.193826 -0.657332 0.100899145 -0.24260527
-0.2705926 -3.1622927 -0.72233063 -0.47271195 -0.38941723 -0.33567303 -2.339344 -0.28818774
-0.53212935 -1.1753765 -0.7053153 -4.2951016 -1.2142262 -1.1147621 -4.5123754 -0.23658955
-1.3689458 0.007719501 0.15482771 -0.7633046 0.24022835 -3.559546 -3.231172 -0.42260543
-1.2399225 -2.7342978 -0.07759226 -3.1418326 -0.7717976 -3.0301607 -1.6193119 -3.6898878
-0.88985795 -1.0100969 -5.196261 -5.3140535 -3.379654 -2.972521 -5.3457227 -0.096226975
-0.70318633 -0.06615615 -3.949968 -0.89872456 0.12815799 -0.40067548 -0.8327075 -1.4730686
-0.24080758 -2.2840688 0.33117625 -5.7891865 -1.3692147 -0.30508423 -0.215947 -0.2339778
-0.9100047 -11.824841 -0.59667224 -2.536049 -0.59557116 -0.5665476 -0.35205257 -1.0042183
-0.93679154 -15.099243 -2.6015584 -0.57704365 -0.8482178 -0.9899266 -0.84225166 -8.896346
0.13974364 -10.595594 -1.5332655 -1.8981526 -1.0004792 -2.7780395 0.2831676 -11.142222
-0.77056456 -0.716988 -2.7166598 -3.324421 0.31801036 -2.5958476 -1.4710445 -1.487824
-18.109426 -0.9726147 -8.983045 -1.9537377 -0.9766424 -6.017872 -3.4686103 -1.0194993
-12.443915 -9.390496 0.114594944 -1.1827073 -3.5566585 -0.6896131 -0.51822543 -1.1104563
-2.3643327 -6.680791 -0.40362048 -0.36503032 -18.744215 -0.39352864 -0.21694364 -0.77562904
-0.16373505 -3.3689072 -1.18902 -8.946381 -0.12068007 -0.061010543 -14.0098505 -1.9329938
-1.0627798 -0.1644309 -0.23000172 0.34495965 0.116662525 -2.0971477 -0.18632136 -1.5542991
0.3633442 -2.375782 -0.11370445 -0.67882544 -1.5092807 -1.1749378 -2.0997562 -0.37796116
-1.6529516 -0.034213495 -8.893618 -1.194728 -0.41874436 -19.288898 -1.0245183 0.2638589
-4.973623 -0.77638704 -11.43291 -2.0021207 -0.21940644 -2.9382403 -3.247775 -2.4773526
-1.2602788 -17.630728 -4.1292343 -2.0721629 -0.6260524 0.41292346 -0.3307056 -7.1092987
-0.08821447 -0.099912755 -9.825057 -0.26214224 -1.1269267 -0.29603025 -0.26226652 -1.1361457
-0.23361404 -1.0084751 0.08293325 -1.7286444 -0.6581612 -4.635903 0.013214362 -1.4633821
-2.2975006 -1.1585795 -8.683242 -2.7297926 -0.58922446 -0.6775907 -0.3803734 -0.85607576
-0.28394216 -0.33193114 0.49508953 -0.75626594 -1.6598638 -4.342071 -4.3648076 -0.64405936
-0.081603274 -0.68759567 -4.12985 -0.14956091 -1.3202983 -2.6156409 -0.59735596 -1.1643562
-0.045688644 0.29848242 -0.24661595 -0.33042148 0.61004657 -1.108661 -2.3036377 -0.91579735
0.20139645 -1.755258 -6.3200006 -1.756672 -1.9291925 -2.5320508 -0.67175615 -1.5416055
-2.0688858 -0.08588355 -0.73992544 -1.0978379 -0.67321306 -1.3782296 -0.44716418 -2.3189383
-2.1531477 -0.8048526 -3.2004762 -0.93020004 0.24174751 -1.1112868 0.15989202 -0.14910747
-0.22290756 -9.691225 -0.19624029 -1.2470722 -2.6178646 -0.22663909 -3.4296567 -0.053619407
00000000: 807d 1bc0 5ecd 3cbf 3a42 83c0 6209 3abf
00000010: 008b 07c1 ab7c cdbf 721f 9bbf 52b1 99c0
00000020: f28a f5be e289 82be 7229 cbbe 1631 19bf
00000030: e919 33c1 e946 28bf 36a4 ce3d 846d 78be
00000040: 1d8b 8abe 0163 4ac0 a9ea 38bf 4d07 f2be
00000050: b261 c7be 56dd abbe d0b7 15c0 588d 93be
00000060: a139 08bf bd72 96bf 8b8f 34bf 7971 89c0
00000070: c46b 9bbf 86b0 8ebf 6165 90c0 8844 72be
00000080: 9e39 afbf def3 fc3b 288b 1e3e ee67 43bf
00000090: 6cfe 753e 9acf 63c0 86cb 4ec0 bd5f d8be
000000a0: c8b5 9ebf bcfe 2ec0 b1e8 9ebd c913 49c0
000000b0: 8794 45bf 27ee 41c0 9d45 cfbf 1f27 6cc0
000000c0: bbcd 63bf db4a 81bf c547 a6c0 ba0c aac0
000000d0: 404c 58c0 c93d 3ec0 2910 abc0 a612 c5bd
000000e0: 0504 34bf e07c 87bd 47cc 7cc0 d012 66bf
000000f0: d93b 033e 5625 cdbe 522c 55bf 838d bcbf
00000100: 4396 76be 2f2e 12c0 ef8f a93e 0441 b9c0
00000110: 6d42 afbf 0034 9cbe 3621 5dbe e097 6fbe
00000120: 11f6 68bf 8c32 3dc1 83bf 18bf a04e 22c0
00000130: 5a77 18bf 4309 11bf 3c40 b4be 3a8a 80bf
00000140: 92d1 6fbf 8096 71c1 ef7f 26c0 22b9 13bf
00000150: cd24 59bf d46b 7dbf ce9d 57bf 6f57 0ec1
00000160: f518 0f3e 8e87 29c1 0b42 c4bf aaf6 f2bf
00000170: b40f 80bf 66cb 31c0 58fb 903e 8b46 32c1
00000180: b843 45bf 878c 37bf c1dd 2dc0 50c3 54c0
00000190: 41d2 a23e 5e22 26c0 304b bcbf 0471 bebf
000001a0: 1be0 90c1 47fd 78bf 8dba 0fc1 1414 fabf
000001b0: 3c05 7abf 6892 c0c0 b6fd 5dc0 f47e 82bf
000001c0: 471a 47c1 793f 16c1 c1b0 ea3d f462 97bf
000001d0: 4ba0 63c0 7c8a 30bf 6caa 04bf 6f23 8ebf
000001e0: 3a51 17c0 0ac9 d5c0 58a7 cebe 41e5 babe
000001f0: 27f4 95c1 967c c9be 7926 5ebe a08f 46bf
00000200: 29aa 27be 2d9c 57c0 cf31 98bf 6024 0fc1
00000210: 1d27 f7bd 31e6 79bd 5928 60c1 576c f7bf
00000220: 2b09 88bf 9360 28be 9285 6bbe 8d9e b03e
00000230: c3ec ee3d ab37 06c0 07cb 3ebe 46f3 c6bf
00000240: 4008 ba3e d00c 18c0 e1dd e8bd 81c7 2dbf
00000250: 1c30 c1bf 5d64 96bf 6862 06c0 2084 c1be
00000260: eb93 d3bf 7323 0cbd 424c 0ec1 d9ec 98bf
00000270: a965 d6be aa4f 9ac1 6a23 83bf 8418 873e
00000280: eb27 9fc0 4dc1 46bf 33ed 36c1 bf22 00c0
00000290: 15ac 60be 210c 3cc0 8cdb 4fc0 f28c 1ec0
000002a0: d150 a1bf bb0b 8dc1 b022 84c0 519e 04c0
000002b0: f844 20bf b46a d33e 3f52 a9be 607f e3c0
000002c0: caa9 b4bd 0f9f ccbd 6f33 1dc1 8237 86be
000002d0: 223f 90bf 4791 97be cc47 86be 396d 91bf
000002e0: 8538 6fbe b615 81bf e8d8 a93d 3844 ddbf
000002f0: 417d 28bf 5159 94c0 0d81 583c 1b50 bbbf
00000300: 400a 13c0 554c 94bf 8fee 0ac1 ecb4 2ec0
00000310: 6ad7 16bf 9676 2dbf 4dc0 c2be c827 5bbf
00000320: de60 91be e1f2 a9be 607c fd3e a59a 41bf
00000330: 6b76 d4bf 3ff2 8ac0 81ac 8bc0 13e1 24bf
00000340: 9e1f a7bd 4506 30bf bb27 84c0 7f26 19be
00000350: 89ff a8bf a966 27c0 52ec 18bf a009 95bf
00000360: 0424 3bbd b0d2 983e e488 7cbe 012d a9be
00000370: 032c 1c3f 9be8 8dbf cd6e 13c0 b271 6abf
00000380: df3a 4e3e 4bac e0bf 723d cac0 a1da e0bf
00000390: c8ef f6bf 1f0d 22c0 36f8 2bbf 5453 c5bf
000003a0: a068 04c0 b7e3 afbd c16b 3dbf f485 8cbf
000003b0: b157 2cbf d469 b0bf b4f2 e4be 7c69 14c0
000003c0: 2ccd 09c0 d20a 4ebf 9ad4 4cc0 9721 6ebf
000003d0: a98c 773e a53e 8ebf bcba 233e a1af 18be
000003e0: e141 64be 420f 1bc1 37f3 48be 10a0 9fbf
000003f0: 188b 27c0 1414 68be 7f7f 5bc0 06a0 5bbd

hidden_layers.1.weight f4 [256, 256]
0.17361668 0.6143412 -0.060600508 0.7866432 -0.08320781 -0.22209054 0.95757025 -0.16631503
-0.48134482 -0.15435451 -0.11106581 0.17183158 0.2094333 0.11632079 0.06641107 0.27538094
0.6991281 0.62685543 0.34753665 0.036414713 0.7695595 -0.15222593 0.1760814 -0.3549778
-0.1854726 -0.053181905 0.7305199 -0.4574881 0.04232062 -0.7768295 0.3555195 0.47857168
-0.673184 0.12774353 0.07653633 -0.050146576 -0.062395617 0.28588736 0.15679912 0.31708297
0.36235365 0.0036049015 -0.095865384 0.031727847 0.17329873 0.48382267 -0.17668147 0.21706061
-0.37787735 0.043922924 -0.026542682 -0.091771394 -0.008642152 0.00019751405 -0.07045201 0.35571796
-0.093600325 -0.050972734 -0.0047671744 0.050309796 -0.11745555 -0.18834399 -0.089363135 0.05285765
-0.15362857 -0.1542247 -0.049632527 0.4282323 -0.2549127 0.11697817 0.46304765 -0.003436635
-0.16874844 -0.035192635 -0.37399417 -0.07927755 -0.036910523 -0.17436253 0.3872573 -0.39122275
-0.13271034 0.2599561 -0.20754834 0.5631655 -0.11393788 0.055431016 -0.1375763 -0.017381517
-0.030886108 -0.09064094 0.10863065 -0.0579301 0.18182553 0.0038565279 0.025861483 -0.2452949
0.15853272 -0.12834676 -0.28296313 -0.046416428 -0.427424 -0.09437916 0.025023839 -0.05705589
-0.1370846 -0.10846199 -0.14489827 0.6824242 0.14591931 -0.021822877 -0.06766188 0.031525377
-0.10269603 -0.20101547 0.08459895 -0.17213848 -0.12893124 -0.06676224 0.06815274 -0.098164015
-0.34208405 -0.2741257 0.009540791 -0.06774357 -0.16704862 0.16648607 -0.027177999 0.12583077
0.20543239 -0.302913 0.08904414 0.13284323 -0.8956923 -0.44676113 -0.07124684 -0.18993154
0.061330173 0.10345732 0.10387564 0.036925234 -0.015732503 0.18190162 0.0018703204 -0.042516336
-0.21689774 0.81055063 0.87262446 -0.107437775 -0.33484873 -0.009960247 0.22380301 1.1374613
-0.0583937 -0.0393799 -0.1775307 -0.10727411 0.11255296 -0.14413323 0.30462763 -0.14067437
-0.117282756 -0.07104486 -0.019408366 -0.11529142 -0.019800043 0.72257227 -0.22208314 0.10927676
0.4573914 -0.18545973 -0.06316972 0.17778717 0.024029357 -0.5444666 -0.16208224 -0.18139608
1.1329006 -0.1057872 0.5968796 0.9631174 0.073365 -0.056762274 1.1269728 -0.024542334
0.11098302 0.03953897 0.16583179 0.12939937 -0.042248685 -0.21932194 -0.075716354 -0.09684883
-0.81631255 -0.093994536 0.23051533 -0.18558814 0.30745566 -0.24913406 0.10946672 0.16735329
1.6345105 -0.0026038887 -0.26597166 0.5970001 0.28752577 0.012207457 0.66969204 0.582914
0.14647605 -0.1585721 -0.4076061 0.3518529 0.03266055 0.089036845 -0.3726634 -0.04449549
-0.024137449 -0.029125236 -0.2903782 0.7371694 -0.01718476 -0.0048462283 -0.1844598 0.58053917
0.30150437 0.07911223 -0.008458402 0.024877526 -0.9546006 0.00086450175 0.011646805 -0.08363402
-0.08397742 -0.17543058 -0.31260794 -0.25043666 -0.072393596 0.0009602012 0.097255826 -0.4697535
-0.10947644 0.4806668 -0.004240587 -0.26770276 -0.30210948 -0.6888844 -0.11024367 0.009155592
0.1994899 -0.14718926 -0.05649225 -0.3315885 -0.0692831 0.30365038 -0.23357627 -0.053275548
00000000: 92c8 313e 7745 1d3f 3d38 78bd 7361 493f
00000010: db68 aabd b46b 63be 5323 753f 7d4e 2abe
00000020: d472 f6be 1c0f 1ebe 7976 e3bd 9ef4 2f3e
00000030: af75 563e 9839 ee3d 8702 883d bbfe 8c3e
00000040: 0ffa 323f 9979 203f 53f0 b13e 9827 153d
00000050: da01 453f 1de1 1bbe af4e 343e a6bf b5be
00000060: 87ec 3dbe 45d5 59bd 5a03 3b3f e13b eabe
00000070: 6358 2d3d 4cde 46bf a706 b63e 5907 f53e
00000080: c955 2cbf 33cf 023e 14bf 9c3d 7f66 4dbd
00000090: 8c92 7fbd d45f 923e f38f 203e b358 a23e
000000a0: 6b86 b93e 3640 6c3b 1255 c4bd 0ff5 013d
000000b0: 3975 313e 9bb7 f73e fdeb 34be 2345 5e3e
000000c0: 2479 c1be 86e8 333d 0a70 d9bc a4f2 bbbd
000000d0: d097 0dbc c61b 4f39 2549 90bd aa20 b63e
000000e0: 87b1 bfbd c9c8 50bd f535 9cbb a511 4e3d
000000f0: 898c f0bd 3fdd 40be 0504 b7bd 4381 583d
00000100: cf50 1dbe 14ed 1dbe 7a4b 4bbd 4441 db3e
00000110: eb83 82be 4092 ef3d 9514 ed3e 2b39 61bb
00000120: 64cc 2cbe 2726 10bd 2a7c bfbe 455c a2bd
00000130: 7d2f 17bd 178c 32be 9746 c63e 594e c8be
00000140: 38e5 07be f718 853e 8d87 54be 9d2b 103f
00000150: 4358 e9bd a20b 633d cde0 0cbe af63 8ebc
00000160: dd04 fdbc f5a1 b9bd bf79 de3d 1d48 6dbd
00000170: 7930 3a3e cdbd 7c3b 76db d33c 962e 7bbe
00000180: 6756 223e 556d 03be 8be0 90be 271f 3ebd
00000190: 52d7 dabe dc49 c1bd cbfe cc3c 70b3 69bd
000001a0: e85f 0cbe 5221 debd 3660 14be 5ab3 2e3f
000001b0: df6b 153e e4c5 b2bc 5092 8abd c120 013d
000001c0: 4c52 d2bd 00d7 4dbe 3742 ad3d 1245 30be
000001d0: 8d06 04be a4ba 88bd aa93 8b3d 370a c9bd
000001e0: a425 afbe 345a 8cbe fa50 1c3c 24bd 8abd
000001f0: cb0e 2bbe 537b 2a3e 65a4 debc c8d9 003e
00000200: de5c 523e 6a17 9bbe c65c b63d 0e08 083e
00000210: 174c 65bf e0bd e4be dde9 91bd 6a7d 42be
00000220: 5935 7b3d 6ee1 d33d c0bc d43d ea3e 173d
00000230: 73e1 80bc 6b44 3a3e 8a25 f53a 9c25 2ebd
00000240: 711a 5ebe 3f80 4f3f 5164 5f3f 5608 dcbd
00000250: 4b71 abbe 4e30 23bc 9e2c 653e 5598 913f
00000260: 3b2e 6fbd d14c 21bd 9cca 35be 87b2 dbbd
00000270: 2b82 e63d a997 13be 27f8 9b3e f10c 10be
00000280: f131 f0bd f87f 91bd 4bfe 9ebc e81d ecbd
00000290: b333 a2bc 7ffa 383f c369 63be 7ecc df3d
000002a0: 352f ea3e 28e9 3dbe 205f 81bd d70d 363e
000002b0: 37d9 c43c 2a62 0bbf e3f8 25be e5bf 39be
000002c0: e302 913f f6a6 d8bd 1acd 183f dd8e 763f
000002d0: 6440 963d 8f7f 68bd a540 903f 010d c9bc
000002e0: 114b e33d 9df3 213d cfcf 293e 4581 043e
000002f0: f50c 2dbd ee95 60be 2d11 9bbd ae58 c6bd
00000300: dcf9 50bf 3580 c0bd 360c 6c3e d10a 3ebe
00000310: d46a 9d3e 001d 7fbe 1630 e03d a95e 2b3e
00000320: a437 d13f 01a6 2abb 702d 88be 00d5 183f
00000330: 9436 933e c901 483c f070 2b3f da39 153f
00000340: d1fd 153e b960 22be bfb1 d0be 1026 b43e
00000350: 12c7 053d f358 b63d bdcd bebe e740 36bd
00000360: e6bb c5bc 0c98 eebc 74ac 94be 22b7 3c3f
00000370: 0ec7 8cbc 1ccd 9ebb 08e3 3cbe 379e 143f
00000380: c85e 9a3e 9805 a23d 1c95 0abc f4cb cb3c
00000390: b460 74bf bb9f 623a 3ed2 3e3c 5048 abbd
000003a0: 5bfc abbd 13a4 33be 260e a0be 3c39 80be
000003b0: 1843 94bd 03b6 7b3a 102e c73d 8883 f0be
000003c0: 2f35 e0bd f519 f63e 9ff4 8abb 5610 89be
000003d0: 18ae 9abe ba5a 30bf 6fc7 e1bd 5601 163c
000003e0: 1547 4c3e c8b8 16be 6b64 67bd f8c5 a9be
000003f0: 4ce4 8dbd 1078 9b3e 9e2e 6fbe 7637 5abd

hidden_layers.1.bias f4 [256]
0.118315384 -2.4172292 -0.02304253 0.23294605 -2.301336 -1.5774112 -0.9875594 -1.3097384
-0.050311774 -2.7214665 -1.4062694 0.2066213 -3.5059261 0.9041717 -0.9382997 -0.078336634
-0.08693047 0.049724784 -0.77597123 -0.07091472 -2.4039295 -0.26880115 0.05140329 -0.0875404
0.57358474 -0.23688574 -1.4426457 0.43815687 0.44747648 -0.18559702 -1.6829382 -0.6123161
-3.919218 -0.08280338 -0.78107864 -0.893155 0.23578332 -0.37118256 -0.35097167 -0.29713655
0.16027857 -0.32529777 -0.5716957 -4.3696012 0.5852633 -2.1944165 0.20064257 0.230292
0.11127321 -0.30794674 -0.56073505 0.6170749 -0.6947162 -1.1560599 -0.4195665 -0.09813075
0.2668044 -0.5305417 -0.8754643 -0.7437221 -0.5867381 -0.49264038 -0.43111467 -0.44016287
0.56749177 0.25311902 -0.04243739 -3.6095405 0.16255839 -1.0724994 1.0984263 -0.11693124
-0.043816175 -0.0003125189 -2.5212705 -1.5146295 -1.1751937 0.814354 0.8148763 -0.0628453
-0.18784763 -0.29314563 -0.60230905 -0.3535379 -0.29314384 -0.024067946 0.70147824 -0.9830201
0.08282401 0.14203438 -0.48658767 -0.1170028 0.27708873 -0.29545432 -0.31943765 -0.2890951
0.2392141 0.3714455 0.5212196 -0.07238237 -0.6390939 0.18193132 -1.0862304 -1.2960544
-1.2236245 0.046436574 -0.03029086 -1.3889469 -1.5523953 -1.3004519 0.08126619 -0.31962937
-1.4288385 0.07388282 -1.3494192 0.21685766 -0.09612693 0.028643388 -0.4669211 -0.5985735
-1.3669292 0.15295412 -0.05603512 0.01663405 0.35222837 0.13243517 -0.091040716 -0.8433918
0.2697167 -4.2399774 -0.47924757 0.32884774 0.5660323 0.46757865 0.05430669 -0.47454572
-0.5119498 0.09831237 0.60530794 0.40316305 -0.27644175 0.64356726 0.8429735 -2.790722
-0.8654879 0.14561653 -0.08213579 -0.34199542 -0.02302768 -0.58383787 0.11248721 0.3028601
-2.2812142 -2.0992355 0.1461582 0.3206093 -0.47879195 -0.46573243 -1.5073067 -1.1231009
-0.66126686 0.34148476 -0.14645843 -2.711428 -1.2786756 -1.5213888 -1.5454326 -0.7720239
-0.073475555 -2.663445 -1.8665297 -0.08871333 -0.14900197 0.33385113 0.38340616 -1.1441866
-1.1897471 -0.56260264 -0.6916119 -0.21961325 -1.5688322 0.3707833 0.2167051 -0.22091018
0.7137487 0.80765224 -1.6547956 -0.6154449 -0.27520284 0.50438017 -0.44710162 -1.3032106
-0.4020596 -0.19070344 0.5042605 -1.7384039 0.14097902 -0.4494118 -1.3967385 0.19564539
-3.7389903 0.38674 -1.5648105 -0.8303828 0.17908241 0.21954215 -1.7653446 -1.7959394
-0.15102266 -0.9460139 -0.1590668 -0.62909806 0.42729998 -1.4639755 0.41629207 -0.05040555
-1.5386455 -0.38585216 -0.1493334 0.07234703 -0.6972271 -0.021811362 0.19937144 -2.7715304
-0.18783759 -0.5203886 0.11317772 0.7162826 0.15683979 -0.8320056 0.03705803 -0.37074146
-1.1268086 -0.5032694 -0.3264104 0.6741359 -0.3031535 0.0066974005 -0.25075 -1.321368
-0.60891736 0.9048203 -0.98742706 -0.1728045 -0.03762368 0.2132174 -1.2209127 -3.2712646
-1.0295293 0.51348186 0.6007506 -0.9976462 -0.22986011 -1.2710006 -1.8680823 -0.23273098
00000000: 564f f23d e2b3 1ac0 b0c3 bcbc 6989 6e3e
00000010: 1749 13c0 9ce8 c9bf b1d0 7cbf 82a5 a7bf
00000020: b813 4ebd 822c 2ec0 a300 b4bf 8994 533e
00000030: 1861 60c0 cc77 673f 6934 70bf f56e a0bd
00000040: 9a08 b2bd 37ac 4b3d 0da6 46bf bd3b 91bd
00000050: fbd9 19c0 4ea0 89be 428c 523d 6248 b3bd
00000060: 73d6 123f 2d92 72be 9da8 b8bf 1956 e03e
00000070: a31b e53e 250d 3ebe 856a d7bf bfc0 1cbf
00000080: 78d4 7ac0 d294 a9bd c5f4 47bf cea5 64bf
00000090: 2f71 713e a40b bebe 8fb2 b3be 4822 98be
000000a0: 1120 243e 6e8d a6be a65a 12bf c6d3 8bc0
000000b0: d1d3 153f 5271 0cc0 3f75 4d3e abd1 6b3e
000000c0: 35e3 e33d 32ab 9dbe 558c 0fbf 9ff8 1d3f
000000d0: ecd8 31bf c5f9 93bf 6cd1 d6be c6f8 c8bd
000000e0: 969a 883e 95d1 07bf 6e1e 60bf 9264 3ebf
000000f0: 7834 16bf 5c3b fcbe 10bb dcbe 075d e1be
00000100: 2447 113f d198 813e d4d2 2dbd b602 67c0
00000110: b575 263e a947 89bf 3c99 8c3f a579 efbd
00000120: 9778 33bd 94d9 a3b9 7f5c 21c0 61df c1bf
00000130: bf6c 96bf 8179 503f bc9b 503f 09b5 80bd
00000140: 215b 40be 2f17 96be ed30 1abf eb02 b5be
00000150: f316 96be 242a c5bc 1494 333f 35a7 7bbf
00000160: a29f a93d 7671 113e 0522 f9be 2a9f efbd
00000170: 93de 8d3e ca45 97be 558d a3be 4604 94be
00000180: 8bf4 743e 1b2e be3e a66e 053f 353d 94bd
00000190: a89b 23bf 344c 3a3e 9909 8bbf 1ce5 a5bf
000001a0: ba9f 9cbf 4734 3e3d 8a24 f8bc 03c9 b1bf
000001b0: e4b4 c6bf 3575 a6bf e36e a63d 76a6 a3be
000001c0: 2ee4 b6bf e04f 973d c5b9 acbf ef0f 5e3e
000001d0: 32de c4bd 8aa5 ea3c 4810 efbe 1d3c 19bf
000001e0: 89f7 aebf 01a0 1c3e 1585 65bd 2244 883c
000001f0: 4757 b43e 169d 073e 8e73 babd 86e8 57bf
00000200: 4f18 8a3e e5ad 87c0 f05f f5be bb5e a83e
00000210: 7ee7 103f 7866 ef3e b170 5e3d a8f7 f2be
00000220: 240f 03bf ff57 c93d 76f5 1a3f 636b ce3e
00000230: c689 8dbe d3c0 243f 1ccd 573f 309b 32c0
00000240: 9d90 5dbf 801c 153e cf36 a8bd 061a afbe
00000250: 8ca4 bcbc 6676 15bf b25f e63d 7b10 9b3e
00000260: 6aff 11c0 e059 06c0 7faa 153e e726 a43e
00000270: 3824 f5be 7b74 eebe 6def c0bf c5c1 8fbf
00000280: c948 29bf 17d7 ae3e 33f9 15be 0988 2dc0
00000290: a4ab a3bf debc c2bf bcd0 c5bf 5ca3 45bf
000002a0: 5a7a 96bd e275 2ac0 72ea eebf 56af b5bd
000002b0: f993 18be 89ee aa3e d04d c43e b574 92bf
000002c0: a249 98bf ba06 10bf 7a0d 31bf 4ce2 60be
000002d0: 7ecf c8bf 4fd7 bd3e f1e7 5d3e 4736 62be
000002e0: 3cb8 363f 4cc2 4e3f 58d0 d3bf cc8d 1dbf
000002f0: 63e7 8cbe 0f1f 013f 81ea e4be 9bcf a6bf
00000300: c2da cdbe c347 43be 3717 013f 0584 debf
00000310: ce5c 103e 4e19 e6be 54c8 b2bf 4457 483e
00000320: 9e4b 6fc0 c902 c63e b64b c8bf f893 54bf
00000330: 6161 373e a8cf 603e d0f6 e1bf 58e1 e5bf
00000340: afa5 1abe f82d 72bf 68e2 22be 920c 21bf
00000350: 10c7 da3e 8d63 bbbf 3c24 d53e 0d76 4ebd
00000360: 56f2 c4bf 6a8e c5be dbea 18be ae2a 943d
00000370: 7a7d 32bf bead b2bc 0728 4c3e c160 31c0
00000380: 7f58 40be 3038 05bf b8c9 e73d 4c5e 373f
00000390: 9c9a 203e 52fe 54bf 29ca 173d d3d1 bdbe
000003a0: 443b 90bf 43d6 00bf 441f a7be 2c94 2c3f
000003b0: f036 9bbe de75 db3b 4e62 80be 9622 a9bf
000003c0: 02e2 1bbf 4ea2 673f 05c8 7cbf aaf3 30be
000003d0: 4a1b 1abd a955 5a3e de46 9cbf 665c 51c0
000003e0: 9ec7 83bf 8c73 033f cbca 193f be65 7fbf
000003f0: 7360 6bbe 26b0 a2bf 521d efbf 0851 6ebe

output_layers.0.weight f4 [40, 256]
2.1202192 4.1884503 -0.4511252 4.0276513 0.37703902 -8.028826 2.7209132 1.758906
2.71417 0.5878673 1.1415211 2.7208707 2.2591364 3.089355 8.332439 2.3923616
10.213103 2.585987 1.0787352 8.375605 12.494286 8.767738 2.7440028 0.1893731
2.5588648 0.66098744 -4.530666 0.079741776 0.08099677 2.8695812 -1.9343137 3.3603141
1.702199 13.571414 2.5977173 2.5075111 2.1243355 3.0090983 2.7936149 2.4391642
2.1228726 5.7159123 3.26215 4.7332897 1.9033846 -6.29447 2.5700226 2.1670837
1.4504021 5.4579663 0.8594976 4.335631 0.95200384 3.8406014 4.0017176 4.253897
4.6987724 0.6374501 10.61683 3.709743 3.539527 2.4147313 3.6512349 3.7576063
2.8430262 3.1097589 8.587657 4.9758773 -0.733088 9.791588 1.7683074 8.306052
5.4774003 2.99859 2.9388719 -8.137209 1.8210742 2.518213 2.7468379 2.9164429
1.4082116 1.4308627 3.0802467 1.4551077 2.7773428 4.4903 1.6954074 1.3519356
2.7380507 4.4996943 3.3121052 12.271433 3.0873797 0.80197495 4.216765 11.093944
0.82620263 1.2453965 2.2827113 1.6146404 3.1101758 4.080334 9.345277 11.017176
4.160435 4.5225487 2.7502875 -0.77870244 8.226481 1.7100445 -0.46821523 3.3712997
14.608066 1.2421905 1.1189749 3.1640332 1.3873447 2.40817 1.5055918 2.7754576
9.512715 2.578775 2.934703 3.676787 2.9987106 7.3110805 3.1235557 1.2045467
2.9899936 1.5994313 0.41674742 4.6741486 3.458731 2.5971198 2.5699205 1.3837357
4.1116085 3.862853 1.0540788 1.3164668 -0.5519369 6.7501254 3.6869142 2.5966203
2.5598319 6.8084283 15.463308 3.5212855 1.0763998 1.461432 2.9221447 2.414511
0.26935568 -7.160569 2.6401346 5.126536 0.9223329 5.9101133 -0.11447961 0.92635494
2.6279144 -0.7658138 7.552798 0.6984282 8.217608 1.614013 8.425134 3.9282598
7.9263964 3.0404844 1.5175233 3.0905352 3.0467398 2.7513437 4.107123 1.119472
2.7576933 1.437341 15.436315 3.9191446 10.903506 -0.10355366 -0.26026767 1.920148
2.6134284 2.4573338 1.3549641 4.5168357 2.5574305 3.0878336 3.0229325 7.5672884
2.5853474 2.7820032 1.5111036 1.1001583 2.8613806 8.39053 0.0010757769 2.177602
5.6333265 2.2988667 2.2382884 1.1132282 3.813182 3.050409 1.6017512 0.9344126
9.258522 1.4964992 4.1789494 3.7318935 1.9010897 3.4268942 11.353571 3.5715754
-0.033067368 2.8982844 4.3932753 2.5916874 3.1885028 2.3551443 0.069140844 3.3320131
3.6860375 2.570749 3.6420128 1.4974672 3.6898355 4.1763244 3.3873372 3.7130158
0.23177005 5.174378 10.524479 2.2586749 3.011492 6.638031 4.015561 9.213299
2.5903614 1.6747714 0.3935684 3.043331 3.2332897 3.5316317 2.8501387 1.1402333
0.5636994 2.1478179 0.28566018 13.89098 5.0693307 9.032918 8.126771 6.05139
00000000: acb1 0740 c907 8640 e2f9 e6be 85e2 8040
00000010: 420b c13e 1276 00c1 7123 2e40 d523 e13f
00000020: f6b4 2d40 797e 163f 5d1d 923f bf22 2e40
00000030: b195 1040 feb7 4540 ac51 0541 741c 1940
00000040: df68 2341 d080 2540 ff13 8a3f 7a02 0641
00000050: 98e8 4741 a848 0c41 be9d 2f40 06eb 413e
00000060: 71c4 2340 7936 293f 37fb 90c0 a84f a33d
00000070: a2e1 a53d 38a7 3740 9797 f7bf 630f 5740
00000080: a8e1 d93f 8324 5941 0041 2640 107b 2040
00000090: 1df5 0740 1195 4040 96ca 3240 441b 1c40
000000a0: 25dd 0740 c1e8 b640 11c7 5040 1c77 9740
000000b0: 1ba2 f33f 4c6c c9c0 407b 2440 80b1 0a40
000000c0: c7a6 b93f a9a7 ae40 0908 5c3f 7dbd 8a40
000000d0: 86b6 733f 6acc 7540 120e 8040 ed1f 8840
000000e0: 585c 9640 ee2f 233f 89de 2941 6e6c 6d40
000000f0: 9c87 6240 f58a 1a40 d5ad 6940 9f7c 7040
00000100: 24f4 3540 4a06 4740 0b67 0941 633a 9f40
00000110: a8ab 3bbf 58aa 1c41 e657 e23f 97e5 0441
00000120: dd46 af40 e6e8 3f40 7a16 3c40 0232 02c1
00000130: f618 e93f 672a 2140 31cc 2f40 00a7 3a40
00000140: 4740 b43f 8226 b73f c322 4540 f840 ba3f
00000150: fcbf 3140 8ab0 8f40 1c03 d93f 3a0c ad3f
00000160: 393c 2f40 7ffd 8f40 88f9 5340 ca57 4441
00000170: a197 4540 3b4e 4d3f bdef 8640 cb80 3141
00000180: 0482 533f 2769 9f3f f117 1240 89ac ce3f
00000190: 1f0d 4740 1992 8240 4186 1541 5a46 3041
000001a0: 4922 8540 b8b8 9040 b604 3040 0b59 47bf
000001b0: ab9f 0341 bde2 da3f e8b9 efbe 60c3 5740
000001c0: a3ba 6941 1900 9f3f 923a 8f3f 857f 4a40
000001d0: 8394 b13f 751f 1a40 3bb7 c03f 19a1 3140
000001e0: 1534 1841 a60a 2540 2dd2 3b40 7a50 6b40
000001f0: e0ea 3f40 5ff4 e940 56e8 4740 962e 9a3f
00000200: 0e5c 3f40 2aba cc3f eb5f d53e a092 9540
00000210: d95b 5d40 3637 2640 9479 2440 401e b13f
00000220: 4c92 8340 fc38 7740 0eec 863f fc81 a83f
00000230: bd4b 0dbf 0701 d840 67f6 6b40 072f 2640
00000240: 49d4 2340 a5de d940 b669 7741 be5c 6140
00000250: 78c7 893f 3410 bb3f 6b04 3b40 5987 1a40
00000260: fde8 893e 6223 e5c0 f7f7 2840 950c a440
00000270: 021e 6c3f a61f bd40 4974 eabd 9925 6d3f
00000280: c02f 2840 600c 44bf 85b0 f140 31cc 323f
00000290: 537b 0341 fa97 ce3f 59cd 0641 9c68 7b40
000002a0: 0aa5 fd40 4c97 4240 343e c23f 54cb 4540
000002b0: c9fd 4240 0416 3040 8d6d 8340 dc4a 8f3f
000002c0: 0c7e 3040 cafa b73f 25fb 7641 44d3 7a40
000002d0: c374 2e41 f113 d4bd ce41 85be 69c7 f53f
000002e0: 6942 2740 f544 1d40 776f ad3f eb89 9040
000002f0: f1ac 2340 119f 4540 ba77 4140 3a27 f240
00000300: 5576 2540 570c 3240 d86b c13f fdd1 8c3f
00000310: dc20 3740 9c3f 0641 1501 8d3a d55d 0b40
00000320: 3644 b440 a220 1340 1e40 0f40 437e 8e3f
00000330: 2d0b 7440 e739 4340 2f06 cd3f aa35 6f3f
00000340: e822 1441 498d bf3f f4b9 8540 58d7 6e40
00000350: e856 f33f 3c52 5b40 3aa8 3541 b194 6440
00000360: a671 07bd 7e7d 3940 b695 8c40 35de 2540
00000370: 6e10 4c40 afba 1640 b799 8d3d b43f 5540
00000380: 0ae8 6b40 2787 2440 bd16 6940 01ad bf3f
00000390: 4426 6c40 73a4 8540 22ca 5840 0da2 6d40
000003a0: 2155 6d3e 8194 a540 4464 2841 218e 1040
000003b0: 49bc 4040 c06a d440 7a7f 8040 ac69 1341
000003c0: 7bc8 2540 e95e d63f cc81 c93e efc5 4240
000003d0: 38ee 4e40 4106 6240 ac68 3640 2af3 913f
000003e0: 9b4e 103f d975 0940 0d42 923e 7441 5e41
000003f0: f537 a240 d586 1041 4107 0241 fda4 c140

output_layers.0.bias f4 [40]
14.719748 40.578556 -9.778084 14.257149 39.317978 38.60777 38.471424 -8.617325
29.649311 39.93038 31.201609 14.730975 38.9697 38.51587 38.206936 38.63006
39.22366 39.427612 38.582813 38.594696 39.649002 39.216587 38.780407 39.410374
38.90687 39.069305 38.11454 38.99267 38.36366 -8.160028 25.55878 40.10136
39.38801 -9.4915 38.082355 38.74706 -10.545912 14.228135 15.137169 40.74215
00000000: 1684 6b41 7150 2242 0873 1cc1 481d 6441
00000010: 9c45 1d42 5b6e 1a42 bde2 1942 90e0 09c1
00000020: ca31 ed41 b6b8 1f42 e59c f941 13b2 6b41
00000030: f9e0 1b42 4010 1a42 e7d3 1842 2e85 1a42
00000040: 07e5 1c42 e0b5 1d42 cd54 1a42 f860 1a42
00000050: 9498 1e42 c9dd 1c42 231f 1b42 39a4 1d42
00000060: a3a0 1b42 f846 1c42 4a75 1842 7ef8 1b42
00000070: 6374 1942 7a8f 02c1 6278 cc41 cb67 2042
00000080: 528d 1d42 2fdd 17c1 5554 1842 fdfc 1a42
00000090: 0ebc 28c1 71a6 6341 d831 7241 f6f7 2242
